Retweet/RetweetNetsV9/TrainNet_ep14V2.pt (torch, 23477 bytes, 6 tensors)

scale f8 [3]
00000000: 255a 0f2d 855a de3f c897 620b ddbd df3f
00000010: 2eef 9886 595e d93f
0.4742749156988871 0.49596334564045863 0.39638364929463676

weight f8 [112, 3]
00000000: 5269 374c 442c d43f ad1f ddb4 9b2f 923f
00000010: 2a28 0fe0 a4da cabf a1ff 1bc1 2b99 dcbf
00000020: 425e 91b5 08c5 cdbf 580d ef50 2598 babf
00000030: 54c0 0c19 8136 cf3f 7c86 2667 ebfc bdbf
00000040: 0266 d7f5 883a bdbf 470c 1827 fac8 e8bf
00000050: dd6d a32d 794a e8bf 791f 08db 6135 debf
00000060: 6f0e 4f2e e7b9 cb3f 83c7 b895 ac38 d8bf
00000070: fb87 33b5 9183 d1bf c276 2c16 b525 e6bf
00000080: 6d0d 961d 4814 e6bf a270 4ec4 7874 d7bf
00000090: b4d0 8e0c 6e71 aebf 65d3 b1ef f6b2 b3bf
000000a0: b11b 1323 c538 bc3f 9e77 2586 2968 dabf
000000b0: 10e8 952d c944 c1bf e3f8 a4de b48c b0bf
000000c0: 21ad 8169 886c e2bf d4b2 a587 45aa e1bf
000000d0: ef2e 6604 8b82 d6bf f391 daec d98a d63f
000000e0: e031 69ad c6b8 dd3f a6d3 47fe 0c60 b0bf
000000f0: b686 2e1e b3bd d4bf 8717 82cb fbd7 cabf
00000100: 8093 de52 809c 9a3f ae33 00c3 7583 e1bf
00000110: e97f df7d d3c2 e2bf 11f4 c6bf 8743 cfbf
00000120: f788 24b4 38ec 863f 79b3 7d8d 51b0 c2bf
00000130: a09b d4a2 41ea c63f 696d 6e4a 867b cabf
00000140: ac8a 27e4 8176 dbbf 83b8 b1a5 0583 ddbf
00000150: 9133 7ca9 1aec f2bf 68bf 395f ed70 ee3f
00000160: abfd 9c57 527b d4bf 44eb 22a2 c077 e3bf
00000170: d5af 8d27 22a8 e7bf 6fde cf97 4431 d9bf
00000180: fdc7 0aca eefd d23f 86ac d006 adfd d5bf
00000190: eace f39e 9898 dbbf f16f 7c23 cde5 d1bf
000001a0: d550 65b5 7a5b cabf af03 dd70 fc1e e9bf
000001b0: d2a9 727d 6590 cf3f 45b7 e935 1e58 dbbf
000001c0: 9fa7 d1f0 66e8 d1bf 4c34 8772 9339 933f
000001d0: dd81 df80 6586 923f 563d 5a7d 69b3 d4bf
000001e0: 60dd 15f4 81c2 dd3f 2b9b d856 1394 e5bf
000001f0: 6a65 965b 2a1e e6bf 482a fb7f b770 b13f
00000200: add5 b4c9 f90c c2bf 8e8b 3d86 574f e6bf
00000210: 087a 8537 1478 76bf 86ac 2bb8 bbfd e3bf
00000220: 14b5 d838 22cc d3bf 6a7f 16c8 e556 d8bf
00000230: 3f53 dd5f 8275 783f 7df8 2786 f64a d9bf
00000240: 81d3 1e89 3567 c33f ba63 ba2c 2816 8b3f
00000250: eb07 b291 21d8 ddbf 96fa fda9 9fa4 c03f
00000260: 2a72 a083 9f0e bbbf aa86 4ef2 1ac5 dcbf
00000270: d883 7d51 eaf7 ccbf 66b6 5549 e6d7 debf
00000280: 6531 fa06 5ceb e3bf 19f1 5016 4341 d43f
00000290: 305f 779f b023 e4bf 0e37 de54 8a62 ebbf
000002a0: f66b ed25 2f22 743f 0d5b 120a c7cb eabf
000002b0: 3f93 ece2 d0b2 c6bf 424d c375 e7cf c33f
000002c0: 579d 6e0c 67ad c5bf 36f8 cfbf e886 ddbf
000002d0: 12fd 27e4 6a7b f2bf e48b 3399 cbf3 e53f
000002e0: 7b19 1511 2e39 d8bf d9d6 e729 76e2 d33f
000002f0: 482a 1ff3 d641 d7bf 1e22 4cfa d69b e5bf
00000300: 7f48 a4c7 d671 c03f 2b04 5fc6 d31a 913f
00000310: 6117 b88e ceb6 dc3f 270f dd82 9ee2 673f
00000320: bdbe 6ffd 2ebe c03f f163 f2c0 8073 df3f
00000330: 58f1 9e55 ef40 c93f 589a 208f 1c7d a7bf
00000340: 2493 63af 7999 dc3f ec92 3fc3 53ce a93f
00000350: b597 3c81 57d8 b53f 6117 5dc7 8fd1 db3f
00000360: 9c36 1d5a b08f c83f 2aae 50ea cfca 6a3f
00000370: 155f 5018 a318 dc3f 9c02 abbd 81ea 903f
00000380: 8f15 7efb d8f4 aa3f 6995 5f9f 87e0 db3f
00000390: 0672 258c de3b b03f e9c7 6a80 0cc0 b53f
000003a0: 7fee 826d 4cb1 e03f 9c42 f257 454d 45bf
000003b0: 55b2 1697 9643 bd3f 0e1b f732 6d01 e03f
000003c0: d603 9ea5 b8c5 b23f 67a5 520e 0ee6 bc3f
000003d0: 0516 b5a2 57dd de3f 3671 e6f2 0ad8 b43f
000003e0: ec34 f448 b8ff c33f 51b9 7374 7c89 de3f
000003f0: b8ad 3903 d4c0 9a3f 4758 8a6c 860d b23f
00000400: ce07 dfb6 144e df3f 2a0e c1a3 ab61 b33f
00000410: 9990 cdd4 5dc8 953f 1a93 7e82 c16d dd3f
00000420: caa9 806f c5b6 a33f fb0a 3604 eb7f 8f3f
00000430: 54a4 0104 d2d8 e03f 4f31 e306 facb b73f
00000440: 8244 e193 98c7 b83f 2937 7db5 1ec0 db3f
00000450: 8f78 9883 a065 aebf f041 5490 030a d23f
00000460: b8a4 d02b 7e63 e03f 2ae8 67e3 316e b03f
00000470: c53b 341e 2767 ae3f cf11 d3d0 e195 db3f
00000480: 6f25 e9a3 fa34 bf3f b26d a334 9123 acbf
00000490: bee1 85cd 7d66 cabf faa5 8886 d732 6bbf
000004a0: 061f 0038 2e44 af3f 9337 44ee 19be babf
000004b0: 8fca 82d5 d8bf c83f 0cff 32b3 6700 c4bf
000004c0: 7491 b5e4 9fe9 c4bf 4cf3 2fe3 e107 a03f
000004d0: b001 369e aa7f ac3f 696c cee3 ad8f 94bf
000004e0: f005 03c7 3497 c83f 07c6 68c8 900b c0bf
000004f0: 650d ffb6 96a1 cabf 8505 d9a0 fde7 883f
00000500: 9cc5 1d00 62aa b43f de8d e9bd 74a1 bfbf
00000510: f8d9 7688 b7ab a53f 4b40 28e3 33fe 9f3f
00000520: d839 e3c0 fd00 a63f 218c 6c53 d3df 92bf
00000530: 676e f039 5203 c23f ba69 b7bd 4d48 be3f
00000540: c1a7 fbd9 b371 ad3f d4b3 17a1 26b0 b73f
00000550: 4802 0771 abef 913f a765 1d0e a171 8dbf
00000560: 5285 3d6d 2fc9 aa3f e200 ce92 2434 d1bf
00000570: f95d f7c3 4c45 823f 1b28 5bb0 960e 973f
00000580: 4d6e 4a70 18ea b9bf b228 1967 31ec ab3f
00000590: 13d5 e50d eff7 66bf bf0e bd33 e72f c3bf
000005a0: cff5 58a8 bd6d 8f3f 7bf5 9f09 94d1 a8bf
000005b0: a93f 6fbe d517 cd3f e6a1 2055 ec53 b63f
000005c0: 961d b74c 7e1d a83f 98bb 431a fab0 b9bf
000005d0: 4e9e c88a 6d10 c3bf b380 0472 ec52 d33f
000005e0: 23e0 6db2 fb98 a9bf 99ea df2c ef8d b13f
000005f0: c26d b80f 278b a33f f07f d38a 990a c7bf
00000600: a812 0859 4d6a bd3f 70dd 4ea7 14ae b43f
00000610: df53 527b 326c da3f 5763 345e 8d35 963f
00000620: 7a4b 8fd7 b369 bd3f 0a25 299e 3834 e03f
00000630: 0ea9 3601 c40b c83f b52b 8fd0 c467 a4bf
00000640: 89a6 7943 c520 db3f 4b31 a989 5795 ae3f
00000650: 1f1d 20ba 18d4 bc3f 7f70 bff5 ecdd db3f
00000660: 0f7e 8d67 0b75 ce3f 4b2d 9a72 fbc0 b4bf
00000670: 7926 2aa0 df66 dc3f 2eb6 4582 321e 943f
00000680: 66ad b678 f328 ba3f fa68 37eb cb23 dd3f
00000690: d578 dc7d e674 af3f c0ce 11a2 3b76 b63f
000006a0: cf6a 0bc3 daa8 e03f 7e77 7a46 a1aa 8cbf
000006b0: c164 cb6d c268 c23f 6ccb 546e 2207 e03f
000006c0: 58dd 8145 d468 b03f 7347 6659 ccda c13f
000006d0: 2942 a5c4 0fae de3f 3a25 92ca 268f b13f
000006e0: 627a fbba e76e c73f 5690 2062 1521 de3f
000006f0: 6555 213b 98cf 9f3f 60ad 4d5c 3c54 b43f
00000700: 844f 28c1 47f4 df3f b122 71fd 620d b03f
00000710: 2abc 6ea9 f94b 62bf cc62 b5ed 17e1 dc3f
00000720: 885d 4aab db27 a53f aa0e d116 a11c a83f
00000730: 09b9 b7f2 b28b e13f 3891 7509 02bc b63f
00000740: 87ce 292b fe42 b63f cf77 8aff 8126 db3f
00000750: 0795 41da b7f1 d6bf ef44 13af 8b38 de3f
00000760: 9b30 92be a363 dd3f a55e 6ff0 3502 b43f
00000770: 3bfe 90c5 889d a83f e89e d448 be83 db3f
00000780: f7b5 253c 2d07 d13f 8ee7 509f c6cc c33f
00000790: 9057 d245 dd8c cf3f ab32 ec03 ecb6 c43f
000007a0: 920e 2227 6c4c cd3f 6ea7 1fcc 2aef d43f
000007b0: 63dc 3fb6 38af d63f 9773 c941 a7d5 b03f
000007c0: 4301 78e9 7915 d13f 72fc be02 b294 c83f
000007d0: dedd aade 8c22 cb3f 2476 9fca 667d d13f
000007e0: 229b 047d 458b d93f 38b1 9a89 0a14 b23f
000007f0: a6ad 65d4 4a20 d33f 7694 13b3 efaa d03f
0.3152018303204801 0.017759735979126102 -0.2097974866904349 -0.4468488107522664 -0.23257550111405761 -0.10388406015322482 0.24385083888182868 -0.1171404959518671
-0.11417442323672591 -0.7745333446076835 -0.7590909854292779 -0.4720081938726178 0.21661081086323317 -0.3784591161848924 -0.27365534491957505 -0.6921029503898455
-0.6899757936338752 -0.36648387117907977 -0.05945915129942261 -0.07694953300399517 0.11024124246897206 -0.41260755634527324 -0.13491167760713596 -0.06464701114325382
-0.5757486401247754 -0.5520351075516268 -0.3517177145920262 0.3522248089814461 0.46440283713016406 -0.06396561821004684 -0.3240783495658478 -0.20971629559442936
0.02598762994570647 -0.5472973641022827 -0.5862824877221985 -0.24424836029166433 0.01119274425270021 -0.14600581558934403 0.17902393770893088 -0.2068946708139763
-0.42910811691960293 -0.46112195187641464 -1.1826426144136557 0.951285062777953 -0.32002695613842985 -0.6083682219244584 -0.7392740986374472 -0.39363207650556026
0.29674882631945804 -0.3436081472925213 -0.4311887314099595 -0.2796509596389561 -0.20591672761168547 -0.7850324825632152 0.24659412980447698 -0.427253296517723
-0.2798096992252059 0.01877432238125136 0.018090806952274597 -0.3234504436631672 0.4649968036314558 -0.6743256279195057 -0.6911823071306291 0.06812617182291902
-0.14102098797745324 -0.6971852895625135 -0.005485609981717328 -0.624723300655561 -0.30933433104913033 -0.3803038076384754 0.005971440577771158 -0.3952003774755964
0.15158719249089006 0.013225854744904331 -0.4663165972525564 0.13002391624828097 -0.10569188083213335 -0.44953035033004574 -0.22631577471750464 -0.48192746316531154
-0.6224804054523189 0.31648327998461095 -0.6293566813064668 -0.8557788522318519 0.004915413067318566 -0.837375182791989 -0.17733203010825524 0.15478223085538373
-0.16935432536159098 -0.4613592026870522 -1.1551312363006372 0.6860101692403728 -0.3784899870701321 0.3106971177324858 -0.36339353315694156 -0.6752734078045852
0.12847409008151442 0.016703900320639214 0.44865764558232085 0.0029156776353448546 0.13080394148663813 0.49142474024262045 0.19729415589052723 -0.04587640044365021
0.44686739089802274 0.050402276596093504 0.08533236413185714 0.43466562718491814 0.1918850364694905 0.0032705365033700766 0.43900372862252485 0.016519572450081385
0.05264928884484298 0.4355792099361993 0.06341353341617414 0.08496168265517635 0.5216428889174977 -0.0006500805465226747 0.11431256474197345 0.5001741404929321
0.07332948726072117 0.11288535928419706 0.482259663480676 0.0814215510385495 0.15624145090297448 0.4771414887644783 0.02612620610891067 0.07051887655174581
0.4891406808711708 0.0757090830602968 0.021272150147880173 0.45982396834942707 0.038503808842807866 0.015380703035366752 0.5264673307657497 0.09295618694449569
0.09679559336042767 0.4336010715822903 -0.05936910253898119 0.2818612012352153 0.5121451240312558 0.06418144037152787 0.05938074344350456 0.43102307694451
0.12190214635588402 -0.05495885627325538 -0.20625278983403733 -0.003320141742979341 0.061067051254267965 -0.10446321551373065 0.19335470605218005 -0.15626236200295585
-0.16337965648120767 0.031310137732339344 0.05566151791845486 -0.020079342869945203 0.19211444585202697 -0.12535295281990974 -0.20805629668584938 0.012161237212356077
0.08072483542289038 -0.12355737339526437 0.042325721176371844 0.031243143786980714 0.04297631244263628 -0.01843195149116295 0.14072635487615345 0.1182907665419525
0.05750810657430306 0.09253159935879235 0.017515829824107848 -0.014376886599779605 0.052316171727179964 -0.26880754791637973 0.008921241503158749 0.022516588701172773
-0.10122826329682617 0.05453638442539112 -0.0028037709263865145 -0.14989938761038066 0.0153460328102665 -0.048473955321223415 0.22728988455355406 0.08721806600863821
0.04710001646486288 -0.1003567041513932 -0.1489388396887414 0.3019362557843223 -0.049995294123562205 0.06857199521611292 0.03817102496051518 -0.18001097944852473
0.11490329192754223 0.08078126034421529 0.4128538326561379 0.021688660502238246 0.11489414227189157 0.5063746537281599 0.18785905894521487 -0.03985419317140019
0.42387515630125755 0.059733138613042934 0.11261133712843162 0.43542026518640137 0.23794691616329586 -0.0810696749487551 0.4437789024455934 0.019646443558874953
0.10218736359700173 0.4553098485026933 0.061438753951948456 0.08774159151817695 0.5206121262993636 -0.013997325862245221 0.14382200585422392 0.5008709101588074
0.06409956643061798 0.13948969235621753 0.47937387660661784 0.06859056897714746 0.1830720580100716 0.4707692583344899 0.03106534825231701 0.07941033605100278
0.49928468573602225 0.06270426452204948 -0.002233493443291508 0.45123861516689767 0.041319718036159137 0.047093423876984744 0.5483031025485455 0.08880627375544214
0.08695972970763864 0.4242253299252043 -0.3585033065231333 0.4722012719840469 0.45920652018026836 0.07815873260494273 0.0480768910570046 0.42991597282751437
0.26606303094635514 0.15468676356414018 0.2464863387037295 0.16183233443770936 0.22889472876351086 0.32709760602903415 0.3544446735172128 0.06576009136320092
0.26693580436405656 0.19203782209476433 0.21199189064439755 0.27327890193359594 0.3991254540327863 0.07061830386618773 0.2988459657851429 0.2604331253808775

bias f8 [112]
00000000: 3330 2422 0fd7 c03f 73eb 37b1 ac80 d3bf
00000010: 442f d380 f4e1 8fbf 18f3 7b8b 8534 ecbf
00000020: efa8 e1cf 0857 c8bf 9103 9ae3 ffce e7bf
00000030: 4294 51fa 4bf6 a6bf 314a 3317 b1f0 d0bf
00000040: 03fd b9a6 6944 e7bf f037 28cd f228 e13f
00000050: e4be 7588 a1f1 c9bf 7e49 ed75 1835 e3bf
00000060: 4c0b 6f2f bd91 aabf 0aff 8b5f 903e e0bf
00000070: d630 1993 73f2 69bf a0a2 0ecc 081e e8bf
00000080: 71af a59f 1c0b c6bf 8059 2321 48bf d8bf
00000090: 6fc0 98fd 28a3 cfbf d532 d6f6 1ca8 8abf
000000a0: f1c4 f3e4 ba38 d5bf 92aa 6df9 071d c1bf
000000b0: c057 2162 2fb4 ddbf 81d1 4ac4 800d d1bf
000000c0: c48f 90d8 be14 a53f a56e 94f7 5087 babf
000000d0: 0367 a2b8 6e2f dfbf 5b48 5c8d a2e7 d0bf
000000e0: c817 40f3 0e41 e4bf 8b8b 23c3 0244 b5bf
000000f0: bc5d d0a3 fda6 ddbf 445f 9b7e bc98 c1bf
00000100: b88c 526e 2d08 bf3f fc28 9340 ee4e c13f
00000110: 24e3 6282 d6f0 b53f 72ad 3131 e204 bf3f
00000120: cd29 e4d2 4fd8 c53f ec88 f9df 8cab b93f
00000130: 3b95 3e1e 9563 c63f 4115 3046 2bd6 c13f
00000140: 9131 8fd2 a19a c43f 4c64 20eb 1866 c83f
00000150: 95b3 755a 917e c13f 8ec4 53d3 bb11 b93f
00000160: d28b 7938 cb5a c13f 92a5 bb6a e4f0 c23f
00000170: a317 0ca0 8332 cc3f db16 1365 c8c8 b63f
00000180: 3271 2fcd d01d 89bf aef5 76e4 f920 7c3f
00000190: 192d 1045 41ae 9bbf 6bab a04c ea33 9e3f
000001a0: 04e3 0b32 a627 853f 6b17 487a 1de9 a03f
000001b0: e021 cbaa 79bd 9b3f fc31 adbf 8399 b03f
000001c0: e3d8 5a3b e8c6 ae3f a1f4 2f70 b2c5 aabf
000001d0: 3961 f012 4961 373f c8db 2888 5329 9b3f
000001e0: 7d2d ffcf 81ac 973f f0c5 8eec 9b86 9a3f
000001f0: f9ad 9f05 5871 963f ae1a 34fb 810c 933f
00000200: c6f9 6935 ddd5 c13f 2287 d71e 9b79 c13f
00000210: f3f3 4d6c 7571 b53f bb0e 24ea aa1b c03f
00000220: c4e5 9b25 3399 c13f 2966 17d3 c9eb ba3f
00000230: 4920 0ac4 d381 c33f 8f2a 1c4f dc85 c13f
00000240: 1dfc a568 53df c13f 545b 0473 045a cb3f
00000250: 7a85 9603 a110 c13f 10e2 69dc 72a7 b93f
00000260: b4e5 0b1e ffd9 c03f a6a9 4e74 cbac c03f
00000270: 347b 8082 44a7 d23f 8615 27de 1a78 bc3f
00000280: ee55 e929 0077 ca3f e727 5b20 398a d13f
00000290: 5efe 3120 f12e ca3f ca3e c592 afd4 cb3f
000002a0: ead3 bdfa d184 d03f d98e bf5f 6e48 cd3f
000002b0: 87e2 82d1 3156 d13f 0214 a0ce 3625 d23f
000002c0: 4f4e 42d9 c293 cd3f b41a 6744 4f0a d03f
000002d0: e8af c3dc 126b d13f 0fa2 1143 75a4 cc3f
000002e0: 8ca4 adb7 5cd0 d23f bc1d b702 bbfd ca3f
000002f0: 6ed9 8a36 dd1b db3f 4221 16c6 b4c8 c93f
00000300: 0171 687d 63a0 f1bf 25f9 0cd3 a9a5 f5bf
00000310: 9506 908b 3d55 edbf a132 19de 9858 eebf
00000320: 1ae3 c639 e5ba fabf 955c 9861 d771 f2bf
00000330: 0adf ad68 6108 f5bf 83f6 2f29 1449 f5bf
00000340: 64d6 90f7 5d3e f0bf 758b 97db baab f1bf
00000350: d6a5 0a61 bd70 f6bf 89b8 3bfd 1c5a f5bf
00000360: 30e9 ec63 20e7 f5bf 0eb0 bb8c 8005 ecbf
00000370: fb3c 3dc9 5a6d f9bf 5c4f c9c6 d70f f1bf
0.13156308333452812 -0.30472867304313594 -0.015567693883347673 -0.8814113354015687 -0.19015607977355084 -0.7440185017913895 -0.04484784536979493 -0.26469065919551144
-0.7271011597039493 0.5362485892271689 -0.20268649256785587 -0.6002313903102701 -0.051893150367979674 -0.5076372018956772 -0.0031673676792590517 -0.7536663041583616
-0.17221410556100694 -0.3866749118436914 -0.24716675169611643 -0.013015962870463063 -0.33158752783408746 -0.13369846037979422 -0.4641226251891304 -0.2664491574207873
0.041173900543327174 -0.10362726253918682 -0.48727005034162135 -0.26413787655576976 -0.6329416991218233 -0.08306901229984313 -0.463317308401624 -0.137473642177378
0.1212185282079642 0.13522127297466813 0.08570614512690305 0.12116826725985222 0.17066381261277144 0.10027389972814021 0.17491401650219437 0.1393484204019533
0.16096899777620569 0.19061576348102205 0.1366750423143485 0.09792684468608767 0.1355833078151521 0.1479764481694415 0.22029156985098294 0.08900120227471169
-0.012263900052794516 0.006867386000008064 -0.027031917419702987 0.029494915892580503 0.01032953109960167 0.033028527428583164 0.02708997826519688 0.06484244756320118
0.06011129116579796 -0.05228955859636498 0.0003567508128426048 0.02652483480980175 0.023118999786488004 0.025904117883049638 0.02191674742054592 0.018602400738951523
0.13933911426643258 0.1365236187548869 0.08376249212410851 0.12584434921892815 0.13748778663993566 0.10516034511183449 0.15239951202625182 0.13689760077280197
0.13962786302360622 0.21368461242738113 0.13331997561639836 0.10021131402198358 0.1316527268134401 0.13027327708307473 0.2914592050964757 0.11120765613221381
0.20675661131342288 0.2740614715554543 0.2045575530246308 0.2174281565335064 0.25810670362926535 0.22877292323311485 0.27088590107045046 0.2835213678193328
0.23107181175565691 0.2506292503352754 0.2721602588560459 0.223768861530758 0.2939674180730172 0.2108682406671799 0.4235756905212814 0.2014375655383081
-1.1016573809384342 -1.3529451603095108 -0.9166553235847511 -0.9483150804386079 -1.6706287629041925 -1.15279329417334 -1.314546021369042 -1.330341492546183
-1.015226332715792 -1.1044262483416933 -1.4025243559539056 -1.3345003024983575 -1.3689273742043717 -0.8756716488546787 -1.5891979084879597 -1.0663678898899525

weight f8 [112, 16]
00000000: aa6a b022 d0ab d5bf 87d8 2ed4 7bb2 dcbf
00000010: 8eb1 32d2 616b d3bf 6ac9 4345 ae3a c23f
00000020: d120 582a 8264 d1bf 34fb 73dc d398 c1bf
00000030: 7c90 1030 14e0 e1bf ef02 18fa e324 e2bf
00000040: 1e66 cbae 6f90 b23f 75da da4b d2f3 d6bf
00000050: 3f76 7094 b250 e2bf a456 5409 aa86 cabf
00000060: 2183 c10d 58e5 e3bf 0ce0 7beb 1dfa b5bf
00000070: 28b1 208d 62f9 d5bf c369 aa06 d227 a0bf
00000080: f685 14a3 5314 f8bf 35d3 d3ea d1a6 e4bf
00000090: 27af e5ed bd54 f7bf 7bd5 faf7 5a1f f3bf
000000a0: e552 9d6e fca5 f4bf a236 4c31 d29e eebf
000000b0: 7acc 29fa ee2c e4bf 2970 3cb0 0ff7 e3bf
000000c0: df1f efdc 0dc0 ecbf 4fb0 1998 d85e f9bf
000000d0: 2491 54e3 6e4b e2bf f4d3 1e24 bb1f eabf
000000e0: 2eac 5dba 4ccb e5bf 2cde e9d9 c572 f2bf
000000f0: d0ae 9c95 97aa f4bf bed8 bc43 2942 f0bf
00000100: 1199 58c7 59cc d7bf cb4d 6dd1 e347 dfbf
00000110: d8ce f59b b79b d6bf c394 009d d84c b13f
00000120: efa3 16fe c424 d5bf cc62 f747 c09b c3bf
00000130: 5b8f 473f 0d9f e4bf 4849 efa4 f8b6 e2bf
00000140: 250a fdb7 52fb a13f 9a14 a1bd 9b40 dbbf
00000150: 4dfa 88f7 ab32 e3bf abca 56db 6877 d2bf
00000160: d1ce 21d6 92ce e6bf 7c32 039c b7aa bbbf
00000170: ed00 cc3e 4070 d9bf 6fd8 28af 7c38 b3bf
00000180: 32b7 fd51 1ae3 f4bf b834 1d63 e0ec dfbf
00000190: 9d1f 4bd9 9be4 f3bf 4dc1 b74f 69f0 e3bf
000001a0: 3d75 3cea df58 f2bf ba6f 5f08 0345 e1bf
000001b0: 8f3f f4aa 2cde e2bf 20e3 5c32 e20e e1bf
000001c0: bde6 e57e 3fcb e2bf 6d2b 48db 4848 f6bf
000001d0: 287a ef87 c3a7 dfbf d7c7 cd5e 0565 e0bf
000001e0: ace8 7716 4f80 e4bf 7479 0d96 6a4e edbf
000001f0: 8394 a58c f5a5 f2bf 58f4 eca0 6372 e3bf
00000200: ac86 189e 8ff4 e0bf b2d9 67c9 c43f edbf
00000210: 5ee9 db09 3ba4 e0bf d574 76c8 abe3 c13f
00000220: a262 1d76 a904 d4bf f6b0 142f cf42 b23f
00000230: ac3c 2892 156d f0bf 0b4a bd46 8d69 f1bf
00000240: a71d 3320 4a4e aa3f a81e 60d0 40a7 e4bf
00000250: 1165 e7cb 0aa6 edbf 826a 42f4 ac2d cabf
00000260: b1a3 5166 56a6 efbf aa33 1c6f 3a32 c3bf
00000270: 1366 2c6f 0e15 e3bf ae84 b1a7 335e bf3f
00000280: 8b35 468b 2d02 f5bf c8ba ac39 79e4 e0bf
00000290: 985e 27a3 ab9e f4bf b7fd 06b6 e8e6 e8bf
000002a0: beff 93c2 fbbc f2bf dd11 7514 488b e3bf
000002b0: c5b9 bd30 3da7 e3bf 4d1a 5ebd 1c69 e2bf
000002c0: 3c40 4f16 a0ee e3bf 6d9e cc4d 297f f6bf
000002d0: 03ac ae83 b0de debf 7df1 b94e e635 e3bf
000002e0: 3c76 6118 a528 e5bf 4c6d bed9 e1f1 edbf
000002f0: 2777 23d5 dda9 f2bf a303 8b70 c0ca e6bf
00000300: e138 fed2 59a2 f7bf 971f 36ac 6120 e6bf
00000310: 2b09 f92a 1b33 f7bf 68c8 09fc b9cd f3bf
00000320: a69b 803d a7ed f4bf 05ca 79a5 f3ca efbf
00000330: 1895 9142 29f1 e5bf e721 3caa ca44 e8bf
00000340: 915e 9cd8 08ae f3bf fef4 8202 5356 f8bf
00000350: 6bcc eca7 6c1e e5bf 373c 93f2 d357 e9bf
00000360: b86b f6ee c6e3 e5bf c298 b4c4 7714 f5bf
00000370: b0bc 7158 ed6d f4bf f6b1 5f57 6af5 f0bf
00000380: b315 62d6 3017 f8bf f703 4172 ae72 e5bf
00000390: 3482 31ee 55d7 f7bf 1003 6888 0274 f1bf
000003a0: 336e 57f6 a212 f5bf 1e38 4d4c 24de ebbf
000003b0: 896c 34d6 c495 e4bf 15ef ae38 a024 e5bf
000003c0: 0991 06e9 b2d1 f0bf 30d9 e603 35b0 f9bf
000003d0: 1111 fbd2 1beb e3bf 1753 1dac f07c e7bf
000003e0: b03a 8398 9868 e5bf bdbb 1978 2569 f3bf
000003f0: 704e 3e06 3ea9 f4bf d51e c294 0bff edbf
00000400: f779 adb6 9ed6 f5bf 9b33 4beb 066d e6bf
00000410: 32f8 c76b 825c f5bf b368 8543 4dd1 e0bf
00000420: af54 0651 0673 f3bf 4ee4 b094 edb4 e0bf
00000430: b862 138e ca86 e7bf f0a7 a0c8 adbb e7bf
00000440: d430 59a3 92cd e5bf 35fd 19bf e609 f7bf
00000450: f040 f0a5 bed6 e6bf 377c 9a1e 199b e1bf
00000460: 91fe d212 aef9 e7bf 3a3a 1756 977c eebf
00000470: ec5a 6eae c9f2 f3bf 7eeb a9b3 b1ec debf
00000480: 5241 deb6 249f c8bf f063 2bdd d054 c2bf
00000490: 6b94 b71a 0112 ccbf 5e81 a115 35e6 c53f
000004a0: 7930 4a50 1b58 c2bf 5bb4 5106 230d a43f
000004b0: ea6a 4de6 e9c8 d0bf a8e1 386a 3bf9 c4bf
000004c0: f9c9 7fd1 b26f c43f 940d 8d74 024d c7bf
000004d0: d6f4 fd6d 1c6c ccbf 3b05 19b8 7acc b0bf
000004e0: b314 a1c0 6d59 d4bf f01f 2c40 7cf8 91bf
000004f0: 13df e302 6dbb c6bf cdf9 cf33 23e1 813f
00000500: 0e62 747b 10e7 f8bf ec13 e430 e119 e6bf
00000510: 0d2a 9a81 310a f8bf a5ec 1108 a494 f5bf
00000520: 9331 0faa 0ff2 f4bf 016c 625e c458 f1bf
00000530: f7b1 dd93 8396 e4bf 6446 0671 93a9 e4bf
00000540: 8fd9 81a6 2f85 eebf 03d6 3740 9043 fabf
00000550: 3ce1 06b6 5b9b e3bf d1b5 be51 3740 edbf
00000560: d5c7 28b5 4026 e6bf e4e8 85e2 2343 f3bf
00000570: 05fa 2766 df08 f5bf 45e5 939d f279 f2bf
00000580: 9f34 94cc 1820 f6bf f461 c791 34b1 e0bf
00000590: a0a5 b48e cf6f f5bf b947 aabd b898 ebbf
000005a0: 963d 9662 8fe7 f2bf 4cd5 dd05 59ca e3bf
000005b0: ceea 13eb 7a08 e4bf 1aef dd16 b695 e2bf
000005c0: e9bb d681 61fc e6bf 55bf e74a 2b76 f7bf
000005d0: a4ad ca59 2eb8 dfbf eabd 03d5 815f e3bf
000005e0: feea 75fb 3d2f e5bf f63c 8be2 7f0e f0bf
000005f0: fd3f caa6 4517 f3bf 5bae c2c5 af62 e8bf
00000600: fbc2 880c ee5c f6bf ac42 663e 1ded e6bf
00000610: 9875 3dfb 92c4 f5bf 0091 c01e 00c4 f2bf
00000620: 2a34 a1d9 6632 f3bf e366 a35f 3efe edbf
00000630: bbfe 096e 6582 e6bf 5fc7 72c7 b682 e8bf
00000640: 4b9e ddb1 5876 f3bf c18f af81 a1ca f6bf
00000650: 4a2e 48ba 592c e5bf 64a0 dd0c cd46 e8bf
00000660: 65e6 32d5 bc84 e5bf 514d 1abf 728e f3bf
00000670: 6e43 cf8c 5216 f3bf ad1f 02d5 f803 f0bf
00000680: f64e 8b9c ad5b e9bf 32cf aa99 ac1e e2bf
00000690: 725d db36 69da e8bf 11ad 4067 b3bb ba3f
000006a0: 2e4c 0009 a9dc e6bf d6eb 57ee f237 b1bf
000006b0: a8a7 a12b 622a e8bf 4576 6376 1582 e5bf
000006c0: 91c1 af58 6d62 b3bf 489a ca8d ccac ebbf
000006d0: 9bc7 58b4 15ad e2bf 3ebb f708 a41e d0bf
000006e0: 555e aa7d 0420 e7bf c37b 74e8 db4d d8bf
000006f0: 264d d4a1 0689 e8bf 20d1 9e93 7340 9a3f
00000700: 9fb9 9b88 bcd3 d8bf ebd7 8bc2 9603 bf3f
00000710: 49c8 bf61 360c dabf bf26 51eb 59f0 c53f
00000720: 94a0 f803 9d54 d5bf 0b69 63df f798 c43f
00000730: e5a2 797b f035 d3bf 8038 d900 bc1d b93f
00000740: 8ea4 63cc deee bf3f 964c dd5f d464 dbbf
00000750: c5e1 735c 97a8 d2bf b6fb cafe 4188 c13f
00000760: 1b7f 4cd6 11a5 d9bf 8dad f914 e0b2 c8bf
00000770: 4903 d023 bdbc d2bf 534e 64d5 d38e b73f
00000780: c481 2ef5 db6c f4bf f8b9 f020 88cf dfbf
00000790: 0f73 f119 1d3f f4bf 30ea eceb 7b5e e4bf
000007a0: 6cdd 1e68 0e14 f2bf 699e e448 1c93 e0bf
000007b0: 8d3e c590 b8fa e2bf 961d ef13 631e e2bf
000007c0: b450 8289 f39c e3bf 035b d131 4c06 f6bf
000007d0: a3bc e826 c4d4 debf 6573 8392 1f65 dfbf
000007e0: b722 bbfc 9f32 e4bf 1e1f afe3 4ec5 ecbf
000007f0: 52aa e900 095b f2bf 5913 9c63 cb84 e2bf
-0.3386116350899707 -0.4483937809085394 -0.30342908408308567 0.14241579420156408 -0.2717595494764398 -0.1374764276915471 -0.558603376270653 -0.5670032391209058
0.07251642243809228 -0.35863168151573827 -0.5723507785039103 -0.20723462539233595 -0.6217460888547955 -0.08584773062818857 -0.34334625036241784 -0.03155380565040702
-1.5049625749892335 -0.6453637682412593 -1.4581889431819464 -1.195155113860294 -1.29052394112403 -0.9568873370023605 -0.6304850469590655 -0.6239088480101646
-0.8984441104048492 -1.585655779020289 -0.5717081489606568 -0.8163734155156122 -0.6810668601950789 -1.153020716881552 -1.2916484684200675 -1.016152634239503
-0.3718475767840497 -0.48876281215526934 -0.3532542250679689 0.06757882912696105 -0.33036923230480303 -0.15319064630491253 -0.6444154964378684 -0.5848353597050755
0.035120568236852535 -0.4258183814857347 -0.5999355158490488 -0.28853818340136667 -0.7127165014521443 -0.10807368811510715 -0.39747625477322296 -0.0750806739459635
-1.3054450228477887 -0.4988327949439042 -1.2433126915002284 -0.6230970913875723 -1.1466979169702676 -0.5396742976695272 -0.5896209086367764 -0.5330668433808547
-0.5873105505445079 -1.392647606439563 -0.49461448931643526 -0.5123316623341861 -0.6406627119861432 -0.9158223086085813 -1.1655173772826692 -0.6077135222509567
-0.5298536384400072 -0.9140342649177937 -0.5200476830062077 0.13976046837061654 -0.312784543367835 0.07133192920145234 -1.0266318997635535 -1.088269497228455
0.051378551893829276 -0.6454166478951793 -0.926518820047166 -0.20451890875559192 -0.9890548704544156 -0.14997034478474564 -0.5963203593593697 0.12253115505292797
-1.3130317154312674 -0.5278898359736894 -1.2887379048533258 -0.778187137147987 -1.1711385346134047 -0.6107521438175884 -0.6141649200415534 -0.5753310869775504
-0.6228790698751321 -1.4060452498469218 -0.4823418889961319 -0.600329545748124 -0.6612115360437154 -0.9357766392526314 -1.1664713216518494 -0.7122499654870932
-1.4771364442745425 -0.6914528239731109 -1.4499770811676835 -1.2377261967890494 -1.3080208208500408 -0.9935243827770256 -0.6856886196298175 -0.7583974194431534
-1.22998890508271 -1.5210752580745175 -0.6599639205727618 -0.7919711816592842 -0.6840548197973169 -1.3174970325285789 -1.2768376784186266 -1.0599158680953429
-1.5056618093816325 -0.6702491981051243 -1.4900721840314306 -1.0908227280016867 -1.317049944182952 -0.8708669176355703 -0.6432823356330043 -0.6607209307762526
-1.0511960127415156 -1.6055193092739266 -0.6224497910230032 -0.7340014802562987 -0.669018075824928 -1.2131704989840124 -1.2913189166910364 -0.9373834519801344
-1.3648974548192407 -0.7008089633542228 -1.3350853166771341 -0.5255495375415847 -1.2155821957615378 -0.5220859436150336 -0.7352040076176172 -0.7416600149638253
-0.681344336547705 -1.4399173226264115 -0.7137139550195837 -0.5501828763698374 -0.7492285125408263 -0.9527088815173734 -1.2467743695939886 -0.4831966642884068
-0.1923566716109329 -0.1432133750847977 -0.21929944805666265 0.17108787113375973 -0.1433138029136705 0.03916272594583666 -0.26226279726476653 -0.16385595976477174
0.15965876798107084 -0.1820376462074874 -0.22204928751663172 -0.06562010759900698 -0.31795829593131514 -0.017549458901186143 -0.17759478226775424 0.008730196970643167
-1.5564122030683651 -0.6906591372395474 -1.5024886190973377 -1.3487892451510473 -1.3090969698851935 -1.0841716467755307 -0.6433732879646062 -0.6457001883993141
-0.9537580730528122 -1.641494990207662 -0.6127146296703709 -0.9140888783055577 -0.6921695268886149 -1.2038916443403247 -1.3146661749339057 -1.1547723918323112
-1.3828361502994893 -0.5216315123789728 -1.339797551578478 -0.8623927788159939 -1.1815332270669834 -0.6184506525593547 -0.6260351744998276 -0.5807753035182686
-0.7183082137979656 -1.466349880789456 -0.4956165196296871 -0.6054085884515505 -0.6620168601360488 -1.0035399293299725 -1.1931816592441458 -0.7620467054852712
-1.397687958680932 -0.7164446085681297 -1.3604917348924115 -1.172851677060919 -1.1998051167640917 -0.9372856014190031 -0.7034175061416684 -0.7659562964893033
-1.2163931796911978 -1.4244704309321465 -0.6616638792342624 -0.7586426974567186 -0.6724533237495051 -1.222277399535262 -1.1929498196006665 -1.0009697266232067
-0.7924411828521147 -0.5662444115937204 -0.77666149820554 0.10442658682648111 -0.7144360709957078 -0.06725996321613023 -0.7551737644364396 -0.6721293747211311
-0.07572062888335142 -0.8648436326373679 -0.5836285135649065 -0.2518701636862949 -0.7226583914188703 -0.37975213719067485 -0.766726795266014 0.025636487851174228
-0.3879233678880158 0.12114851236023554 -0.4069953875142614 0.17139743795478599 -0.33328938854038737 0.16091822059281244 -0.30016719873542136 0.09810996075359135
0.12473862161609103 -0.4280291496444958 -0.29153999355869714 0.13697075787601215 -0.40070005347841836 -0.19295884155449664 -0.2927697038394866 0.09202312431107744
-1.2765769555481805 -0.4970417329485879 -1.2654086125759851 -0.6365336997908511 -1.1298965518197646 -0.5179578231518011 -0.5931055858181523 -0.5662093533837147
-0.612909096309997 -1.3765375085837952 -0.4817362194034535 -0.4905470782085131 -0.6311798034813226 -0.8990854689554657 -1.1472253833441255 -0.5787102647305843

bias f8 [112]
00000000: 2f30 2492 015f c03f 68eb 37d4 b5cb d2bf
00000010: 822f d380 443e 81bf 16f3 5bee 8799 ebbf
00000020: eda8 a1b1 1fe4 c6bf 9503 da55 3de5 e7bf
00000030: e893 51fe 91f2 a0bf 304a 836e 9a36 d1bf
00000040: fffc b986 5eab e6bf f037 d053 6dc8 e03f
00000050: e8be 757e 48e2 c9bf 8149 adda cffd e2bf
00000060: a685 f703 07a9 b0bf 0bff 0bba d62c e0bf
00000070: c430 1993 a54b 61bf 92a2 ceba 75a5 e7bf
00000080: 7daf a57f c932 c8bf 8159 a3e3 4197 d8bf
00000090: 3960 0ca0 82a2 d0bf 529a 5392 c8d9 7d3f
000000a0: ebc4 33b0 e6bb d4bf 92aa 8d91 dd1a c0bf
000000b0: be57 212e dd8e ddbf 7dd1 6a36 cf2e d1bf
000000c0: bf8f 9038 3ba8 a23f a36e 94af 8355 babf
000000d0: 0367 fa63 39c1 debf 5f48 5cb8 e27c d1bf
000000e0: c617 402d b25f e5bf 818b 2361 27ee b8bf
000000f0: ba5d 10fc bdb1 ddbf 3e5f 9be8 6235 c0bf
00000100: 5346 2903 6d38 c03f f628 93cb 831c c03f
00000110: 10e3 6222 732a ba3f 6ead 31c4 4a7e bb3f
00000120: c729 e466 3758 c33f f088 f92c bc61 b53f
00000130: 3995 3e1f 8990 c43f 4915 b06f da65 c13f
00000140: 8b31 8fb0 d7de c33f 4064 20eb af5d c53f
00000150: 96b3 3558 380c c23f 92c4 533f 1e8b b83f
00000160: c98b 79ab dae9 c23f 9aa5 bb2c 39b1 c13f
00000170: aa17 0caf ed89 cb3f d916 13fd 525c b63f
00000180: 8cb8 9708 a981 9dbf 7c7a 3b52 7f54 893f
00000190: 6c16 88fa 445d a4bf f02a 280b b6e7 b23f
000001a0: e9c5 17e4 fb4b 743f 2b5e 2041 452c 8f3f
000001b0: ce90 e558 d56a a43f 0264 5aff 187d ad3f
000001c0: f5d8 5a66 49a6 ab3f a4f4 2fd8 afdb a9bf
000001d0: 7971 c14b 7076 1b3f ebde 4641 20de 603f
000001e0: c196 ff57 4717 a03f c462 a735 bae8 a73f
000001f0: 81ad 9f5d 87dc 913f b51a b444 8529 9f3f
00000200: c1f3 d302 0871 bd3f 3b0e afad a4ad be3f
00000210: eff3 4ddf ec2d b73f 751d 485b f522 bd3f
00000220: c2e5 9bc5 fea3 c23f 2b66 0120 4b52 b83f
00000230: 4220 0af1 66ab c33f 8a2a 5c41 0b4e c03f
00000240: 25fc 85e4 70e4 c23f 545b 0472 5a8b c93f
00000250: 7485 6643 ca8d c13f 1be2 6901 af4c bc3f
00000260: bae5 0bcb 4c6b c13f a653 9da0 f432 ba3f
00000270: 327b 8070 5e7a d23f 8a15 270e 41e7 b93f
00000280: ee55 196c b7d7 cb3f e727 1b52 18b7 d13f
00000290: 5efe b1b0 73f7 c83f ca3e c58f 0bfd c93f
000002a0: eed3 bde8 603c d23f d98e bf45 1351 cd3f
000002b0: 87e2 8265 b414 d33f ff13 a0f9 1853 d23f
000002c0: 4d4e 42dc 6d41 cc3f 5f35 8e96 6ecf cf3f
000002d0: e6af 43fc a168 d23f 10a2 11c3 f200 cf3f
000002e0: 8ea4 edd8 e279 d23f bb1d b7a7 c9ce cc3f
000002f0: 6fd9 1af2 6478 da3f 4021 56bc 82b7 ca3f
00000300: ff70 4cbe 9e94 f1bf 27f9 ac55 9ec3 f5bf
00000310: 9106 d09c 64ec ecbf a332 593e 9ad3 eebf
00000320: 18e3 661d 7087 fabf 97dc 83df bc8d f2bf
00000330: 0cdf 4daa 831b f5bf 82f6 9781 2e3b f5bf
00000340: 64d6 b026 6e17 f0bf 748b 1705 e139 f2bf
00000350: d9a5 aa95 4564 f6bf 88b8 7b2d 2a07 f5bf
00000360: 3089 b2ba e51a f6bf 0eb0 dda8 8cf4 ebbf
00000370: fa3c bdf7 53a2 f9bf 5d4f b9cc 09ec f0bf
0.12789935718353848 -0.29368348812538736 -0.008419547254014285 -0.862491574807424 -0.1788367860165815 -0.7467333485402486 -0.03310066441989773 -0.26895771782179434
-0.7084190970780638 0.5244661938647805 -0.2022181146125981 -0.5934829016717204 -0.06507915350768786 -0.5054734834411375 -0.0021112665060965836 -0.7389477394654753
-0.18904989941381337 -0.3842320178058785 -0.2599188387844183 0.007287772639051742 -0.3239685745930518 -0.12581987006281686 -0.46184472565562007 -0.2684820205133958
0.03643975320326786 -0.10286734615913899 -0.48054346812715226 -0.2732474136729532 -0.6679316409870288 -0.0973839389949216 -0.4639735185205286 -0.12662922246703973
0.12672197965962315 0.12587020340135496 0.10221023168095322 0.10739581384557592 0.15112965129840303 0.08352256868377927 0.160660877472006 0.13592081502444334
0.1552381145578575 0.16692160588061888 0.1409979277335906 0.09587277456354773 0.14776166317741815 0.13822092708805372 0.21514674231746983 0.087346255098136
-0.028814927243666008 0.012368197152168074 -0.03977408941504454 0.07384813091645603 0.004955276440783398 0.015221158075333715 0.03987757406392377 0.05759504429915553
0.05400304197739728 -0.050504202976278806 0.00010476169967560911 0.0020590429287173826 0.03142760228346964 0.04669744400934442 0.01744281300481765 0.03043182594140133
0.11500597065965136 0.11983708610846915 0.09054451419611075 0.11381467321927181 0.14562973641277038 0.09500569850333622 0.15366827744969852 0.12738171283156802
0.14759646566742038 0.1995652252887462 0.13713959017790567 0.11054509911071657 0.13608703531626337 0.10234002038244103 0.2887188051844759 0.10118490787052373
0.21752064493436712 0.27680023210689203 0.19505163314532842 0.2030348255161612 0.28493521431602076 0.22903672128369726 0.2981387130089747 0.2863218724963303
0.2207467389567789 0.2485178218015944 0.2876362765807684 0.24221643948409666 0.2886893385353425 0.225060660259471 0.4135982860856506 0.20872530170550796
-1.0987842019595175 -1.3602584215837596 -0.9038565695520494 -0.9633303849928619 -1.6580659054290603 -1.159603951555061 -1.3192173626429762 -1.3269486486673547
-1.0057202826841598 -1.139130611315264 -1.3994804235793394 -1.3142492081347275 -1.3815667431704917 -0.8736022279895239 -1.6021308591187435 -1.0576265332246841

weight f8 [3, 16]
00000000: 0d51 1a4f 16f3 c8bf a5b1 66fe b450 e0bf
00000010: 12d5 4846 d279 c5bf 6da3 6816 f9d1 d3bf
00000020: 6859 62ee 45f9 bfbf e329 41b1 d819 d6bf
00000030: c045 11b0 49bb ddbf b3a3 9c4f 9678 e0bf
00000040: 0b46 081d 749e d2bf 4876 6968 ceff cfbf
00000050: 4e04 646e 6594 dfbf 88f2 52e5 bfc2 d1bf
00000060: f380 3d00 7390 dcbf dd45 4467 f86f d0bf
00000070: a9ad b374 3027 e6bf 1a12 ab29 0333 ccbf
00000080: 003e 8196 842d d3bf 13e5 9d45 f684 d4bf
00000090: 69b5 fbb7 da51 d9bf 4948 5e45 dce3 d3bf
000000a0: d8d5 f41a 6c6c e1bf 7686 d541 d9d8 d8bf
000000b0: c365 5f4e 7883 dbbf 6ded b112 897d d2bf
000000c0: 4b0c 6b6d 25ea d2bf d5f0 69d2 aec5 c9bf
000000d0: cca8 efa6 6bf5 dabf 4d0e 752c 050c e0bf
000000e0: 33fe 3b53 360d e0bf 7b06 7a50 642d d7bf
000000f0: 100c 489d f7a8 ba3f 4273 3f68 0e45 debf
00000100: b84e 307b 1f6f dbbf 552f b7eb b101 d2bf
00000110: c5b8 25d8 0383 d9bf d9cc 4361 b236 d6bf
00000120: 14b1 0a39 d367 debf f5fa e501 a0fe d1bf
00000130: 2e54 b2dc 4643 c6bf ed8e c371 39e6 c8bf
00000140: 1302 c00d 36ee d7bf d276 7a11 99c2 dcbf
00000150: 7426 8583 a75d d1bf 509d d33c 4170 d1bf
00000160: fe0f 8313 df0c b7bf d6d7 2eb0 ba6a d9bf
00000170: 470e d06b aac5 dabf 1021 9712 ea1c d4bf
-0.19491843092385644 -0.5098519295475411 -0.16778019363270197 -0.30969073475221515 -0.12489735670019331 -0.3453275424004955 -0.4645561427506344 -0.5147201113623993
-0.29092123828112965 -0.24999408815613067 -0.4934323862108315 -0.2775115718357388 -0.44631648086034587 -0.25683412632596775 -0.6922838477452632 -0.22030677351553224
-0.29965319345225794 -0.32061535643113465 -0.39562099425423597 -0.31078249716040723 -0.5444851423732713 -0.3882353918944327 -0.4298992886884571 -0.28891207528768953
-0.2955411499535258 -0.20134530328858227 -0.42122927954063694 -0.5014673107438711 -0.5016128183050966 -0.36214549883889163 0.10414073552969705 -0.47296486072973576
-0.42865740804812047 -0.28135345477197876 -0.39862152202739437 -0.34708842752952546 -0.4750869805382234 -0.2811660784281423 -0.173928125154505 -0.19452589087369834
-0.37391425459648636 -0.44937731463310826 -0.27134120792161487 -0.27247649135684515 -0.09004015184751776 -0.39713923650140026 -0.41831455734811523 -0.31426479163612075
