Retweet/RetweetNetsV9/TrainNet_ep16V2.pt (torch, 23477 bytes, 6 tensors)

scale f8 [3]
0	0x3fd546d14ff4832f	0.3324473648845467
1	0x3fd888e59c26593c	0.3833555245304472
2	0x3fd3521760d281a4	0.30188545661260435

weight f8 [112, 3]
0	0x3fde5f93f17d2d48	0.47458361227900925
1	0xbfa8c6de18ec2c92	-0.04839223913412484
2	0xbfe268b87e5b313e	-0.5752832858939099
3	0xbfe25a20a423fc5e	-0.5735018926496982
4	0xbfce39efa39f62bc	-0.23614306916603833
5	0xbfd0e4fbd535a7c4	-0.26397605725525985
6	0x3fe367ea31ce3968	0.6064349148526107
7	0xbfd536769d364aee	-0.33144917824499387
8	0xbfd285ab8be155ae	-0.28940857563187705
9	0xbfeb640672cbfec1	-0.8559601060987562
10	0xbfe9a5a084c82158	-0.8014681428331114
11	0xbfe11e8259bb7554	-0.5349742653449234
12	0x3fede8280d71657a	0.9345894110257824
13	0xbfeab06246d2fe81	-0.8340312369618489
14	0xbfee70924a4f82aa	-0.951241631639353
15	0xbfe915d7dc593115	-0.7839164069824017
16	0xbfe7907b5f2a3448	-0.7363869532288243
17	0xbfdb73a6e21c6341	-0.4289338310350566
18	0xbfc68c3acbc9e2c2	-0.17615446997276335
19	0xbfca350edaf1e25e	-0.20474420252482423
20	0x3fd076338aee9c77	0.25721443717561193
21	0xbfe1f9d2d177a3f9	-0.5617460337790582
22	0xbfc2593cc35a34bb	-0.1433483079785328
23	0x3fa15c43f9fa877d	0.033907055153817624
24	0xbfe4df5d470c8534	-0.6522661578821158
25	0xbfe31169d4fbcace	-0.5958756599269124
26	0xbfdb38dcee370a9e	-0.4253456426924148
27	0x3fc62b0624407ea3	0.17318798799623378
28	0x3fe9936aad18716b	0.7992452030917269
29	0xbfe6d2a6a1b67aaf	-0.7132142218068419
30	0xbfdbe2004877757d	-0.43566901280231446
31	0xbfd2b2ac7da07811	-0.29215538280721015
32	0xbfaf3174fc48ecf0	-0.06092420177125202
33	0xbfe16cdaa12273c9	-0.5445378443870307
34	0xbfe5b178b5eea9b7	-0.6779140046467579
35	0xbfd563dc90251ad4	-0.33422006680158955
36	0xbfc08168c260e2d0	-0.1289492558587626
37	0xbfd495cdcc1b3518	-0.321643304178751
38	0x3fe0d8a2d79d4894	0.5264448367327241
39	0xbfd280cf6c570a6c	-0.28911195354536434
40	0xbfdee925a847e4fa	-0.48298016961741974
41	0xbfe2da769da9a278	-0.5891678885792109
42	0xbffab5e10641c882	-1.6694040531552052
43	0x3ff7aad5bc983a0e	1.4792077414491618
44	0xbfeb6603904ff94b	-0.8562028711892621
45	0xbfe40cb9cf65a85b	-0.6265534449314701
46	0xbfe9fcb330aa70ba	-0.8120971632484022
47	0xbfdd38758830f50f	-0.4565709905617305
48	0x3fde951988cd4784	0.47785032615239964
49	0xbfd9899102171035	-0.3990213890467687
50	0xbfe959ca5d7eff47	-0.792210753068482
51	0xbfd728e9e81311c9	-0.3618721739151423
52	0x3fb899fcdf78a799	0.09609966712801422
53	0xbff56ffb7562ce42	-1.339839418925195
54	0x3fe187560c7298ea	0.5477705233686525
55	0xbfe5f3f948b6bdfa	-0.6860319538299671
56	0xbfd8d33d5b810962	-0.3878930467218621
57	0xbf98bddce9169d19	-0.024161769606192516
58	0x3fa6fae608ba49fc	0.044882954182998674
59	0xbfd53d6812ab124d	-0.33187295744963735
60	0x3ff055668a798921	1.0208497437639112
61	0xbff35eb8aa73b61c	-1.2106253298073915
62	0xbff40c777e774420	-1.2530436458657803
63	0x3f9cc84b258adb75	0.028107809225470477
64	0xbfb286d96f8d766f	-0.07237013791515222
65	0xbfe7254a5cbdca06	-0.7233020602564586
66	0xbfac567f038ee615	-0.055347413238859534
67	0xbfe1d0596a09c629	-0.5566832610185816
68	0xbf9643fbac486ac3	-0.021743709936439936
69	0xbfdcc3f971305c9a	-0.44946132711033615
70	0x3fc59dc815d4b062	0.16887761178930122
71	0xbfc3f3bcd27f6fa0	-0.15587578085148568
72	0x3fbd449e1ae64fda	0.11432827145318872
73	0x3f9db7f453b85398	0.029022042856087532
74	0xbfe0036a1865ba76	-0.5004168011199244
75	0xbfaa038ccfbf9cdc	-0.05080833469383503
76	0x3fc153abf71ad51a	0.13536595884003405
77	0xbff09c0502725196	-1.0380907149857186
78	0xbfd5df662970e22b	-0.3417601971337116
79	0xbfd5161abd075e95	-0.3294741483673332
80	0xbfeebeb43e5c654e	-0.9607793062197432
81	0x3fdbf87df1dbfab7	0.4370417463214084
82	0xbfe3b5a98bcf8a99	-0.6159255724599745
83	0xbff0c8428a73b81a	-1.0488915832788792
84	0xbfcf69bd2a097d17	-0.24541439583388389
85	0xbff00d82a90a09b3	-1.0032984355062637
86	0x3fdbab9307a7e221	0.4323470663798919
87	0x3fbb262ff5b0968b	0.10605144260679304
88	0xbfc37f52a07b65a6	-0.15232308231388209
89	0xbfe048e609524ffc	-0.5088987524090949
90	0xbff974de6e67b352	-1.5910324394892155
91	0x3ff287c136938fef	1.1581432468310557
92	0xbfea546861417e30	-0.8228036784675563
93	0x3fd65fa9c8033d85	0.34958881885992127
94	0xbfd5e97164abf9c4	-0.3423732264635897
95	0xbfe4d4322276923c	-0.6509028123005645
96	0x3fca40ad88063a7f	0.20509881154835694
97	0xbfa98ce3c03595c9	-0.04990302773766648
98	0x3fd256087c10921e	0.2865010463304162
99	0x3fa61aca930e54c6	0.043173151446504174
100	0x3fc58a8a7676e833	0.16829043182753053
101	0x3fd40901cb02f6a8	0.3130497438940929
102	0x3fe9b2339ab026f2	0.8030031224490968
103	0xbfe0b5e72068b58d	-0.5222049363125493
104	0x3fcb6c545d744021	0.21424345553578042
105	0x3f9a04764439f410	0.025407646097381387
106	0x3fbc135092d12c50	0.10966971954728533
107	0x3fda6ec58b4dfcd4	0.41301096538513815
108	0x3fe3f10707b365a0	0.6231722975164082
109	0xbfa43673331bbe27	-0.039477920521559455
110	0x3fd98fbbe776ce4e	0.39939782718577
111	0xbf4f3c1c0ce77e7a	-0.0009532105412368285
112	0x3fac554bca81c73d	0.05533825728424666
113	0x3fd6db4602048abc	0.3571333903984557
114	0x3fb21a0d9cee4ace	0.07071003991431299
115	0x3f9ae4a11807a8c2	0.026262776462240074
116	0x3fe11c9f611a2a18	0.534743966725105
117	0x3f6554d32a114d8e	0.0026039242079975494
118	0x3fbddf13b57cb21e	0.11668513470494488
119	0x3fe1667d476a734e	0.5437609095421096
120	0x3fa8192437861977	0.04706681421071129
121	0x3fc148a95199b953	0.13502994999312054
122	0x3fde53df1aacf483	0.47386911015548366
123	0x3fb26cf68de4ddeb	0.0719751449986387
124	0x3fd3bbfc7a0779c1	0.3083487693492338
125	0xbfb3d1f40812aa1b	-0.07742238232700809
126	0x3fb4d6d39d5e4cdf	0.08140299407959926
127	0x3fb67b248d82402c	0.08781650976948246
128	0x3fd765984aef0d45	0.36557586019280947
129	0x3fbcf4b52dc77302	0.11310894363073135
130	0x3f87fd90672b838f	0.011714103840349014
131	0x3fd60105678461e2	0.3438123236569749
132	0xbfb10637eeacd677	-0.06650113656072586
133	0xbfc1cb5bcef7d48d	-0.13901851278174995
134	0x3ff063a1c7794377	1.0243242065373275
135	0x3faf52fdf2a2f448	0.06118005358573747
136	0x3fb81d7ffbc7e8ad	0.09420013329500661
137	0x3fdb0e9876d26fc1	0.4227658424731509
138	0xbfbdb6bff0aad3cb	-0.11606979013124812
139	0x3fddb03508ec6c3a	0.46387983199537397
140	0x3fe04834fd7187b8	0.5088143301074899
141	0x3fb0ffe128d2e413	0.06640441176104188
142	0x3faef7fd389c3cfd	0.06048575702708978
143	0x3fda4133f34d1f53	0.4102296710957393
144	0x3fccb0a2b282e5a0	0.22414048878071657
145	0xbfbdaba9e12bb66b	-0.11590062854130571
146	0xbfe51812667bb687	-0.6591884614587834
147	0x3faad2c2d129a707	0.052389228851849316
148	0x3fbe9dce0ca74df8	0.11959541138576657
149	0xbfe9834d60f9b7d6	-0.7972781080295543
150	0x3fe4e56a5b85e388	0.6530048167761473
151	0xbfe56cbfb67406b7	-0.6695250094928359
152	0xbfdfd00b565bc140	-0.49707301553191385
153	0x3f566d6ce8f22549	0.0013688624929123086
154	0x3fabdc9a57ee837f	0.05441744159111916
155	0xbfb68cb5ad0fe5f2	-0.08808455920361505
156	0x3fe0f68bed197c45	0.5300960188723215
157	0xbfdbb6f331435296	-0.43304138003194603
158	0xbfe94ad691e91b57	-0.7903855180564773
159	0x3f778151b370d900	0.005738562721538054
160	0x3fb313a6c29536d1	0.07451860666807454
161	0xbfd54a7bc35180e3	-0.3326711089521394
162	0x3fb24e92e8542f23	0.07151144191828655
163	0xbfae7174dca60620	-0.059459354338297965
164	0xbfb893e9566f6fab	-0.09600694999920616
165	0xbf7894a70baa7807	-0.006001141092069068
166	0x3fc2db5a55e69e3b	0.14731911844613585
167	0x3fc28dd2f1fd28f8	0.14495312515129632
168	0x3f9d68eba16e025a	0.028720552184952154
169	0x3fb616d65207990a	0.08628596785237988
170	0xbf94afc8df9d1c0f	-0.020201815269754116
171	0xbf9dadd83dde6b76	-0.028983477379010712
172	0x3fcb7909cf224fe7	0.2146312962910308
173	0xbfeffa6ce75d2f21	-0.999319507487119
174	0x3fb74c73475db50a	0.09101028911910106
175	0x3fb0130269138b89	0.06279006066647076
176	0xbfe6e1ba3d141c74	-0.7150546257916077
177	0x3fba039b3b340ab4	0.10161752887146741
178	0xbf8c6b7524aeaf80	-0.013876834089238121
179	0xbfe1fb5b26d9873a	-0.5619331129821383
180	0xbfb4f861fc3ad676	-0.08191502006487802
181	0xbfd68a711e2ee269	-0.3521998209721802
182	0x3feee7e66b9229d9	0.9658081151003969
183	0x3faa0be18d303f04	0.05087189529888117
184	0x3fa29fa59039ee65	0.036374257903813136
185	0xbfcc17199bdb7aad	-0.21945495710584365
186	0xbfd7c275aec9ff7d	-0.3712438780712473
187	0x3fea401f01d0a652	0.8203272853326757
188	0xbfe585492edad3fa	-0.6725202479489092
189	0x3fb10d4f9c3b2d3b	0.06660935940015104
190	0x3fa0fdb307cc4a00	0.03318557233992081
191	0xbfd38ed4e180029a	-0.3055927469395471
192	0x3fd2338a106c1ea7	0.2843957100271645
193	0xbf685bdd69daf6b3	-0.0029734920961733357
194	0x3f96425d3b011d4f	0.021737534262027677
195	0x3fa3b0d224ef5a5f	0.03845841122499815
196	0x3fc36fe3a85e4d67	0.15185209008323428
197	0x3fd2eb8ed4e953a3	0.29562731544620585
198	0x3fe84f3e44a0ddbd	0.7596732464216341
199	0xbfdcee9eb7427ae8	-0.4520642079968824
200	0x3fc075493cbd9223	0.1285792872032668
201	0x3fa0e4ade0864655	0.03299468389299124
202	0x3fc15798501fe0e1	0.13548568641977624
203	0x3fda5f808671d83a	0.41207898263326437
204	0x3fedaf11ed95ebd9	0.9276208534569107
205	0xbfdedea7e93c0669	-0.48233983780673967
206	0xbfa2ec8306c40897	-0.03696069200124546
207	0xbf5da50aaa48704e	-0.0018093685295133169
208	0x3fba12079f6b0108	0.10183761255303037
209	0x3fd7e13587e97d80	0.3731206729189225
210	0x3fa4005fde1a314a	0.03906535707673926
211	0xbf6b4413e69d3a05	-0.003328360432454549
212	0x3fe1840fe9a5eb5e	0.5473708690109154
213	0xbfa0706b2c2e6410	-0.03210768617936577
214	0x3fc279a2c4157dca	0.1443370301667371
215	0x3fe1b64429e20ee4	0.5534992998149986
216	0x3fa24028f3fc8459	0.03564575174665014
217	0x3fc4641eab009380	0.1593054137203147
218	0x3fddc4aa85e52ed1	0.46512854648311214
219	0xbfb0f2f3a8e72a44	-0.06620715020759699
220	0x3fdd952885625829	0.46222889924809124
221	0xbfc98666c7e4330b	-0.19941410789797262
222	0x3fabac22eab04b78	0.05404767145969108
223	0x3fb376e1f5934450	0.07603275533189557
224	0x3fd5f4bab8fcf8f4	0.3430620962643751
225	0x3fb9cd0f6305f63f	0.10078521888314017
226	0xbf96dbe20acb49c1	-0.022323161991900656
227	0x3fd467e148be74b1	0.3188403330221475
228	0xbfb7cb330cd97962	-0.09294432700833036
229	0xbfc455380d2e52cc	-0.1588506759986984
230	0x3ff1b20c302e3fdc	1.1059686548287493
231	0x3fa69e8fa9185007	0.04417847575328442
232	0x3fb2e5ba9f68e65f	0.07381788627471896
233	0x3fd91f28d01962e4	0.3925268203943644
234	0xbff06210a6314795	-1.0239416591543649
235	0x3ff1f8d3751e7f70	1.123248536583528
236	0xbfbabbb0a2865820	-0.10442642181291761
237	0x3fb48eeea34663a0	0.08030597196774503
238	0x3fa80b0caee4f550	0.04695930132809656
239	0x3fd9d0cc5d4e881b	0.4033690367888327
240	0x3fe15d1ccbd5a270	0.5426162701742907
241	0xbf4359631abf4f34	-0.0005904897602655224
242	0xbfc365c505e513a3	-0.15154326236566104
243	0xbfbf87cbb465cd3e	-0.1231658282684309
244	0x3fd5d93bac8dd505	0.341383856305882
245	0x3fd4aa3e91c87ace	0.32289089428551854
246	0x3febdc961361689f	0.8706770304227297
247	0xbfd6e985693e3926	-0.35800299909250766
248	0x3fb69dbe8e42a7bc	0.08834448788789379
249	0x3fb52c77b5e76f6c	0.0827097720243139
250	0x3fd1c9c8ee606e83	0.2779409721276595
251	0x3fcc97d17658c66f	0.22338312414790404
252	0x3ff0797d7c239b17	1.0296606873686807
253	0xbfce4e06a2cce403	-0.2367561621593098
254	0x3fc7e94c5ec48719	0.18680719973877372
255	0x3fc7cc4734da781b	0.18592157440883814

bias f8 [112]
0	0x3f9461b93b8a3234	0.019904035815260637
1	0xbfdb372076e6b21e	-0.4252396737236114
2	0xbf93c4f7e8904d70	-0.0193060622878653
3	0xbfeeca3de55b2540	-0.9621877174005604
4	0xbfab3b4137105208	-0.053186452838563325
5	0xbfeabe019589ce24	-0.8356941147489505
6	0xbfc7fd36b9e31d23	-0.18741497112771652
7	0xbfd50b7a5702bfdb	-0.32882555482046677
8	0xbfe9ecbd6e56d249	-0.8101489214955758
9	0x3fd3729479dbb1fe	0.30386840725148534
10	0xbfd6460c4fec2b11	-0.3480253963941076
11	0xbfe636f7b158c80f	-0.6942099059872379
12	0xbfc7acf28db6bd7d	-0.18496543807621527
13	0xbfe33c722f6fc9fc	-0.6011286665437292
14	0xbfa6a63d464d78fc	-0.044237055618156135
15	0xbfea74b0b989e785	-0.8267444251825827
16	0xbfd032ba5951eac2	-0.2530961868539344
17	0xbfd8e0ffd3b114b3	-0.38873286889095054
18	0xbfd62afdc4a8d0d6	-0.3463739796163855
19	0xbf93b8f3e3419177	-0.01926022600709262
20	0xbfe17a14039ca406	-0.5461521215958107
21	0xbfbec0fe647fc991	-0.12013235047905925
22	0xbfd903ac73d5f833	-0.39084922134486816
23	0xbfca4699f84b12c4	-0.20527958511060806
24	0x3f9f0714d160043e	0.030300450591316024
25	0xbfd2f9127c816b1f	-0.29645216139549463
26	0xbfe03df84f05abd6	-0.5075646918679648
27	0xbfcb8f1aa73a858a	-0.21530469098528854
28	0xbfe628a4b68e4011	-0.6924613538303693
29	0xbfb8f8d1075eedef	-0.09754663877441037
30	0xbfe2853c2159c1bf	-0.5787640239123489
31	0xbfba29169e2d7cef	-0.10218945848236037
32	0x3faa461ec2b2643c	0.051316224352554646
33	0x3fbe80199d533fa7	0.11914215174624464
34	0x3fb7f00676b49c9c	0.09350624464115004
35	0x3fbf416a0b7794c5	0.12209189205130418
36	0x3fd25b54f8bc9017	0.2868244580333807
37	0x3fb4c05c06b59682	0.08106017268945645
38	0x3fc2876f2426507b	0.14475812211151493
39	0x3fc41c887f0dd797	0.15712076381504111
40	0x3fc4cf808dff8515	0.1625824635839669
41	0x3fa771aa4c200526	0.04578907183896268
42	0x3fbf8b8e53979fdc	0.12322320500209066
43	0x3fb591911e0e1809	0.08425242408529256
44	0x3fca1be66d15590e	0.20397644354188355
45	0x3fc07f40caffabb3	0.12888345634504858
46	0x3fd5fbc78724a740	0.3434923953778828
47	0x3fb683f56c4732ac	0.08795102971562113
48	0xbfb65aa386fd63ed	-0.0873205380024868
49	0xbf99d6a7835440f3	-0.025232903853123777
50	0xbfbe40833ea0a430	-0.11817188529006795
51	0x3f822e0ac2e71f01	0.00887688071533388
52	0x3f72b0cb7847fc74	0.004563135913939854
53	0x3f64720cb3a4b001	0.0024957893448540607
54	0xbf9229146ef716f0	-0.017734832070138873
55	0x3fb41b32927763a6	0.07854000163878413
56	0x3fa4ac5020462d36	0.04037714380236894
57	0xbfc7e569cc488fe9	-0.18668863749292022
58	0xbf9d97c9be465ca7	-0.02889933799596336
59	0xbf70f6e23b9eef85	-0.0041416966650408326
60	0x3fabb8e8dd43de2d	0.054145123491192805
61	0xbf870afe2aae463e	-0.011251435925973326
62	0x3fb7c2d050ce6b2c	0.09281637165842643
63	0x3f5b362144ed8225	0.0016608548064242026
64	0x3fa42d0d2fcd26fb	0.039406215748909866
65	0x3fb9fb81d4b27b0b	0.10149394457628717
66	0x3fb0c962ec69e9aa	0.06557291290110948
67	0x3fbff02119c63e0e	0.12475783232934409
68	0x3fc54945cfdda949	0.16629860543918998
69	0x3fb4db8566464b34	0.08147462603510008
70	0x3fb6dbd96d73511f	0.08929213449602401
71	0x3fc272a287c024e2	0.14412337902493905
72	0x3fc1a1c15c5e68c5	0.13774888048357617
73	0x3faa25e3acb9299e	0.0510703228324758
74	0x3fb5eda423785ce4	0.08565736642809757
75	0x3fb3d81cae322f57	0.07751635792572863
76	0x3fc343ec815f5e54	0.15051037137048928
77	0x3fb8643de8c79163	0.09527956898779659
78	0x3fc6115a8a8d7674	0.17240459218276138
79	0x3fbbad26fa96344a	0.10811084382858485
80	0x3fbac19739236851	0.1045164598939732
81	0x3fd15ab60d8454bf	0.27116156883250747
82	0x3fc8802078ff6056	0.1914101210411469
83	0x3fc8b807d03d7e46	0.1931161658094302
84	0x3fd6a2da9e2235bb	0.35368981783616577
85	0x3fc9eeded136dd98	0.20260224547903927
86	0x3fc9b6617949f4fa	0.20087831899937908
87	0x3fbefaf74ece5134	0.12101693796131913
88	0x3fc9d313059c9bf3	0.20175397657405333
89	0x3fc7574a50d90462	0.18235138843195658
90	0x3fd2748d9bc43147	0.2883638402133965
91	0x3fbff78276d892ce	0.12487044717324666
92	0x3fd6ff6e1aec2815	0.3593402159609707
93	0x3fbf2008a6a4195d	0.12158254688629229
94	0x3fe41e1d3341f401	0.6286760331273628
95	0x3fb32c4ad6420257	0.07489459734825608
96	0xbff49c87719324b0	-1.2882151066317356
97	0xbff715cfe5b65cf2	-1.4428252194537063
98	0xbfeb149261f76fe3	-0.8462612069520187
99	0xbfeec10d568af68c	-0.9610659303941289
100	0xbffb80d775640941	-1.7189554772927098
101	0xbff316092cd68480	-1.1928798438532624
102	0xbff62676daa7cf53	-1.3843906918745759
103	0xbff50a4eefbe4d73	-1.3150166859603274
104	0xbff08f1ca5e19c57	-1.0349394302118264
105	0xbff1e08cb6201b03	-1.117321692874328
106	0xbff945e3011c966d	-1.5795621913361189
107	0xbff69c2fa9badea3	-1.4131313924862432
108	0xbff2740666d1fdc0	-1.1533264175812832
109	0xbfed47ad70e6980c	-0.9149996953099175
110	0xbffb01e911292c02	-1.6879664106697878
111	0xbff1563f05c35f58	-1.0835561967014282

weight f8 [112, 16]
0	0xbfdb97b757ca1781	-0.4311350209539953
1	0xbfdbada30e07ef40	-0.4324729573270254
2	0xbfdaebb64ccba48e	-0.4206367254215103
3	0x3fac383fdfd69043	0.055116649698249386
4	0xbfdb9c3fe7ce32d1	-0.4314117206311439
5	0xbfc71204d6d92980	-0.18023739328993926
6	0xbfe2584d5266b1c7	-0.5732790574452843
7	0xbfe2b72e840e3aa4	-0.5848610476694671
8	0xbf82b71a3b35ff0a	-0.009138302738164867
9	0xbfdccdf96ada1c4f	-0.45007167277112087
10	0xbfe2bcf4d3573dc4	-0.5855659606694918
11	0xbfca55539f948172	-0.2057289628219326
12	0xbfe4fe3997dae30d	-0.656033321945047
13	0xbfc65ed4ab330273	-0.17476900443400076
14	0xbfd8be711554b093	-0.38662364085281203
15	0xbfc18567132a48d0	-0.1368836253719281
16	0xbffa8cc493892814	-1.65936715727958
17	0xbfe9864c5a507bb0	-0.7976438297226789
18	0xbff9f8f9d1793550	-1.6232851202542697
19	0xbff55f10e32a96b4	-1.3357094644247072
20	0xbff8966932d30094	-1.5367214188882246
21	0xbff22e5d65e7fae1	-1.1363195400914992
22	0xbfeaaba882782aee	-0.8334543750982826
23	0xbfe949b99967fb27	-0.7902496334280372
24	0xbff056fa84a8172c	-1.0212350065134599
25	0xbffc33d13a20d2ae	-1.7626507063516033
26	0xbfe7701645040e00	-0.7324324939694975
27	0xbff0095832924852	-1.0022813773580492
28	0xbfee5121f3cdf8ad	-0.9474038850601311
29	0xbff510bb28958866	-1.3165847382847686
30	0xbff7e98ad8e0bb86	-1.494517180613657
31	0xbff35d20d9558f62	-1.210236405336183
32	0xbfd8cd2cf4be4457	-0.3875229253836258
33	0xbfd66f9747449f8d	-0.35056096992274705
34	0xbfd9676994bdddd9	-0.39693679357102735
35	0x3fbeab410baf6ad3	0.11980062995227607
36	0xbfdacaf916019165	-0.4186384882834971
37	0xbfb18bb31f330fa5	-0.06853789817529206
38	0xbfe12b979038a225	-0.5365712944813522
39	0xbfdbdcb907e49ec3	-0.4353468491631071
40	0x3fb8182716394a33	0.09411854069302521
41	0xbfdb0bf34e998c91	-0.4226043956352408
42	0xbfe1ca61ef16dadc	-0.5559549016678278
43	0xbfc666f7bb3a5169	-0.1750173248480096
44	0xbfe567f48662a430	-0.6689398407662619
45	0xbfb3490de81a83bc	-0.07533347050276878
46	0xbfd620e191928d26	-0.3457569047552219
47	0xbfb27e7b63c3645b	-0.0722424620211241
48	0xbff6930651c2ad5e	-1.410894698502339
49	0xbfe2164235c0cfd1	-0.5652171182505247
50	0xbff5a99cf8464842	-1.3539094637130948
51	0xbfe5204c74aee504	-0.6601927069633864
52	0xbff51c7a205c1b82	-1.319452406316231
53	0xbfe2a834bdea903f	-0.5830329617788336
54	0xbfe6b2f62166bc21	-0.7093458797807025
55	0xbfe38b54a85aeb4e	-0.6107581413446981
56	0xbfe3fc504add8e05	-0.6245500051704204
57	0xbff84504e9d629a8	-1.516850388931383
58	0xbfe2785dafd7e41c	-0.5771931108894282
59	0xbfe2cbb4b7764823	-0.5873664458506521
60	0xbfea979db5c50de1	-0.831007819193868
61	0xbfef02e6e99ca113	-0.9691042483073339
62	0xbff4ff9877730bd5	-1.312401262854782
63	0xbfe4e60b929e7e96	-0.6530816901831311
64	0xbfdbd4c8c0f1fa2c	-0.4348623165350627
65	0xbfd5eace5a843587	-0.3424564250898005
66	0xbfe1cf661c29e655	-0.5565672445365616
67	0x3fcf81c5b8393dba	0.24614783759396436
68	0xbfd90fbebb95d41e	-0.39158600157617396
69	0x3fc50d82f66fa047	0.16447484047898994
70	0xbfe1eb8de0487485	-0.5600041752365007
71	0xbfe850f752c56a50	-0.7598835579513636
72	0x3fc7a6e60770a254	0.18478083956985591
73	0xbfddb1936361ced0	-0.46396336274413574
74	0xbfe1d02b9af6dc5e	-0.5566614176413045
75	0xbfb142ed6456a726	-0.06742747974081151
76	0xbfe8fe7a6c7e5c9d	-0.7810642355933798
77	0xbfad49f1f74cd70c	-0.057204781950003974
78	0xbfd287ddaec6454d	-0.28954259937116406
79	0x3fbb2666f285a551	0.10605472012470797
80	0xbff6dfe90f6157f0	-1.4296656227866116
81	0xbfe363b9075dfca3	-0.605923189534128
82	0xbff693c932b58a95	-1.4110805493188867
83	0xbfea8a97f08966a2	-0.8294181535704477
84	0xbff5caa6327e99fa	-1.3619749042933322
85	0xbfe52eef755f973a	-0.6619794170808071
86	0xbfe7e44bebc7a8a0	-0.7466182332111835
87	0xbfe4fe3e93965c56	-0.6560356981816635
88	0xbfe588b450420ffe	-0.6729375426807562
89	0xbff8ab1c184c4a0a	-1.5417748402729807
90	0xbfe262e437f917d0	-0.5745717137549438
91	0xbfe5f1ac1aa2ffbe	-0.6857510109184586
92	0xbfeb686b55804182	-0.8564964933339498
93	0xbff01201d0a6396d	-1.0043962622035807
94	0xbff5344e47a873d6	-1.3252699660435971
95	0xbfe8acd78ad1fcd4	-0.7710988723119052
96	0xbff9e3c53a495125	-1.6181080128490717
97	0xbfe93f4e08a5349a	-0.7889776390890291
98	0xbff95db0209f50f5	-1.5853730463323334
99	0xbff5d6d0c18008c7	-1.3649451788519842
100	0xbff8680d6ed5f9ba	-1.5254034356617994
101	0xbff289acfdd300cc	-1.1586122431763668
102	0xbfe70e02bc2bb17f	-0.7204602885445154
103	0xbfe9e4c10ecb476b	-0.8091740883776145
104	0xbff56ecf19faf866	-1.3395529761178522
105	0xbffadb19994dd083	-1.6784912098346758
106	0xbfe73aad50dc7cd6	-0.7259127215692398
107	0xbfed6374b0c88cea	-0.9183906033325944
108	0xbfe4d6577e77c084	-0.651164767272363
109	0xbff7c626ea4cf41e	-1.4858769562117753
110	0xbff7209b002bfa39	-1.4454603201589988
111	0xbff3ff8557340720	-1.2498830229164426
112	0xbff9d2d47b3eddc9	-1.6139721693306106
113	0xbfe74e5d97218176	-0.7283161117339165
114	0xbff97fa9abe20c75	-1.5936676706485546
115	0xbff1cdd8e031b7d4	-1.1127556569658639
116	0xbff7fc6e6c474d21	-1.4991287450437272
117	0xbfed6597b2219ea8	-0.9186514357688411
118	0xbfe5170ee6414628	-0.6590647217910304
119	0xbfe49c0ce10f6a82	-0.6440491100032235
120	0xbff117072a207fc0	-1.0681220670303304
121	0xbffb950a91a446ec	-1.7238870324258029
122	0xbfe5667a9fe2f1db	-0.6687596438201199
123	0xbfea12fcc1f367b3	-0.814817789850386
124	0xbfe3fbdb207ed581	-0.6244941363026301
125	0xbff4bb83cff69502	-1.2957800029337823
126	0xbff6d0ad2b5c659e	-1.4259463971887736
127	0xbff041f02e1c897e	-1.0160981942395604
128	0xbff79f4e871c2d32	-1.4763932492958927
129	0xbfe93223f34449e4	-0.7873706580451736
130	0xbff73be5ff048dac	-1.452123638308744
131	0xbfe242f22c466495	-0.5706721176858475
132	0xbff6600275147ed9	-1.3984398435058465
133	0xbfe28b4068f06c5f	-0.5794984864800304
134	0xbfebdeb5cf659902	-0.8709363032074011
135	0xbfea97c6b48c2b0e	-0.8310273672408088
136	0xbfe738117cf9b73d	-0.7255942765166093
137	0xbff927776bc6eac5	-1.5721353731193386
138	0xbfea2d91194ff12f	-0.8180623525982237
139	0xbfe47a1b29fecfcd	-0.6399055309507219
140	0xbfeeb1a3b8a8c5fe	-0.9591845137239827
141	0xbff0404c371423f2	-1.0156976844320948
142	0xbff6830012163f20	-1.4069824892539557
143	0xbfe156d14a2883e3	-0.5418478439715922
144	0xbfd356c1057d7cdc	-0.3021700433364012
145	0x3f91081461fe4027	0.016632383805301878
146	0xbfd60223e82fa8ab	-0.3438806312029878
147	0x3fb00fd118ea700c	0.06274134500785084
148	0xbfce140ac2d34b89	-0.23498663437802872
149	0x3fc2db5502c07b7c	0.14731848368043277
150	0xbfc890ccf3d8f240	-0.19191896349538418
151	0xbfc2d6b306325d24	-0.1471771030671586
152	0x3f9fdc0b68f3a028	0.031112840920201418
153	0xbfdacc37fa7633c3	-0.4187145181575113
154	0xbfc09b528600c249	-0.12974006217111114
155	0x3fc51842984942e4	0.16480286060188754
156	0xbfd1c41e54a73b0f	-0.27759512202185105
157	0xbfbcc48a772e07d6	-0.1123739758459402
158	0xbfd92f03778dd3b3	-0.3934944789428371
159	0x3fa4c8c29606b1eb	0.04059417802213602
160	0xbffbac16b80e5d05	-1.7295138539973902
161	0xbfeb2c7bf112909e	-0.8491801937530175
162	0xbffae5a419f48f03	-1.6810647024039447
163	0xbff8005550b3a210	-1.5000813629541234
164	0xbff924dca9ce32e0	-1.5714995034242563
165	0xbff47e462054c55b	-1.2808285963950172
166	0xbfea08adfa57dbf6	-0.8135595216289164
167	0xbfe974b5c3e52000	-0.7954968286585427
168	0xbff1606c2830da6c	-1.0860406465486916
169	0xbffd6b11341c16fa	-1.8386394534622341
170	0xbfe86efc68ef21f3	-0.7635480927938815
171	0xbff1af5c9bd5a3da	-1.1053129279409775
172	0xbfec364014e857b5	-0.8816223533965429
173	0xbff62b014be4797d	-1.3854992832708313
174	0xbff893c1901c557a	-1.5360732678721818
175	0xbff5e03806429154	-1.367240929082148
176	0xbff7e031f9998cd5	-1.4922351598732366
177	0xbfe302e49f0bb86a	-0.5941031557429259
178	0xbff74a41de037d96	-1.4556292221458071
179	0xbfed3cba01e17228	-0.9136629139644059
180	0xbff5d20515610d0b	-1.3637743792649555
181	0xbfe5d6756b16fdfc	-0.6824290362928305
182	0xbfe82659959adfa5	-0.7546813890430611
183	0xbfe51d430fdfbb9a	-0.6598220167196474
184	0xbfe86d666c461d66	-0.7633545031284654
185	0xbff97d2f345c7860	-1.5930625958785853
186	0xbfe2a64e56a1c43c	-0.5828010265378292
187	0xbfe62b7e625cad63	-0.6928092881329743
188	0xbfebc553db4bda87	-0.8678378375178263
189	0xbff132c433b2df65	-1.0748941440087603
190	0xbff579cf6bbd2aae	-1.342238827567296
191	0xbfeab97af80cca3b	-0.835141643974857
192	0xbff7e72c938610f6	-1.4939389956135165
193	0xbfe8226456abdf1a	-0.7541982357788328
194	0xbff6fc585ac0694f	-1.4366076989159244
195	0xbff2cdf9d7f8a714	-1.1752870975855716
196	0xbff575f8c5b64c4f	-1.3413017008904438
197	0xbfef84c60e5b1787	-0.9849577217471371
198	0xbfe5338a79933f3a	-0.6625416159167579
199	0xbfe7233cf3cc8f87	-0.7230515252781381
200	0xbff35a3974808848	-1.2095274496901016
201	0xbff882af98e913a7	-1.5319057438912098
202	0xbfe547bacc9bdef4	-0.6650060650126464
203	0xbfe9d5db34178e1c	-0.8073555009290803
204	0xbfe1b45ab58e8046	-0.553265909769842
205	0xbff4b3c4faba592a	-1.2938890260753149
206	0xbff4e9913b79c833	-1.3070232699651683
207	0xbff1322c2fbe9611	-1.07474917078196
208	0xbfebe1283337c41a	-0.871234989199482
209	0xbfe3a678de22a09c	-0.6140713060931549
210	0xbfeb95d213d2d56e	-0.8620386492899976
211	0x3fb7573955112345	0.09117468191938112
212	0xbfeb107bad284683	-0.8457620985011122
213	0xbfb689447276bc70	-0.08803203386809044
214	0xbfeb4bf2aa0efd97	-0.8530209847885314
215	0xbfe7b0670bbde411	-0.7402835110980296
216	0xbfb6e49a16773137	-0.08942568825222429
217	0xbfee973dbdd5e616	-0.955962057850402
218	0xbfe48619378a2e63	-0.6413694462548388
219	0xbfd4176315ae3734	-0.3139274322246479
220	0xbfeb04c73ef98ac9	-0.8443332891441396
221	0xbfd9c882264700ce	-0.40286306131384897
222	0xbfebaaf4933ffb97	-0.8646185756659744
223	0x3f8054d0e5aed78e	0.00797427369057482
224	0xbfd4d49c1a13997b	-0.32547667070902947
225	0x3fb0ec7406e135c6	0.06610798995935516
226	0xbfd117202068db8f	-0.26703646817207355
227	0x3fc4256a23bdccf9	0.15739180321870785
228	0xbfaa2e2298585ac3	-0.05113323316270659
229	0x3fc4f2d36421de93	0.16366045369408208
230	0xbfd5349ee863fd33	-0.33133671469109344
231	0xbfc400c317e7ac5f	-0.15627325694308333
232	0x3fbc0c7f2945ad39	0.10956568486806341
233	0xbfddd18183bf9e6a	-0.4659122263533165
234	0xbfcae3079cd74e19	-0.21005339773420031
235	0x3fcc1233245617f9	0.21930541300042686
236	0xbfd88c8537a59b20	-0.3835766833712331
237	0xbfc57183d2cf785d	-0.16752670091131253
238	0xbfe24edf45f17f11	-0.5721279493409118
239	0x3fc5d67e4b0a779a	0.17060831703286966
240	0xbff5e1ab8c83c14b	-1.3675952423910356
241	0xbfe1796424836aac	-0.5460682595397279
242	0xbff5c75294668a0e	-1.3611627385040523
243	0xbfe4d2d37c91b0ca	-0.6507356102934179
244	0xbff46871a116753b	-1.2754989902962979
245	0xbfe122f81c27c5e2	-0.5355186986836851
246	0xbfe62a9605f43f09	-0.6926984897890814
247	0xbfe3a46b6dc07031	-0.6138207572544215
248	0xbfe409047cbeffd1	-0.626100772518834
249	0xbff7b5efcb907785	-1.4819181396228214
250	0xbfe17836c5c615bf	-0.545924555088895
251	0xbfe1871f71d8b167	-0.5477444861949551
252	0xbfe92ce637e3684f	-0.7867308703964769
253	0xbfedcf5cc8860a78	-0.9315627972103604
254	0xbff44e70c15f5cb9	-1.2691505006421677
255	0xbfe33564c700e7ec	-0.6002677809512966

bias f8 [112]
0	0x3f90a14cbb8a3219	0.01624030966427101
1	0xbfda822999e6b214	-0.41419448880586285
2	0xbf88e63fd1209b20	-0.012157915658531915
3	0xbfee2f40483b253e	-0.9432679568064157
4	0xbfa56f9cbe1051fe	-0.04186715908159398
5	0xbfead43f07c9ce28	-0.8384089614978096
6	0xbfc67c483ae31d0b	-0.17566779017781928
7	0xbfd55163ae52bfda	-0.3330926134467497
8	0xbfe953b24e56d245	-0.7914668588696904
9	0x3fd2b189872bb200	0.2920860118890971
10	0xbfd63e5fcaec2b11	-0.34755701843884973
11	0xbfe5ffaf1618c811	-0.687461417348688
12	0xbfc95d06c3d6bd7b	-0.1981514412159234
13	0xbfe32ab889efc9fd	-0.5989649480891895
14	0xbfa61bd0664d78fa	-0.04318095444499366
15	0xbfe9fc1da849e777	-0.8120258604896965
16	0xbfd14690c951eac2	-0.2699319807067405
17	0xbfd8b8f9963114b4	-0.38628997485313765
18	0xbfd6fbebe5e8d0d9	-0.35912606670468744
19	0x3f5118cbcbe6e812	0.0010435095024221614
20	0xbfe13ba9e93ca405	-0.5385331683547753
21	0xbfbcbca994bfc992	-0.11225376016208191
22	0xbfd8de5a3fd5f831	-0.38857132181135784
23	0xbfca8936dc8b12b8	-0.20731244820321648
24	0x3f9a2e0d91600433	0.025566303251256705
25	0xbfd2ec9f2a816b1f	-0.29569224501544683
26	0xbfe006dda4b1abda	-0.5008381096534962
27	0xbfccb99afd3a859b	-0.22441422810247222
28	0xbfe74747f08e400f	-0.7274512956955749
29	0xbfbca2f5a55eede5	-0.11186156546948885
30	0xbfe28a9c4d79c1be	-0.5794202340312535
31	0xbfb76263722d7cfd	-0.09134503877202245
32	0x3fad1777f2b26429	0.056819675804213716
33	0x3fbc1b44b3533f97	0.10979108217293142
34	0x3fbc29a316b49c78	0.11001033119519998
35	0x3fbbbad29e7794bb	0.1083194386370278
36	0x3fd11b48c2bc9015	0.26729029671901233
37	0x3fb0768b53b59687	0.06430884164509552
38	0x3fc0b46325265079	0.13050498308132655
39	0x3fc3ac37a88dd79f	0.15369315843753115
40	0x3fc413b66bff850f	0.15685158036561872
41	0x3f96a00c984009bb	0.022094914238559343
42	0x3fc0536e278bcfea	0.12754609042133264
43	0x3fb50af38a0e180d	0.08219835396275262
44	0x3fcbaaf5e0155905	0.2161547989041496
45	0x3fbe7f2b19ff576b	0.11912793526366065
46	0x3fd5a77c8ea4a743	0.33834756784436965
47	0x3fb61780044732aa	0.08629608253904544
48	0xbfba9753af7d63ec	-0.10387156519335833
49	0xbf9434a65354411f	-0.019732092700963762
50	0xbfc0c1cab5505206	-0.13091405728540922
51	0x3fab40f9a0b9c7e3	0.05323009573920936
52	0xbf4a94283dc01d04	-0.000811118744878409
53	0xbf8f5bad7b16d371	-0.01531158000839536
54	0xbf74438d9fdc5d28	-0.00494723627141206
55	0x3fb2403b527763a8	0.07129259837473845
56	0x3fa18bb14b462d4a	0.03426889461396827
57	0xbfc7aae926488fe9	-0.18490328187283403
58	0xbf9dd9d872465cb4	-0.029151327109130334
59	0xbf9d4b480ee7bbc2	-0.028607488546125166
60	0x3faff9ef4d43de23	0.062453725988174356
61	0x3f838ab2d2d1b900	0.009541890200321479
62	0x3fb69d9c26ce6b0a	0.08834243724269811
63	0x3f8ba0cabb9db030	0.01349028000887395
64	0x3f8edea17f349da8	0.015073072142128677
65	0x3fb5b5f044b27afb	0.08480741192986933
66	0x3fb285da5f69e9aa	0.07235493497311177
67	0x3fbcdbc0a0c63dff	0.11272815632968756
68	0x3fc654116fdda947	0.1744405552120247
69	0x3fb24206b3304b36	0.07131997942660181
70	0x3fb72effc7735113	0.09056089991947074
71	0x3fc13ad17a0024de	0.13460749108370512
72	0x3fc2a6ded83e68cd	0.14571748312739033
73	0x3fa2eb3ba8b9299a	0.03695093569384085
74	0x3fb6e7f6a3185ccc	0.08947698098960472
75	0x3fb67d58d3322f61	0.0878501430144616
76	0x3fc3d53a2e5f5e5e	0.15494467987331267
77	0x3fb13d9ba0c791b9	0.06734631228716283
78	0x3fc5b78e668d7672	0.16966419227076163
79	0x3fb91c4d2a96344e	0.09808809556689477
80	0x3fbd8305bd83684e	0.1152804935149174
81	0x3fd187953f4454bf	0.2739003293839452
82	0x3fc748a3097f6056	0.18190420116184453
83	0x3fc6e063cd3d7e46	0.178722834792085
84	0x3fd85a698c2235bf	0.38051832852292117
85	0x3fc9f783b736dd98	0.20286604352962168
86	0x3fcd3366a149f4ef	0.22813113093790302
87	0x3fbfb27fface5130	0.12381744263831673
88	0x3fc880be089c9bf1	0.19142890377517532
89	0x3fc7121a5e99045c	0.18023995989827568
90	0x3fd3721cbb443145	0.303839857938119
91	0x3fc2583ebb6c4967	0.14331802512658529
92	0x3fd6a8f43c2c2817	0.35406213642329604
93	0x3fc16112f8520cae	0.1357749664785834
94	0x3fe3cc611109f402	0.618698628691732
95	0x3fb509e6c2c20257	0.082182333515456
96	0xbff490c2b27724ae	-1.2853419276528188
97	0xbff733c468565cf4	-1.4501384807279551
98	0xbfeaabb973376fdf	-0.833462452919317
99	0xbfef3c0eb6caf68e	-0.976081234948383
100	0xbffb4d625904093f	-1.7063926198175776
101	0xbff331eeaac20482	-1.1996905012349832
102	0xbff639991c47cf55	-1.38906203314851
103	0xbff4fc6948264d72	-1.3116238420814992
104	0xbff0682cd5019c57	-1.0254333801801943
105	0xbff26eb2dfa01b02	-1.1520260558478985
106	0xbff9396b35bc9670	-1.5765182589615527
107	0xbff6493cd9fadea2	-1.3928802981226132
108	0xbff2a7cbbd979dc0	-1.1659657865474031
109	0xbfed36b98d08980c	-0.9129302744447627
110	0xbffb36e23fa92c01	-1.7008993613005716
111	0xbff132710bb35f59	-1.07481484003616

weight f8 [3, 16]
0	0x3f705f90292591fb	0.003997386100625717
1	0xbfe1b8b8bb7f66d4	-0.5537990247787214
2	0x3fc4a0c4e51a9e94	0.16115628420560724
3	0xbfd4dd94bd9fddbb	-0.32602423208251324
4	0x3fd546f1425205b1	0.33245498158074854
5	0xbfd91c3171cdfea8	-0.39234577287423145
6	0xbfdabbae59b795b9	-0.4177051426071006
7	0xbfe4773bb35c7b25	-0.6395548346662038
8	0xbfd2b79f21b6b9a2	-0.29245737354622225
9	0xbfc54b35026d5554	-0.1663576375819199
10	0xbfe196dec34fc08d	-0.5496667685201985
11	0xbfc0c595e65563e9	-0.13102983233218815
12	0xbfe10b1f1cf1ad2c	-0.5326076093018961
13	0xbfc9e2d578ae0b0e	-0.2022349204308615
14	0xbff21cc146a8d9df	-1.1320202598704936
15	0xbfc30cef514fe0c2	-0.14883223982156407
16	0xbfd3840e107793a2	-0.3049349938212861
17	0xbfcc413b03e22596	-0.22074067773455103
18	0xbfe4abbeed5837d5	-0.6459650645863301
19	0xbfd102f6a6d4004f	-0.26580587665376226
20	0xbfed352fd49c3dd5	-0.9127425339265139
21	0xbfd27a2916de7255	-0.28870608552259586
22	0xbfdf3ad5ce70cf93	-0.48796601448270244
23	0xbfc97ae08bbcf4f4	-0.19906241248273882
24	0xbfd0f53d4b0d6b4a	-0.2649682267125867
25	0xbfb7ff087987f849	-0.09373524634426746
26	0xbfdbe5d05de27d34	-0.435901729282665
27	0xbfe2ee2c9507c990	-0.5915739928007486
28	0xbfe5bc8cd8b02166	-0.6792663795650185
29	0xbfd71839b0dccc03	-0.36085359832503644
30	0x3fdfaaaef089965c	0.4947926854132214
31	0xbfe029b1f3b264c5	-0.5050897369102577
32	0xbfe07dbfec02868a	-0.5153503045623478
33	0xbfe3f702287bfe0f	-0.6239023962697859
34	0xbfd579b93a912a89	-0.3355544158882045
35	0xbfc8afb011ab32ef	-0.19286156523448691
36	0xbfec6672f9ead18c	-0.8875059968182071
37	0xbfd1b1b91674b601	-0.2764723510070724
38	0xbfa9624af787bd8c	-0.049578039852231276
39	0xbf853c02aa54f80c	-0.01036836702644097
40	0xbfce44d05005dd08	-0.23647502810829502
41	0xbfe1f0dc1c6b657b	-0.5606518321102806
42	0xbfdd1b2028c3e0f0	-0.45478061657878666
43	0xbfdbc98ceadbc420	-0.43417666373631114
44	0x3fe1ab579cf3055b	0.5521658006111169
45	0xbfd22152194d7f2e	-0.2832837340447324
46	0xbfe6e44ec0af8ea6	-0.7153695834535554
47	0xbfd099e8f74ef148	-0.25939392234046865
