Retweet/RetweetNetsV9/TrainNet_ep17V2.pt (torch, 23477 bytes, 6 tensors)

scale f8 [3]
0.30292278835074943 0.35832662870775484 0.2769516279450835
00000000: 8b7e 4b43 1663 d33f cb7c e5cf d2ee d63f
00000010: 2947 2652 93b9 d13f

weight f8 [112, 3]
0.4836694432837939 -0.07335808479508829 -0.6519907470293469 -0.5848073248164984 -0.22829327677833836 -0.37687675162009293 0.6863428770871619 -0.37335488572820763
-0.30780602716558025 -0.8538842029063042 -0.827795081674999 -0.5507291758254984 1.0359829131023819 -0.9037451489370726 -1.0774251542295734 -0.7792736333617659
-0.7521064177178314 -0.4596490022734067 -0.20605772827790858 -0.23351448854268572 0.3131197538871719 -0.5732667534124231 -0.13894369068072918 0.11168357527654416
-0.6508663746083562 -0.6229543094983042 -0.44440106176735 0.11802336530590236 0.853890240836832 -0.8308475222272214 -0.4548332823976289 -0.3059058178090552
-0.1368053400674119 -0.525136628005496 -0.6996422012974739 -0.39162863521902314 -0.16817061659454222 -0.3790307823318887 0.7688254251225942 -0.3075466102716532
-0.5099310214066664 -0.6024487602144307 -1.721454851939775 1.55563355936206 -0.9595342835675174 -0.6135839015152288 -0.832019167555487 -0.4792440675888832
0.4944056755911731 -0.41290292687687613 -0.8643227195858169 -0.35735757920555805 0.18421227250389877 -1.3905412327983069 0.6137409048494682 -0.7287433517092876
-0.4092746985719632 -0.010887054889795545 0.050025890183003144 -0.32694710921671283 1.0680063821972379 -1.2665727201281745 -1.3759140452130039 0.011484486247976126
-0.04955259550187091 -0.6986491842289947 -0.055426494134994016 -0.5534509173669214 0.021680486811775188 -0.44599021467557903 0.20094138278365098 -0.07700877419178198
0.1318977088926676 0.03245324410313696 -0.4955356829422299 -0.0938230297301833 0.17092235860539 -1.1655986764873627 -0.37335662244040196 -0.3021271497392824
-0.9933106272384388 0.4253210722153841 -0.5806873807231354 -1.0553790732494015 -0.36268768246390976 -1.0422652558452952 0.5450922933088744 0.08877291278740385
-0.1494692795805476 -0.4715053338708241 -1.659465211548208 1.2348243736892284 -0.9140988453881443 0.35202440053065287 -0.3166809264810908 -0.6368633963769071
0.17525712246582642 -0.0922091309438678 0.3462117114170411 0.046195433659779635 0.18731589694933917 0.24639886231403527 0.8654963358381518 -0.6604639854014147
0.2955027684416487 0.04342202202701749 0.11582762359312855 0.4197939961444927 0.6972020510499892 -0.024237078211215783 0.38379430394520014 0.005050627149506245
0.04827805476687844 0.3457139277268817 0.06515027370775855 0.018399843196501144 0.5078991653809553 -0.0070256194320745795 0.08192970802702841 0.5516990299618192
0.07196903143045245 0.1405755346554264 0.4869428084444162 0.0158686744850693 0.3234668740693325 -0.10236189880408515 0.0748851562682669 0.10755743418911232
0.2964587794322018 0.11217922428413624 0.01907546442159012 0.36128224833979017 -0.13182053298611604 -0.18889493049524786 1.2127620814681905 0.05373584632176389
0.08250929397000903 0.432305494367487 -0.11784501852062514 0.5195138545425462 0.49734719004959943 0.07440898519308904 0.05908541277731545 0.41941178567376575
0.21289705916680335 -0.17043421985620508 -0.5579031088808978 0.053592974063743734 0.13803278310931155 -0.9541457954407119 0.6863257788592568 -0.7672095364531003
-0.4202161746715053 0.0048575420107690205 0.05309408898379966 -0.10224204544038303 0.5757012314268963 -0.4533068592764512 -0.9053529878885765 0.005210822366726048
0.0667603008306559 -0.358792380148647 0.07816958185087727 -0.07008751314595266 -0.17663363228735632 -0.015594532570902828 0.11364819984749025 0.13182047389520762
0.04037880637643724 0.08715410466293637 -0.01649815369790958 -0.059101155234463645 0.21926521024923956 -1.0335432326321934 0.09655355128089534 0.10444958698916768
-0.8885126351338206 0.09579488790959795 -0.00404583074250114 -0.56538766522251 -0.13747906291423534 -0.43497457113148896 1.117239898956769 0.037713205913241135
0.024000444019433815 -0.2184335240465431 -0.4031223293524514 0.9259992286525762 -0.8838529221007222 0.05944808876550487 0.029656386141111303 -0.3162985195118887
0.27842440884116587 -0.04239808555467577 -0.005686390544478732 0.04028548422937884 0.17365680953608417 0.20228984087979449 0.8341302417394141 -0.543883158648191
0.1710331643523276 0.05087163773063046 0.140942430538109 0.4184714980188256 1.038997429490482 -0.550542722529765 -0.19509215698072538 0.004187517228832639
0.09407889572531708 0.35948563051434496 0.02898921767396532 -0.01729199933901219 0.5258601163631335 -0.04152702077561067 0.11405150463022641 0.5699410188729346
0.06025378994103768 0.16400426867477133 0.4766855560731201 -0.1329181093032611 0.5117695085862545 -0.29393288728365957 0.044479458953076347 0.0935453964496083
0.24959686058369013 0.10097067311672604 -0.016857896688782972 0.32950433127804085 -0.15465250420991064 -0.2213156814035949 1.3133365584903047 0.03428131030198701
0.05853442249444229 0.39884614931901824 -1.0970645468074869 1.229449120348783 -0.24130095677098132 0.08840120799151367 0.045213026390542824 0.41091553742709236
0.5628038001778154 -0.045096280222274396 -0.20592172258845287 -0.17681517812945818 0.37543466525665226 0.29964907916290934 0.946475334592655 -0.4581964166452676
0.11993588004522115 0.06369659278238586 0.28279578498075164 0.2765075841836012 1.126467321882712 -0.28985163356913335 0.1345437607293503 0.16443048648217148
00000000: 769e 3eae 70f4 de3f ce93 176f 98c7 b2bf
00000010: 1424 f9b2 1bdd e4bf 1e8a d1d9 bdb6 e2bf
00000020: 116f d4ce b638 cdbf 562f b5aa bf1e d8bf
00000030: 31d2 5d56 85f6 e53f 3849 00e4 0be5 d7bf
00000040: d005 0c0d 18b3 d3bf 21b7 c1f6 0453 ebbf
00000050: 3eae 721c 4c7d eabf 1ef4 e3ca 929f e1bf
00000060: 28d5 afd1 6293 f03f db4e 53f2 7aeb ecbf
00000070: 42dc 9428 223d f1bf 6b90 3d42 cfef e8bf
00000080: b0b6 667a 4111 e8bf dbcf 19a6 e36a ddbf
00000090: 8055 0582 1960 cabf 9b6c b781 cde3 cdbf
000000a0: 8353 ab6f 270a d43f 654b b984 3358 e2bf
000000b0: 6bc9 ba27 e8c8 c1bf 1028 5077 4b97 bc3f
000000c0: 8549 20b8 e5d3 e4bf bf51 46e0 3def e3bf
000000d0: e94c a626 1171 dcbf 1d18 277e c736 be3f
000000e0: 7791 58a0 1153 eb3f acb6 fd8a 4d96 eabf
000000f0: f4ed 410e fd1b ddbf 7f58 c9fe f593 d3bf
00000100: 12fc c05e d682 c1bf ede3 6654 ebcd e0bf
00000110: d22b af0a 7863 e6bf 2257 1c8d 7110 d9bf
00000120: b7fa 3561 9d86 c5bf 86bc 9253 0a42 d8bf
00000130: cd83 27c7 379a e83f b231 47fa d7ae d3bf
00000140: 4e0a 85dc 5a51 e0bf 0f60 549f 4247 e3bf
00000150: 1ff3 293e 148b fbbf 6c52 e003 e0e3 f83f
00000160: 5e06 ea3d 81b4 eebf 0f85 cbb4 7aa2 e3bf
00000170: 8378 49a9 e69f eabf 3d29 464f efab debf
00000180: 66bc e7b3 57a4 df3f 9af7 d665 006d dabf
00000190: 95f2 b91e 88a8 ebbf 3799 ea52 f2de d6bf
000001a0: f689 f68a 4494 c73f 65bb e929 a83f f6bf
000001b0: 2078 51f7 c3a3 e33f 249a d893 dd51 e7bf
000001c0: 0699 5c81 8e31 dabf ad86 9cc5 f34b 86bf
000001d0: 4a1d 9454 fe9c a93f a3e1 6691 b3ec d4bf
000001e0: 784d 37dc 8d16 f13f e24c afc1 e143 f4bf
000001f0: 2cc0 2472 be03 f6bf 6f77 c5a6 2d85 873f
00000200: 5893 3932 f55e a9bf e37f b488 555b e6bf
00000210: 8191 4887 dc60 acbf 2d07 c1b2 deb5 e1bf
00000220: 6c90 45d7 6833 963f 4587 978a 1a8b dcbf
00000230: 9601 bc7d 72b8 c93f 00a4 a8d6 d8b6 b3bf
00000240: 4040 0e2d 06e2 c03f 6ce7 242c b69d a03f
00000250: cb39 0f4c dbb6 dfbf 8882 4d3c c904 b8bf
00000260: 46c3 2eaa c8e0 c53f be62 3ccc 4aa6 f2bf
00000270: 5519 c82c 13e5 d7bf 594a d71c 0d56 d3bf
00000280: 5544 585e 33c9 efbf 1fbe dddf 7538 db3f
00000290: 0cfc acb3 fd94 e2bf d0d2 c72a d5e2 f0bf
000002a0: b30c b665 4636 d7bf 46cd 3955 1ead f0bf
000002b0: 3006 a264 6571 e13f 984b 3155 d2b9 b63f
000002c0: 950e c731 cf21 c3bf 1358 37b5 242d debf
000002d0: 3b30 c764 2b8d fabf 5fc8 d433 d7c1 f33f
000002e0: 2f1c c838 4c40 edbf 0a15 eb59 9187 d63f
000002f0: 8035 a013 8044 d4bf 67aa 6e58 2f61 e4bf
00000300: 8ade b04c d36e c63f 05e7 cb81 049b b7bf
00000310: 00d1 812a 5528 d63f 412a 9689 eda6 a73f
00000320: 718b b5a1 f7f9 c73f 9b87 b477 ff89 cf3f
00000330: 3c72 275f 25b2 eb3f 4884 2f5e 8522 e5bf
00000340: dc65 9571 84e9 d23f ae80 1049 693b a63f
00000350: 7d4e 4e0f e1a6 bd3f 13db 1fa3 e7dd da3f
00000360: aad7 feac 7a4f e63f 3e31 12c9 9ad1 98bf
00000370: 697c f5fb 1590 d83f a317 e766 f7af 743f
00000380: c42d adb4 e6b7 a83f 5cf4 564f 2d20 d63f
00000390: 3478 e636 b0ad b03f 873b 1f93 68d7 923f
000003a0: c042 1fc0 b540 e03f fe51 1e5b e5c6 7cbf
000003b0: ab02 8c68 58f9 b43f 5278 5db9 84a7 e13f
000003c0: 138f 51fc 8f6c b23f 153c fb0d 61fe c13f
000003d0: 5ea2 522b 122a df3f 73e7 c6b7 e03f 903f
000003e0: 84e5 5d67 aeb3 d43f 6552 b8af 6334 babf
000003f0: 43c8 2071 ac2b b33f 4eae 484e e288 bb3f
00000400: 207f 913e 2ef9 d23f b44c 9713 c7b7 bc3f
00000410: 1b10 63bf 8488 933f f8a9 4f94 3f1f d73f
00000420: a3ee 0ec7 7edf c0bf 70bb 6d86 b52d c8bf
00000430: 9ac1 5b36 7967 f33f c353 26cd 4383 ab3f
00000440: f69c 373f 541f b53f 4220 0caa e4aa db3f
00000450: c9e7 8a54 172b bebf 4a88 e284 db9f e03f
00000460: 4d50 014f 89d4 df3f 49d0 ee9d 770c b33f
00000470: ba34 1977 7140 ae3f 77a6 c187 a4d7 da3f
00000480: 909b 44f9 3540 cb3f 136a 33dc c9d0 c5bf
00000490: a95d df9e 57da e1bf 1e5e cccd 8970 ab3f
000004a0: 407c 9de8 0eab c13f 9714 61c3 5c88 eebf
000004b0: 8545 d37a 61f6 e53f 33da 8703 fb8c e8bf
000004c0: bab7 dd61 d2e4 dabf e403 3481 80e5 733f
000004d0: 03b9 97ff 252f ab3f a54d 71e1 882c babf
000004e0: b4da 27fd 246c e23f ee44 e9c5 fa02 ddbf
000004f0: 7d27 4ad4 a6f8 ecbf 47d9 677a f157 753f
00000500: 4221 bdfc 3317 b13f 50b7 b250 74f6 d6bf
00000510: 666d 97f5 eb02 b43f d2e0 d158 41f1 b1bf
00000520: 1921 064d ee9b c6bf 8583 1bbb 06f0 8fbf
00000530: 4c20 9865 0c18 bd3f 9a5c 2948 7edf c03f
00000540: 8537 ade9 87ac a43f 174e 3d3d bb4f b63f
00000550: b0bf 4e5a e4e4 90bf 0a93 c6b1 8142 aebf
00000560: e6e4 95e5 e110 cc3f ac84 f2a0 6489 f0bf
00000570: 2569 10c9 bbb7 b83f 9cfd 3248 35bd ba3f
00000580: f870 bf0c b26e ecbf fc19 b286 0386 b83f
00000590: 3b4c 966b 5c92 70bf c628 76df a717 e2bf
000005a0: 9af9 8cf7 e998 c1bf dc7c 6695 9fd6 dbbf
000005b0: 03e4 bcf1 36e0 f13f 72a3 0c34 254f a33f
000005c0: 259e 9c88 9293 983f 9ea1 1035 a1f5 cbbf
000005d0: aaca 3699 c1cc d9bf aae3 6522 c9a1 ed3f
000005e0: 41b1 5cec 8548 ecbf fd76 1dda fa6f ae3f
000005f0: 1ade 5f62 3e5e 9e3f f6e9 4425 3c3e d4bf
00000600: 5561 989c b4d1 d13f 879d bdad 33b5 a5bf
00000610: 87ad bbd6 9c4a 77bf d193 898a 4ca0 a43f
00000620: 0fb4 d7e6 623a c63f 3b25 722d a2e4 c93f
00000630: ee02 9ce7 31b1 ea3f 33a7 67a7 7d67 e1bf
00000640: 9b5a b62b 6ae4 c53f 47ac b1e8 d80b aa3f
00000650: bed4 e3cc 660a c23f 9122 93ad 3cc8 da3f
00000660: 8ea2 c4c4 bb9f f03f d81d 8ac5 0b9e e1bf
00000670: a91a f8a0 c7f8 c8bf 34d2 c918 ee26 713f
00000680: dc4f 62f4 8d15 b83f 2f3a 9c04 d001 d73f
00000690: 1a9e 6277 59af 9d3f 8af4 926e feb4 91bf
000006a0: fb9c 4198 d8d3 e03f e25b 4398 0743 a5bf
000006b0: 4148 72ba 7a32 bd3f 5aa9 96f2 f43c e23f
000006c0: ae7c 83b2 95d9 ae3f b767 2e85 17fe c43f
000006d0: e5d0 7322 0482 de3f ec77 40ea 7503 c1bf
000006e0: 7bf9 ce72 6a60 e03f fd89 86e2 cbcf d2bf
000006f0: 7d2f 18fb 02c6 a63f 9442 7152 97f2 b73f
00000700: 8413 b238 caf2 cf3f b935 e4ca 36d9 b93f
00000710: 54a7 d44b 3243 91bf b5b0 ae55 9916 d53f
00000720: 9dbc e93b a7cb c3bf eb35 dc7e 1254 ccbf
00000730: 7ab6 f531 6d03 f53f 21dd 38e5 518d a13f
00000740: af95 9b4c 39f8 ad3f 5f7c ddff b186 d93f
00000750: 3c3a e28d 938d f1bf 63e7 3fd7 d2ab f33f
00000760: 7d95 e922 f3e2 cebf 2b1d 4029 76a1 b63f
00000770: a2b0 666b 2926 a73f 61ba aaae 704c da3f
00000780: e980 7a1d 7d02 e23f ceab 7311 dc16 a7bf
00000790: 78d5 069c a45b cabf de4f c037 e1a1 c6bf
000007a0: 48f8 431e 1f07 d83f 5bff d154 732d d33f
000007b0: bd79 11a4 8649 ee3f 2fb1 2810 1753 ddbf
000007c0: a844 692a 1eb4 be3f 33f2 dd7e 6b4e b03f
000007d0: 3018 fc7d 5319 d23f ba87 cadd 4cb2 d13f
000007e0: b6fb 3799 0206 f23f 5ac8 b7dd ed8c d2bf
000007f0: f950 1bde ba38 c13f 8701 f4e4 0e0c c53f

bias f8 [112]
-0.02243832210052858 -0.45833265876774143 -0.019696435016786806 -0.9819923052963331 -0.0714994519749879 -0.850946410343437 -0.21398681133247457 -0.3121652724146187
-0.8318621542322887 0.26044288717220204 -0.38513414433407916 -0.7185390476649858 -0.1806829215311282 -0.6296312650308509 -0.05089870003733873 -0.8393322417755299
-0.2790330427695945 -0.3591401532735069 -0.35989540476972226 -0.009074722346080597 -0.5805806081807386 -0.11423868131876237 -0.3823896336496073 -0.18279235547870595
0.04112286846794338 -0.3420574430849184 -0.5157884824676996 -0.20061958582628267 -0.7367409791852623 -0.09688366069013649 -0.5833454133302078 -0.08325180606506098
0.02593903514436163 0.1156687892499704 0.07580137743161003 0.13503035635237592 0.3195722062231173 0.0791371373383196 0.12914875570297385 0.1351969370708088
0.1789358726612696 0.009416453459847185 0.11311412404061967 0.09138225096361086 0.2066369721744518 0.11973082340698374 0.38203198364640106 0.09256233082177288
-0.09520627707942769 -0.03623179697668722 -0.13541277509905086 0.008840560877426983 0.009505221365471788 -0.004717681585877322 -0.030975524055421776 0.05700916474606187
0.04688675933572379 -0.21620117886167095 -0.032356891883746845 -0.0030788631212197953 0.04890259406668098 -0.02439425679412597 0.09187890934978923 -0.0050251673011451545
-0.002024201173482016 0.09380377193575545 0.046957960957460416 0.13720921618651857 0.1331598884148038 0.0789678473742489 0.069462830052778 0.1262037381282964
0.15341607806146193 0.012962859843680438 0.0673968469128159 0.08294748998948763 0.14677005124863912 0.08222642706317243 0.1544850010652546 0.11235429952578807
0.05173910115756903 0.25480660946915407 0.16729155898888567 0.19223782332586986 0.34482874976059186 0.1975810046575716 0.16036416019963645 0.08500044338117341
0.20058973431610752 0.1564686535302369 0.2792767569733924 0.1190854652403572 0.38467776748448507 0.09748596677758234 0.6725076596098187 0.06170602376379788
-1.2895881862496494 -1.4498227422101762 -0.820202321875481 -0.9520776992355617 -1.7393671464810936 -1.196776892503029 -1.4157708833942286 -1.3462278350046122
-1.0266555702266673 -1.1206854232438666 -1.6101668668545344 -1.4237882069206451 -1.0507513788725948 -0.9231968182204169 -1.686618273991089 -1.0865089307861262
00000000: eb41 654e 12fa 96bf c427 0681 5255 ddbf
00000010: 10c4 fa60 4d2b 94bf 187c 8520 7b6c efbf
00000020: 631c eabf c94d b2bf 685b 62f7 f33a ebbf
00000030: e961 397a eb63 cbbf 19ef fd0c 84fa d3bf
00000040: 33a6 6661 9d9e eabf e558 b8a4 18ab d03f
00000050: 5738 9fae 09a6 d8bf dad7 d399 45fe e6bf
00000060: cc01 7633 9e20 c7bf 7417 7b77 f025 e4bf
00000070: 2b79 23f8 640f aabf bfef 1c4a cfdb eabf
00000080: c6b8 4c68 addb d1bf 725e 3ffb 26fc d6bf
00000090: 6cdd 5dbc 8608 d7bf a5d5 929d c495 82bf
000000a0: 7d7f 9ac8 1d94 e2bf b1c6 3308 bf3e bdbf
000000b0: e0af b65e 1279 d8bf 5bb3 5e6a bd65 c7bf
000000c0: 7703 607e 0e0e a53f 7dcc d9e6 44e4 d5bf
000000d0: 8b45 fbd8 5681 e0bf 2fcd 0710 e7ad c9bf
000000e0: b328 67d1 6193 e7bf 444f 2e1a 5ecd b8bf
000000f0: 88cb 1000 c4aa e2bf 17e3 6188 fd4f b5bf
00000100: 4f10 8a2e c38f 9a3f 321d ff42 789c bd3f
00000110: 147e 0f15 b867 b33f 4c16 40ba ac48 c13f
00000120: 3a16 9cfb de73 d43f 7f63 c4d8 5442 b43f
00000130: 621c 0849 f287 c03f f786 9e1b 224e c13f
00000140: e2a7 94e4 5ee7 c63f b31b 3cfd ee48 833f
00000150: ad5b 7817 0cf5 bc3f b0d5 52c3 d364 b73f
00000160: 251e d18e 1473 ca3f 6a2c dbe2 ada6 be3f
00000170: 1d63 f246 3673 d83f 8f96 b837 2ab2 b73f
00000180: 2c18 6e46 705f b8bf 812c 2e5e f98c a2bf
00000190: 5269 41b0 3455 c1bf 2c57 c6fe ff1a 823f
000001a0: 695e 3f37 7977 833f c211 fd01 d952 73bf
000001b0: d690 2d3b 0cb8 9fbf 6f2f 5024 4e30 ad3f
000001c0: f9b9 ec93 8a01 a83f 9aa4 48f0 7aac cbbf
000001d0: b7bd e120 1591 a0bf 7794 430d d838 69bf
000001e0: 6373 69c4 c209 a93f 7a61 90dc cefa 98bf
000001f0: 6678 d94e 6085 b73f b80f 7213 4595 74bf
00000200: 0e71 e6ba 0e95 60bf 749c b424 8603 b83f
00000210: 21c2 32b5 df0a a83f d78d 1d54 1290 c13f
00000220: 3ab7 f01a 620b c13f 596d e8a1 3c37 b43f
00000230: f141 5de7 50c8 b13f fb6d f2af 7127 c03f
00000240: 172f fa56 23a3 c33f 98db ba98 458c 8a3f
00000250: 8114 5875 eb40 b13f 6746 caf4 0b3c b53f
00000260: 3e94 126d 5cc9 c23f ea6e 1a87 ca0c b53f
00000270: 1a1e a61d 2ac6 c33f 443b 075a 40c3 bc3f
00000280: 09da ca26 8c7d aa3f d760 9e61 c04e d03f
00000290: f786 604f cf69 c53f 3692 1ebe 3f9b c83f
000002a0: ce4e bc9a ac11 d63f fe54 a898 554a c93f
000002b0: 4a04 c113 d086 c43f 38b7 77cc 96c2 b53f
000002c0: 8587 66a6 ecac c93f 9179 e132 2a07 c43f
000002d0: 4af4 6e9e abdf d13f 2de3 a292 627c be3f
000002e0: a506 b67f 8f9e d83f c6ef 201f d7f4 b83f
000002f0: 70ad 8ac8 2e85 e53f 633c 1094 ee97 af3f
00000300: d300 d438 27a2 f4bf cca2 ec54 7932 f7bf
00000310: e0de 91f0 183f eabf 16f7 aea6 6b77 eebf
00000320: 60f8 1da5 72d4 fbbf 568b de86 ff25 f3bf
00000330: 76ea ac5e ffa6 f6bf 81f4 c432 268a f5bf
00000340: 8713 2664 2e6d f0bf 30fb 9ed6 53ee f1bf
00000350: 60e3 2355 3ec3 f9bf 7479 9224 d6c7 f6bf
00000360: 55c1 87ad e0cf f0bf f2e4 c00d d48a edbf
00000370: 0a0b 7a71 63fc fabf 0a9d 4830 5762 f1bf

weight f8 [112, 16]
-0.4583824697647995 -0.436827282112091 -0.4580383005977611 0.03845075166452919 -0.4714323396270017 -0.1640916241318535 -0.5906673355471099 -0.5798950736002768
-0.029615965030672424 -0.48054726699139444 -0.5984267129581661 -0.19722903619691468 -0.6614709228848418 -0.1896920839669955 -0.41271399409140785 -0.1427050190368692
-1.7086440916572037 -0.8615834466426056 -1.6880653280346938 -1.4007571878349938 -1.6044615536520228 -1.2064481909422027 -0.9119448131183804 -0.8790887184765317
-1.0734113711879534 -1.829103733441893 -0.7974565253649298 -1.0607258966299444 -1.0632634122106266 -1.3734107150512622 -1.5881372125068407 -1.275941628604243
-0.38271443294004964 -0.2765343679606277 -0.39641775867983103 0.16852397379410952 -0.42641694388728185 0.03605988496568562 -0.4827737221966235 -0.3441129493450993
0.13510959227081742 -0.4269458439652989 -0.5457538284538236 -0.05275906609557833 -0.617917553786322 -0.029238427120921485 -0.3501991702811915 -0.003105958711501967
-1.444179428709455 -0.5942789699089428 -1.395186739293954 -0.6668838397362503 -1.3682425735724102 -0.5916591175966305 -0.7507853344876163 -0.650365957388829
-0.627990585960392 -1.5608755806692733 -0.6063334188604359 -0.6022872937079897 -0.9212639329077796 -0.9776985067527455 -1.3758862241455432 -0.6571972573144613
-0.4478999955654709 -0.22005654903170646 -0.5796686437003962 0.2503454880717655 -0.4334094460635639 0.18722244370490637 -0.43913014938756223 -0.6876910709809847
0.1851483212791155 -0.4709271102005223 -0.4087305596676849 -0.03510065673892762 -0.6572195101624995 -0.056426481791421096 -0.28841214144376004 0.10659516616945319
-1.4643342101949077 -0.6379111721010732 -1.4539257628102003 -0.8457307656405656 -1.4102694093482762 -0.6715744074032116 -0.792090090747722 -0.6976072205689635
-0.6852893790904738 -1.5888374898704172 -0.6059976398083112 -0.699610108596249 -0.9541863906867092 -1.019969774920549 -1.3938925896702175 -0.7798164981475515
-1.6543491505965648 -0.8183456609354639 -1.6286618541339613 -1.4000381745885355 -1.5768891715539077 -1.201748622480005 -0.7141878034411511 -0.819969759130864
-1.3647591899263838 -1.7252283747103416 -0.7435754902077567 -0.9477222458776242 -0.6375567834806819 -1.5243550695074297 -1.5059562028124236 -1.292698849057193
-1.638478594803559 -0.7289183494991236 -1.6193092274302952 -1.094779173062098 -1.537975430653754 -0.9056829356746907 -0.6101006240552432 -0.601235068155541
-1.0456420584003423 -1.7546761739316405 -0.6576994526976041 -0.802109326059102 -0.5643699868540796 -1.295946149744533 -1.4700815560210907 -1.0086649792533522
-1.513247941804257 -0.8268848010083768 -1.4987598430847944 -0.5823103478209717 -1.4545763642116494 -0.5956052529312921 -0.9201566819554449 -0.8768647780010169
-0.7332422594111355 -1.620757830881236 -0.8577954020043485 -0.6637790510677601 -1.0635596493046742 -1.0292679305825454 -1.4776718337078611 -0.5528975740417157
-0.3109309177561067 0.045228529800181765 -0.3652553679682863 0.046140361879808536 -0.24472702763806028 0.17598329066540874 -0.17846402570693645 -0.18322760767682994
0.010489669256837152 -0.4646540344674657 -0.1130790111544522 0.21844770733687405 -0.2817524907217057 -0.12256830342749278 -0.44706592807509565 0.05326815233370394
-1.7799559020161368 -0.9140633703811549 -1.744716448382111 -1.5544745855716873 -1.6369467493932734 -1.3463023165173198 -0.8844077676778366 -0.8698432460004101
-1.1270025520223588 -1.904409405402766 -0.8276053114154841 -1.1648315794091892 -0.9914521264494065 -1.4371846057190105 -1.6226990011505096 -1.4267359225161587
-1.5289239362516804 -0.6287709908226835 -1.5013389096549474 -0.9442081523400533 -1.4164615012160255 -0.7066641889011512 -0.8091219675424809 -0.7144066226697366
-0.7874451028632967 -1.6459552352782736 -0.6197756117340955 -0.7155619081852822 -0.9737544863443236 -1.1007201072849961 -1.4213076840012426 -0.8573044960268013
-1.4886655784120288 -0.7242882916605181 -1.4280150469953328 -1.0829647975851597 -1.335128427192332 -0.8998352911235393 -0.6274790660249944 -0.6620078829496415
-1.1126666894839667 -1.5252616152359468 -0.6429089678430171 -0.7587448360694571 -0.536801509952146 -1.2260046898744539 -1.3043950735759748 -0.9880373883395606
-0.893517329987716 -0.6369233713618093 -0.8890125313171142 0.09327198592252853 -0.8779832861928273 -0.08192914348024083 -0.8880744988374425 -0.7711169356777074
-0.08532648377871539 -0.9866207660663453 -0.6582792707409031 -0.3286285882548785 -0.8932056411912688 -0.4002121202901841 -0.9100925653403699 0.016653075160621388
-0.3228889511130784 0.06073605916492544 -0.2659086735664952 0.15002581853614663 -0.04893574493184662 0.14899998789112587 -0.29233212953971766 -0.16999476386038498
0.10406645397496371 -0.4673275349465737 -0.17028096545774404 0.2074747823621855 -0.39493738178673726 -0.17367285492119483 -0.5796139472764665 0.1650796116005753
-1.3952893164501876 -0.5675239423068273 -1.3927835470330212 -0.6528140843865589 -1.3121820942219495 -0.5319622606817248 -0.7259565225646194 -0.6426549797467519
-0.625128215191494 -1.5209625331805101 -0.566277911124916 -0.5518924289075962 -0.8572160794806023 -0.9341065148136433 -1.3264023565395089 -0.5941780859269823
00000000: fbc4 2c6d 2356 ddbf fe01 ab6a faf4 dbbf
00000010: d17f 58e0 7f50 ddbf 24c1 cf21 d1af a33f
00000020: 1862 3e8c f22b debf 97cf 984f f400 c5bf
00000030: 80b0 1f2f bfe6 e2bf c230 071d 808e e2bf
00000040: 7e20 fcc4 a553 9ebf 0941 fa52 49c1 debf
00000050: c7a8 26c7 4f26 e3bf d8c7 2412 cd3e c9bf
00000060: 5f73 a111 c52a e5bf ee62 7988 d447 c8bf
00000070: 3658 cef4 e769 dabf 3d84 de76 2844 c2bf
00000080: b6bd e22f 9b56 fbbf c45b c372 1792 ebbf
00000090: 75ba 16ca 5002 fbbf 2e36 765e 8069 f6bf
000000a0: 21ff c9e0 dfab f9bf 59a4 469e 9c4d f3bf
000000b0: 7535 83e3 a62e edbf c674 04aa 7e21 ecbf
000000c0: 2882 e666 b12c f1bf acfd c146 0244 fdbf
000000d0: c992 0d8c c384 e9bf f5bb c0b7 bbf8 f0bf
000000e0: eca5 e77e 2003 f1bf 37f0 9183 7df9 f5bf
000000f0: 9270 d490 0269 f9bf fd5c e7c4 416a f4bf
00000100: 19d2 4bad 647e d8bf 6a19 a734 bdb2 d1bf
00000110: f957 4597 e85e d9bf 17d2 048e 3192 c53f
00000120: 7131 1d4b 6a4a dbbf 9712 40f5 7076 a23f
00000130: d4f8 0cc1 c3e5 debf be4e e451 f205 d6bf
00000140: 48eb 1668 454b c13f f89e 3fa9 1453 dbbf
00000150: eb07 9cbb d076 e1bf be61 e57e 3c03 abbf
00000160: d05e a408 fbc5 e3bf 5a56 15a1 adf0 9dbf
00000170: 5c6b dcc7 a969 d6bf cf08 d6e2 aa71 69bf
00000180: 25cf 7de3 5b1b f7bf 0ab4 8e54 5504 e3bf
00000190: 5d49 9154 af52 f6bf 3dbd 3cc7 1c57 e5bf
000001a0: 63d0 2753 52e4 f5bf dba5 0e1a dfee e2bf
000001b0: 7c1a 3ef7 6e06 e8bf 0456 ad44 cccf e4bf
000001c0: 12aa 9cb6 7f18 e4bf b697 41ac 58f9 f8bf
000001d0: 3447 8f57 1567 e3bf 8eb5 a800 f045 e3bf
000001e0: 1458 da7f fe7a edbf 063c fb60 4e49 efbf
000001f0: 738d fb45 a103 f6bf e0f7 e58a c207 e5bf
00000200: 7643 35be 64aa dcbf 744f ae20 d02a ccbf
00000210: 52b7 6641 a58c e2bf 800a fe14 a905 d03f
00000220: feb5 27f9 fabc dbbf 5017 65b0 e7f6 c73f
00000230: bea8 9357 b51a dcbf 58aa 73b4 9001 e6bf
00000240: 0ccc 66b0 f0b2 c73f 231b 4776 ab23 debf
00000250: c080 a938 a428 dabf c40c 8699 b6f8 a1bf
00000260: 491d ce35 f107 e5bf 0451 d88b eee3 acbf
00000270: 324c d132 5875 d2bf 5807 9c20 d249 bb3f
00000280: c837 73b5 e96d f7bf 1bab bdb0 c469 e4bf
00000290: 7e4e 21a9 4743 f7bf 6fb6 74f7 3910 ebbf
000002a0: 8a33 fba7 7690 f6bf 7313 949c 897d e5bf
000002b0: 8ee8 6751 cd58 e9bf 4f82 b960 cc52 e6bf
000002c0: e1ab effd e3ed e5bf 4d6f 1adc e06b f9bf
000002d0: 9dc1 8d29 5564 e3bf 96e6 0bbd 3463 e6bf
000002e0: cc34 c9e5 b188 eebf 6913 a3d3 cb51 f0bf
000002f0: 4753 ec50 624d f6bf 6c99 8dba 41f4 e8bf
00000300: 5aa4 9fd0 3678 fabf 8352 513d e32f eabf
00000310: 29f8 7bbb ff0e fabf 1626 d06d 8e66 f6bf
00000320: 5dd9 d323 f03a f9bf e508 79c3 5c3a f3bf
00000330: 126b 5f61 a0da e6bf 45a2 6538 313d eabf
00000340: 6a63 7abb 0dd6 f5bf c531 7811 899a fbbf
00000350: 5e95 91d3 5ecb e7bf dc8d 779a bd53 eebf
00000360: 368f cc7b dd66 e4bf 636b 3024 c263 f8bf
00000370: 6e9a 0488 6518 f8bf 9370 04fd e4ae f4bf
00000380: 8209 be54 3537 fabf 74b2 1193 4c53 e7bf
00000390: 4bc9 deca b0e8 f9bf 544c 8a2a 3784 f1bf
000003a0: a959 0b20 8c9b f8bf 0494 a8c7 5afb ecbf
000003b0: 49c4 72be f185 e3bf d2f6 5d53 513d e3bf
000003c0: ec6c c22a f3ba f0bf 78b5 e152 2713 fcbf
000003d0: aadd fdb8 df0b e5bf b7b1 672d e1aa e9bf
000003e0: 293b 8ca5 510f e2bf 6c7a a807 32bc f4bf
000003f0: 9703 d93c 7485 f7bf fa37 a8e3 7d23 f0bf
00000400: 169e 4c79 4336 f8bf 897e 3c1d d775 eabf
00000410: 6fb7 e999 ebfa f7bf 406e 804f 49a2 e2bf
00000420: 8b2d 9ddd f145 f7bf 7a4d 55bf 320f e3bf
00000430: 6b39 066d ec71 edbf d9ea 10b9 460f ecbf
00000440: 45e9 8678 b876 e7bf d4ee 65c3 9fee f9bf
00000450: 3992 c857 0f73 ebbf e463 8390 ad3d e5bf
00000460: aabd 711f 5704 f1bf 31c7 4aa6 e177 f0bf
00000470: 09ee 7f38 8ba4 f7bf 4480 d140 56b1 e1bf
00000480: c2f9 c4ca 4ae6 d3bf bf06 ada0 3128 a73f
00000490: de2e 070d 5860 d7bf b248 99a2 b59f a73f
000004a0: 8b8d 131a 3753 cfbf 4473 06d7 9e86 c63f
000004b0: ed3e f6c0 e8d7 c6bf 7620 5993 0074 c7bf
000004c0: c655 3b93 9b7b 853f 9180 7f46 e4bc ddbf
000004d0: 71bb c5fe bef2 bcbf 69f3 722f 18f6 cb3f
000004e0: 5cd7 4d99 3b08 d2bf 264e bfe6 a260 bfbf
000004f0: 5742 0f69 ba9c dcbf fc19 6298 f645 ab3f
00000500: 2db4 370a b37a fcbf 6a46 48d3 0140 edbf
00000510: d282 69cb 5bea fbbf 95e5 37be 20df f8bf
00000520: 7b00 1f13 ef30 fabf ed88 3f4c 748a f5bf
00000530: 4a26 d084 114d ecbf dbfb c680 c1d5 ebbf
00000540: f51c f7d3 3308 f2bf 1d65 26ff 7578 febf
00000550: 13d0 5022 be7b eabf 6391 2e70 26a3 f2bf
00000560: a2cb 54cf f9b9 efbf 7d0b fe48 b5fe f6bf
00000570: c717 533a 93f6 f9bf c1c3 f30b e9d3 f6bf
00000580: 645c 04f2 7876 f8bf de38 4857 e41e e4bf
00000590: 80e2 d2f2 7b05 f8bf 0159 dd03 f436 eebf
000005a0: 1a41 fc88 d3a9 f6bf c5b6 9237 fe9c e6bf
000005b0: 7f3e a2c0 53e4 e9bf d131 0d47 6bdc e6bf
000005c0: d22e 8612 c032 e9bf e633 2328 d555 fabf
000005d0: e333 e8a9 33d5 e3bf 9c69 3d16 e2e5 e6bf
000005e0: 29d4 252b ff28 efbf 316b edaf 8c9c f1bf
000005f0: e36b 4520 adbd f6bf 92c3 a4d6 096f ebbf
00000600: 915e 5fff 92d1 f7bf 25d8 b1a3 5e2d e7bf
00000610: 5aa7 504e 26d9 f6bf 728f 45e5 d253 f1bf
00000620: 0704 2ca0 af5c f5bf 1331 6561 73cb ecbf
00000630: 2f10 70fa 4e14 e4bf 21d0 de27 2b2f e5bf
00000640: 64ea 2a96 7bcd f1bf 3b85 34b9 7867 f8bf
00000650: a41b e6d3 b592 e4bf 9eab 1d40 a347 e8bf
00000660: 2903 365c 7a2d e1bf ef0d fc17 b79d f3bf
00000670: 3f28 615e cdde f4bf e698 c495 009e efbf
00000680: 7d9b d6a7 b197 ecbf 39d3 411f ad61 e4bf
00000690: c2b7 7768 ca72 ecbf 5a94 2b41 ace0 b73f
000006a0: e93f 9467 7018 ecbf c840 d6ef 4ef9 b4bf
000006b0: 9463 1d36 1b6b ecbf 6414 846c fdac e8bf
000006c0: 15f0 4fd9 f4d7 b5bf c4e6 79b6 6592 efbf
000006d0: eaf0 6eb0 9f10 e5bf 6c76 c533 4008 d5bf
000006e0: 5e9d 30ff 2395 ecbf 75fc 064c 139d d9bf
000006f0: 3907 8f71 7a1f edbf d652 c5f4 800d 913f
00000700: 794e 516b 36aa d4bf d440 9af7 cb18 af3f
00000710: ab36 2cd0 a504 d1bf 7d8d 15c8 0b34 c33f
00000720: 42e4 2c20 1b0e a9bf 5763 8c7d 6e12 c33f
00000730: 205c fcd1 91b5 d2bf aac3 a26f 63c2 c5bf
00000740: 77e3 6e60 19a4 ba3f c769 c7bf b1e8 ddbf
00000750: 43db e244 c4cb c5bf 4bc2 7e9e 888e ca3f
00000760: 557b af70 a746 d9bf 3a74 0b80 e93a c6bf
00000770: da73 7b8c 328c e2bf 09ca 8726 5421 c53f
00000780: bbc9 e9e3 1a53 f6bf 3df4 7cf8 2729 e2bf
00000790: 889e 8e66 d748 f6bf dcde d95c dae3 e4bf
000007a0: f147 d1a6 b2fe f4bf 0db2 0ab8 d505 e1bf
000007b0: 2274 572c 093b e7bf 83f6 132d a190 e4bf
000007c0: f7bc 01e3 0c01 e4bf c739 27cf dc55 f8bf
000007d0: 9551 97da f21e e2bf 202e a24f 1aa9 e1bf
000007e0: 4c2f 5f6a 506e ebbf 495d 8358 33e4 edbf
000007f0: d8ca 6aad f138 f5bf f0cc e1c2 8103 e3bf

bias f8 [112]
-0.0261020482515182 -0.4472874738499929 -0.012548288387453466 -0.9630725447021884 -0.06018015821801847 -0.8536612570922961 -0.20223963038257733 -0.3164323310409016
-0.8131800916064033 0.24866049180981364 -0.38466576637882127 -0.711790559026436 -0.19386892467083633 -0.6274675465763112 -0.04984259886417624 -0.8246136770826437
-0.2958688366224006 -0.356697259235694 -0.37264749185802426 0.011229013163434186 -0.5729616549397032 -0.10636009100178503 -0.380111734116097 -0.18482521857131437
0.03638872112788407 -0.3412975267048706 -0.5090619002532313 -0.20972912294346635 -0.7717309210504678 -0.11119858738521496 -0.5840016234491124 -0.07240738635472306
0.0314424865960207 0.10631771967665718 0.09230546398565997 0.12125790293809963 0.30003804490874897 0.06238580629395865 0.1148956166727856 0.13176933169329882
0.1732049894429214 -0.014277704140556137 0.11743700945986163 0.08932818084107091 0.21881532753671784 0.10997530232559588 0.3768871561128879 0.0909073836451972
-0.1117573042702992 -0.030730985824527185 -0.14815494709439211 0.053193775901302504 0.004130966706653512 -0.02252505093912673 -0.018187928256694973 0.0497617614820162
0.04077851014732312 -0.21441582324158476 -0.032608880996913774 -0.02754465500230413 0.05721119656366253 -0.0036009306678311407 0.08740497493406091 0.006804257901304588
-0.026357344780263192 0.07711723928933761 0.05373998302946279 0.1251795401868619 0.14130183818763853 0.06881320076575063 0.07073159547622472 0.11668785018706247
0.1613846807052761 -0.001156527294954498 0.07121646147432305 0.09328127507822061 0.1512043597514625 0.05429317036253878 0.15174460115325483 0.10233155126409799
0.06250313477851323 0.2575453700205918 0.1577856391095833 0.17784449230852467 0.37165726044734726 0.19784480270815402 0.1876169721381604 0.08780094805817101
0.1902646615172295 0.154357224996556 0.2947527746981149 0.1375330431936957 0.3793996879468104 0.11167838636987354 0.662530255174188 0.0689937599309978
-1.2867150072707327 -1.457136003484425 -0.8074035678427793 -0.9670930037898158 -1.7268042890059614 -1.20358754988475 -1.4204422246681627 -1.342834991125784
-1.0171495201950351 -1.1553897862174372 -1.6071229344799682 -1.403537112557015 -1.0633907478387148 -0.9211273973552621 -1.699551224621873 -1.0777675741208579
00000000: 0542 65ce 7eba 9abf ba27 06a4 5ba0 dcbf
00000010: 7a88 f5c1 eab2 89bf 167c 6583 7dd1 eebf
00000020: af38 d406 efcf aebf 6c5b a269 3151 ebbf
00000030: d161 39fb fce2 c9bf 18ef 4d64 6d40 d4bf
00000040: 2fa6 6641 9205 eabf c8b1 1064 1bd4 cf3f
00000050: 5738 9f29 5d9e d8bf dcd7 93fe fcc6 e6bf
00000060: ca01 9669 b2d0 c8bf 7517 fbd1 3614 e4bf
00000070: 2779 2318 f884 a9bf b1ef dc38 3c63 eabf
00000080: c6b8 4cd8 83ef d2bf 735e bfbd 20d4 d6bf
00000090: 70dd 9ddd 74d9 d7bf 4c2a 6da2 3cff 863f
000000a0: 7c7f 3aae b355 e2bf b2c6 7338 6a3a bbbf
000000b0: deaf b62a c053 d8bf 4fb3 9e4e 5aa8 c7bf
000000c0: 7303 60de 8aa1 a23f 7dcc d994 d1d7 d5bf
000000d0: 9245 a72e 3c4a e0bf 40cd 0766 67d8 cabf
000000e0: b128 670b 05b2 e8bf 3a4f 2eb8 8277 bcbf
000000f0: 87cb 302c 24b0 e2bf 25e3 615c 4a89 b2bf
00000100: 1408 45c7 3a19 a03f 221d ff58 a337 bb3f
00000110: f07d 0fb5 54a1 b73f 942c 8007 c20a bf3f
00000120: 3816 9cc5 d233 d33f 04c7 884b 08f1 af3f
00000130: c938 1094 cc69 bd3f ff86 1e45 d1dd c03f
00000140: dca7 94c2 942b c63f 67e5 c302 a13d 8dbf
00000150: a45b f812 5a10 be3f b4d5 522f 36de b63f
00000160: 1c1e d101 2402 cc3f 742c db66 5727 bc3f
00000170: 2063 724e eb1e d83f 8d96 b8cf b445 b73f
00000180: 2a18 ee6e 209c bcbf 2859 5c8c f177 9fbf
00000190: 3f69 41c6 bdf6 c2bf f495 b1ef 363c ab3f
000001a0: afbc 7eee a1eb 703f 2544 7f94 ce10 97bf
000001b0: 3391 2d34 db9f 92bf 752f 50a4 5f7a a93f
000001c0: 0dba ecbe ebe0 a43f 9aa4 484a fa71 cbbf
000001d0: b7bd e17a 1cb2 a0bf 7072 a881 aa34 9cbf
000001e0: 5973 6934 c94a ad3f a20e 83ee b27f 6dbf
000001f0: 4478 d924 2c60 b63f 18f0 8d12 c8de 7b3f
00000200: 40cd 5c77 6bfd 9abf 649c b494 f4bd b33f
00000210: 2dc2 329b ce83 ab3f ca8d 9d17 e205 c03f
00000220: 38b7 f0ba 2d16 c23f 5b6d d2ee bd9d b13f
00000230: e541 5d41 771b b23f eddb 6444 41df bd3f
00000240: 1f2f dad2 40a8 c43f 8a23 29ba d3f2 52bf
00000250: 6914 f8f4 3d3b b23f 7146 ca19 48e1 b73f
00000260: 4894 121a aa5a c33f 90de 347e 50cc ab3f
00000270: 181e a6f9 5d6c c33f 483b 078a 6632 ba3f
00000280: 016d c597 3400 b03f d760 5e93 9f7b d03f
00000290: f786 e0df 5132 c43f 3692 1ebb 9bc3 c63f
000002a0: d24e bc88 3bc9 d73f fe54 a87e fa52 c93f
000002b0: 3f04 c13b d503 c83f 34b7 7778 1f7a b63f
000002c0: 8387 66a9 975a c83f 8b79 a140 fac1 c33f
000002d0: 48f4 eebd 3add d23f 9271 51c9 ae9a c13f
000002e0: a706 f6a0 1548 d83f ccef 2069 f496 bc3f
000002f0: 71ad 52a6 7233 e53f 321e 8836 93a9 b13f
00000300: d100 b879 6296 f4bf cea2 8cd7 6d50 f7bf
00000310: dcde d101 40d6 e9bf 18f7 ee06 6df2 eebf
00000320: 5ef8 bd88 fda0 fbbf 580b ca04 e541 f3bf
00000330: 78ea 4ca0 21ba f6bf 80f4 2c8b 407c f5bf
00000340: 8713 4693 3e46 f0bf 2ffb 1e00 7a7c f2bf
00000350: 63e3 c389 c6b6 f9bf 7379 d254 e374 f6bf
00000360: 5561 4d04 a603 f1bf f2e4 e229 e079 edbf
00000370: 090b fa9f 5c31 fbbf 0b9d 3836 893e f1bf

weight f8 [3, 16]
0.034853233601724425 -0.544000306653487 0.21035935892343646 -0.3222169440929336 0.3890174583189518 -0.3935828805378232 -0.39350469573409913 -0.6549632723239033
-0.29191650081227905 -0.15881047265052653 -0.5643929624174352 -0.10448007298497473 -0.5624239779316209 -0.19525186104746825 -1.1941141366229886 -0.13420657250513668
-0.29012817123914453 -0.20401029787645453 -0.6915844491840692 -0.25245538687815056 -0.9697175943767858 -0.25897539551164034 -0.49908250879312127 -0.18477390113676842
-0.25603969027883494 -0.055247443029171506 -0.44527137102843073 -0.6071230432292398 -0.7559914916769618 -0.3531820223609015 0.5634483554738599 -0.5014728652760603
-0.5349686602465488 -0.6271817195505334 -0.3038478322604794 -0.15681977920254872 -0.9377480371256004 -0.29204528018333215 -0.06730366705613852 0.0014166537853751418
-0.1963813649495849 -0.6054112095568306 -0.3930365651785094 -0.45788703308959783 0.6547149446475116 -0.24925141725361413 -0.7906909254709877 -0.2577153415179371
00000000: df60 f574 48d8 a13f ffe6 c254 7368 e1bf
00000010: 67e9 7d33 0eed ca3f 4f28 46d1 339f d4bf
00000020: 6363 437b a9e5 d83f 2c3a 0b40 7630 d9bf
00000030: 5506 c051 2e2f d9bf 37cb 5689 75f5 e4bf
00000040: 1cb2 098c c2ae d2bf 9ded 25cd e653 c4bf
00000050: 379d 75d4 810f e2bf 67dd 8dc0 34bf babf
00000060: 307b f691 60ff e1bf 2f4c d752 03fe c8bf
00000070: cdca c76c 171b f3bf 28ae e853 ae2d c1bf
00000080: dbb4 c7bf 7591 d2bf 849a b66a 021d cabf
00000090: 385e f5b5 7521 e6bf c5cd 95a3 3a28 d0bf
000000a0: e587 4631 ed07 efbf f93b 8c89 0d93 d0bf
000000b0: e569 51c3 f7f0 dfbf 79b4 44d3 aba6 c7bf
000000c0: a96f 0e4c f462 d0bf b0ee fe91 6449 acbf
000000d0: 5a61 1a7e 537f dcbf 9c29 ea4d 8d6d e3bf
000000e0: 5dd1 9911 1531 e8bf 49d0 e4c4 889a d6bf
000000f0: c4d8 77d8 c407 e23f a025 86d2 100c e0bf
00000100: 859a 8498 761e e1bf 72cb c365 df11 e4bf
00000110: 703b a12d 3e72 d3bf cf3b 85a7 ab12 c4bf
00000120: f8f6 ea2b 0802 eebf 1bab d5af deb0 d2bf
00000130: 5630 e828 d03a b1bf f761 636b e035 573f
00000140: a04b 004a 0623 c9bf 5fb5 3554 875f e3bf
00000150: 4aba 64d6 8227 d9bf 7b77 186a 054e ddbf
00000160: 18d5 6ec1 6cf3 e43f 85ff ca6e 78e7 cfbf
00000170: 2a8a 440e 574d e9bf 07cf df7c 687e d0bf
