Retweet/RetweetNetsV9/TrainNet_ep18V2.pt (torch, 23477 bytes, 6 tensors)

scale f8 [3]
000000 bc 14 72 16 2c 4b d2 3f 02 d4 25 2b d3 ae d5 3f
       0.28583814804035135 0.33879546369217917
000010 de 5b 46 80 37 f4 d0 3f
       0.26490581061210416

weight f8 [112, 3]
000000 ca d7 3e 28 e7 27 e0 3f 21 28 ab 16 20 07 b8 bf
       0.5048709665340934 -0.09385872415001063
000010 78 96 6e 5a d0 34 e6 bf 94 27 42 a7 0e 13 e3 bf
       -0.6939470068216016 -0.5960763232007928
000020 b3 8f b5 c6 19 5f ca bf ba c0 74 22 f4 21 db bf
       -0.20602724268530678 -0.42394736637926267
000030 21 15 c4 2d 3c 25 e8 3f 29 4a c9 b4 54 a6 d9 bf
       0.7545452970377121 -0.4007770314684956
000040 ca 4e eb f9 62 2e d3 bf 59 9c 21 6e e5 39 eb bf
       -0.2997062149636177 -0.8508174086572452
000050 43 24 99 80 20 06 eb bf 92 32 97 bc a8 93 e1 bf
       -0.8444979201968937 -0.5492747958574731
000060 3f fd 89 3e 11 81 f1 3f d9 df 8c ad 94 28 ee bf
       1.0940105860643852 -0.9424537076620211
000070 ce ab 39 ae 5b 4c f2 bf e8 c1 13 90 a8 d8 e8 bf
       -1.14364212090253 -0.776447564507234
000080 6e 45 f8 ce c2 32 e8 bf 53 64 bb b4 f5 ab dd bf
       -0.756196407545003 -0.46362059259042104
000090 a9 b8 cf ea 2c 7c ce bf b4 85 75 3b de 3d cd bf
       -0.23816453423882436 -0.228450564415693
0000a0 cc 87 2a 70 bb d1 d5 3f 0d a5 a0 0e 41 78 e2 bf
       0.34092603639339525 -0.5771794591611595
0000b0 c8 ed d8 4f 23 ae be bf 73 e8 58 b5 67 b3 c3 3f
       -0.11984463405035861 0.15391250948761445
0000c0 58 aa 3a 9d b9 ac e4 bf 2a 42 c2 5a 32 8b e4 bf
       -0.646084601486403 -0.6419917843468899
0000d0 a5 ea d0 0d 3d 7f dc bf 70 1f fb 3e 13 fe bc 3f
       -0.44526602124430276 0.1132518795740205
0000e0 e7 b7 52 ca 1f f1 eb 3f 69 60 99 d4 e8 49 ec bf
       0.8731841041205798 -0.8840221550299364
0000f0 9c 4f f4 15 14 b5 de bf 39 57 4e 86 db a3 d2 bf
       -0.47980215209940424 -0.2912510692198001
000100 11 e8 b2 fe 33 76 c5 bf d4 90 22 d9 02 77 e0 bf
       -0.1676697724959131 -0.5145277253073126
000110 28 0f 92 c9 25 25 e6 bf e1 c2 56 bb ea 41 da bf
       -0.6920346199917491 -0.4102732495767168
000120 54 c9 bd 00 70 57 ca bf 9a 2a e1 c6 b6 36 da bf
       -0.2057933810825242 -0.4095894758399169
000130 07 55 82 cb 48 4f ef 3f c0 9a 1e 46 f4 b6 d4 bf
       0.978428266028147 -0.3236666378747195
000140 56 db 3b 71 7f dd e0 bf 84 48 21 14 31 25 e3 bf
       -0.5270383082960091 -0.5982900040783226
000150 8a da ab bf 6f 08 fc bf fe fd 16 b3 6a 9f f9 3f
       -1.7520596968803681 1.6014201160140824
000160 14 bb 33 a3 82 6b f0 bf f5 24 b9 2b 0b 9d e3 bf
       -1.0262476325112333 -0.6129203657120842
000170 9e 18 7a 42 85 b7 ea bf f2 80 2e bc 4a d7 de bf
       -0.8349024103524874 -0.481890376826427
000180 a6 d0 27 81 5d a5 e0 3f 60 7d e9 f3 01 3a db bf
       0.5201861879891296 -0.4254155046418955
000190 40 ff 24 9c 4c cb ec bf fb 86 13 28 bc 0a d7 bf
       -0.8998168039033558 -0.36003021157931386
0001a0 fe 05 52 4f 48 c1 cf 3f 70 0e 6e 5a d6 20 f6 bf
       0.24808601258341406 -1.3830169231813692
0001b0 fb 86 ab 0e b1 80 e5 3f ea 26 ef d0 4e 8a e8 bf
       0.6719594275020592 -0.7668832855935908
0001c0 51 ce 29 75 dc 83 d9 bf 94 fe 2d 2b 9d 21 85 bf
       -0.39867316667298264 -0.010318019752730202
0001d0 5c 81 5c 41 b0 bc a9 3f 53 b6 e8 dd 8c 64 d4 bf
       0.0502677039896777 -0.3186371008949653
0001e0 f4 c8 e4 21 d4 77 f1 3f 19 ff c9 d6 8e b4 f4 bf
       1.0917550395939175 -1.2940815344044891
0001f0 0f 1f 50 58 29 80 f7 bf f4 40 c0 95 2e d7 82 3f
       -1.4687894296384376 0.009199489541089602
000200 87 15 49 ad 12 82 9a bf ea 70 f6 c3 60 77 e5 bf
       -0.025886813951975476 -0.6708225085635864
000210 ca 5e f9 65 58 1b ab bf 67 7b fb 56 cb 6c e1 bf
       -0.05294300312806184 -0.5445305537103707
000220 d8 65 e3 81 c0 dd b1 3f b4 a7 72 17 d8 0c db bf
       0.06978991671657953 -0.42265894212561794
000230 96 88 91 8b 5a 91 cc 3f 0d 91 2d 6c 1c ef 8b bf
       0.22318584265582747 -0.013639661837892914
000240 97 19 c6 76 42 3d c1 3f 86 cc f1 24 91 dc 9a 3f
       0.13468199538710898 0.02623202121726511
000250 64 6e 10 09 3c 7f df bf bb 86 48 8a 02 2c ba bf
       -0.49214077840017567 -0.10223403812463065
000260 ff 46 6a f9 81 1d c8 3f 55 11 e9 15 88 b7 f3 bf
       0.18840050390695492 -1.232307515704709
000270 20 98 fa bf b5 27 d9 bf 27 a4 a7 0e c7 7f d3 bf
       -0.39304870365083566 -0.30467392378938246
000280 5e b2 5e 77 d4 89 ee bf 0e 02 cf 9b 23 e7 db 3f
       -0.9543249446338213 0.43598261085210843
000290 c7 b4 71 be f6 84 e1 bf fb e6 c5 60 b0 fd f0 bf
       -0.5474809379208175 -1.0619357853124132
0002a0 c1 22 54 88 e9 18 d8 bf 88 54 bb a3 3e 16 f1 bf
       -0.3765205222448849 -1.067930831505949
0002b0 71 ed d4 3e b7 ec e2 3f 48 ed 82 b2 37 c9 b3 3f
       0.5913959719832019 0.07728908641995702
0002c0 63 8b 4a 96 6b cb c3 bf f1 e0 1b 07 0c a4 da bf
       -0.15464539373814565 -0.4162626332686293
0002d0 66 f1 c4 ed 07 3a fb bf c8 fc d0 44 5b 85 f4 3f
       -1.7016677177299129 1.2825577438487006
0002e0 5b 67 06 5d 69 a0 ee bf 45 13 be 52 f0 ed d5 3f
       -0.9570814911742035 0.3426476295501753
0002f0 f4 47 9e 40 ae 4b d3 bf ee 81 02 28 e4 20 e4 bf
       -0.3014941817319816 -0.629015043396121
000300 f9 06 37 87 b7 e6 c1 3f 5e f1 20 2d 0a 28 bf bf
       0.13985342123310554 -0.12170470811628806
000310 7f 86 6e a1 cd d6 d9 3f 4d 1f eb fa ad 11 a9 3f
       0.4037355495912393 0.04896300971955601
000320 18 c8 6e b6 80 05 ca 3f c4 dd fe 69 f7 6e c8 3f
       0.20329293163155238 0.19088642764630326
000330 2a 99 d8 05 a8 43 ec 3f c8 fa cb 45 49 99 e7 bf
       0.8832588304692639 -0.7374616969317112
000340 70 ee ed fd 4a a1 d6 3f 33 08 e6 27 19 15 aa 3f
       0.35359453962130427 0.05094221698801995
000350 1f a4 9a 28 b0 1d c0 3f af 44 16 73 60 c4 da 3f
       0.12590600950832795 0.4182358859917014
000360 d9 0c 06 eb 06 8a e7 3f f0 bc d0 78 37 0b 75 bf
       0.7355990019135802 -0.005137650191542095
000370 19 eb 09 2d f3 17 d8 3f 15 ef 54 6f 92 b2 8a 3f
       0.3764617862540703 0.013035911581588825
000380 5b dc e7 f0 6b 62 b0 3f 81 5e ca f4 26 ac d6 3f
       0.06400179511534658 0.35425733475992877
000390 b1 21 a6 49 ea 84 a9 3f 3f 5c c2 98 b9 ee 89 3f
       0.04984218739543012 0.012662363027898247
0003a0 88 d9 ee bb 71 4c de 3f 46 96 a5 40 c1 6d 7f bf
       0.4734157882006902 -0.0076730297972509905
0003b0 1f 27 9e f9 b7 ca b0 3f d2 fa 05 3e ec 13 e1 3f
       0.06559324115928832 0.5336819850343437
0003c0 d9 5a 24 f9 97 51 b6 3f f3 c9 bc b5 90 d1 c2 3f
       0.08718252022331842 0.14702042459391826
0003d0 a7 1c 11 c3 df 32 df 3f 7a 1b a6 2e 8b fa ac bf
       0.4874801068257945 -0.05659899658626606
0003e0 f4 25 d8 3a 1f 05 d6 3f 1f b2 3f 4e ec 15 c0 bf
       0.34406262156025424 -0.12566903897040135
0003f0 f6 9c 10 ea 83 b1 b2 3f 18 7d 66 e4 1c 72 bc 3f
       0.07302116837000824 0.11111622406177835
000400 07 5e 28 c3 2a 51 d0 3f 98 80 2d 93 8d dc bd 3f
       0.2549540429913297 0.11664662211615207
000410 fa 18 4b f1 0f 7f a4 3f 57 a5 2f 94 bc 0f d8 3f
       0.040031908230547544 0.37596048804569676
000420 e0 d2 53 3a 59 f7 c7 bf 73 ae 8e 48 f5 2c cc bf
       -0.18723597858447416 -0.22012201350058866
000430 e5 c1 d0 cf 22 55 f5 3f f3 35 a7 06 8d da a3 3f
       1.3332851522246696 0.03877678590979974
000440 fd 38 c7 cc dd 0e b4 3f 9c 47 53 12 68 39 dc 3f
       0.07835184335201358 0.4410038165052528
000450 fb 15 7a 1b 17 02 bf bf e1 8b 58 ed ce 0e e1 3f
       -0.12112564488241866 0.5330576549207501
000460 ec fc 66 6c 3f 92 df 3f 81 59 19 42 dd 97 b2 3f
       0.49330125414048953 0.07262976516481069
000470 91 a6 87 0f b3 5d b2 3f be 6c 7d 68 bc f2 db 3f
       0.0717422402300605 0.4366904278192115
000480 79 86 8a 35 6f 58 c9 3f 6c 01 2f e1 84 a0 c8 bf
       0.1980113040381644 -0.19239865298551295
000490 61 c0 a3 a5 48 6c df bf 5c 89 a2 f5 18 f0 aa 3f
       -0.49098411727664454 0.05261304853890422
0004a0 22 ba 60 0f 34 95 c1 3f 3d 0a 00 53 69 d7 f0 bf
       0.1373658251845465 -1.0525906793778994
0004b0 85 c2 06 44 db 29 e6 3f 74 94 ab 10 77 d9 e9 bf
       0.692609436859201 -0.8077960324850566
0004c0 4e 9e ed a6 73 fe d8 bf 85 4f a7 5e ee d7 80 bf
       -0.3905305032880947 -0.008224355949017834
0004d0 13 be 93 c6 de 66 aa 3f 25 95 9e b2 11 70 bf bf
       0.05156608747517679 -0.12280378924204578
0004e0 d8 07 a7 4e ed 01 e3 3f 3c ef 53 18 02 66 dc bf
       0.5939852272206236 -0.44372608543175196
0004f0 86 74 f6 10 10 fa ee bf d9 33 89 fc b1 9a 60 3f
       -0.968025239115051 0.0020268894479955443
000500 17 59 20 9d fc 2d b2 3f ef 0f f3 e6 7f ef d6 bf
       0.0710142024621273 -0.35836789659174334
000510 dc b0 19 53 c3 67 b5 3f d1 75 d9 3b 83 7c b5 bf
       0.08361454752747782 -0.08393116198700247
000520 49 93 44 cd 71 0b cd bf 66 cb bf 5a 9b 43 90 bf
       -0.22691175959439594 -0.01588289967908043
000530 38 5f 97 44 d8 7e b6 3f 57 e5 26 d2 e4 7a c0 3f
       0.08787299799530224 0.12875042210888907
000540 ab c3 1b 5e 03 d4 a2 3f 2f 7e 2b 10 1c 58 b5 3f
       0.03677378200325817 0.08337569613240058
000550 6d b1 d3 15 77 d2 a1 bf 35 42 92 50 1b 36 b7 bf
       -0.03480884686891526 -0.09066935269425687
000560 71 8e 8f e6 9a 08 cf 3f c1 34 0c 84 11 df f0 bf
       0.2424501062188145 -1.05446006375432
000570 ee f7 ea 15 c0 62 bc 3f 18 59 4f 14 2c f6 bb 3f
       0.11088181052306798 0.1092250394425246
000580 14 44 11 17 a9 df ee bf 32 79 a9 5c 37 02 b6 3f
       -0.9648023081337009 0.08597131740814204
000590 a5 7e 3b 9b 96 e8 70 3f 5d f8 fe 01 3d dd e1 bf
       0.004128063493879762 -0.5582566298469477
0005a0 34 7f 91 7c 9f 5a c5 bf a8 e9 67 90 2b 0e dd bf
       -0.1668280943149455 -0.4539898786748844
0005b0 d6 96 bb 00 d7 34 f3 3f 36 6f ff 38 db 67 93 3f
       1.2004003552078095 0.0189508679903689
0005c0 65 a6 e0 f0 10 ad 8a 3f d8 f8 45 fc 6f bf cb bf
       0.013025410033225169 -0.21677970712693795
0005d0 fd f4 13 d1 28 f5 db bf 1a 0f e4 6d c0 99 ef 3f
       -0.43683834474343525 0.9875185152345438
0005e0 a9 2a 3f 88 db 37 f0 bf cf c5 e6 ce 21 f8 a4 3f
       -1.0136370966089692 0.04095559740688836
0005f0 68 d5 cb d8 db 57 a0 3f 36 9d d0 33 bd e1 d3 bf
       0.03192030927122397 -0.3106530195240852
000600 7e 97 d4 63 57 d3 d1 3f b7 9f 16 61 36 3d b2 bf
       0.27852425335947106 -0.07124652738877911
000610 88 e2 c0 51 80 d0 6f bf d8 d7 b4 4f b7 5e a5 3f
       -0.0038836008298200365 0.04173825118998281
000620 7e cb 4c c6 d5 e1 c8 3f 3a 83 27 4b 99 e8 c0 3f
       0.1943919389974233 0.13209835214277083
000630 59 2d 7d a6 55 f0 eb 3f c3 6f 40 3f 14 02 e3 bf
       0.8730877162683256 -0.5940037951836462
000640 69 02 53 26 a2 15 cb 3f 92 1c 5b 70 44 ed ad 3f
       0.2115976988916544 0.05845083114177742
000650 d6 77 46 c6 33 48 c3 3f 50 57 10 02 d1 b2 da 3f
       0.15064093762788272 0.4171640892176258
000660 ac 16 2a 01 9a 93 f1 3f f5 c5 d4 62 b8 ad e2 bf
       1.098535542057486 -0.5837060861869633
000670 d6 04 42 d6 76 e1 d1 bf c6 3d fc 8f fa d7 88 3f
       -0.2793862430917903 0.01213069679172819
000680 61 bc e1 63 1a 06 bc 3f 0d 38 b8 c5 e8 88 d7 3f
       0.10946812571067845 0.3677312785010834
000690 f4 b4 fd d0 94 b4 81 3f db 93 1b ad f9 c8 8f bf
       0.008645212772274459 -0.015520048709229009
0006a0 78 b7 4d e8 48 95 df 3f 7a 49 05 34 c5 fd a4 bf
       0.49348662076851424 -0.04099861392991762
0006b0 c4 12 c6 5b ed e2 ba 3f 16 10 b9 bf 90 c7 e1 3f
       0.10502513399667196 0.5556110138500141
0006c0 1b e5 1d 50 e2 52 b3 3f c9 c8 1a 1b 9e bf c5 3f
       0.07548346000648502 0.16991020511119917
0006d0 66 a2 73 48 30 8c de 3f 04 0a f9 0a e8 a5 c4 bf
       0.47730643344269763 -0.16131306205541318
0006e0 26 f3 43 66 3a 16 e1 3f 5c d7 2a f2 c1 24 d6 bf
       0.5339633939143809 -0.3459935059466852
0006f0 d5 d3 98 c5 42 d9 a2 3f fd 4c 55 d6 aa 78 ba 3f
       0.036813818569875124 0.10340373738045013
000700 6c 44 75 15 8a 04 c9 3f 4c a1 6b 34 22 0d bb 3f
       0.19545103118665297 0.10566915302081731
000710 1b 56 ac 45 99 03 75 3f 92 79 3b bb 28 e2 d5 3f
       0.0051303851312432215 0.3419286564293539
000720 f6 1c f7 d0 4a d0 ca bf af db d9 c1 f1 5c d0 bf
       -0.20948157504447068 -0.25567287379038367
000730 a2 9d 09 c8 06 2f f7 3f 87 3a 2a 54 3a c3 92 3f
       1.4489810766188858 0.018322860133191312
000740 f1 c2 7d 02 df 91 aa 3f 69 a4 90 33 32 0f da 3f
       0.051894158414944054 0.40717749629636174
000750 0f dd 8b 8c 11 30 f2 bf ad 12 3b 99 95 96 f4 3f
       -1.1367354860393026 1.2867637620521848
000760 21 a9 e5 9e 62 99 d4 bf f8 75 92 5f 35 35 b6 3f
       -0.32186189191146936 0.08674939711860208
000770 35 42 39 ce e9 a5 ad 3f c6 3c 62 94 34 66 db 3f
       0.057906443046367086 0.4281131218967399
000780 a3 d4 3d 87 9b 53 e2 3f e0 98 1a 6d 1c ad b1 bf
       0.5727059976039935 -0.06904771484059635
000790 4a fe 5e 98 15 e5 ce bf 66 3e 5d 26 74 06 ca bf
       -0.24136609973901307 -0.2033219516110762
0007a0 d0 41 fa cd ac cc d9 3f 97 98 15 01 29 f7 d2 3f
       0.4031173717021632 0.2963354597653817
0007b0 d8 4b 89 94 18 c8 ef 3f f7 6d 7f ef f4 7c e0 bf
       0.9931757832622408 -0.5152535131159642
0007c0 b4 fc eb a2 80 cb c2 3f b8 82 bc 5f f1 36 ab 3f
       0.14683540301482412 0.05315355580956321
0007d0 4e 30 8c 33 c9 76 d2 3f d5 31 f8 8e fe 59 d4 3f
       0.2885001185793542 0.3179928203760743
0007e0 6c 9a 29 e9 c1 14 f3 3f 76 78 d5 f8 72 7e d4 bf
       1.1925677402411123 -0.3202178411501174
0007f0 f2 e4 a9 23 17 d9 b9 3f e6 bc c2 bb 82 39 c3 3f
       0.10096878643698284 0.15019258659365348

bias f8 [112]
000000 d4 59 d0 9c e6 fd a2 bf 45 4c 0f f5 16 df dd bf
       -0.03709335960609264 -0.46674131328217455
000010 a5 78 35 20 cb 5d 80 bf 1c 70 ce 92 03 ad ef bf
       -0.007991396828114292 -0.9898698680222
000020 e1 ad 38 e1 75 0c b4 bf 86 71 44 2a 33 41 eb bf
       -0.07831513165063299 -0.8517089677366563
000030 4a d6 5f 41 57 6e cc bf 83 0a a0 47 03 b8 d2 bf
       -0.2221173352442512 -0.2924812507118661
000040 4c 9b 7a 14 fe e8 ea bf 85 ed 53 13 bb 3a d0 3f
       -0.8409414672831672 0.2535846413372485
000050 70 a9 b7 f9 f9 66 d9 bf dc 88 d2 23 fa cc e6 bf
       -0.39691018473117534 -0.7125216197639719
000060 b2 f5 62 e9 dc 15 c5 bf ad b9 0d ae 44 ba e4 bf
       -0.16472970386341285 -0.6477378272518785
000070 21 01 ab b4 3d 6f ae bf 47 c1 cd 7f 1f e6 ea bf
       -0.05944245176715613 -0.8405911918799028
000080 a2 1c 66 6b ce 35 d2 bf af 36 e0 f7 2f 74 d5 bf
       -0.28453407753154114 -0.33521651465057806
000090 bf bc ad fd 7a 81 d7 bf 8a ec 4f d5 38 82 7e bf
       -0.36727785847956435 -0.007448408131490622
0000a0 7b 8c 5c ba 48 21 e3 bf a4 42 93 62 20 75 b9 bf
       -0.5978129997132692 -0.09944345862028087
0000b0 66 79 ae c5 4e a1 d7 bf c4 a9 66 6a 78 7a c3 bf
       -0.3692204409107006 -0.15217499919283572
0000c0 73 14 25 24 8c 32 a4 3f 1e 3b 65 a9 3f 9a d6 bf
       0.03944814625951034 -0.3531645921947745
0000d0 4e 45 62 d4 86 a7 e0 bf 65 a0 25 b9 1e 86 c6 bf
       -0.5204500339624845 -0.17596801796321695
0000e0 e0 d0 71 c4 25 55 e7 bf 5c 23 a5 5c 1c d7 b8 bf
       -0.7291439854439226 -0.09703233014910267
0000f0 f9 03 0b 90 6d 96 e2 bf bc d6 ec 24 ab ab b3 bf
       -0.5808627904262941 -0.0768382039212509
000100 a7 07 f5 18 44 b3 61 3f 8c 7e b1 83 29 7b bd 3f
       0.002160676005275658 0.11516055550736776
000110 97 bf 12 8c 4d bb af 3f 1f a5 35 d7 d4 86 c2 3f
       0.06197588286283844 0.14473972805289123
000120 ab 7e 0e 94 e9 37 d6 3f 28 8b 1d 05 6f cd b7 3f
       0.34716262301115347 0.09297841906440552
000130 49 c2 ee ca 22 fd bb 3f 78 7d 9e e2 42 af bf 3f
       0.10933129743967486 0.12376802475636406
000140 39 95 5c 2a e7 58 c8 3f b5 79 31 df b4 b1 a0 bf
       0.1902131039470676 -0.03260579323317662
000150 8f 66 c5 5f a1 da ba 3f 86 0f 29 f2 2c 7c bb 3f
       0.1048985346618798 0.10736351883048031
000160 40 55 7e a3 4c cc c9 3f 63 b6 7c 60 52 86 bc 3f
       0.2015472219760941 0.11142458778041368
000170 48 75 80 a1 0d fd d8 3f 81 4d ea c7 39 b1 b9 3f
       0.3904451443830408 0.1003604996752099
000180 08 cc 7b 0c a6 e6 b8 bf 39 06 d5 bd 20 5f a8 bf
       -0.09726941876196815 -0.04760076825415322
000190 6f bc cd a5 9d af c2 bf e6 fe e6 c2 97 f6 43 3f
       -0.1459843692386786 0.0006092301389841431
0001a0 44 eb 5c d4 11 43 93 3f a2 4a 63 cb 3a 44 70 bf
       0.01881053789768862 -0.003971318880035797
0001b0 20 79 6d 8f 42 29 a5 bf 82 1b 0f 20 92 3f a7 3f
       -0.04133041382623248 0.045406881726697726
0001c0 58 01 85 68 c8 72 a5 3f 00 d4 05 bc 70 e5 cd bf
       0.041891348608717294 -0.233564464385978
0001d0 26 c8 1b 83 9b 72 a0 bf ff c9 40 bd 97 10 6a bf
       -0.032124385599573466 -0.0031817401559461884
0001e0 43 04 02 f3 c6 96 b0 3f d3 26 b9 2b 90 1c a4 bf
       0.06480067665872107 -0.03928041967135489
0001f0 50 d5 af 19 4b 94 b5 3f 80 c8 6e 04 64 7d 89 bf
       0.08429402711029366 -0.012446195016171169
000200 50 4d 61 ee 87 fb 94 bf 65 75 e4 4b 53 a5 b7 3f
       -0.020490764545980256 0.09236641505090899
000210 89 f6 0d 38 73 88 a4 3f 73 2c 7e ef 6e c8 c2 3f
       0.04010353144893226 0.14674174016940675
000220 99 13 8b 1c 9c f3 be 3f 2e 90 2c 21 ab b2 b7 3f
       0.12090469071251987 0.09257001457132283
000230 8b 37 e0 a6 70 b7 aa 3f 3f 45 9f 68 ca ac be 3f
       0.052180786486231666 0.11982407621623724
000240 be 56 c7 fd c4 0c c5 3f 74 b7 40 d2 00 0c 57 bf
       0.16445219413315287 -0.0014066703815944466
000250 2f a0 87 01 8c 95 ad 3f 56 14 46 35 82 71 b9 3f
       0.057781577288381285 0.09938825417164429
000260 79 f8 58 70 c6 ea c1 3f 80 96 51 4f 0a 6d b2 3f
       0.1399772690364818 0.07197632252208486
000270 d7 5b 97 87 9f ca c1 3f f5 5d 7f f5 58 cf be 3f
       0.13899606819788232 0.12035137170402506
000280 ff 6a 90 0c 59 bd 98 3f 16 8e 89 05 fb 2f d0 3f
       0.02415980471787815 0.2529285005641396
000290 bc 50 7a 68 1c 86 c4 3f 40 a6 31 38 de e2 c8 3f
       0.16034274198012166 0.19442346328587412
0002a0 7c 10 67 e7 4e 56 d6 3f 47 b7 4c df 52 1e ca 3f
       0.34901783559713073 0.2040504064875057
0002b0 09 63 dc 79 6b d4 c0 3f c1 aa cb d5 98 b9 b0 3f
       0.13148253870237905 0.06533198566072952
0002c0 36 16 0f f1 68 da c9 3f d3 bb f2 1b cf d5 c1 3f
       0.20197784204917618 0.13933743347794678
0002d0 ed 88 16 3f c1 57 d1 3f 70 f3 e0 14 a9 49 be 3f
       0.27098113213482017 0.11831146964773409
0002e0 9a ff d7 7b 6b 1a d9 3f c2 f5 f2 ac eb 32 b5 3f
       0.3922375401889383 0.08280823681248875
0002f0 08 cd c8 5e a3 ea e5 3f e4 ed 9c e4 d7 d7 af 3f
       0.68489235413145 0.062193628937588646
000300 c3 d2 af d0 5c 7c f4 bf 77 f5 70 17 16 59 f7 bf
       -1.280361952956057 -1.4592495837854054
000310 52 06 b6 a8 06 62 e9 bf 72 6f 8e 72 a1 6e ee bf
       -0.7932160658967382 -0.9510047185353712
000320 9a e9 c7 b8 3d f5 fb bf fb 02 bc 2a 98 05 f3 bf
       -1.7473733156208255 -1.1888658208192158
000330 4c e8 c4 11 fb 13 f7 bf f7 c7 78 ba 79 e5 f5 bf
       -1.442378110323733 -1.3685242923788772
000340 12 7c da ea ae 64 f0 bf ab 29 2f 4f d4 0c f2 bf
       -1.0245808767283546 -1.1281321614393203
000350 9f 28 cc a8 9b da f9 bf e7 45 77 f3 1a b7 f6 bf
       -1.6158711045887129 -1.4197034368884205
000360 99 fb fb ff c3 60 ef bf 73 da ed f3 18 ce ed bf
       -0.9805622100537789 -0.9314083828201788
000370 f4 17 5e d8 ef 11 fb bf a4 ee 0b c9 d5 6e f1 bf
       -1.6918791248185672 -1.0895593503363807

weight f8 [112, 16]
000000 db 8a 5c c3 97 e7 dd bf d9 16 95 17 2e 42 db bf
       -0.4672603042437637 -0.4259143095299414
000010 6f ca 71 a3 f5 0b de bf 47 5d 99 bb d4 45 a1 3f
       -0.4694799514901779 0.03373589315440966
000020 97 e5 ef 1b b3 e4 de bf 30 91 17 e8 7d 7c c2 bf
       -0.4827087185691083 -0.14442418892498088
000030 bb 12 48 ec dc e3 e2 bf 3f d2 01 f9 e3 4e e2 bf
       -0.5903153052209612 -0.5721301902218058
000040 f2 a3 67 d8 46 64 a2 bf 98 05 ef 0a 4a 89 df bf
       -0.035921300808531856 -0.4927544695638857
000050 10 65 8f 1f 2a 34 e3 bf e0 e2 9e 65 23 f2 c7 bf
       -0.6001177421959785 -0.18707697355218667
000060 2f b6 1c 8b 78 98 e5 bf 72 61 36 7e 4a 07 c8 bf
       -0.6748621670755649 -0.18772250330654178
000070 96 44 df 92 6f 4b db bf cc 8e de 9c 87 61 c1 bf
       -0.4264792379663701 -0.13578887138020546
000080 de 8a 64 cf f9 f6 fb bf f9 1d 11 3e 47 8c ec bf
       -1.7477968312529621 -0.8921238147967748
000090 e7 01 fb cf 09 ea fb bf e2 7c 96 cd 71 f8 f6 bf
       -1.7446382641065783 -1.4356554060721511
0000a0 28 aa a9 ea 1b 92 fa bf 45 3f cd 3f 3f ff f3 bf
       -1.6606711546434187 -1.2498161785369615
0000b0 da 22 f1 e2 b6 ad ee bf f6 04 41 aa 9b 73 ed bf
       -0.958705371137593 -0.9203623128197751
0000c0 81 31 c7 46 87 a1 f1 bf 5d 56 ac 8c b5 19 fe bf
       -1.1019356503266808 -1.88127665472475
0000d0 e4 71 19 d5 f7 96 ea bf 34 84 1f 02 b6 95 f1 bf
       -0.8309287225816289 -1.0990505297597908
0000e0 46 26 1d 32 b6 a1 f2 bf a3 a9 02 60 d9 89 f6 bf
       -1.164480396039282 -1.4086545706182754
0000f0 f1 fd ea 7b 60 8b fa bf 67 03 a5 30 ef 1a f5 bf
       -1.6590275612396648 -1.3190757656268148
000100 05 bd db 43 ee ac d7 bf b3 03 49 95 20 c5 c9 bf
       -0.36992985369484216 -0.20132834710423494
000110 1f f8 db 56 67 e8 d8 bf 2c 8b 2f d6 04 80 c9 3f
       -0.38918479425763225 0.19921932657515506
000120 b8 50 ca d1 7d f5 da bf f2 57 6a e4 de a6 bf 3f
       -0.4212336109860746 0.12363999439762077
000130 56 51 d4 df 15 9e db bf 44 dd 00 4f ec 78 d1 bf
       -0.43152376993500263 -0.27300555911229574
000140 4f 5f 4e 8d fc d2 c4 3f 2a 89 fe 07 ac 10 db bf
       0.1626887979480167 -0.4228925779408593
000150 6a 1c ee 20 d5 bb e0 bf 4c 31 b6 ae ef ee a9 3f
       -0.5229287760893275 0.050651063992605744
000160 37 93 58 c0 cd 15 e3 bf b8 f5 fd 5e 56 14 71 3f
       -0.5964115864522687 0.00416978586860977
000170 cf 96 6c 52 b7 50 d6 bf 83 e8 6a 53 e2 c6 aa 3f
       -0.34867651986347153 0.052298615153135074
000180 34 0a 93 7c ff 8f f7 bf 42 a3 46 b4 eb 8d e3 bf
       -1.4726557604013921 -0.6110743065847617
000190 be cd 81 19 0f f0 f6 bf 70 a2 e3 6d 44 af e5 bf
       -1.4336081501358957 -0.6776449342988382
0001a0 32 00 d5 d7 ad 8a f6 bf 72 22 9d da cb 39 e3 bf
       -1.4088571959437215 -0.6008052129555621
0001b0 1b bc 57 10 24 fe e8 bf b0 77 5f c2 3d c2 e5 bf
       -0.7810230559533723 -0.679961089739427
0001c0 7b f7 40 06 bf 65 e4 bf fc 89 23 c1 67 9c f9 bf
       -0.6374201891082828 -1.600684885452778
0001d0 31 5e b3 96 56 01 e4 bf ea 6e 22 59 e8 93 e3 bf
       -0.6251633590099513 -0.6118051281841563
0001e0 25 0a f2 41 dd c7 ef bf 36 7b 9e 14 ef a9 ef bf
       -0.9931474960324677 -0.9894938852993167
0001f0 f3 d2 a8 6a 28 e1 f6 bf 71 d9 d2 42 36 4c e5 bf
       -1.4299701849351407 -0.665553217425254
000200 59 41 e9 30 a5 3e dd bf aa a0 3d 61 64 a3 c2 bf
       -0.45694856430511305 -0.1456113314445749
000210 02 f7 ef e7 56 d3 e2 bf f6 e8 bb 1f 32 bb cf 3f
       -0.5882982759501092 0.24790026235115875
000220 cf 2a a8 71 8d e1 dc bf 9d 54 87 ae 96 90 c9 3f
       -0.45126663302714304 0.1997249939146614
000230 f7 09 f0 bf 09 07 d7 bf 3d 52 d7 d3 d7 7d e4 bf
       -0.3598045706168302 -0.6403617036363084
000240 bf e9 e1 d5 64 43 c7 3f 5e 1b 21 68 a8 68 de bf
       0.18174419826011776 -0.47513780754927903
000250 c5 1a d1 49 a9 22 d2 bf a8 f7 f0 1f bf 72 9b bf
       -0.2833655567996341 -0.026804910969296408
000260 0a 4a 30 94 fc 92 e3 bf 14 a7 8a 6e a9 73 af bf
       -0.6116927046116996 -0.061429304832314596
000270 76 a7 30 26 af ad d2 bf 2b 11 2f e1 e5 f1 ba 3f
       -0.29185084084985335 0.10525357005741813
000280 e6 8f 6f 1d 9e ed f7 bf 67 9e 6a 7c e6 c7 e4 bf
       -1.4955121183238531 -0.6494018964776388
000290 87 98 86 46 a3 f7 f7 bf 90 53 1a 29 a6 8c eb bf
       -1.497958446017522 -0.8609190752782627
0002a0 1c 21 2f 76 ee 4a f7 bf 81 56 e6 78 ca af e5 bf
       -1.455793821007382 -0.6777088509868038
0002b0 50 18 34 75 40 40 ea bf 08 24 af f2 a2 28 e7 bf
       -0.8203432358866483 -0.7237105121540717
0002c0 7b 90 90 df 14 5f e6 bf b4 43 a6 5b 50 13 fa bf
       -0.6991066328523766 -1.629715307241196
0002d0 4f 15 ef bb 10 d4 e3 bf 20 e2 a3 c8 04 97 e6 bf
       -0.6196368856987337 -0.7059348982575706
0002e0 bc ee fa 4b 80 7b f0 bf d1 f0 8b ee 31 95 f0 bf
       -1.0301516502358217 -1.036424571822
0002f0 8b f9 e3 c3 0a 29 f7 bf d0 cc 3e 64 97 5c e9 bf
       -1.447520032117242 -0.7925526578823341
000300 4c 90 e5 d8 63 ef fa bf 28 d1 f6 bb 33 a3 ea bf
       -1.6834448311356196 -0.8324221297430414
000310 f9 3f d5 49 34 b5 fa bf 19 63 03 1f c8 b0 f6 bf
       -1.6692393192388393 -1.4181596003965693
000320 17 d6 98 50 08 d4 f9 bf 22 b8 19 bb 1f ab f3 bf
       -1.6142657421418158 -1.229278307782359
000330 7d 88 a4 f5 b9 f6 e6 bf 7e 73 3d 2b 06 cf ea bf
       -0.7176179692944654 -0.8377714962513065
000340 43 a9 10 7a 55 0c f6 bf 0d 28 82 27 1a 40 fc bf
       -1.378011204544763 -1.7656499427125738
000350 9b 49 5c 0d 08 3d e8 bf 1c e9 eb 44 0e 1a ef bf
       -0.7574501286456327 -0.9719306322215604
000360 69 1f 46 f6 30 a0 e5 bf 0f 12 c1 21 92 b4 f8 bf
       -0.6758045969045102 -1.5440846746943213
000370 8e 4c c1 ab cc f6 f8 bf 11 96 57 de 31 11 f5 bf
       -1.5602537831480592 -1.316697948955497
000380 19 9f 5c ee 78 9a fa bf 31 99 0d 28 28 f3 e6 bf
       -1.6627129851348796 -0.7171822340285755
000390 68 4f da 5b 30 5f fa bf e9 35 eb 56 02 38 f1 bf
       -1.648239477920436 -1.076174106146363
0003a0 ef 8d ab ee 44 22 f9 bf dd 4c 61 4b f8 a7 ec bf
       -1.5708665202190522 -0.895504138209073
0003b0 8f fd a4 97 d2 7b e2 bf 28 d0 e0 23 40 82 e2 bf
       -0.5776150667006038 -0.5783997250314359
0003c0 72 f2 37 56 ef 67 f0 bf 08 01 d3 a8 7a 9e fc bf
       -1.0253747337257235 -1.7886911959358844
0003d0 2b eb c3 33 21 ba e4 bf 79 1c e1 5a ee 21 e9 bf
       -0.6477209101716189 -0.7853919768321155
0003e0 5e be 78 68 5f 7c e1 bf d4 53 ea b3 10 a5 f4 bf
       -0.5464322128736503 -1.2902991321509392
0003f0 45 e5 09 33 70 4b f8 bf 65 8b 92 72 94 07 f0 bf
       -1.5184175485322424 -1.0018505549894254
000400 28 ba 90 2a 8b b7 f8 bf 3b e5 af 36 d9 53 eb bf
       -1.5448104536732306 -0.8539854114634758
000410 f7 d9 f6 c2 cd ac f8 bf 2f 7e 7a 3a 9a 25 e3 bf
       -1.5421884170333422 -0.5983401434095351
000420 de 3d 98 dc 4c 06 f8 bf 17 60 da a5 88 98 e3 bf
       -1.5015381447773204 -0.612369846278855
000430 72 8d fa 72 09 b0 ee bf 6f 15 18 d3 ca 35 ed bf
       -0.9589888806989804 -0.9128164408618157
000440 e5 07 c3 f6 b2 eb e7 bf 19 4e fe 75 d5 a5 fa bf
       -0.747521860081403 -1.6654867753139853
000450 3c 8c 54 04 fa 60 ec bf 92 ab 8b f5 af d4 e5 bf
       -0.8868379673552975 -0.6822128101169815
000460 32 64 45 11 41 59 f2 bf 17 f9 db c0 96 b8 f0 bf
       -1.146790568795279 -1.0450656446042268
000470 7e a6 11 8d bc a4 f8 bf 68 75 f2 5c ab 1e e2 bf
       -1.540218878794263 -0.5662438216565251
000480 d1 39 98 60 7e 2f d3 bf 80 f6 7e 88 fc 83 ae 3f
       -0.29977378304547836 0.059600726759055256
000490 50 5c 8a 6d b6 24 d7 bf 2f d8 ac 2f 3a 9c ac 3f
       -0.36161575982391003 0.055879419631694176
0004a0 1a 8f 7a ee 8e 0f ce bf 4d a9 50 2e a4 99 cb 3f
       -0.2348498024413111 0.21562626134375265
0004b0 dc e7 0a 18 89 f0 c6 bf 7e e8 d1 b7 11 48 c8 bf
       -0.1792155616183767 -0.18969937778075868
0004c0 6d f7 8e 9f 47 96 91 3f 71 47 00 48 92 7d de bf
       0.01717483435981342 -0.47641427070003944
0004d0 bd 63 38 22 21 6f be bf 71 fe 05 44 e6 89 d0 3f
       -0.11888320050674302 0.25841671603118416
0004e0 a5 00 89 f3 7f ee d1 bf 4f 53 47 f9 ef 26 b9 bf
       -0.2801818731568438 -0.09825038753417668
0004f0 c3 8d 1d ca ef b3 dd bf 2b 0b bf 25 db ff b5 3f
       -0.4641074632438313 0.08593530341663029
000500 b3 c0 cc ba 4b 1c fd bf 6d 79 eb 5c a0 5b ee bf
       -1.8194081589572704 -0.9486848654594674
000510 0f ef 3c 4a f4 d2 fc bf 7f 59 db 6c 9c 5d f9 bf
       -1.801502504341389 -1.5853542568416683
000520 55 e2 57 80 c1 02 fb bf 69 05 f1 4d b2 30 f6 bf
       -1.6881728185091067 -1.3868887943829924
000530 69 82 79 9f 30 e5 ed bf e3 33 fd bc 5c 3f ed bf
       -0.9342272867907698 -0.9139846507256347
000540 9d 98 84 a3 ba 6a f2 bf 20 67 55 c2 aa 4b ff bf
       -1.151056898824698 -1.9559733954578817
000550 4d a2 4d ce 7d b4 eb bf 56 6b 18 5b 94 4d f3 bf
       -0.8657826451645377 -1.2064403112805926
000560 0f c0 bc 84 8b ca f1 bf 5d 51 01 d0 a9 83 f7 bf
       -1.1119494614649772 -1.4696443677140316
000570 cd 2d 35 5f 4c 08 fb bf 9f da 0d be 32 72 f7 bf
       -1.6895259589244802 -1.465380422972579
000580 38 a7 98 23 06 f8 f8 bf 4a cc fc 2e 73 47 e4 bf
       -1.5605527296524553 -0.6337219159817178
000590 6d 82 6f 7f ba be f8 bf 9a 0a f8 48 da ea ee bf
       -1.546564576907396 -0.9661685395406778
0005a0 6c 3c 79 43 92 68 f7 bf 7c 17 30 b1 85 f9 e6 bf
       -1.4630301128088616 -0.7179592571926459
0005b0 90 71 1d 0c 34 d9 ea bf 25 e0 0d fe 7d ad e7 bf
       -0.8390140759106988 -0.7399282419201013
0005c0 59 2e a1 aa 5d cf e9 bf 79 8f f8 13 9a 0c fb bf
       -0.8065632183656347 -1.6905766277422727
0005d0 48 51 8c 46 10 2e e4 bf d5 1d 54 8a 1b 2d e7 bf
       -0.6306229951756359 -0.7242562963228304
0005e0 fe 52 29 0a 03 fa f0 bf 41 f8 54 64 62 f8 f1 bf
       -1.0610380551271983 -1.1231407088485101
0005f0 6e bb 5f 67 e8 bb f7 bf dc a0 2d d7 14 11 ec bf
       -1.483375934414393 -0.8770851328563611
000600 1b ae 3d bb 6b 7e f7 bf c1 ad 8b 08 e5 6d e5 bf
       -1.4683644594287049 -0.6696648756891862
000610 6d 8d 1f 40 91 7f f6 bf b2 d0 6f c3 46 47 ef bf
       -1.4061443810286065 -0.9774507348179411
000620 b6 27 90 39 a0 e1 f4 bf e1 d8 7c 31 aa 20 e9 bf
       -1.305084442954905 -0.7852374044948897
000630 d0 e3 ca d6 5d 18 e3 bf 40 56 4f a2 31 10 e4 bf
       -0.5967244334379931 -0.6269767923465182
000640 2c 95 90 ce 1b 11 f0 bf 93 c3 58 33 e0 2a f8 bf
       -1.0041769093452997 -1.5104677205783659
000650 e3 d7 aa 54 3f bd e3 bf 9e 30 a1 47 b6 b3 e5 bf
       -0.616851487508708 -0.6781875037209095
000660 d7 2f 85 80 4d a9 e2 bf 54 60 0b a7 35 16 f2 bf
       -0.5831668386613228 -1.130422260777796
000670 ad b6 23 59 ee d1 f4 bf f5 e3 c9 33 b5 c3 eb bf
       -1.3012526971828422 -0.8676401149269838
000680 be 30 d6 73 a2 20 ed bf 9d c4 8e b9 67 8f e4 bf
       -0.9102337133822613 -0.6425055145429216
000690 9f 8d 43 00 d3 33 ed bf 14 35 5f 2a d3 3d b8 3f
       -0.9125761990693951 0.09469337257833771
0006a0 b2 4c 36 1f 55 ec ec bf 47 04 bb 7a ad 8d b3 bf
       -0.9038491830455284 -0.07638057943678787
0006b0 09 90 9e b5 c3 ea ec bf a3 0e 17 48 56 86 e9 bf
       -0.9036577746633166 -0.7976485641488192
0006c0 70 74 db ad 5c 2c b5 bf d1 cc c3 3f 79 27 f0 bf
       -0.0827081608253637 -1.00963711650984
0006d0 6f 17 0d ff e7 26 e5 bf 57 85 09 3a ec 64 d5 bf
       -0.6609992963283114 -0.334284836461014
0006e0 07 73 d1 06 6d 01 ee bf e1 be de 3f 2e 80 d9 bf
       -0.9376740582625595 -0.3984485267383047
0006f0 ab ba b5 d7 44 25 ee bf 5d b0 79 d4 0c 6f 95 3f
       -0.9420494282802186 0.02093143507811167
000700 5e 31 c2 cf 65 bf d4 bf 98 ee 8c 76 e1 da ac 3f
       -0.32418198861048164 0.056357427331446164
000710 74 36 1d d2 df 83 d1 bf 7d 48 53 8a db 93 c2 3f
       -0.27367396849590553 0.14513725523153545
000720 45 1b d5 68 6b e4 ad bf 33 95 2a 6d 76 79 c1 3f
       -0.05838332800572358 0.13651924448383
000730 42 cb f0 20 de f3 d0 bf b6 38 c7 41 23 bb c4 bf
       -0.2648845025716363 -0.1619609900648748
000740 7d 09 fc a6 fd 7c b9 3f c0 32 f2 5e 18 f1 dd bf
       0.0995634586979914 -0.4678402831275825
000750 a0 b5 ce bf cd 6a c1 bf fb 62 3e d4 6b 8e c9 3f
       -0.13607189050291613 0.19965885032140548
000760 61 7d 9c 06 08 6b d8 bf 38 01 67 86 44 f4 c6 bf
       -0.3815326752246247 -0.17932945788016652
000770 e1 a9 a7 7d c4 59 e2 bf a9 75 78 ad 7d b4 c3 3f
       -0.5734579519460646 0.1539456460022113
000780 f1 c0 35 ab b0 c1 f6 bf b1 aa a9 26 ba 36 e2 bf
       -1.4222876251115475 -0.5691805606014296
000790 08 2d 84 e8 58 dd f6 bf ad 09 0e 02 a5 3c e5 bf
       -1.4290398676556055 -0.6636529007085322
0007a0 7b ac d9 97 c2 99 f5 bf 4f e8 26 ac 90 16 e1 bf
       -1.3500390941287879 -0.5340045320838359
0007b0 2c 53 17 61 79 cd e7 bf 31 6a 8d 52 1f 2b e5 bf
       -0.743832292204933 -0.6615139591552347
0007c0 96 07 d1 1e b7 4d e4 bf d7 f5 6a b2 2f ea f8 bf
       -0.6344867326626964 -1.5571743936010216
0007d0 8b e5 fe 4f 6f 3f e2 bf 56 90 10 af 59 c2 e1 bf
       -0.5702435076156446 -0.5549744052154988
0007e0 20 13 31 7a 4c 4e ed bf 27 dd b5 9e 2e 4c ee bf
       -0.9158079515987971 -0.9467995738804448
0007f0 6b fb c4 6c f1 fa f5 bf 00 00 30 44 e9 4f e3 bf
       -1.373765396958073 -0.6035047847544774

bias f8 [112]
000000 e0 59 d0 dc 1c de a4 bf 3b 4c 0f 18 20 2a dd bf
       -0.040757085757082256 -0.455696128364426
000010 69 8f 57 03 b2 a1 4b bf 1a 70 ae f5 05 12 ef bf
       -0.0008432501987809374 -0.9709501074280553
000020 d7 ad b8 a4 a3 26 b1 bf 8a 71 84 9c 70 57 eb bf
       -0.06699583789366358 -0.8544238144855154
000030 32 d6 5f c2 68 ed ca bf 83 0a f0 9e ec fd d2 bf
       -0.21037015429435396 -0.29674830933814905
000040 48 9b 7a f4 f2 4f ea bf 06 db 47 41 60 f3 ce 3f
       -0.8222594046572818 0.24180224597486005
000050 70 a9 b7 74 4d 5f d9 bf de 88 92 88 b1 95 e6 bf
       -0.39644180677591745 -0.7057731311254221
000060 b0 f5 82 1f f1 c5 c6 bf ae b9 8d 08 8b a8 e4 bf
       -0.17791570700312098 -0.6455741087973388
000070 1d 01 ab d4 d0 e4 ad bf 39 c1 8d 6e 8c 6d ea bf
       -0.05838635059399364 -0.8258726271870166
000080 a2 1c 66 db a4 49 d3 bf b0 36 60 ba 29 4c d5 bf
       -0.30136987138434723 -0.33277362061276516
000090 c3 bc ed 1e 69 52 d8 bf a6 09 58 d5 e4 53 8a 3f
       -0.38002994556786635 0.01285532737802415
0000a0 7a 8c fc 9f de e2 e2 bf a5 42 d3 92 cb 70 b7 bf
       -0.5901940464722337 -0.09156486830330353
0000b0 64 79 ae 91 fc 7b d7 bf b8 a9 a6 4e 15 bd c3 bf
       -0.3669425413771903 -0.15420786228544414
0000c0 70 14 25 84 08 c6 a1 3f 1e 3b 65 57 cc 8d d6 bf
       0.03471399891945104 -0.3524046758147267
0000d0 55 45 0e 2a 6c 70 e0 bf 76 a0 25 0f 9f b0 c7 bf
       -0.5137234517480161 -0.18507755508040064
0000e0 de d0 71 fe c8 73 e8 bf 52 23 a5 fa 40 81 bc bf
       -0.7641339273091281 -0.11134725684418115
0000f0 f8 03 2b bc cd 9b e2 bf cb d6 ec f8 f7 e4 b0 bf
       -0.5815190005451987 -0.065993784210913
000100 4f 83 7a 8c 6b 64 7f 3f 7c 7e b1 99 54 16 bb 3f
       0.007664127456934746 0.10580948593405454
000110 a7 5f 09 66 43 17 b4 3f 1f a5 b5 20 89 c3 c0 3f
       0.07847996941688838 0.130967274638615
000120 a9 7e 0e 5e dd f7 d4 3f 2c 8b 1d 52 9e 83 b3 3f
       0.3276284616967851 0.07622708802004458
000130 51 c2 ee cc 0a 57 b8 3f 7f 7d 9e 35 a1 ce be 3f
       0.09507815840948665 0.12034041937885397
000140 33 95 5c 08 1d 9d c7 3f fe 79 31 df 58 d3 ac bf
       0.18448222072871942 -0.056299950833579956
000150 86 66 45 5b ef f5 bb 3f 8a 0f 29 5e 8f f5 ba 3f
       0.10922142008112176 0.10530944870794037
000160 36 55 7e 16 5c 5b cb 3f 6c b6 7c e4 fb 06 ba 3f
       0.21372557733836012 0.10166906669902581
000170 4b 75 00 a9 c2 a8 d8 3f 7f 4d ea 5f c4 44 b9 3f
       0.38530031684952765 0.0987055524986342
000180 06 cc fb 34 56 23 bd bf 4d 06 d5 25 20 8e a5 bf
       -0.11382044595283966 -0.04209995710199319
000190 5d bc cd bb 26 51 c4 bf 1e 9c 0b 4f 51 05 a7 3f
       -0.15872654123401989 0.04496244516285962
0001a0 6b d6 b9 68 7b 84 8b 3f 56 d2 d8 06 27 4d 96 bf
       0.013436283238870325 -0.02177868823328518
0001b0 98 f2 da 17 54 3a 9d bf 88 1b 0f a0 a3 89 a3 3f
       -0.028542818027505662 0.03815947846265205
0001c0 6c 01 85 93 29 52 a2 3f 00 d4 05 16 f0 aa cd bf
       0.03578309942031663 -0.2317791087658918
0001d0 26 c8 1b dd a2 93 a0 bf 1d 19 a8 77 a2 4f 9c bf
       -0.032376374712740394 -0.02764753203703051
0001e0 39 04 02 2b 4a b7 b2 3f 02 4e b2 d8 47 ee 92 bf
       0.07310927915570255 -0.01848709354506007
0001f0 2e d5 af ef 16 6f b4 3f cf 89 ec 16 d7 35 44 bf
       0.07982009269456533 -0.0006167698137214353
000200 39 a6 30 c7 28 f3 a6 bf 55 75 e4 bb c1 5f b3 3f
       -0.044823908152761445 0.07567988240449115
000210 95 f6 0d 1e 62 01 a8 3f 65 2c fe b2 3e 3e c1 3f
       0.04688555352093463 0.13471206416975004
000220 c8 89 45 ae 99 84 c0 3f 30 90 16 6e 2c 19 b5 3f
       0.12904664048535452 0.08241536796282456
000230 77 37 e0 5a bd 5d ab 3f 38 45 1f 4d 28 3d bc 3f
       0.05344955190967842 0.11030818827500333
000240 c6 56 a7 79 e2 11 c6 3f f2 16 48 2a 20 cc 8f bf
       0.17242079677696703 -0.015526057520229373
000250 f1 9f c7 00 31 8a af 3f 60 14 46 5a be 16 bc 3f
       0.06160119184988833 0.10972203926037727
000260 83 f8 58 1d 14 7c c2 3f ba 2d a3 0e d0 8c a6 3f
       0.1444115775393052 0.04404306582145119
000270 d5 5b 97 63 d3 70 c1 3f f9 5d 7f 25 7f 3e bc 3f
       0.13625566828588256 0.11032862344233497
000280 82 35 08 8f 89 e1 a1 3f 16 8e 49 37 da 5c d0 3f
       0.03492383833882241 0.25566726111557736
000290 bc 50 fa f8 9e 4e c3 3f 40 a6 31 35 3a 0b c7 3f
       0.15083682210081928 0.18003013226852893
0002a0 80 10 67 d5 dd 0d d8 3f 47 b7 4c c5 f7 26 ca 3f
       0.37584634628388613 0.2043142045380881
0002b0 ff 62 dc a1 70 51 c4 3f bd aa cb 81 21 71 b1 3f
       0.15873535064090302 0.06813249033772713
0002c0 34 16 0f f4 13 88 c8 3f cd bb b2 29 9f 90 c1 3f
       0.19165276925029817 0.13722600494426587
0002d0 eb 88 96 5e 50 55 d2 3f ac 79 70 0a 52 81 c1 3f
       0.2864571498595427 0.13675904760107238
0002e0 9c ff 17 9d f1 c3 d8 3f c8 f5 f2 f6 08 d5 b8 3f
       0.38695946065126363 0.09700065640477995
0002f0 09 cd 90 3c e7 98 e5 3f ef 76 ce de 87 c9 b1 3f
       0.6749149496958192 0.06948136510478851
000300 c1 d2 93 11 98 70 f4 bf 79 f5 10 9a 0a 77 f7 bf
       -1.2774887739771403 -1.4665628450596542
000310 4e 06 f6 b9 2d f9 e8 bf 74 6f ce d2 a2 e9 ee bf
       -0.7804173118640365 -0.9660200230896252
000320 98 e9 67 9c c8 c1 fb bf fd 82 a7 a8 7d 21 f3 bf
       -1.7348104581456933 -1.1956764782009366
000330 4e e8 64 53 1d 27 f7 bf f6 c7 e0 12 94 d7 f5 bf
       -1.447049451597667 -1.365131448500049
000340 12 7c fa 19 bf 3d f0 bf aa 29 af 78 fa 9a f2 bf
       -1.0150748266967224 -1.1628365244128909
000350 a2 28 6c dd 23 ce f9 bf e6 45 b7 23 28 64 f6 bf
       -1.6128271722141467 -1.3994523425247904
000360 8a 3b 87 ad 4e c8 ef bf 73 da 0f 10 25 bd ed bf
       -0.9932015790198971 -0.929338961955024
000370 f3 17 de 06 e9 46 fb bf a5 ee fb ce 07 4b f1 bf
       -1.704812075449351 -1.0808179936711124

weight f8 [3, 16]
000000 79 d4 6d 13 58 c7 aa 3f e0 3a 28 23 9a 59 e1 bf
       0.05230212437792487 -0.5421877562201551
000010 c7 30 3e e9 01 4c ce 3f 1d a5 fb ca 04 b8 d4 bf
       0.23669456375899342 -0.32373161146695556
000020 14 e8 c1 0a e6 ee da 3f 5e 86 8e 82 30 e7 d8 bf
       0.42083121347934704 -0.38911068677598404
000030 97 fd 92 34 9d 87 d8 bf fa 06 d6 af 00 14 e5 bf
       -0.38327722677419146 -0.6586917337701543
000040 84 c9 98 db 54 f6 d2 bf 4e 04 88 3e 35 11 c4 bf
       -0.29628488011362486 -0.15677514603888415
000050 36 1f ce 3d 13 64 e2 bf 59 70 2b 7c 94 68 b5 bf
       -0.5747162062770943 -0.08362701446043398
000060 01 70 d0 59 09 49 e2 bf ba 91 5b 8d b1 22 c9 bf
       -0.5714155916389246 -0.19637126352530548
000070 8f 70 01 9a 9f b8 f3 bf 75 f9 c4 5e 2a 75 c0 bf
       -1.2325740829319647 -0.12857560756124156
000080 85 16 1e f6 f4 d4 d1 bf 3b 41 e2 31 99 46 ca bf
       -0.2786228564731135 -0.20527949271900944
000090 13 2c 3d 7c 26 29 e7 bf ff 47 31 7a 07 7a cf bf
       -0.7237732340375963 -0.24591153589659595
0000a0 c6 5c 8b cc d4 20 f0 bf 48 9e 54 53 70 1b d0 bf
       -1.0080154409422888 -0.2516747297072226
0000b0 43 2f 2c a7 72 40 e0 bf bd d7 5d f8 c4 76 c8 bf
       -0.5078671708192605 -0.19112455489420013
0000c0 9c 9f a1 72 48 33 d0 bf ef 3f 36 59 7c da 9e bf
       -0.2531300658652016 -0.03013033194071107
0000d0 47 2c b7 11 d4 da dc bf 1a ac 69 30 12 85 e3 bf
       -0.45085622530013264 -0.6099940248071818
0000e0 57 03 60 20 4f 1d ea bf c2 f0 7c 60 2e 2a d6 bf
       -0.8160777695012297 -0.3463245336786366
0000f0 9d 56 36 7f ed 4f e3 3f 86 73 d2 81 c2 04 e0 bf
       0.6035068020452915 -0.5005810294711501
000100 95 61 17 62 0e 65 e1 bf 65 5a 96 52 ef 9d e3 bf
       -0.5435859599920599 -0.6130291569741756
000110 49 e5 0f 3d a3 14 d2 bf 20 ed 38 1c ad c3 c1 bf
       -0.2825096222218986 -0.1387840640835316
000120 b8 dd 30 78 ec 2e ef bf ee 58 b9 2f a3 96 d2 bf
       -0.9744779918173014 -0.2904441801123444
000130 25 ad 07 10 1e f8 b8 bf d0 bf 0a 80 b3 64 91 bf
       -0.09753597155911516 -0.016985706987440896
000140 c9 56 7c 71 c4 33 c6 bf 2c f8 a2 a4 9e 79 e4 bf
       -0.17345481435102375 -0.6398461547430592
000150 76 1d c2 aa cd d4 d5 bf 19 db 8d 4b c6 6c dd bf
       -0.34111348796474006 -0.4597640741189238
000160 fe 02 73 6f 73 40 e6 3f 6c 65 41 8c 2b 22 cd bf
       0.6953675438636251 -0.22760528896723586
000170 a1 0f af 27 f0 a0 ea bf d1 df 32 f3 13 3e d0 bf
       -0.8321457648348664 -0.2537889361369681
