Retweet/RetweetNetsV9/TrainNet_ep19V2.pt (torch, 23477 bytes, 6 tensors)

scale f8 [3]
000000 5e b7 85 da cb 6a d1 3f 02 a1 a6 5b 46 f1 d4 3f
       0.27214332904883587 0.32722624731333394
000010 4d 25 48 95 8e 1e d0 3f
       0.2518650491552606

weight f8 [112, 3]
000000 b2 01 ec 2f 10 5c e0 3f d1 bc 36 b6 f2 14 b8 bf
       0.5112381874060274 -0.09406964253024631
000010 3a 21 9f 4f cc 22 e7 bf cc 8e d4 f4 00 b8 e2 bf
       -0.7229978137120618 -0.584961393531978
000020 c8 98 33 4e 25 8c c5 bf a9 e4 bf 14 47 29 dd bf
       -0.16833940809664782 -0.4556443884499211
000030 dd 73 d9 61 5e a6 e8 3f 66 64 68 f5 be 2e d9 bf
       0.7703086768266264 -0.3934781452713366
000040 8c 8d 77 ca 15 db d2 bf 75 72 81 88 2b d1 ea bf
       -0.2946218945710022 -0.8380334535718946
000050 40 ef e0 d6 02 05 ea bf 60 07 77 55 ed 50 e2 bf
       -0.8131117054794927 -0.5723787945973804
000060 51 9a 3b 48 c8 f9 f1 3f b2 d8 b2 4e f7 64 ee bf
       1.1234820195765176 -0.9498249566156771
000070 f8 5e 18 0c 06 df f2 bf d0 0e 44 6c 45 99 e8 bf
       -1.1794491264790263 -0.7687098612372782
000080 c4 ee c1 7d 0b 3a e7 bf 47 71 f2 20 dc 02 df bf
       -0.7258355575754298 -0.48454955308422537
000090 3e 5b 88 53 ba 3a cd bf f7 81 7d d2 25 ba cb bf
       -0.22835473135702417 -0.21661827829213084
0000a0 e0 fb 5f 79 db eb d6 3f 54 0f 5f 93 75 59 e2 bf
       0.3581455884267921 -0.5734203222604983
0000b0 a5 dc e1 9e a6 30 b9 bf d0 3b 81 6e d2 a3 c7 3f
       -0.0983986032386946 0.1846869506429969
0000c0 6d 78 d1 df a9 3e e4 bf 54 a2 2c 9b 15 6e e3 bf
       -0.6326493617487025 -0.6071880369900762
0000d0 a2 ba 16 72 69 16 de bf 90 1f 3c c7 9d 7b bc 3f
       -0.4701179136417669 0.11126123537189714
0000e0 5a fa 72 b3 9b 29 ec 3f 5c 69 af 0f 2e df ed bf
       0.8800791268220778 -0.9334936434127417
0000f0 4a 4a 54 e0 c9 ad dd bf 89 d1 4a 0a b9 65 d1 bf
       -0.46373221308855206 -0.27183366780379764
000100 5c 50 4b 77 b8 89 c7 bf fe f2 af b7 1e 4c e0 bf
       -0.18389039826309073 -0.5092919910090072
000110 9b b7 e8 2a 07 71 e5 bf c7 ce d4 1c 02 e5 db bf
       -0.6700473630969442 -0.4358525544696303
000120 cd d8 fc fb 87 bd c9 bf 9b 34 57 a0 44 50 da bf
       -0.20109653286062326 -0.41114917429224257
000130 51 eb 9e 16 88 a8 f2 3f a5 bf 26 b7 60 ad d4 bf
       1.1661454089759966 -0.32308214078784153
000140 ff 2a 02 e8 17 cb df bf 21 71 60 db 35 44 e3 bf
       -0.4967708364207936 -0.6020764622403797
000150 82 6f 33 d3 35 5c fc bf 07 b3 1f 98 a3 f8 f9 3f
       -1.7725122690235087 1.6232028906189855
000160 23 bf 46 74 6d 13 f1 bf 5e 77 a9 cf d4 53 e3 bf
       -1.0672430555386618 -0.6039833122156144
000170 73 56 af ab 59 a4 e9 bf 80 a5 f6 5e e6 19 e0 bf
       -0.8013122895451502 -0.5031616072421201
000180 24 a7 82 d1 37 e9 e0 3f 76 4f e7 e0 bc 8d db bf
       0.5284689990996623 -0.4305259891818801
000190 bc ea 8d ab 3b 4b ee bf ed 51 76 81 d0 f4 d7 bf
       -0.9466837263747361 -0.374317289760511
0001a0 c6 b7 82 1b 26 88 d1 3f f5 9e 26 d6 0a 13 f6 bf
       0.2739348667772642 -1.3796490063922964
0001b0 61 87 ad 9c 01 ff e5 3f 2a bb 34 6a 3e 8d e9 bf
       0.6873786983598899 -0.7984916757903637
0001c0 41 87 13 4e 25 41 da bf d8 a9 b4 f1 3d f8 5c 3f
       -0.41022617935788125 0.0017681698726145136
0001d0 b7 63 56 7a b3 cb b3 3f df 14 b2 21 db 13 d4 bf
       0.07732698189501162 -0.31371191301907503
0001e0 32 4f fa 76 1d a5 f1 3f ec 7d ca 68 1b fc f4 bf
       1.1028113029069115 -1.3115495770833787
0001f0 ed d8 ba 4b 86 cc f8 bf df e0 98 a8 83 cd 77 bf
       -1.5499327619741579 -0.005811228076304269
000200 15 d1 6c b0 30 d0 78 bf ba 56 d6 c8 9e 50 e4 bf
       -0.006057920639069421 -0.6348413393595458
000210 f8 3a 66 f7 c5 ed b1 bf 7c c4 2f a5 26 24 e1 bf
       -0.0700343827249802 -0.5356629587460158
000220 a5 23 7f af db 65 b6 3f 12 1d 01 97 ae 0c db bf
       0.08749173197351341 -0.42264904734152353
000230 bc 2d c1 c6 31 75 cf 3f 6c d1 a3 57 8d 86 91 3f
       0.2457639904481378 0.017114838098636495
000240 22 98 77 14 b2 15 c4 3f 94 7f dc b4 16 a0 ad 3f
       0.1569120979249315 0.0578620048311215
000250 db 66 35 77 ef 0d e0 bf 98 eb b4 29 c3 a7 b8 bf
       -0.5017011001866324 -0.09630985038977113
000260 c5 f3 56 91 d0 04 c8 3f 53 e5 e6 89 10 89 f4 bf
       0.1876469335237784 -1.2834630381388095
000270 24 2a dc c4 e0 3b da bf f8 d5 56 36 13 65 d2 bf
       -0.40990466332064757 -0.2874191313415788
000280 b8 a9 84 d8 db a4 ec bf 18 7c 3c 7f 85 9a db 3f
       -0.8951243618842488 0.4313062422315297
000290 11 9f 80 73 b5 87 e1 bf f2 e9 38 0b 9c 2d f1 bf
       -0.5478160148531704 -1.0736351431247582
0002a0 d6 80 8f 78 08 e2 da bf 5e d4 6a 51 12 ef f1 bf
       -0.4200459649419036 -1.1208670788157842
0002b0 06 88 64 36 13 54 e3 3f 99 33 cb 5f b4 08 b1 3f
       0.6040130674703057 0.06653907145228145
0002c0 a1 bf 1d c1 65 87 c1 bf f9 06 82 ea 3c d9 d7 bf
       -0.13694450311186038 -0.3726341524235149
0002d0 f9 a9 f6 97 11 5e fb bf 0a 92 75 59 1f 51 f4 3f
       -1.710465997321647 1.2698052877905206
0002e0 68 9a bb ea 5d 28 ef bf f3 15 1c 37 5e 71 d5 3f
       -0.9736775955796704 0.3350444353276025
0002f0 7e 21 1f 4c 25 4f d2 bf c8 d8 fb b0 0d b9 e3 bf
       -0.2860806697249457 -0.6163395363535296
000300 2b 3a 0f 28 c7 28 bc 3f 9a 3b dc d8 55 e9 c2 bf
       0.10999722221388512 -0.14774582947617604
000310 02 87 6c ce d6 d7 dc 3f 7b 41 98 0b 40 48 ac 3f
       0.4506737724169484 0.05523872510468927
000320 bb 25 40 90 90 56 cb 3f 00 70 06 f4 20 7b c3 3f
       0.2135792450283541 0.15219509043970447
000330 a4 05 a8 dd d0 99 ec 3f d7 d8 79 18 c3 73 e9 bf
       0.8937763528085054 -0.795381114773387
000340 cd 5c 07 8e bf 77 d8 3f 24 57 99 cb d4 5d ad 3f
       0.3823088538169486 0.05735650048579391
000350 2e 8d c7 e3 6e 65 c1 3f ab c5 2d 99 d2 40 da 3f
       0.13590799448056984 0.4102064605604833
000360 6e 91 59 93 9d 34 e8 3f a8 80 ba 64 49 0e 89 3f
       0.7564227941443684 0.012234280954828883
000370 d2 d4 7b c9 4b 1a d7 3f 0c 30 b3 ab eb 38 8e 3f
       0.36097998310226587 0.014757004907004066
000380 fc d4 b3 1a 16 7e ae 3f db 5e 55 72 04 a0 d6 3f
       0.05955571247060651 0.3535166851556661
000390 a9 4b f8 a6 b9 08 ad 3f 0a 18 3a fb c5 ca 9b 3f
       0.05670719302374689 0.02714070649974335
0003a0 81 bd c6 0b 38 73 dc 3f c8 3c 52 39 90 70 86 3f
       0.4445324053767408 0.010956885098748606
0003b0 18 5e 7c 43 9f 74 a7 3f f0 50 27 c4 1c 61 e0 3f
       0.04581163119126702 0.5118545371174417
0003c0 63 17 dc 44 d1 cc b8 3f 46 c1 46 bc 24 10 c5 3f
       0.09687526637216375 0.1645551604574484
0003d0 bd ee da 1f da 9b de 3f 98 ac 5b 94 4b 3b bb bf
       0.478262454136466 -0.10637352344535811
0003e0 c1 c9 51 64 4b dc d7 3f 4a 78 82 6b cb 7c c0 bf
       0.37282070919823346 -0.12880842923635988
0003f0 54 d5 3f 96 18 8b b1 3f 2c 65 a4 ba 4d b5 bc 3f
       0.06852868717381472 0.11214147383397649
000400 54 5d a0 f1 27 fa cf 3f b8 9f 98 ad ba 2a c0 3f
       0.24982165620961416 0.1263039920461304
000410 03 ff 7a ba 16 fe a1 3f 6f f7 88 9e 32 4f d8 3f
       0.03514166857121206 0.37983384591995323
000420 07 5c dc 85 db d3 cd bf 22 14 eb 05 0c b6 cf bf
       -0.2330278781525694 -0.2477431324861366
000430 64 b2 d5 c7 50 88 f6 3f db 90 bc 15 b4 08 9b 3f
       1.4082801633877802 0.02640038855237568
000440 3f fe 31 91 4e da b1 3f 66 56 b9 62 75 85 db 3f
       0.06973734898382931 0.43002066269887107
000450 2f a4 0a e0 37 c9 b9 bf 9b ad 72 dd 89 48 e2 3f
       -0.10072659702076757 0.5713548016696451
000460 ef 6a 42 83 21 52 df 3f 0b 8f 3d 97 fb 50 b2 3f
       0.48938787287049385 0.07154819910425318
000470 0f f1 af 68 ff 1c b1 3f cb 5a 11 03 d4 37 dc 3f
       0.06684871965257265 0.44090748118962314
000480 df 92 45 a0 18 9b c7 3f b6 a5 1e 3f 3f e6 cb bf
       0.18442066026468404 -0.21796408254639993
000490 89 bd df 64 ad 34 dc bf 79 57 33 d7 c9 c8 aa 3f
       -0.44071516848540476 0.05231314422569162
0004a0 2a 2d c8 a0 0c cd c1 3f 65 f3 bc 0d 30 a8 f1 bf
       0.13907010889702437 -1.1035614525455568
0004b0 d5 ce 85 e9 c7 29 e6 3f 86 0c c0 47 87 96 ea bf
       0.6926002083768831 -0.8308750535365028
0004c0 a6 39 b2 1c 7d 68 d7 bf 14 f2 3f 4b 58 fc 6a bf
       -0.36575248529779925 -0.0032941555491545847
0004d0 e6 9b f1 72 d8 19 ad 3f 6f 1e 75 39 3a fe c0 bf
       0.05683781054613472 -0.13275840573827533
0004e0 7e 7a 34 f2 5c 47 e3 3f b0 f6 60 08 73 d8 db bf
       0.602461312348012 -0.4350860196899289
0004f0 e9 ed 4d 99 d1 17 f0 bf ea a7 ed 10 7d cd 58 3f
       -1.0058151234105657 0.0015138360356226018
000500 5d 0d 20 81 a6 88 b0 3f 8a 67 db 7e f6 5d d6 bf
       0.06458511974783705 -0.3494850386465421
000510 e7 af ce 51 ca b1 b5 3f 34 a6 1e d3 e9 87 b1 bf
       0.0847441148495701 -0.06848012356081129
000520 08 a3 6a 5a 3f 0e d1 bf c0 99 49 09 e3 81 76 bf
       -0.2664945967649577 -0.005494963512865103
000530 e0 7e ad 84 d6 1e b2 3f a8 b8 db 68 43 f8 b7 3f
       0.07078304995729523 0.09363194761292226
000540 4c 68 45 b6 84 17 a9 3f ee 1b d2 63 ab ec b8 3f
       0.049007556199925334 0.09736128985433343
000550 0a 57 0c d7 c5 3f a8 bf ae 57 e5 68 a5 98 bd bf
       -0.0473615479478849 -0.11561044512686067
000560 a4 20 d6 20 21 a6 d0 3f 90 8d 77 32 85 0e f1 bf
       0.26013973433192406 -1.0660449954383218
000570 26 57 db 4d 21 79 b9 3f 15 39 8f bd 15 fc bb 3f
       0.0995045485572886 0.10931526067654247
000580 c4 dc 6d 4c f4 69 ee bf cc b4 5c 59 5f b9 b6 3f
       -0.9504338734394868 0.08876605922405928
000590 c2 e5 47 71 fa b7 59 bf db 08 20 55 f8 95 e1 bf
       -0.0015697427489825698 -0.5495568907356544
0005a0 4c 12 8f 45 a5 5f c9 bf bd c3 80 f1 20 24 de bf
       -0.1982313718455252 -0.47095511993671463
0005b0 5d 21 dc 97 86 81 f3 3f fa 81 9b a2 f0 98 82 3f
       1.2191224987055513 0.009080772364030477
0005c0 dd c2 47 22 b3 15 7c 3f 9d 7b d9 6d 4e f1 cc bf
       0.006856631986452225 -0.2261140858053893
0005d0 c5 8c c9 3d 3e 55 de bf 54 6e 69 d9 81 eb ef 3f
       -0.47395282777706554 0.9974984403920168
0005e0 31 8a 63 59 da 56 f1 bf b0 93 db fc 87 d2 a1 3f
       -1.083704327750308 0.034809350601597955
0005f0 98 cc 39 3b 4b 43 9c 3f e0 c1 27 0a 0c f7 d2 bf
       0.027600455751280423 -0.29632855407456127
000600 13 87 32 b3 e8 45 d1 3f 11 da de f1 8d 05 b4 bf
       0.2698919057821609 -0.0782097545150935
000610 f1 26 a2 f7 f8 ba 52 3f bf ad f7 52 36 6a a9 3f
       0.0011432105370964808 0.049638459804409056
000620 65 65 69 4a cc 13 cb 3f 45 b5 f1 98 4d db b5 3f
       0.21154168733009296 0.08537754997242526
000630 87 dc 46 af e5 53 ec 3f 52 66 23 67 57 59 e3 bf
       0.8852413581252144 -0.6046559347552807
000640 f6 dd 8c 44 b4 d0 cd 3f d3 01 d5 82 7d a2 b0 3f
       0.23293164584332232 0.06497940487043445
000650 0d cc 75 ec d4 a3 c4 3f ea 59 94 d8 e3 24 da 3f
       0.1612497477140952 0.4085015883478308
000660 e3 f0 15 8d c2 06 f2 3f d1 17 ec a0 67 d2 e2 bf
       1.126650382152598 -0.5881841795933217
000670 89 b9 8b ba 01 08 d5 bf 00 55 1d 6b 75 bc 8c 3f
       -0.32861369340289365 0.014031331378343115
000680 3b c2 12 d7 73 37 bb 3f 46 ac 13 74 aa 67 d7 3f
       0.106314888008236 0.36570226035718567
000690 1d f7 22 50 dd 05 94 3f 7e 89 a8 37 2a 69 74 3f
       0.019553621307515024 0.004983105575350753
0006a0 84 0e 7e 0e 06 11 de 3f cf 44 32 f1 66 85 96 bf
       0.46978904166483226 -0.021993263694245976
0006b0 0f 92 a8 ca 92 e0 b7 3f bc 4a 6b fd a6 40 e1 3f
       0.09327046821324124 0.539142126998136
0006c0 c4 5f 06 b2 d1 f3 b5 3f c8 f4 99 c1 b6 21 c8 3f
       0.08575163456259732 0.18852886632149635
0006d0 4b 2f e3 19 e8 e3 dd 3f 50 74 cc c4 58 b9 c6 bf
       0.4670353176886592 -0.17753133401211807
0006e0 70 88 81 88 73 6f e1 3f 7f 33 e1 7b c9 80 d8 bf
       0.54485489522291 -0.3828605375063531
0006f0 3f 14 6c 90 87 39 a3 3f 78 95 72 b1 54 70 bc 3f
       0.03754829061475861 0.11108903248039848
000700 4f c1 7b 86 71 fd c7 3f 2d 5f f4 41 a2 81 bd 3f
       0.18742198053906597 0.11525930509776279
000710 5d 7e 1e e9 cf ac 6d 3f 8c 21 a2 a6 56 f4 d5 3f
       0.003622442317421633 0.3430382373121794
000720 61 b3 49 b8 0d 5d cf bf f8 7f 54 6f 66 d2 d1 bf
       -0.24502727030212682 -0.2784668051917829
000730 73 9f 36 c6 85 96 f8 3f f9 11 60 67 47 f0 7f 3f
       1.5367486708364282 0.007797507210856918
000740 fb e6 e8 ec 98 bf a9 3f 22 cf f1 ff 73 3d d9 3f
       0.05028989688839932 0.39437580103479963
000750 81 2c a7 fc 90 88 f2 bf 35 37 05 f0 36 05 f5 3f
       -1.1583413953074173 1.3137730956836553
000760 5b 5d 50 50 b5 9f d7 bf 5c e0 f4 09 34 f5 b5 3f
       -0.3691228184047383 0.0857727550800304
000770 97 d9 66 0e dc 0a ac 3f 80 5f fd 02 f5 a1 db 3f
       0.054770352132823046 0.4317600754925408
000780 28 e3 c9 12 0c 69 e2 3f 97 92 ee c7 ce c2 b1 bf
       0.5753231398549348 -0.06937878018522735
000790 7b be bf 0b e6 0c d1 bf d6 b1 bf 15 b7 f4 c9 bf
       -0.2664122690903025 -0.2027806144900654
0007a0 db 45 40 ae a5 12 db 3f d4 c7 ea ba 2f 7c d2 3f
       0.4230131341620031 0.2888297391283434
0007b0 c1 c7 3c 10 74 47 f0 3f e9 7e 3f 7c df 40 e1 bf
       1.0174446710848175 -0.5391690661162701
0007c0 2c c7 37 d9 13 5f c5 3f 6b 59 0c 10 cb 57 a5 3f
       0.16696403604833543 0.04168543406392441
0007d0 ed d3 a9 76 b8 20 d3 3f ae 5d ef 6d a0 8a d6 3f
       0.29887210453244856 0.3522111009201251
0007e0 f4 03 fd 3d 7a 84 f3 3f 2b 37 59 49 15 81 d4 bf
       1.219843141691169 -0.3203786102575232
0007f0 30 bd 4c 00 8d 46 b0 3f a7 60 5d 3a 8c 91 c2 3f
       0.06357651955908206 0.14506676530686954

bias f8 [112]
000000 ce 74 b1 9d 1e 6d a4 bf 51 bf 4f bb 40 89 dc bf
       -0.039895016431481176 -0.44587724964275305
000010 10 e8 28 1a 6b 96 80 3f 34 c4 ab c0 9e f5 ee bf
       0.008099400268395868 -0.9674829257111299
000020 cb e2 28 c1 0e 50 b2 bf 73 2f 75 72 85 a7 ea bf
       -0.0715340825635266 -0.8329493747237237
000030 17 15 c8 9d 71 06 ca bf 42 c5 d5 8e 08 42 d1 bf
       -0.20332164959123908 -0.2696553606866311
000040 d2 77 ba 38 ac 1a ea bf 72 4d c8 a4 90 e0 ce 3f
       -0.8157559497810729 0.2412281803704946
000050 d4 86 30 bf 89 0b d8 bf b9 7a 16 6c 6c 67 e6 bf
       -0.37570422812323767 -0.7001249419298211
000060 4f 5c 2b 6f f6 03 bc bf 7b 75 61 c9 a0 12 e4 bf
       -0.10943546499343991 -0.6272739346710944
000070 f4 64 bf 6c be 5d b2 bf df f0 74 6a ff 2a ea bf
       -0.07174291758510148 -0.8177487448915847
000080 a4 a8 2c c9 c2 fc d2 bf b3 a9 f2 5e aa 73 d5 bf
       -0.2966772999376508 -0.3351846625543217
000090 4f a3 52 2b 5e 1f d9 bf 28 b2 3e dc 72 32 8d 3f
       -0.39253954153769127 0.014256379457799076
0000a0 87 32 3c 1d d2 96 e3 bf 0b 8d 2e 89 86 e7 b7 bf
       -0.6121607371329255 -0.09337654923597342
0000b0 85 a4 d1 12 89 b1 d7 bf 82 8b 64 b9 90 30 c2 bf
       -0.3702109035280688 -0.14210709621792367
0000c0 c8 f0 74 e2 66 5c b1 3f 88 e1 2d dc c4 43 d7 bf
       0.06781619099359937 -0.36351129056813436
0000d0 77 a7 4b b2 f1 50 e0 bf 92 ae 1f 7f 93 1b c7 bf
       -0.50988087485642 -0.18052905757155152
0000e0 d6 53 31 37 ee 2c e9 bf 07 9a 36 72 af 2c b5 bf
       -0.7867346837980402 -0.082713094123939
0000f0 32 8c b9 54 58 35 e3 bf 05 fb 16 36 1d b6 b1 bf
       -0.6002618460446512 -0.06918509073782893
000100 f2 d8 50 b3 17 5e 93 bf 2b cd b5 e8 f8 32 be 3f
       -0.018913622207230092 0.11796527558708607
000110 19 32 f2 0b 27 82 a9 3f 56 7f 14 02 47 99 c3 3f
       0.04982110997034201 0.15311515428129024
000120 11 be 4f f7 e8 5f d7 3f 84 98 2d b1 36 6c b7 3f
       0.3652288832808788 0.0914949591220609
000130 0d 41 e6 90 30 5d bd 3f 58 2d 9b 82 47 2d bf 3f
       0.1147032121427893 0.121784657846708
000140 96 39 b6 7b 93 3a ca 3f 49 1b e7 68 45 e8 a7 bf
       0.20491260090461755 -0.04669396310378333
000150 9d 58 8a 22 ed 42 ba 3f 07 85 a2 bf f7 6b bc 3f
       0.10258371442100374 0.11102245739541071
000160 de a9 2f 9b d9 ac c7 3f 41 a5 ad 74 84 4e b9 3f
       0.18496246411753153 0.0988543305262697
000170 2d 3a 9a 89 90 87 db 3f 7f f2 a9 6e f8 fc b8 3f
       0.4301492065214088 0.09761002256159122
000180 cf 18 15 d5 b0 76 ba bf b1 b3 0f a3 f9 9a aa bf
       -0.1033735771389701 -0.0519636165189249
000190 4d a2 05 88 50 9b c3 bf a1 e9 65 d1 72 ac 75 3f
       -0.1531773246927223 0.005291412837659244
0001a0 b7 06 a5 28 39 0f 99 3f 37 19 bc d7 e8 be 79 bf
       0.02447213469100148 -0.006285581151820366
0001b0 cd c8 aa 15 7c ca a4 bf 36 0d 59 ba a2 fc a4 3f
       -0.040607335705674076 0.04098995709184765
0001c0 fd b8 c1 af c9 33 ac 3f 26 0c f7 4a b2 73 cf bf
       0.05508260984866984 -0.245718275646227
0001d0 bb 06 f0 df 88 e6 a2 bf 53 7e 9f 3c 25 ab 67 bf
       -0.036915089927800314 -0.0028892257005137894
0001e0 0e e2 09 9b 0b 16 a9 3f cc f0 ae b6 2a fc a8 bf
       0.04899631755410293 -0.048798880386557636
0001f0 0e 9f d9 c0 5f a5 ad 3f 93 6c 64 83 96 a1 90 bf
       0.057902328768987585 -0.016241409081982083
000200 a3 db 94 00 d9 ea 9d bf 23 f2 72 5b 49 0b b9 3f
       -0.029216185245981696 0.09782846911088731
000210 e0 21 f1 ac 23 7f a6 3f 95 04 af 4b 3b e6 c3 3f
       0.04393874631984196 0.15546361155978575
000220 61 12 99 cc 2e b1 bf 3f 06 87 26 5f af 7c b7 3f
       0.12379734511439146 0.09174629281053734
000230 af 4c e7 7f cd bf b0 3f ec f5 c9 81 17 88 bf 3f
       0.06542667744297391 0.12317034643816499
000240 e1 ed 37 9f 49 08 c7 3f 4a 36 fc a4 55 52 89 bf
       0.17994041704501654 -0.01236407193894275
000250 00 49 e6 37 fb 67 af 3f 0c e3 ac 1b 47 ae ba 3f
       0.06134018952720233 0.10422176767032115
000260 66 1e a5 ff ce f4 c0 3f 65 fa 42 65 a8 7f b0 3f
       0.13247096522012497 0.064447903368071
000270 cc cf ce 60 1c 2c c0 3f ba b3 1f ab 32 58 be 3f
       0.1263461563772793 0.11853329351261169
000280 c8 71 5c 5f 9b c6 8f 3f 84 b3 ca 28 8d af d0 3f
       0.01551553139466301 0.2607148073537291
000290 90 97 b5 40 de 0b c5 3f 13 e1 5e 31 e7 2c c9 3f
       0.16442468795429166 0.19668283377337356
0002a0 a0 64 6d 75 c8 ef d6 3f 7a 63 65 d8 90 6e ca 3f
       0.3583851954222812 0.20649920049870812
0002b0 fd 5c c7 b7 96 19 c1 3f d5 94 de 10 08 b0 aa 3f
       0.1335934064252128 0.05212426381994254
0002c0 1e 94 6b 16 2a 83 ca 3f 76 04 71 18 33 70 c0 3f
       0.20712781996476876 0.12842405980521548
0002d0 71 36 b2 e9 5e f4 d1 3f 3e 49 60 18 ee 65 bd 3f
       0.2805402071179293 0.11483657927627619
0002e0 92 7c 40 53 93 d6 da 3f 19 57 37 eb 96 b3 b1 3f
       0.4193466485030025 0.06914656870443671
0002f0 c7 24 67 94 d1 27 e6 3f 7c 44 5e 94 da 8e ad 3f
       0.6923606775755154 0.05773051320205355
000300 0d 6c 88 c4 65 75 f4 bf 76 2b d5 ca 35 62 f7 bf
       -1.278661506373058 -1.4614770815994382
000310 f6 4f 35 fc 7c d0 e8 bf 49 ba 65 b0 39 2b ee bf
       -0.7754502225820932 -0.9427765317212301
000320 5c 98 e4 a4 07 fe fb bf a6 c9 ea 25 94 0a f3 bf
       -1.749519008744321 -1.1900826913011797
000330 fe ad 86 ae 9f 39 f7 bf 5c d0 57 13 2d 1c f6 bf
       -1.4515683000016675 -1.3818789249026144
000340 41 90 6f 8f 6e 29 f0 bf 74 20 97 02 ff 1a f2 bf
       -1.0101152041397798 -1.1315908528504481
000350 7d 02 5d d8 5e f7 f9 bf 04 00 b1 14 90 c7 f6 bf
       -1.6228931857769162 -1.4237213905580584
000360 95 51 88 44 0c 7a ee bf 68 2f 15 a1 f6 f5 ed bf
       -0.9523984278226175 -0.9362748285434295
000370 78 aa 7d 09 5f ff fa bf ae f0 41 0a 85 80 f1 bf
       -1.6873464937913507 -1.0938768768965406

weight f8 [112, 16]
000000 9f 68 ac b7 20 90 de bf 0f 7a 7a 30 a7 7c da bf
       -0.4775468629537815 -0.4138582204267615
000010 24 e5 93 c2 37 5b df bf ec 2d bf 13 dd 5e a1 3f
       -0.48994249345521923 0.03392687669801461
000020 50 8b 28 67 8c 03 e0 bf 03 a0 81 df 1e e3 c2 bf
       -0.5004331602870966 -0.14755617059131518
000030 c5 91 38 24 94 66 e2 bf ed 95 61 27 a5 e2 e1 bf
       -0.5750218112412361 -0.5589166421092934
000040 fa d9 11 67 54 8f a1 bf c3 27 97 c0 75 54 df bf
       -0.034296643811945374 -0.48953002746258906
000050 de 47 62 c3 3a aa e2 bf 5a 40 ee e1 43 d5 c7 bf
       -0.5832799736110663 -0.18619583637019127
000060 f9 86 d1 31 14 3a e6 bf a5 c5 3c 76 37 ec c8 bf
       -0.6945897076622877 -0.1947087600070009
000070 05 e3 5a 12 13 98 da bf 8f 1d 53 9b 2b a9 c2 bf
       -0.4155318907974535 -0.14578766903126136
000080 5f 56 23 a1 09 46 fc bf 52 91 f3 66 9c 99 ed bf
       -1.7670990271048124 -0.9250013361711729
000090 bd 4c 81 29 a8 84 fc bf 5d ee b8 97 7b 65 f7 bf
       -1.7823869344036176 -1.4622760702758548
0000a0 7a bf e4 a6 8c 02 fb bf 4c a0 43 5f af 84 f4 bf
       -1.6881224173812073 -1.2823938103920396
0000b0 07 4b d8 cd 7a 2d f0 bf 5e 7e 66 29 20 f5 ee bf
       -1.0111034432235912 -0.9674225624657529
0000c0 1e c4 97 40 7c ea f1 bf e0 1e 20 f8 55 6e fe bf
       -1.1197474024923006 -1.9019374554063049
0000d0 6d fc 9b 27 b8 a2 eb bf e3 c1 0e 9b 50 37 f2 bf
       -0.863613202440218 -1.1385046059550568
0000e0 8f ce 3d b9 3d 22 f4 bf f1 65 31 e9 62 e5 f6 bf
       -1.2583596454614143 -1.431002531919486
0000f0 63 55 85 61 73 e7 fa bf 86 b5 9c 1c 86 94 f5 bf
       -1.681506520214804 -1.348760711446944
000100 9a 18 4d e4 6e ad d7 bf d3 1b 06 02 b1 a8 c4 bf
       -0.36996052069697216 -0.1613980541116847
000110 f9 10 74 9a 93 cc d9 bf 81 dd 16 86 2a 42 cc 3f
       -0.40311136325205116 0.22076922938661528
000120 a3 ab 26 c1 2b 89 db bf 04 1b 24 bc 26 5d c3 3f
       -0.43024724829109057 0.15128025232862552
000130 5a 19 cc b1 40 a4 d9 bf f4 35 09 a9 78 ff cb bf
       -0.40065019000066615 -0.2187338662501329
000140 50 1b ab 37 e0 cf c7 3f c5 9d 1b fd 0f bd d9 bf
       0.18603136747534643 -0.40216445653501537
000150 71 21 9d 48 c5 c0 df bf 8d aa 8c dc bc e9 b8 3f
       -0.4961407860869463 0.09731655487545705
000160 7a 50 d4 e6 39 77 e3 bf c7 a4 81 21 96 35 83 3f
       -0.6083039768586922 0.009379551789793784
000170 87 4e fe b0 9b ce d4 bf db 7f 50 51 fc 60 b0 3f
       -0.32511036190519643 0.06397988305297934
000180 23 6b a5 73 75 a5 f7 bf 49 c8 aa b0 3c bb e3 bf
       -1.4778952138355599 -0.6166060877351437
000190 b0 7a 22 c0 90 0f f7 bf 28 57 88 d9 ee 30 e5 bf
       -1.441300154234039 -0.6622232674296571
0001a0 ec 56 65 00 4d 9c f6 bf 0e 05 2b ee fc d4 e2 bf
       -1.4131593718970477 -0.5884995128364225
0001b0 0a 31 63 0f 3e c5 e9 bf ac 45 4f a3 11 3a e6 bf
       -0.8053274441276994 -0.6945884885446296
0001c0 11 4b 33 ab 5a cb e3 bf 88 ca 28 ee e1 b8 f9 bf
       -0.6185735076672662 -1.6076373389338716
0001d0 00 c4 86 56 7e 6f e4 bf 47 49 f8 e0 9b a0 e3 bf
       -0.6386100473374654 -0.6133555787985551
0001e0 05 b1 d0 9a b2 a8 f0 bf 4d 80 9c 52 ea 57 ef bf
       -1.041185955759887 -0.9794818509581177
0001f0 32 92 9a 31 82 07 f7 bf 12 3a 5c 6f 3b e5 e4 bf
       -1.4393331468246626 -0.6529824423794841
000200 2d c9 c8 f6 93 b5 dd bf 96 15 68 1a 1b 75 bc bf
       -0.4642076406481859 -0.11116189379398231
000210 25 d6 96 9e 8d 22 e3 bf 37 af 01 de 2f 45 d0 3f
       -0.5979679200597202 0.25422283821420727
000220 13 6a f6 d8 fd db dd bf fb 7a aa 24 d1 4e c8 3f
       -0.466552221181389 0.18990530290917448
000230 50 5a 80 66 d6 d3 d2 bf fb 48 bf c8 15 ee e2 bf
       -0.29417953500652505 -0.5915631218761342
000240 42 23 6e 89 0e 5a c8 3f 4e b7 0d 4e 7b 7f dd bf
       0.19024831495723943 -0.46090586302203895
000250 bf d9 ab d5 48 02 c7 bf 7c c6 71 ed a9 68 9e bf
       -0.17975721772354622 -0.02969613563295191
000260 15 1a e0 6c 6c c7 e2 bf 51 d4 12 ac 70 84 b2 bf
       -0.5868436933968179 -0.07233337594046076
000270 4c a6 7f 42 da 85 d1 bf 85 0d 04 0d 3c ee b7 3f
       -0.2737947129631706 0.0934789211060459
000280 b4 73 ae 02 3d 1b f8 bf fb 56 4f 76 a0 37 e5 bf
       -1.5066499809974916 -0.6630403815022129
000290 50 f7 e3 c3 2c 43 f8 bf 7d d4 9e f9 27 8f eb bf
       -1.516400113293873 -0.8612251162909527
0002a0 30 ac 6a b6 a8 83 f7 bf a6 91 76 83 8c 8d e5 bf
       -1.4696433187152813 -0.6735289161338656
0002b0 61 1d 9e b8 d6 57 eb bf 2a f1 52 dc bd b6 e7 bf
       -0.8544725042164992 -0.741057329483316
0002c0 ed 8a 1b 16 21 4b e6 bf 30 32 1c 33 8a 47 fa bf
       -0.6966710502423133 -1.6424657818307757
0002d0 b3 85 30 4d fc 7c e4 bf 59 02 ad 96 63 de e6 bf
       -0.6402570254905896 -0.7146470969092419
0002e0 d5 ce e1 1b 0d 97 f1 bf 81 dd b4 40 46 98 f0 bf
       -1.0993777360098893 -1.0371763732526633
0002f0 55 9c 9a 88 3d 67 f7 bf 0a 38 b0 f2 e5 50 e9 bf
       -1.4627051673976628 -0.7911252727515159
000300 bd 70 47 c5 70 1c fb bf 9b 99 eb 36 99 0a eb bf
       -1.6944434839452207 -0.8450437615072589
000310 d8 f5 22 a2 89 1c fb bf 39 5b 78 4c 21 0d f7 bf
       -1.6944671948871157 -1.4407055842509193
000320 49 a8 ea da fb 0e fa bf bc 9b 3d 86 b3 2d f4 bf
       -1.628658156531417 -1.261157535913056
000330 b5 b0 68 45 37 be e7 bf 9b dc 13 90 73 9f eb bf
       -0.7419697147029384 -0.863214284326108
000340 a7 12 e8 e9 a8 3a f6 bf 84 aa 76 5e 62 65 fc bf
       -1.3893212449049004 -1.7747520151121146
000350 50 44 9b f8 c5 94 e8 bf b0 6d 28 f3 e7 11 f0 bf
       -0.768160806235878 -1.004371595225944
000360 8c 47 b4 44 53 5b e7 bf c5 8a 88 9b eb 0f f9 bf
       -0.7298981038932069 -1.5663868022463003
000370 f1 81 ce 7a 70 1a f9 bf 0a af ff 71 56 98 f5 bf
       -1.5689549252639348 -1.3496918156697029
000380 c5 19 c2 9f 18 c8 fa bf 7e 96 18 64 24 64 e7 bf
       -1.6738516083292876 -0.7309743838311105
000390 ad 02 94 5d 26 a9 fa bf d6 64 40 97 bd 6b f1 bf
       -1.6662963538548567 -1.0888038547766903
0003a0 1c d4 29 a1 00 56 f9 bf 4d 7b 90 c5 22 35 ed bf
       -1.5834966941304236 -0.9127363070182156
0003b0 e3 a8 2d 89 dc 75 e2 bf e4 18 04 73 b2 8e e2 bf
       -0.5768873862519083 -0.5799190756231636
0003c0 d7 2a 82 1a 0c 7d f0 bf df cd 11 4f fe d6 fc bf
       -1.0305291209685288 -1.8024886215833857
0003d0 58 ff 73 9f 06 fd e4 bf 4d 93 f6 80 20 64 e9 bf
       -0.6558869470900204 -0.7934725302517137
0003e0 fa c0 b2 7a 56 27 e2 bf b8 62 84 7f d3 d7 f4 bf
       -0.5673019787264189 -1.302691934694094
0003f0 b6 e5 7e b7 89 91 f8 bf 24 6f ce 90 96 3c f0 bf
       -1.5355317275810711 -1.014792028093276
000400 1d 4f 8e 91 ad da f8 bf c2 35 80 e8 f5 9a eb bf
       -1.5533881841447006 -0.8626660862952849
000410 ca 76 6b bd 45 e1 f8 bf 72 9d eb d6 f4 a4 e2 bf
       -1.5549981497965057 -0.5826362798369884
000420 ed 1c d1 68 2d 2c f8 bf 22 01 0a 4c 36 44 e3 bf
       -1.5107854933174238 -0.6020766720903661
000430 13 64 4d a3 d3 8e ef bf 08 d7 38 a1 79 c7 ed bf
       -0.9861849011896332 -0.9305999897830768
000440 f7 b6 0d 65 bf 4b e7 bf 69 4d 4f ea 08 d4 fa bf
       -0.7279965375616645 -1.6767663147664627
000450 d6 b1 f6 13 d9 ee ec bf ac 33 67 cc c1 f7 e5 bf
       -0.9041562452235279 -0.6864937774895359
000460 39 00 d0 7d f7 3c f3 bf f8 9c 57 11 59 9a f0 bf
       -1.2023844637442507 -1.0376825978690345
000470 02 97 a0 3c c6 e1 f8 bf bf 8a f6 88 50 ce e1 bf
       -1.5551206939939566 -0.5564348864612255
000480 b3 29 78 6c 73 e2 d2 bf e4 bf 89 4b 12 b6 b4 3f
       -0.2950714644690848 0.08090319008056174
000490 6e c6 a9 34 e2 9e d7 bf cb 4d e0 23 4b 5b a9 3f
       -0.3690724863327891 0.049524639253060686
0004a0 6f 43 b5 82 91 d7 cd bf 2a 3a cd 57 a6 cf cc 3f
       -0.23314112550954344 0.22508696829977853
0004b0 b2 75 e5 20 73 94 c5 bf 68 ed c1 98 40 37 cb bf
       -0.16859282594934438 -0.21262366732467375
0004c0 53 74 31 e0 b0 5f 84 3f 09 55 56 ea f1 4f df bf
       0.009948140947182582 -0.48925445446487054
0004d0 62 6d 3c 8e 6e 86 b8 bf 69 90 ff bc 87 47 d2 3f
       -0.09580126736220998 0.2856158586203095
0004e0 0d 44 c7 90 d5 1a d3 bf 45 21 57 57 d3 32 b8 bf
       -0.2985128320552242 -0.09452553636868284
0004f0 c9 81 13 cc fe bb de bf 6b 1c ec a5 1b 21 b7 3f
       -0.480224322598613 0.09034893799626935
000500 6f cc fe c3 92 4e fd bf 00 c4 a8 69 83 f7 ee bf
       -1.8316829353396107 -0.9677140296608968
000510 eb f2 ff 27 25 49 fd bf dd fa ed 01 e6 a1 f9 bf
       -1.8303577005855753 -1.6020259929061276
000520 37 22 0a 6e 9f 47 fb bf b5 34 7f 22 d3 93 f6 bf
       -1.7049860285207055 -1.4110900256667211
000530 e0 ea 51 c6 d6 6f ef bf b6 b7 a8 f8 33 86 ee bf
       -0.9824022172391231 -0.9538822037336476
000540 4a 07 e9 f0 eb 82 f2 bf 45 37 4e 5f 55 72 ff bf
       -1.1569632921750377 -1.965413448607664
000550 22 e4 89 0c 77 6f ec bf 30 3d bb e4 c5 dc f3 bf
       -0.8886065716643581 -1.2413996634312063
000560 67 6f 4d 9c 60 4e f3 bf c9 a3 5c d5 12 c8 f7 bf
       -1.2066351037564915 -1.4863460859726152
000570 ee da 43 73 50 2b fb bf 33 46 3a b7 90 da f7 bf
       -1.6980747702161199 -1.4908606679276886
000580 5f 7e 05 2b 0d 38 f9 bf ee 95 5b 57 67 96 e4 bf
       -1.576184433033539 -0.6433598238187963
000590 2e fb 58 39 ee 3a f9 bf 86 d9 e7 1a 68 1e ef bf
       -1.5768873443736982 -0.9724617505551556
0005a0 a8 2a 50 9f a4 c7 f7 bf d8 a6 0f ec 53 2b e7 bf
       -1.486240980450626 -0.7240390406197674
0005b0 d2 5e 8e 6c c2 f9 eb bf 65 98 fa 29 4e 3c e8 bf
       -0.8742382164227485 -0.7573614902401117
0005c0 46 8b d5 d5 4c e2 e9 bf 1c f4 51 57 c7 49 fb bf
       -0.8088745285461776 -1.705512372106802
0005d0 56 b0 00 4a de c6 e4 bf 07 df 0d c5 89 b8 e7 bf
       -0.6492759175648739 -0.7412766312326945
0005e0 47 f0 07 ae 94 4e f2 bf c9 30 d3 8f ad 22 f2 bf
       -1.1441847608648616 -1.1334663026964782
0005f0 98 25 6f b5 c2 ff f7 bf ff 4e f9 dc 6c 74 ec bf
       -1.4999415480873264 -0.8892120662589774
000600 62 f0 bb de b4 74 f6 bf df c9 3e 5d d2 4d e3 bf
       -1.4034928036262717 -0.6032497235485684
000610 c4 02 89 0f cc d8 f5 bf 43 63 91 76 41 19 ec bf
       -1.365428982433671 -0.8780829730777459
000620 64 f4 9f 52 f4 0a f4 bf 8b 06 50 06 79 e3 e5 bf
       -1.2526744105846541 -0.684017669991776
000630 98 c4 0c 5f ea 18 e3 bf a1 8d 8b fc bd e2 e2 bf
       -0.5967914444392077 -0.5901784832498614
000640 34 10 b9 00 d7 5b ec bf 15 a9 70 f6 2e cf f6 bf
       -0.8862109197730264 -1.4255818964543938
000650 c9 5a c1 f7 14 a8 e2 bf d7 ed 25 bb c6 b9 e3 bf
       -0.583017810723356 -0.6164277701604374
000660 8b 3c cf f3 ab bf e4 bf a4 0c 29 cf 96 bb f0 bf
       -0.648397422972168 -1.0457981197548998
000670 64 e1 52 e2 33 9b f3 bf 59 38 38 aa c2 0b e9 bf
       -1.2253912773868132 -0.7826855969049219
000680 f6 25 77 e1 85 19 ed bf a5 90 88 b9 9f 9f e4 bf
       -0.9093655971166175 -0.6444853423786482
000690 85 a4 94 eb a7 49 ed bf 2a af 99 c7 cc 97 be 3f
       -0.9152412034210476 0.11950378296904476
0006a0 5f 12 7a ea bb f5 ec bf ed 28 e1 0f df 21 ac bf
       -0.9049968318582379 -0.054945917786044386
0006b0 69 4e df e7 9a 4b ed bf bb 12 e3 07 0a 24 e9 bf
       -0.9154791382556599 -0.7856493143122728
0006c0 70 9c 87 e4 c9 4c ab bf a3 e2 b7 c1 7a fe ef bf
       -0.053320225855537084 -0.9998143943367562
0006d0 c1 59 34 a4 de 2c e5 bf 95 f3 8a 0d ec 1a d6 bf
       -0.6617272574538263 -0.345393193459864
0006e0 b6 86 ae de 4e 12 ef bf f7 00 cf 7b 70 69 d8 bf
       -0.9709848737004083 -0.3814355095928614
0006f0 bf c8 a1 03 32 9f ed bf d3 a6 dd f1 d4 90 a2 3f
       -0.9256830283104803 0.036261229061734256
000700 74 0b 9d 9e 0f ec d4 bf 0e dc 82 b9 e8 13 a8 3f
       -0.32690802087397874 0.047026894231230285
000710 05 aa 03 13 30 d1 d1 bf 2c b7 a3 de 4d 7a c2 3f
       -0.27839280945650585 0.14435742732114798
000720 a2 3a b3 b9 04 ab b1 bf 1e b2 c7 03 83 ce c1 3f
       -0.06901578458494353 0.1391147392709095
000730 eb e1 8b 92 73 52 ce bf c6 18 f1 24 45 1d c4 bf
       -0.23689121871554106 -0.15714325240896282
000740 72 f7 7f 0d a4 9c b8 3f 4c c2 f2 77 ea dc de bf
       0.09614014939867646 -0.48223363603304814
000750 cb 8d 84 f3 a9 ac be bf b5 91 d0 34 43 13 c9 3f
       -0.1198221416021205 0.19590034560054695
000760 4f 9a 83 7c 76 90 d6 bf aa 9a af 1f 23 65 c6 bf
       -0.3525673118551013 -0.17496146247068128
000770 cd 2f aa 12 80 cb e2 bf 66 b1 06 97 52 7c c3 3f
       -0.5873413433596341 0.15223152517627198
000780 0d b9 24 5f 36 dc f6 bf f3 71 bd d5 05 4c e2 bf
       -1.4287627903500522 -0.5717801260576024
000790 48 95 ad d4 d1 0a f7 bf 0e cf 4b 83 9a f1 e4 bf
       -1.4401415164696392 -0.6544926227929595
0007a0 4e f6 33 aa ce b7 f5 bf 59 22 d7 79 51 ba e0 bf
       -1.357374825339679 -0.5227439288801846
0007b0 6f 93 dd 53 26 75 e8 bf 9b 69 5e c8 d8 3d e5 bf
       -0.764300502586236 -0.6637996591046432
0007c0 9a 97 86 ef 73 eb e3 bf 34 ed ff 34 55 03 f9 bf
       -0.6224918058621711 -1.5633136816312119
0007d0 79 50 c2 f1 3b 95 e2 bf d4 41 bc ef dd e2 e1 bf
       -0.5807170602661379 -0.5589437181789045
0007e0 90 94 a1 62 b9 f3 ee bf 1b 0f fe 1a 80 21 ee bf
       -0.9672514845266438 -0.9415894057460464
0007f0 e8 f6 7d 76 6a 19 f6 bf fd 76 a9 d7 8a 19 e3 bf
       -1.3812050465198187 -0.5968679630420578

bias f8 [112]
000000 da 74 b1 dd 54 4d a6 bf 47 bf 4f de 49 d4 db bf
       -0.04355874258247079 -0.4348320647250045
000010 cc e7 28 1a 1b 3a 8f 3f 32 c4 8b 23 a1 5a ee bf
       0.015247546897729246 -0.9485631651169852
000020 94 c5 51 09 79 d4 ae bf 77 2f b5 e4 c2 bd ea bf
       -0.06021478880655731 -0.8356642214725828
000030 ff 14 c8 1e 83 85 c8 bf 42 c5 25 e6 f1 87 d1 bf
       -0.19157446864134184 -0.27392241931291406
000040 ce 77 ba 18 a1 81 e9 bf 70 4d 68 bf 7a 5e cd 3f
       -0.7970738871551875 0.2294457850081062
000050 d4 86 30 3a dd 03 d8 bf bb 7a d6 d0 23 30 e6 bf
       -0.3752358501679798 -0.6933764532912713
000060 49 5c 6b db 1e 64 bf bf 7c 75 e1 23 e7 00 e4 bf
       -0.12262146813314802 -0.6251102162165547
000070 f2 64 bf fc 87 18 b2 bf d1 f0 34 59 6c b2 e9 bf
       -0.070686816411939 -0.8030301801986984
000080 a4 a8 2c 39 99 10 d4 bf b4 a9 72 21 a4 4b d5 bf
       -0.3135130937904569 -0.33274176851650883
000090 53 a3 92 4c 4c f0 d9 bf 81 ac 0f 07 dd b1 a1 3f
       -0.40529162862599327 0.03456011496731382
0000a0 86 32 dc 02 68 58 e3 bf 0c 8d 6e b9 31 e3 b5 bf
       -0.6045417838918901 -0.08549795891899609
0000b0 83 a4 d1 de 36 8c d7 bf 76 8b a4 9d 2d 73 c2 bf
       -0.36793300399455847 -0.14413995931053208
0000c0 c6 f0 74 12 25 26 b0 3f 88 e1 2d 8a 51 37 d7 bf
       0.06308204365354006 -0.36275137418808656
0000d0 7e a7 f7 07 d7 19 e0 bf a4 ae 1f d5 13 46 c8 bf
       -0.5031542926419517 -0.18963859468873523
0000e0 d4 53 31 71 91 4b ea bf fd 99 36 10 d4 d6 b8 bf
       -0.8217246256632458 -0.09702802081901747
0000f0 31 8c d9 80 b8 3a e3 bf 26 f6 2d 14 d4 de ad bf
       -0.6009180561635558 -0.058340671027491006
000100 15 b2 a1 a6 ca 76 8b bf 1b cd b5 fe 23 ce bb 3f
       -0.013410170755570975 0.10861420601377285
000110 e3 18 f9 25 b0 fa b0 3f 56 7f 94 4b fb d5 c1 3f
       0.06632519652439188 0.139342700867014
000120 0f be 4f c1 dc 1f d6 3f 88 98 2d fe 65 22 b3 3f
       0.34569472196651047 0.07474362807769996
000130 15 41 e6 92 18 b7 b9 3f 62 2d 9b d5 a5 4c be 3f
       0.10045007311260108 0.11835705246919795
000140 90 39 b6 59 c9 7e c9 3f ca 8d 73 b4 f4 04 b2 bf
       0.19918171768626936 -0.07038812070418668
000150 93 58 0a 1e 3b 5e bb 3f 0b 85 a2 2b 5a e5 bb 3f
       0.10690659984024568 0.10896838727287077
000160 d4 a9 2f 0e e9 3b c9 3f 4b a5 ad f8 2d cf b6 3f
       0.19714081947979756 0.08909880944488184
000170 30 3a 1a 91 45 33 db 3f 7d f2 a9 06 83 90 b8 3f
       0.42500437898789567 0.09595507538501553
000180 cd 18 95 fd 60 b3 be bf c5 b3 0f 0b f9 c9 a7 bf
       -0.1199246043298416 -0.04646280536676487
000190 3b a2 05 9e d9 3c c5 bf 46 bd 2c 4a 05 6b a9 3f
       -0.16591949668806358 0.049644627861534604
0001a0 a9 06 a5 08 65 8e 93 3f f0 05 ef 89 d2 ab 98 bf
       0.019097880032183188 -0.02409295050506971
0001b0 f1 91 55 24 c7 7c 9c bf 3a 0d 59 3a b4 46 a1 3f
       -0.027819739906947253 0.03374255382780196
0001c0 15 b9 c1 da 2a 13 a9 3f 26 0c f7 a4 31 39 cf bf
       0.0489743606602692 -0.2439329200261408
0001d0 bb 06 f0 39 90 07 a3 bf aa ef 93 27 f4 02 9c bf
       -0.03716707904096724 -0.02735501758159812
0001e0 0a e2 09 0b 12 57 ad 3f df e1 9d ee 7c ad 9c bf
       0.05730492005108452 -0.02800555426026274
0001f0 c4 9e d9 6c f7 5a ab 3f 8a b2 91 e7 4c 12 72 bf
       0.05342839435325922 -0.004411983879532353
000200 5e 6d 4a 50 d1 6a ab bf 13 f2 72 cb b7 c5 b4 3f
       -0.053549328852762854 0.08114193646446947
000210 ec 21 f1 92 12 f8 a9 3f 87 04 2f 0f 0b 5c c2 3f
       0.050720768391844334 0.14343393556012904
000220 29 89 4c 06 63 e3 c0 3f 08 87 10 ac 30 e3 b4 3f
       0.13193929488722603 0.08159164620203907
000230 a4 4c e7 d9 f3 12 b1 3f ea f5 49 66 75 18 bd 3f
       0.06669544286642065 0.11365445849693115
000240 e9 ed 17 1b 67 0d c8 3f 25 1b 7e da 7a 1e 9b bf
       0.1879090196888307 -0.02648345907757767
000250 6f 24 93 1b 50 ae b0 3f 16 e3 ac 40 83 53 bd 3f
       0.06515980408870957 0.11455555275905413
000260 70 1e a5 ac 1c 86 c1 3f 84 f5 85 3a 0c b2 a2 3f
       0.13690527372294836 0.03651464666743734
000270 91 9f 9d 79 a0 a4 bf 3f b9 b3 1f db 58 c7 bb 3f
       0.1236057564652795 0.10851054525092153
000280 f8 38 2e c1 07 e9 9a 3f 86 b3 8a 5a 6c dc d0 3f
       0.026279565015607326 0.26345356790516694
000290 90 97 35 d1 60 d4 c3 3f 13 e1 5e 2e 43 55 c7 3f
       0.15491876807498928 0.18228950275602837
0002a0 a4 64 6d 63 57 a7 d8 3f 7a 63 65 be 35 77 ca 3f
       0.3852137061090366 0.20676299854929053
0002b0 f3 5c c7 df 9b 96 c4 3f cb 94 de 68 19 1f ac 3f
       0.16084621836373678 0.054924768496940134
0002c0 1c 94 6b 19 d5 30 c9 3f 70 04 31 26 03 2b c0 3f
       0.19680274716589075 0.12631263127153458
0002d0 6f 36 32 09 ee f1 d2 3f 90 24 30 8c 74 0f c1 3f
       0.29601622484265183 0.1332841572296144
0002e0 94 7c 80 74 19 80 da 3f 1f 57 37 35 b4 55 b5 3f
       0.41406856896532784 0.08333898829672791
0002f0 c8 24 2f 72 15 d6 e5 3f 3e 22 af 36 09 a5 b0 3f
       0.6823832731398847 0.06501824936925346
000300 0b 6c 6c 05 a1 69 f4 bf 78 2b 75 4d 2a 80 f7 bf
       -1.2757883273941413 -1.468790342873687
000310 f2 4f 75 0d a4 67 e8 bf 4b ba a5 10 3b a6 ee bf
       -0.7626514685493915 -0.9577918362754841
000320 5a 98 84 88 92 ca fb bf a8 49 d6 a3 79 26 f3 bf
       -1.736956151269189 -1.1968933486829005
000330 00 ae 26 f0 c1 4c f7 bf 5b d0 bf 6b 47 0e f6 bf
       -1.4562396412756016 -1.3784860810237862
000340 43 90 8f be 7e 02 f0 bf 73 20 17 2c 25 a9 f2 bf
       -1.000609154108148 -1.1662952158240187
000350 80 02 fd 0c e7 ea f9 bf 03 00 f1 44 9d 74 f6 bf
       -1.61984925340235 -1.4034702961944283
000360 86 91 13 f2 96 e1 ee bf 68 2f 37 bd 02 e5 ed bf
       -0.9650377967887358 -0.9342054076782746
000370 77 aa fd 37 58 34 fb bf af f0 31 10 b7 5c f1 bf
       -1.7002794444221345 -1.0851355202312722

weight f8 [3, 16]
000000 05 4d 89 68 a3 3b ad 3f 29 34 9a 8e 69 49 e1 bf
       0.057095629225523616 -0.5402114663317025
000010 3a b8 f5 c7 3a 03 d0 3f d5 80 d4 4b 54 6e d4 bf
       0.25019711997345306 -0.31923396497041995
000020 1e 13 31 32 8e e3 db 3f d7 11 ba b2 b9 49 d9 bf
       0.4357638826516438 -0.39512484029571965
000030 c7 ef ba de 7a c0 d7 bf 24 23 da c1 9e 05 e5 bf
       -0.37112304450033345 -0.6569360529111674
000040 4a b9 36 5d f9 ca d2 bf 09 12 fe bd 96 d8 c4 bf
       -0.2936385546007797 -0.16285976674056737
000050 1d 4c bb c9 0a 89 e2 bf da de fd ba 30 b8 b3 bf
       -0.5792287769385244 -0.07702927174784283
000060 80 f6 4d 80 31 83 e2 bf ed cc 95 b4 60 75 c9 bf
       -0.5785148149440857 -0.1988945848239391
000070 04 59 f1 09 19 45 f4 bf a2 6a ad 1d 67 47 c0 bf
       -1.2668695820225944 -0.1271790404233189
000080 1b 73 63 46 25 eb d1 bf 31 e5 29 91 d0 34 ca bf
       -0.27997714876055263 -0.2047367771918203
000090 8b 55 1f 75 5f 13 e8 bf 2e d2 c6 ad 26 22 ce bf
       -0.7523648536249977 -0.23541720853030895
0000a0 65 ff 26 e0 f1 b4 f0 bf 3a c0 51 e6 6b 11 ce bf
       -1.044175983042771 -0.234906661472907
0000b0 f7 15 12 fd 58 34 e0 bf 88 5e f9 43 b2 d1 c9 bf
       -0.5063900893007361 -0.20171192473457134
0000c0 00 b1 ce 53 48 e5 cf bf 76 aa 6f 9d c3 c8 9b bf
       -0.24918464748532898 -0.02713304184355044
0000d0 60 07 13 06 82 37 dd bf 75 c8 7d 67 17 a1 e3 bf
       -0.45651293366619505 -0.6134144803347811
0000e0 33 42 d1 16 c3 33 eb bf a6 86 a4 1a 36 40 d5 bf
       -0.8500686116840995 -0.3320441494162004
0000f0 52 69 9d 36 03 a3 e3 3f 51 5a 79 6f 2d 45 df bf
       0.6136489931771314 -0.48859725843559426
000100 80 b0 69 b7 35 a3 e1 bf cf 51 92 89 72 b5 e2 bf
       -0.5511730749399391 -0.5846493422455356
000110 f3 f6 94 da 24 2b d1 bf 44 5a 85 85 03 b1 c2 bf
       -0.26825829835784915 -0.14602703113151183
000120 b8 ff a3 03 4b 33 f0 bf f5 b9 14 4d b9 e1 d2 bf
       -1.0125227110110995 -0.2950270893806242
000130 cd 60 57 37 ac e5 c0 bf 45 ae 59 07 e2 ed a6 bf
       -0.13200905515873843 -0.0447836526844552
000140 8e aa 1a f0 fb bf c6 bf ba 09 17 65 83 62 e5 bf
       -0.1777338907607668 -0.6682755445875082
000150 fb 2e 17 53 ab 3e d3 bf ee 25 7c 30 78 76 dd bf
       -0.3007000266486412 -0.46035580382212415
000160 c4 b4 47 2b 5b d0 e6 3f 7f 06 a9 0e 91 93 cc bf
       0.7129340977968686 -0.22325337615807325
000170 70 da a3 8e 82 c8 eb bf 59 59 4c 08 ba 8c d0 bf
       -0.868226317018367 -0.2585892754590496
