Retweet/RetweetNetsV9/TrainNet_ep15V2.pt (torch, 23477 bytes, 6 tensors)

scale f8 [3]
00000000: e9f3 09d2 0066 d93f 63e0 de1d 2ed3 db3f
00000010: 0da4 54b9 3662 d73f
0.39685078155144865 0.43476441304256336 0.3653694925183693

weight f8 [112, 3]
00000000: 910e 19c3 557d da3f 158f 6226 e189 9cbf
00000010: 4c64 b087 25e7 d9bf 0d4e 8013 192d e1bf
00000020: 8a7a 714b 9c83 cdbf f554 9f64 2a31 c3bf
00000030: c5ce b8b8 26b0 dc3f 9eea 7f9b 2c86 d0bf
00000040: 0219 435b 2740 ccbf e2ea fbdd 321c eabf
00000050: 563c 9d6e dbad e8bf 4599 f832 cc3b e0bf
00000060: 4a51 8cdf c696 e53f ef8a a1d4 6c52 e6bf
00000070: 859a 8028 4907 e4bf d75a 4f40 ebe1 e7bf
00000080: 87a3 7f75 93c8 e6bf 33e6 0a29 de3d d9bf
00000090: 5a9a 6b4f 9419 c2bf a824 25d4 712e c1bf
000000a0: b6e9 d457 56b4 c33f ab25 67a0 a57c e0bf
000000b0: 488a e543 694e c2bf c5c3 a951 a323 a7bf
000000c0: 9927 2f5b 4c8c e3bf bc93 826a fb04 e2bf
000000d0: 6ec5 d68d 390a d9bf cd11 8946 380f d23f
000000e0: e6f8 6bc7 bd7a e43f 22a9 f0b9 fbc4 dbbf
000000f0: 42e4 f8cc d9c5 d9bf af62 c89f af23 cfbf
00000100: 7022 0731 4409 68bf 03c0 76eb 68a8 e1bf
00000110: 852d f029 1266 e4bf aeeb e8ab 8f99 d1bf
00000120: f783 3497 aa51 b0bf 832b a657 2637 cdbf
00000130: 6a8b f7d2 1a17 d23f 02a2 d654 f237 cfbf
00000140: 0b11 97f0 99b2 dcbf 3e7d 0884 3650 e1bf
00000150: 5c78 4d1f 5494 f8bf 7549 d1b7 1409 f53f
00000160: f7e0 9ac1 e8c3 e3bf 8735 afcc 2eb0 e3bf
00000170: 2881 8bdf 74e9 e8bf b41d 7100 056c dbbf
00000180: f8e9 1677 933e da3f 881f 3cb6 1b2b d9bf
00000190: 5e2a 0659 8453 e4bf 65f4 d209 2bf6 d7bf
000001a0: 9c70 e1e4 534d b1bf 578e 8272 004e f0bf
000001b0: 5cf1 3842 125f db3f 4fb4 b22b 5c98 e3bf
000001c0: 7b7d ef72 80e7 d6bf bd72 7e04 5a30 73bf
000001d0: ce62 ffb0 c6da a23f 5caa e30a 7b8d d5bf
000001e0: 0c08 cc0e 2ed3 ea3f ef74 cd62 692a f1bf
000001f0: 6fe5 5fe6 0a8e f0bf 9e29 475b a0d2 a73f
00000200: 819f f9d7 9a5b bbbf 4bfa bba4 dd38 e6bf
00000210: 3a07 81a7 9944 a9bf 77f1 7c15 be3c e3bf
00000220: 8711 bc08 ee28 c3bf 0d68 5435 9a32 dcbf
00000230: 1583 dab8 fadf b83f 1843 7a2f 0ba8 d0bf
00000240: 961f 55ab 035b c13f 9e4f a4a2 fa3e a13f
00000250: 24e3 6d23 6d7a dfbf a880 a197 a4dd a63f
00000260: e379 8236 cd31 9f3f 575d 3630 bf20 e9bf
00000270: 41ef cb18 ea30 d3bf 1390 36fd c4d8 d9bf
00000280: ff66 ab68 4880 e7bf 24ed abe7 3de9 d93f
00000290: 3fa0 6b03 c97a e5bf cc0d ffce ee2d edbf
000002a0: 5877 cb9d b1cd b6bf 7d64 946b fc51 edbf
000002b0: ddde da44 409f bb3f efb1 bb91 b52f c33f
000002c0: a922 5bbb 126a c4bf 0efd e71e 6e68 e0bf
000002d0: fbf6 69e9 6e69 f7bf c56b fadb 3721 f03f
000002e0: 20e0 14f6 3b94 e3bf 6b54 aae8 4f34 d63f
000002f0: a117 a89c 18a1 d7bf bc5a e329 82e4 e4bf
00000300: 9188 b8bb 0fe6 c53f 6c35 d040 0664 8dbf
00000310: 4814 25ff a647 d73f 49a4 e22f bb71 943f
00000320: eff9 249d b162 c13f c1d0 2b7b b22f dc3f
00000330: 7998 f5b1 2e40 e33f c8f4 4243 7d91 d4bf
00000340: f7cf 2570 c7bc d23f bf68 7bdd a5ef 9c3f
00000350: a989 7814 f597 b83f 9326 9618 ef9b da3f
00000360: 9a8b 367c 13d5 dc3f 0475 af05 58ee a3bf
00000370: 0b82 55a5 a42c db3f 30db 6c7f 214a 683f
00000380: 3d81 a1d4 fed5 aa3f 5c1f 1706 5137 da3f
00000390: d1e1 e144 be3a b43f 220a 4f7d 9d42 ac3f
000003a0: 6b0e 3a24 9da6 e13f 99f3 412d 6629 6e3f
000003b0: 41ed 852f 4ab6 bd3f 0f3b 8cab 8203 e13f
000003c0: ee25 7ea7 a7db ae3f 8902 714e 3729 c03f
000003d0: b438 0e62 d526 de3f 4e93 ff5e 9ff5 b33f
000003e0: 7222 4954 2752 ce3f 543f acb5 2f0d c53f
000003f0: 27bd 92fc f21a ae3f 0f1e e9c4 caf2 b03f
00000400: 5a27 c260 ead3 dd3f 4872 4573 408f bc3f
00000410: d7c6 4867 0401 90bf 76a3 277b 7d2d da3f
00000420: 9fee 0bcd ae51 883f 8292 4359 59c9 a9bf
00000430: 3417 175c 708e e63f 6321 bb78 247a b43f
00000440: 7f57 e7df e4b1 b73f 0de3 19c6 0f31 db3f
00000450: 22e8 28b8 a907 c0bf 8c1c 1558 d416 d93f
00000460: 65a4 e831 1cb7 e03f 8606 58e3 c196 b03f
00000470: 566b 3157 a893 a93f 256a 5352 7dab da3f
00000480: 1d33 f276 dc14 c63f f9fb cf8b 0525 b5bf
00000490: 2030 1180 6173 dfbf b2e3 a447 40af 8f3f
000004a0: d2ee c7f2 2dbb b13f 8b55 c050 659a dcbf
000004b0: bc68 dcff ee49 e03f 8ef2 3a25 d053 dfbf
000004c0: 213e 3eef 5308 dbbf cdfb 68bc 0985 7a3f
000004d0: 355f 7049 9725 ad3f 43d2 2189 2537 b1bf
000004e0: 31bb 33e6 90d4 d93f 3c94 5174 8ef0 d4bf
000004f0: a2aa 71e6 d3af e1bf b67e 381c 13e5 803f
00000500: 47a9 1809 0c7b b43f 4f25 9145 7508 cdbf
00000510: 42ff c486 6fbc b03f 0f5b ff3f 3137 9bbf
00000520: 582b cb0e 606f 8e3f c4a4 6868 5850 84bf
00000530: 8c35 eab9 5a27 c33f f462 cffe d14f c33f
00000540: 34f7 fd69 f7e7 a43f a660 2c80 7c6a b83f
00000550: 15c1 b5b0 4611 8ebf c3d4 e33c f38e 98bf
00000560: 7ef6 52b7 5340 c33f 16ea 2cd5 f2f3 e7bf
00000570: 08d8 63f7 bb91 a83f f9c6 e702 f4bc 853f
00000580: 208f d979 91fe d7bf 38d9 3c54 f119 b93f
00000590: bfa2 4817 71ab a5bf b54c 0d76 a6e2 d7bf
000005a0: 4b13 e5c9 fbc6 80bf 0962 d4ee e7df c9bf
000005b0: 3fb1 1775 df84 e23f 9e57 6d25 07c6 b13f
000005c0: 61c6 bdb1 bb88 a33f 1767 532b 5bcf c7bf
000005d0: e4f1 db97 b106 d4bf a89b d300 85c0 e33f
000005e0: f183 864e b6c5 d2bf cba8 e29f ad6c b23f
000005f0: 36d4 47b3 0ce2 9f3f 1b81 40ff b7ba d0bf
00000600: 4457 41b6 61ca cb3f 70cb 98d5 8696 9e3f
00000610: 6694 6822 28a0 cb3f dc0a 17e1 3c9a 953f
00000620: 8723 edee 25fc be3f e26f 53a3 a68d dc3f
00000630: 036b ddd5 d8a5 e13f 7fee 36ef 9af6 d2bf
00000640: ba47 f868 41b4 cd3f 89eb 95f5 50d3 a23f
00000650: 8589 e617 e274 bf3f d9e7 eba6 c897 da3f
00000660: a21d 845a edba e43f 90a3 0a63 ca99 d5bf
00000670: 9dc8 99d6 295b d13f 8e85 9ec0 5c42 6d3f
00000680: 02d7 8e3c efb6 b93f b8b1 8753 eb61 db3f
00000690: c052 a61c 1216 aa3f 7787 e04c faea a63f
000006a0: 0203 fbcd 82bc e13f cddd ced2 083a 9abf
000006b0: 1c07 ce89 7460 c23f e5c3 16ad 7214 e13f
000006c0: c575 5c42 4196 a93f a7ee 8778 0079 c33f
000006d0: 5ad6 fb6e 95c6 dd3f 60e5 8c48 9540 8d3f
000006e0: 2541 942d 539f d43f f22a 0705 e559 bc3f
000006f0: 93ea f50e 6733 a43f 477d 0205 452c b13f
00000700: 8499 4cc8 7dd7 dd3f 4724 b5c6 e831 b93f
00000710: 0ebd 4b55 b3c9 a6bf 0533 fb14 0c34 d93f
00000720: e65d 4f9c a74b 84bf eef1 fa60 6366 a6bf
00000730: 5920 9214 3a1a e83f c6b9 f7a3 30d4 b13f
00000740: b94a 76b9 4d5a b43f 1f14 ec51 54d0 d93f
00000750: 36cf 8972 bd66 eabf 028c 59e5 7a6b ec3f
00000760: a85c fbfb 1df8 ca3f ffdf b684 c837 b43f
00000770: 0039 280e dd3c a33f 7767 f6c7 a762 da3f
00000780: b5f2 786a 3878 dc3f 01b9 982c 655e a63f
00000790: 18bd b737 37b9 a73f 25df 5ae5 39c7 60bf
000007a0: c536 1e02 ddde d13f a9af 5f3a 9a48 d63f
000007b0: 1373 ffea a373 e53f ad98 5bc8 d4be c8bf
000007c0: 5a3a 1bfa 7b63 c43f c69f 8ca8 3a8a c03f
000007d0: 969a cf1c 53ce cf3f 070d 816b a6e8 cc3f
000007e0: 1b64 3bfa 5d35 e93f 9d05 78e8 303d c1bf
000007f0: 4e0d ff97 6be7 d03f 8cc7 1a24 5816 cd3f
0.41389984180953215 -0.027869718520960058 -0.4047330689514339 -0.5367551213152538 -0.23057893451455796 -0.14993791497423783 0.44825141944168606 -0.25818934617533695
-0.2207078166595196 -0.8159422240854293 -0.7712227974351531 -0.5072995181588246 0.6746553770231369 -0.6975616600942355 -0.6258893767415691 -0.7463279968313498
-0.7119843764204327 -0.3944011116796872 -0.1414056194109488 -0.1342298780312252 0.15394095696121973 -0.5152156956548216 -0.1430179196859902 -0.04519377109398407
-0.6108762532178275 -0.5631081657671682 -0.3912490735193249 0.28217894447541597 0.6399830717998867 -0.43389790685854923 -0.40270085350818274 -0.24327655126469014
-0.0029341060510186742 -0.5518078421500835 -0.6374598330598223 -0.2749976328665821 -0.06374612990886407 -0.22824553756467134 0.28266020395510927 -0.2438948549509093
-0.44840095992209744 -0.5410416201374699 -1.5362130377539165 1.3147170238849786 -0.6176646977756083 -0.6152566907637017 -0.7784981123077488 -0.4284679893794092
0.41006933812937474 -0.39325611873982114 -0.635194944262661 -0.37439990958575314 -0.06758617723375199 -1.019043395332934 0.4276776930526205 -0.6123486379125412
-0.3578797457139086 -0.00468478358370977 0.03682537947287799 -0.3367602926579474 0.8382787980083335 -1.0728544101214614 -1.0346783637054064 0.046528826849299806
-0.10686652920560215 -0.6944416253534852 -0.04935150308348431 -0.6011648578346883 -0.14968657900329793 -0.44058852394084697 0.09716765416170532 -0.260256573071318
0.1355900370201623 0.033683616975536554 -0.49184730968367973 0.04465975142443429 0.030463415576940888 -0.7852474156997385 -0.29986050054116126 -0.40385555961461356
-0.7344095272376022 0.4048609507005543 -0.6712384287648162 -0.9118570368668144 -0.08907613851940022 -0.9162580586590959 0.10789872818974851 0.14989347091558566
-0.15948709629289695 -0.5127478221546953 -1.4632405393344345 1.0081099121950825 -0.6118449980049299 0.3469428798792424 -0.3692075280999863 -0.6528940981032387
0.1710834185224184 -0.014350937703080567 0.3637483112000308 0.019965100095451303 0.1358243958765821 0.4404112055629064 0.6015847659844119 -0.32137996262083535
0.29277215911793014 0.028257934230034417 0.09606868505264878 0.41576745415714206 0.4505051339166869 -0.038927794164672874 0.4245998015012737 0.002965035844137452
0.05241390557853485 0.40962625117071183 0.07902135068605466 0.05519573359153564 0.5515886027864786 0.003681850017584098 0.11606277141793432 0.5316785193006995
0.06026958388890678 0.12625781374119452 0.47112021041619845 0.07796665257735677 0.2368821298171216 0.16446491595024304 0.05879935582322054 0.06620471293819484
0.46605929802955404 0.11156084837188829 -0.015628880313846984 0.40902649905051847 0.011874547607923445 -0.05036429609916572 0.704887561668079 0.07998874614270828
0.09255819765470895 0.42486948343098235 -0.12523385517289493 0.39201840020945933 0.5223523115902365 0.06480037498843147 0.04995466293686117 0.41671689071304946
0.1725116329947917 -0.08259615577115643 -0.49141728884274194 0.015470983683018111 0.06926238229055606 -0.4469235695445028 0.5090250966343528 -0.48949054370658807
-0.42238329280459835 0.006474531203422407 0.05692742129775611 -0.0672477206988527 0.40359899979277986 -0.3271824012684339 -0.5527133465632981 0.00824942521927539
0.08000254842832986 -0.22682062050652482 0.06537529983779414 -0.026577729731651675 0.014860868884530795 -0.009918871580412499 0.14963850095629672 0.150873422068592
0.0408322636494475 0.09537485245926067 -0.01468138911033682 -0.023982811538151304 0.15040060473795686 -0.7485288775999972 0.04798686404130598 0.010614305819192081
-0.3749126138629766 0.09805210405906883 -0.042323621837856866 -0.37320863274107846 -0.008192031000939478 -0.20214556848146994 0.5787198340381464 0.06942791618106844
0.0381525663823481 -0.1860155068923681 -0.3129085524558646 0.6172509208816921 -0.29331739109517146 0.07197079804851396 0.031135748331468892 -0.26139640738439746
0.2171136989515451 0.029871088778416988 0.21582509689429513 0.021096183050540826 0.12103497584497634 0.4461456866245027 0.5514949967431167 -0.29630158768461706
0.2320634615467137 0.03676846502181436 0.12287724574574639 0.41551414776733747 0.6478182571308262 -0.33751163169886755 0.2711891742429858 0.003571683079784455
0.10044760921922705 0.42785151631576523 0.05094963645675454 0.04476148785057792 0.5542615912491728 -0.02561200892134057 0.14356857994794658 0.5337460880892847
0.0499744790560999 0.15213018307973877 0.46524558866744814 0.014283338810502755 0.3222244210346779 0.11074668286088832 0.03945467050194398 0.06708175060565678
0.4662775474593206 0.09841780520686526 -0.04450760284623288 0.3938017086882584 -0.009909924943641134 -0.04374990996209137 0.753201522996288 0.06964401248089933
0.07950292375452762 0.403340415956622 -0.8250415074421429 0.8881201247680794 0.2106969337826048 0.07897618522736137 0.03757372663322833 0.4122714474448154
0.44483766935062913 0.04368892831222305 0.04633495860240994 -0.0020481234340329496 0.2792274971660443 0.34818130207599524 0.6703662481118918 -0.1933237055120051
0.1592860194418389 0.129218418406934 0.24848402888092797 0.22584991692756537 0.7877645385116269 -0.1346799025632607 0.2641247734392963 0.2272443939487484

bias f8 [112]
00000000: 656b 4dcd 17dc b13f eb7f 8896 7552 d7bf
00000010: 4db9 b8a1 8861 a1bf e7e6 f405 ac5b edbf
00000020: 6539 0400 75aa afbf a865 0f75 f254 e9bf
00000030: 7c74 c72d f320 c1bf 5de3 00de b58e d4bf
00000040: 78b3 0403 6a59 e8bf 47f4 294f 3fda da3f
00000050: b006 6010 dabe d1bf 00ff 5e81 70c3 e4bf
00000060: 9fdd cfa3 56ca c2bf 018b 2555 999e e1bf
00000070: 0ae1 5d0c cf65 8cbf 3181 061a da57 e9bf
00000080: 1d98 0db0 af57 cdbf ce54 c727 1f6c dabf
00000090: e67f 184c 4981 d5bf b442 dd97 c307 8fbf
000000a0: d7db 572f ed1b e0bf 2bb3 b860 35f3 bfbf
000000b0: 3695 fa9e eb18 dcbf 7873 1df9 b9c9 cebf
000000c0: 9184 b9e8 2a2a a63f 73d6 5f32 4070 c9bf
000000d0: 9405 ead6 0790 dfbf f07e f28c 3855 cfbf
000000e0: c5fb c30c b24e e5bf 07bb 9fd4 32c6 b5bf
000000f0: bd80 c516 ee8c e1bf 3dfa 222b 39c8 bebf
00000100: 021b e955 1328 b53f ef2e 4edb d860 c03f
00000110: 6841 324b 3b2a bb3f bdef 9700 3e89 bd3f
00000120: a671 05fc c5a1 cd3f 6536 f7b7 6ed1 b63f
00000130: 8377 86e4 1435 c63f 74d8 00d2 54cc c33f
00000140: 9def 1139 b2c9 c43f 5309 4714 527c bc3f
00000150: d921 8082 8864 c13f 20bb 187b 1e93 b53f
00000160: f270 4c73 53db c43f b6e3 4e51 4597 c13f
00000170: 97f6 589f b5bd d23f 81ff acf6 721a b53f
00000180: e5e5 4f17 41a0 b0bf 3a4e a772 5e9e 92bf
00000190: f943 eb04 9f1c b7bf c6b4 4ab2 a171 8d3f
000001a0: 10ff 6dad 4087 783f 8a79 182f 4535 933f
000001b0: 4d1f cb59 ca10 833f c55f a867 00e9 b33f
000001c0: 3a0a 66ad ad59 aa3f 8092 4bcd f547 c1bf
000001d0: 90ba 36b3 3be3 96bf f7d8 731b 7baa 793f
000001e0: 5211 8af6 bd29 983f 943e 3cfd 0b5a 643f
000001f0: 7519 146b 2772 b33f d7b1 84f9 86a7 803f
00000200: 53a3 01c3 02a5 b63f bbff 6ac1 6f87 be3f
00000210: 2a37 34df 78a7 b33f ee52 1499 b081 be3f
00000220: af1b dd57 f33f c93f 4b75 7f6c 866e b73f
00000230: ed07 7c7d 99b1 c03f 0b08 dcf2 214e c23f
00000240: 298f 77de f7dc c13f adfe 723a ce58 c13f
00000250: bb4b ede8 666c bd3f b942 6c1f f2e0 b43f
00000260: 671f 0220 179d c03f fd9f 5237 c9d2 bc3f
00000270: faef 3473 636e cd3f d507 5eec a885 ba3f
00000280: 4bfd 8118 a4cf c43f 56ba 6711 ae2c d23f
00000290: c36d e6c4 79da c93f 9a72 505b d798 c93f
000002a0: aa73 17ba 73c7 d43f 8149 ab27 9457 cb3f
000002b0: 6029 3621 ae0c d13f 4324 1edb 2613 ca3f
000002c0: ba30 8de3 a757 cb3f 881f 887f cbc2 cc3f
000002d0: 8c1e 728e fda8 d23f 847c b4d6 62e1 c53f
000002e0: 3cfd 0379 0e88 d43f 54eb bb48 3605 c43f
000002f0: ba86 dc29 53c5 e13f 0fcd 6dcf e116 bf3f
00000300: b027 6ce3 4139 f3bf fc35 2613 97a1 f6bf
00000310: 136f 5ae7 afa0 ecbf de4b f2ae 93ae eebf
00000320: 6a0c 9c22 cf05 fbbf e95c c01c dad8 f2bf
00000330: 60a5 438c 1b77 f5bf a831 fcc2 a5fd f4bf
00000340: e42a 8a60 9b5c f0bf 4983 d7d8 2177 f1bf
00000350: a8bd 3594 0b09 f8bf a24f e44d 622a f6bf
00000360: 4118 d0a4 ec21 f5bf af2a de69 76d3 ecbf
00000370: 143f 654f 2ff3 fabf 350d 9c62 3f4c f1bf
0.06976460230127442 -0.364407917981224 -0.033947248212245464 -0.917440425523833 -0.0618473589439528 -0.7916195188837962 -0.13381805167492533 -0.32121035270716
-0.7609148081734096 0.4195707581600953 -0.27727367018824634 -0.6488573576716306 -0.14679987906104672 -0.5506102240582039 -0.013866059842016405 -0.7919741161640897
-0.22923847290366064 -0.4128492248976955 -0.3360160105821691 -0.0151515274734789 -0.5034089970275727 -0.12480481730808594 -0.4390210201766708 -0.24053120292492358
0.04329046336057119 -0.19873812160192336 -0.493165931584451 -0.24478823549451745 -0.6658563851668694 -0.08505551997198434 -0.5484533734088682 -0.12024266532078172
0.08264275405336366 0.12795553882857955 0.10611315332267213 0.115375399727724 0.23149943166471337 0.08913318625783402 0.17349492224178328 0.1546731973082306
0.1624052790319838 0.1112719821458417 0.1358805310449174 0.0842761087921926 0.16294329767050147 0.13742891759991743 0.29282894669800313 0.08243483087880855
-0.06494528597968204 -0.0181822545508352 -0.0902804743775646 0.014376891377958844 0.005988361975027848 0.01875789737652548 0.009309368958738818 0.07777407198625415
0.05146544210130739 -0.135008549920844 -0.022351200879422495 0.0062660988689826535 0.023596733257833798 0.0024843439258644493 0.07596060146543045 0.008132032861419098
0.0884553648080673 0.11925409767263677 0.07677417229953379 0.11916640984811597 0.1972641161939612 0.09153022908090695 0.13041990878269819 0.14300941809057152
0.13955591547630178 0.1355226312061765 0.11493533312504571 0.08155740039024807 0.12979401648430697 0.11259133911755721 0.22993128896075615 0.103601987559187
0.1625867004076816 0.28397704791760725 0.20197984804404542 0.199976844393764 0.32467358754166276 0.21361019074408819 0.26639893763844746 0.2037094659720272
0.21361254321016593 0.2246946690286189 0.29156435881348197 0.1709407375683193 0.32080423181465156 0.15640905906169655 0.5553375070196218 0.12144290270025614
-1.201478851670327 -1.4144507167833344 -0.8946151274317081 -0.9588106553004498 -1.6889182426391707 -1.177942383108354 -1.3415790061065636 -1.3119256607634302
-1.022609116657514 -1.0915850134262703 -1.5022083081674769 -1.385347656502724 -1.3207823217394579 -0.9008132999163844 -1.6843712903391337 -1.0811151363312324

weight f8 [112, 16]
00000000: 69b9 a998 12dc d9bf 4a7d efde 821d dbbf
00000010: dfb8 b713 dde0 d8bf 8718 1f59 4fa5 b33f
00000020: 9596 8761 8b4e d9bf 6c37 8919 66e9 c6bf
00000030: b49b ff00 dab0 e1bf 6b6b 0102 584b e2bf
00000040: 8982 4199 41e6 8e3f 521d 8965 355c dabf
00000050: 9231 b276 6d08 e2bf 2a44 284a a93e cbbf
00000060: eb4a aa60 8661 e4bf b954 0de0 b749 c4bf
00000070: a96f c097 d25c d6bf fb15 1d5e 8c53 bebf
00000080: 4195 eac1 fe84 f9bf 8fc0 d5b7 5cfc e6bf
00000090: 35ba bb95 82b6 f8bf c3eb 86a3 8c21 f4bf
000000a0: d21e 204e ddfd f6bf c1ab 778e 0da9 f0bf
000000b0: cdcf 1a47 abf6 e6bf f006 bae9 170b e6bf
000000c0: f6a6 5af8 9d8b eebf 94a6 468c 77e8 fabf
000000d0: a4de 9c32 7baf e4bf 3ffa 7ee0 e71b edbf
000000e0: 89ff 2cf8 aec0 e8bf 4378 dc4c 33de f3bf
000000f0: b0f3 f50f f637 f6bf c3b5 e87f 17d6 f1bf
00000100: 4e62 12dc 9bc4 d9bf 2019 8ba6 46ad dbbf
00000110: 4276 e49b df3a dabf 8ffb 793b a483 ac3f
00000120: 0ded a926 4951 dbbf 6303 2d84 60b8 c4bf
00000130: da4e ad98 a37e e3bf 2443 d5e0 5404 e1bf
00000140: 1ed4 483b 4fd7 a03f 6858 8ef6 f8f0 dbbf
00000150: bc2f 514e ac82 e2bf 93dc a6c8 461e d2bf
00000160: 1ba2 bd74 84e7 e6bf c50b dd13 a7e1 c0bf
00000170: 3fec 1aef 050a d7bf 3c44 fcd1 a1e1 c0bf
00000180: 7065 915c f0cf f5bf d04a 0291 bb02 e1bf
00000190: cdeb 2285 41c1 f4bf c048 0daa ce77 e4bf
000001a0: f685 48b8 3bcc f3bf 7500 fa33 5fef e1bf
000001b0: 4abc 8626 4e9d e4bf c451 0704 bb3f e2bf
000001c0: ae13 c919 dd52 e3bf 7f51 f858 7458 f7bf
000001d0: c868 b81f 231f e1bf 7a8d f205 0586 e1bf
000001e0: 2ede d056 d7de e6bf 44bc 5f8c 7825 eebf
000001f0: 8b80 7c2b 16ca f3bf e5f3 20f9 f814 e4bf
00000200: 18ca 2779 2464 dcbf fa0d 51f2 2f8c e3bf
00000210: b8b3 4947 8116 e1bf ce17 22da 779c ce3f
00000220: f17c 992d bcbe d5bf c0f1 19b0 5673 c33f
00000230: f18b 6aab 57a8 e9bf 13b2 a268 c69e ebbf
00000240: 7868 b370 c22d c63f b8f8 f29d 5a8c dfbf
00000250: 9e15 c130 ddaf e8bf e887 0f29 689f bebf
00000260: 5232 1a4f c534 eebf 473e 3ccd 8dca adbf
00000270: bcea a68a 32dc d5bf 82ad 105e bb53 c13f
00000280: 5266 1f36 5a14 f6bf 4bdc 86b7 ab4b e2bf
00000290: df79 5657 9ca0 f5bf efd0 7110 7cd1 e9bf
000002a0: 93e0 fbf3 9f73 f4bf 3fba a754 da7b e4bf
000002b0: 85da 0580 49c2 e5bf 3fd9 29f1 e2d7 e3bf
000002c0: 7802 651e 34d7 e4bf 567c d4dc 89b4 f7bf
000002d0: fbc7 0b7e 230a e1bf 363f 42ef 45b8 e4bf
000002e0: 252f aa06 4cb2 e7bf b2a0 b0a6 5a34 efbf
000002f0: 77a0 abd7 01f0 f3bf de9e ca3c 79d7 e7bf
00000300: 6a51 b6f9 5e41 f9bf b897 b5ea 205c e8bf
00000310: 1688 0464 f2bb f8bf ba6c 2144 f13f f5bf
00000320: 04aa 26de d276 f7bf 16f2 163c 0dac f1bf
00000330: 6974 1a62 c50e e8bf a4f3 33b9 aefa e9bf
00000340: 7f19 3d12 4af7 f4bf 52f6 e414 ae03 fabf
00000350: 4068 84c6 c30e e7bf 5aec d9f0 9657 ecbf
00000360: df98 61fb de6d e7bf 8037 b908 0714 f7bf
00000370: be5c 479f 2cfd f5bf eff7 538e 5e1d f3bf
00000380: 125b add9 2a69 f9bf e951 08f0 0d53 e7bf
00000390: 3116 7b13 4117 f9bf c9a2 d6af e725 f2bf
000003a0: 4b4d 0b8f c848 f7bf 7825 0412 f0b3 edbf
000003b0: 51c1 d153 8c92 e6bf 37f2 77fe c217 e6bf
000003c0: a7ed 95eb 7678 f1bf 9320 bd84 6510 fbbf
000003d0: 4b8d f1ce ccd0 e5bf a1e3 6e12 85ef e9bf
000003e0: 68fb d412 342d e7bf 499d 90d9 02b0 f4bf
000003f0: 50cd 320a b406 f6bf ee84 8f62 1547 f0bf
00000400: 6113 1fd5 cecb f6bf 46cd dde9 66ab e7bf
00000410: 5cff 6663 d640 f6bf d0fa 4467 2e58 e1bf
00000420: 367d 4bc0 20f4 f4bf 04bc e012 3375 e1bf
00000430: f216 d3e8 9971 e9bf fa8b 655b 7fe9 e8bf
00000440: 276b 3fda 8650 e6bf 33ed 9526 5d24 f8bf
00000450: 1f2e f357 e061 e8bf 0005 bdd1 31da e2bf
00000460: a975 83bc be93 eabf 16e7 e58d e664 efbf
00000470: 1c7b 4462 8028 f5bf 7808 14d3 4f2b e0bf
00000480: 36e7 5417 3c08 d1bf 9e06 7b5c d92f 7bbf
00000490: 372a b0be 9272 d3bf dcf4 fa56 0f49 be3f
000004a0: 8ec4 c8b4 a721 cdbf 1ea7 37dc a1e7 be3f
000004b0: a85c 5485 6fe4 c6bf e33c 8b9f 52d2 b4bf
000004c0: 9435 3bf5 3af8 b83f 0b99 3513 d73f d3bf
000004d0: 9b83 7c80 1601 c2bf 1226 a9df 4fdb b53f
000004e0: e431 8fb5 e085 d1bf 672a 7f43 e4b8 b3bf
000004f0: e4ce 4723 3012 d0bf cde7 ddcf 4f30 a03f
00000500: bc15 2ab2 fd97 fabf 46d9 fd72 63c3 e8bf
00000510: 8b80 a58a dfa6 f9bf a026 e077 bdde f6bf
00000520: 80cd b29a 7993 f7bf 0f40 bb0d f605 f3bf
00000530: 3d81 ae2a 8e87 e7bf d93f 711e fffa e6bf
00000540: 2b82 0a30 7668 f0bf 0875 4094 4e11 fcbf
00000550: 9329 9dfe e62e e6bf 0ad7 3da4 a74d f0bf
00000560: 907f fceb ec08 e9bf c0b7 04ef 8300 f5bf
00000570: ba60 9c6d 57da f6bf d949 e499 8a68 f4bf
00000580: 37d5 cfad 3b26 f7bf 3663 9e0c a411 e2bf
00000590: 7378 df52 0169 f6bf cfa9 d27c d06a ecbf
000005a0: 79e6 b12a a08f f4bf 7fa8 4cf3 d3dc e4bf
000005b0: a978 3323 150b e6bf 1e82 ab32 bde2 e3bf
000005c0: ad06 54d7 81b7 e7bf ebb3 1557 c197 f8bf
000005d0: a2b5 2be3 0364 e1bf 3c3e 2ccc 57f4 e4bf
000005e0: 753f d316 ba95 e7bf 5670 eb20 7faf f0bf
000005f0: 518d 3ff8 b242 f4bf 1bd0 f7a4 959a e9bf
00000600: 397b 31f2 35cf f7bf 3a94 70ea e7b0 e8bf
00000610: 3959 0ea5 831d f7bf a85d 19a5 a6bd f3bf
00000620: 0972 0d41 e173 f5bf 7386 4a8a 3e61 f0bf
00000630: 554f e397 73e2 e7bf 6554 3375 ac65 e9bf
00000640: b47a 827a a04d f4bf d0bf f6d1 983c f8bf
00000650: 0e82 935e 9288 e6bf 1cb0 418e 69a8 eabf
00000660: 0a24 1a97 03f3 e5bf aa2a 4a4f 3540 f5bf
00000670: d13e fed0 f158 f4bf 754d d3df e1d1 f1bf
00000680: c212 8fa0 a7ac eabf 8cec a781 aed8 e2bf
00000690: 4f90 733d c026 eabf c543 e857 942c ba3f
000006a0: 2dfa a219 a7fb e8bf faa0 79e8 d595 b3bf
000006b0: 6342 6b64 83b2 e9bf 352c 67e3 f2ab e6bf
000006c0: f610 e022 df8a b3bf cfb0 78c5 6f1e edbf
000006d0: 7377 b9fb 2c95 e3bf 547b b92c 72df d1bf
000006e0: b94a e4ae a3d7 e8bf 3008 a17b 22da d8bf
000006f0: 402e 6160 bfc2 e9bf 58e0 3aea 1006 943f
00000700: 3e27 1304 1afa d5bf b1ca 1520 13a5 b23f
00000710: aa49 c3ee efa8 d2bf bbc8 4c6d 49fb c63f
00000720: 5c57 6e2f 3ace babf 7611 c25f be38 c53f
00000730: 2cf1 11bb a1a3 d5bf a9ed ac15 002f b4bf
00000740: 3e5e bdb2 f916 c13f e13e 6043 de4a dcbf
00000750: cdcc c7d3 8131 cebf 3875 e888 dd79 c63f
00000760: d0bd 8cbc 0f10 d4bf 34e9 a09f 1d8a c4bf
00000770: fc7f a8f9 f69f dfbf 37e1 0791 cdc4 c33f
00000780: 7f49 27b3 3141 f5bf 7734 ed6a e3f6 e0bf
00000790: 2a07 b7be ce07 f5bf 02f6 33be ddae e4bf
000007a0: 9468 06aa ea57 f3bf 140c 18c1 3104 e1bf
000007b0: 3e81 627b bbbc e4bf 57c5 04bd 2333 e3bf
000007c0: b907 cf48 e0e4 e3bf 6566 f58b 5ff7 f6bf
000007d0: 89ea da81 f3af e0bf 4789 bd8c 66c3 e0bf
000007e0: 2309 4909 0c65 e6bf 50da 3286 3a5f edbf
000007f0: 8b98 778b 9556 f3bf 0f85 fc5b 4dee e2bf
-0.4040571680879084 -0.42367622157140217 -0.38872458386948766 0.07674117971245852 -0.3954189732015519 -0.1789977669417867 -0.5528383273602828 -0.5716972388430411
0.015087616433619349 -0.4118779651220922 -0.5635287588389011 -0.21284977074586325 -0.6369048965446756 -0.15849970283549 -0.3494154436063988 -0.11846234605499
-1.594969518171027 -0.7183059301878688 -1.54455812921118 -1.2581907642149737 -1.4369786311889823 -1.0412726941237767 -0.7176109684719393 -0.6888541760419837
-0.9545430994669164 -1.681754634812397 -0.6464210499315937 -0.9096564659774414 -0.7735209319289292 -1.2417481424704568 -1.3886623977152617 -1.1147685047575215
-0.40262505046260777 -0.4324509264373706 -0.4098433515917784 0.05569184518844061 -0.42683628822096936 -0.1618767400159654 -0.6092088682148316 -0.5317787543554897
0.03289268110930997 -0.43658279493081986 -0.5784513024932418 -0.28309793085959106 -0.7157614021389834 -0.13188637227912473 -0.35998676633943555 -0.1318857455558219
-1.3632663360534387 -0.5315835792738088 -1.297181625427345 -0.6396249123884203 -1.2373616407934356 -0.5604702010314343 -0.6442023041216853 -0.5702796057399202
-0.6038651946661184 -1.4590953326597569 -0.535050928071791 -0.5476098171388195 -0.7147022910712104 -0.9420740834883721 -1.236837549084188 -0.6275601259036391
-0.4436122115286323 -0.6108627064463115 -0.5339971916524666 0.23915002966913196 -0.33976654484827323 0.1519573554868554 -0.8017996166203131 -0.863131718031186
0.17327147009820343 -0.49294152664868873 -0.7714677765113043 -0.11961985590417579 -0.9439417405097379 -0.05818598871530561 -0.34156478443371063 0.13536779492401868
-1.3799688448110783 -0.5717371544368545 -1.3517115985520076 -0.806821853750561 -1.2782287150021474 -0.6401187566205592 -0.6799666881987184 -0.6201033315872236
-0.6512699693340229 -1.481576788537287 -0.5324876272045452 -0.6474942849181164 -0.740514767663147 -0.9751408820784688 -1.2460955071092294 -0.7450529277166102
-1.578459716261103 -0.7612461647192879 -1.5458854586545434 -1.3281109486913878 -1.4665096929335286 -1.1045048091174343 -0.7518031040268741 -0.8118508927578785
-1.3103733742187555 -1.625898439043699 -0.7205523373879785 -0.8856920913816666 -0.7321619901456663 -1.4423895207177964 -1.374310133154537 -1.194670253723867
-1.588175630856942 -0.7288884819159281 -1.568177295777229 -1.1342541569412552 -1.4552693927442586 -0.9282150604132502 -0.7053891789528653 -0.6904005975807824
-1.0919102861943004 -1.69150306559644 -0.6817382852426958 -0.8104882583639786 -0.7242679946719877 -1.292971467841044 -1.3766365431191225 -1.0173543787025738
-1.4247577977232242 -0.7396730964377773 -1.3908294566062613 -0.5420143143636214 -1.3096015464323734 -0.5455565804203393 -0.7951173350672589 -0.7785031113711505
-0.6973299276972725 -1.5088778979541757 -0.761947795655434 -0.5891350838138862 -0.8305352861313412 -0.9810669681021149 -1.3223880613874774 -0.5052870867368844
-0.26612760809404123 -0.006637429301635271 -0.3038679945172222 0.11830230592291308 -0.22758957221370618 0.12072192789460387 -0.17884630213004482 -0.081334270430705
0.0975376938542552 -0.3007714927283735 -0.1406582000136297 0.08537768564669815 -0.2737962506332947 -0.07703997276181838 -0.2511101097618236 0.03161858951985117
-1.6621071776911398 -0.7738511320047017 -1.6032405296209926 -1.4293799097671709 -1.4735046427639134 -1.1889553581604593 -0.7352972825647509 -0.7181392283036941
-1.0255033375361886 -1.754225329502619 -0.6932253811767616 -1.0189587035833392 -0.7823395356281129 -1.3126258217484832 -1.428306034247767 -1.2755228053471142
-1.446834258034256 -0.5646534201106082 -1.4006360280250447 -0.8880388677546821 -1.2850648563166074 -0.6519565345709138 -0.6888528525849057 -0.6214281072280448
-0.7411507802609855 -1.5370496179341397 -0.543458884899952 -0.6548270213842851 -0.7370272107891497 -1.0428458486485588 -1.266283960075118 -0.800120184138453
-1.48808855635407 -0.77159496106163 -1.444705624342147 -1.2338015031035443 -1.3407909909357179 -1.0237412836071627 -0.746393009811508 -0.7936613358566659
-1.2689518723997653 -1.5147941781724406 -0.7041713568870038 -0.8330581453751651 -0.6859147978985913 -1.32817584011597 -1.2717149890703932 -1.113740801160785
-0.8335760246196389 -0.5889503986685596 -0.8172303390715657 0.10224272867368629 -0.7807193279948642 -0.07650505948697975 -0.8030411683376538 -0.7084898416009141
-0.07633776284643887 -0.9099654061187951 -0.6119599262708405 -0.27926306121473954 -0.7763231674055852 -0.38831388543269707 -0.8050228960432335 0.019554390236152436
-0.3433899917405262 0.07283134015396332 -0.29156111065563073 0.179543665284262 -0.104709278659667 0.16579417873084495 -0.3381122900825797 -0.07884216813265844
0.1335136530640159 -0.4420695932358126 -0.23588583794444276 0.17559403595888923 -0.313480314379345 -0.16046495718348697 -0.49413847332652927 0.15444345075207774
-1.3284165380651698 -0.530137738076191 -1.3144061517527441 -0.646345969667607 -1.2089640275576459 -0.531762005936232 -0.6480386171206545 -0.5999926273126829
-0.621688978390231 -1.4353938548214498 -0.5214784179909923 -0.5238526104770153 -0.6998348409036094 -0.9178745862071285 -1.208638710778845 -0.5915896221742133

bias f8 [112]
00000000: 5d6b 4dad fceb b03f e17f 88b9 7e9d d6bf
00000010: af72 7143 3971 9bbf e5e6 d468 aec0 ecbf
00000020: 5839 0487 d0de a9bf ac65 4fe7 2f6b e9bf
00000030: cbe8 8e5d 0940 bfbf 5ce3 5035 9fd4 d4bf
00000040: 74b3 04e3 5ec0 e7bf 49f4 795c 3419 da3f
00000050: b006 608b 2db7 d1bf 03ff 1ee6 278c e4bf
00000060: 9ddd efd9 6a7a c4bf 028b a5af df8c e1bf
00000070: 04e1 5d8c 1b3c 8abf 2381 c608 47df e8bf
00000080: 2998 0d90 5c7f cfbf cf54 47ea 1844 dabf
00000090: e97f 586d 3752 d6bf aa7a 4550 7b1a 753f
000000a0: a8b7 ef29 06bb dfbf 31b3 f890 e0ee bdbf
000000b0: 3495 fa6a 99f3 dbbf 6c73 5ddd 560c cfbf
000000c0: 8b84 b948 a7bd a33f 72d6 5f8e 5957 c9bf
000000d0: 9405 4282 d221 dfbf 7e3f 7971 dc3f d0bf
000000e0: c3fb c346 556d e6bf fdba 9f72 5770 b9bf
000000f0: bc80 e542 4e92 e1bf 4bfa 22ff 8501 bcbf
00000100: f41a e9ed bf90 b63f cd5d 9ccc dc5c be3f
00000110: 5441 32eb d763 bf3f b9ef 9793 a602 ba3f
00000120: a071 0590 ad21 cb3f 6936 f704 9e87 b23f
00000130: 8177 86e5 0862 c43f 7cd8 80fb 035c c33f
00000140: 97ef 1117 e80d c43f 3009 4714 806b b63f
00000150: da21 4080 2ff2 c13f 24bb 18e7 800c b53f
00000160: e970 4ce6 626a c63f bee3 4e13 9a57 c03f
00000170: 9af6 d8a6 6a69 d23f 7fff ac8e fdad b43f
00000180: e4e5 cf3f f1dc b4bf cb9c 4e85 baf8 89bf
00000190: e943 eb30 b15f babf 59ad 925c df11 ae3f
000001a0: a0f7 6f6b 811f 443f 423a 0f63 9b25 4f3f
000001b0: 4e8f e533 96a0 963f c75f a827 090e b23f
000001c0: 4d0a 66d8 0e39 a73f 8092 4b27 750d c1bf
000001d0: a2ba 3667 4a25 97bf a909 23b9 f0a2 92bf
000001e0: a208 456b e555 a03f 6d87 67fe 19d6 973f
000001f0: 5319 1441 f34c b23f e558 42c6 c670 943f
00000200: 8da3 015b 506a b03f abff 6a31 de41 ba3f
00000210: 2c37 3452 f063 b53f e552 1420 506d bb3f
00000220: ad1b ddf7 be4a ca3f 4d75 69b9 07d5 b43f
00000230: e707 7caa 2cdb c03f 0708 1ce5 5016 c13f
00000240: 318f 575a 15e2 c23f 58fd e572 4814 bf3f
00000250: a34b 8d68 b966 be3f c342 6c44 2e86 b73f
00000260: 701f 02cd 642e c13f 53a0 52ef 26ac b53f
00000270: f7ef 344f 9714 cd3f d907 5e1c cff4 b73f
00000280: 4bfd b15a 5b30 c63f 56ba 2743 8d59 d23f
00000290: c36d 6655 fca2 c83f 9a72 5058 33c1 c73f
000002a0: ae73 17a8 027f d63f 8149 ab0d 3960 cb3f
000002b0: 6029 36b5 30cb d23f 3f24 1e31 eb6e ca3f
000002c0: b830 8de6 5205 ca3f 821f 488d 9b7d cc3f
000002d0: 8a1e f2ad 8ca6 d33f 857c b456 e03d c83f
000002e0: 3efd 439a 9431 d43f 53eb bbed 44d6 c53f
000002f0: bb86 a407 9773 e13f 84e6 f6dd 3e7a c03f
00000300: ae27 5024 7d2d f3bf fe35 c695 8bbf f6bf
00000310: 0f6f 9af8 d637 ecbf e04b 320f 9529 efbf
00000320: 680c 3c06 5ad2 fabf ebdc ab9a bff4 f2bf
00000330: 62a5 e3cd 3d8a f5bf a731 641b c0ef f4bf
00000340: e42a aa8f ab35 f0bf 4883 5702 4805 f2bf
00000350: abbd d5c8 93fc f7bf a14f 247e 6fd7 f5bf
00000360: 41b8 95fb b155 f5bf af2a 0086 82c2 ecbf
00000370: 133f e57d 2828 fbbf 360d 8c68 7128 f1bf
0.06610087615028477 -0.3533627330634755 -0.02679910158291204 -0.8985206649296883 -0.05052806518698344 -0.7943343656326554 -0.12207087072502813 -0.3254774113334429
-0.7422327455475242 0.4077883627977071 -0.27680529223298844 -0.6421088690330808 -0.15998588220075485 -0.5484465056036643 -0.012809958668853934 -0.7772555514712035
-0.24607426675646707 -0.4104063308598826 -0.34876809767047107 0.005152208036035924 -0.495790043786537 -0.11692622699110868 -0.43674312064316045 -0.242564066017532
0.03855631602051187 -0.19797820522187554 -0.4864393493699819 -0.253897772611701 -0.700846327032075 -0.09937044666706281 -0.5491095835277728 -0.1093982456104438
0.08814620550502267 0.11860446925526631 0.1226172398767223 0.1016029463134477 0.21196527035034496 0.07238185521347308 0.1592417832115949 0.15124559193072062
0.1566743958136356 0.08757782454543839 0.1402034164641595 0.08222203866965266 0.17512165303276753 0.12767339651852966 0.28768411916449 0.08077988370223287
-0.08149631317055356 -0.012681443398675182 -0.10302264637290616 0.058730106401834355 0.0006141073162095785 0.000950528023276061 0.022096964757465636 0.07052666872220846
0.04535719291290672 -0.1332231943007578 -0.022603189992589486 -0.0181996930121017 0.03190533575481537 0.02327767005215924 0.07148666704970212 0.01996145806386886
0.06412222120128615 0.10256756502621893 0.08355619437153611 0.10713673384845952 0.20540606596679592 0.08137558247240868 0.1316886742061449 0.1334935301493376
0.14752451812011594 0.12140324406754155 0.11875494768655286 0.09189118547898105 0.13422832498713033 0.08465808241692345 0.22719088904875637 0.09357923929749691
0.17335073402862586 0.286715808469045 0.19247392816474304 0.18558351337641882 0.35150209822841816 0.2138739887946706 0.2936517495769717 0.20650997064902474
0.20328747041128792 0.222583240494938 0.3070403765382045 0.18938831552165794 0.3155261522769769 0.17060147865398764 0.545360102583991 0.12873063886745595
-1.1986056726914103 -1.4217639780575833 -0.8818163733990064 -0.9738259598547039 -1.6763553851640385 -1.1847530404900748 -1.3462503473804976 -1.308532816884602
-1.0131030666258818 -1.126289376399841 -1.4991643757929107 -1.365096562139094 -1.3334216907055778 -0.8987438790512295 -1.6973042409699175 -1.072373779665964

weight f8 [3, 16]
00000000: 7b5a 6a09 b899 b2bf ce1a ed3c 1e0d e2bf
00000010: 07a1 9c64 2a40 a33f 33ab 8606 6b78 d4bf
00000020: 82df f09b e2b2 c63f 1cf0 2bfd 5d53 d8bf
00000030: f62f 1805 7868 ddbf c55b 8834 4ba9 e2bf
00000040: 5095 adbf a8a4 d2bf 2d0f 3990 7435 c9bf
00000050: a9b8 9190 425d e1bf cc71 c722 f873 c8bf
00000060: 95e6 45ab a2f4 debf 3891 8f01 cb9f cbbf
00000070: 4af3 c38c 7acd efbf 69f6 fcc5 e50d c6bf
00000080: 3b5a e981 1efb d3bf a563 092b 6a05 d1bf
00000090: 604b fd07 7c8a e1bf fdf3 bca0 1eca d1bf
000000a0: 2be5 ec6f e120 e9bf a2ef b5d9 43e3 d5bf
000000b0: 0596 0e54 ce62 debf a6a1 b32e 1c95 cebf
000000c0: 53e7 12d8 b343 d1bf 68f4 cba7 2b2b c2bf
000000d0: 1f06 884d 5c77 dbbf c1d4 c415 b125 e2bf
000000e0: 4289 9bdc df86 e2bf e08f 623b 8d30 d7bf
000000f0: 6cbe 201c cec8 d73f 89cd c3ae 57e8 dfbf
00000100: d7cb d1e3 1e9d ddbf f946 b78b 35ad dcbf
00000110: 3d96 0c62 596a d8bf 8089 2b7e 5ad2 d1bf
00000120: 53d2 9307 8a6a e7bf 3ddb ce63 f4fd d0bf
00000130: 9d92 c441 5e59 b9bf eacf 8116 84b5 b9bf
00000140: 2f5e f5ce 6271 d4bf d002 d9a8 0ed8 debf
00000150: 9934 5779 d4f5 d8bf 0c54 ba45 a13c d6bf
00000160: a1b2 fa24 971b ca3f e29f 0d70 946b d6bf
00000170: e68f 6e95 d76d e1bf b68f d3ca 77ab d2bf
-0.07265806417340485 -0.5641013326611188 0.037598919660299095 -0.31984973561582136 0.17733414282133358 -0.38008832668106307 -0.4595012712240981 -0.5831657434490515
-0.291299998460393 -0.1969438270772285 -0.5426342795961051 -0.19103910158345483 -0.483681361445272 -0.21581399513446242 -0.9938328503918481 -0.1722991196383419
-0.3122020977656665 -0.2659554882316633 -0.5481548458140928 -0.2779614038188923 -0.7852637468378466 -0.34199615727242805 -0.4747806378239548 -0.23892547874789932
-0.26975723362885623 -0.14194245999525212 -0.4291601903097177 -0.5671010422871846 -0.5789641674748867 -0.36233835982625173 0.3716311716734484 -0.4985560614288365
-0.4627148842620818 -0.44807184833653896 -0.3814910371314431 -0.2784639579896506 -0.7317552707668916 -0.26550016161802487 -0.09901990037594506 -0.10042596387376049
-0.31942053042209556 -0.4819370888617813 -0.3900042710273027 -0.34745055970535144 0.2039669924319201 -0.3503161520261512 -0.5446584623900861 -0.29171557242647894
