Retweet/RetweetNetsV5/TrainNet_ep1.pt (torch, 23441 bytes, 6 tensors)

scale f8 [3]
00000000: 0765 a9a9 7d96 e63f 84d6 71b7 4c9b e63f
00000010: 8fdf fcea e299 e63f
0.7058704675393138 0.7064574797538659 0.7062849607091141

weight f8 [112, 3]
00000000: d9db 829f 1916 ad3f b2de 429c 2877 c13f
00000010: 73e8 cca6 8cbe ae3f 4843 4768 48b3 aa3f
00000020: 0e88 f2d3 31a3 be3f f140 63d8 be0f b03f
00000030: 7461 8dd3 6ec3 a53f 561c 4f7a cd1e bf3f
00000040: 5a9f c99f 4edf a13f f5c9 327b 4339 ab3f
00000050: 98ad 9157 ba5f c33f dc7f a2d8 d6a3 ad3f
00000060: 9208 3db7 4a53 b03f d0d1 f714 7920 bb3f
00000070: 6849 88f2 d75a af3f 82b3 9327 ac25 ab3f
00000080: 881e bef9 371d be3f 6baa 80e7 dcd2 b23f
00000090: 5af7 83d0 9403 af3f 7571 e3f1 e006 bd3f
000000a0: 124e 61aa f406 b03f d843 e3d4 9898 ab3f
000000b0: b0b3 4902 03ec c13f 77c1 89da 0aa3 a63f
000000c0: 475d d4db f163 a93f 42e3 d456 0807 bc3f
000000d0: 4987 a41d 2857 b53f f257 5246 4683 a63f
000000e0: e19d bb80 0012 c03f f822 a5a9 83e0 aa3f
000000f0: 7c36 0da6 26e3 aa3f c142 ee3e 92cf c03f
00000100: 812a 2b1d 2930 ad3f 3de5 f021 208f b03f
00000110: aa0e be4a 7a1a bd3f ffb4 85a7 cd50 b13f
00000120: 0457 d7e8 97da a63f a34d 7b34 8a4f bc3f
00000130: 9cca 0d73 0510 aa3f 2c09 cd82 3a38 aa3f
00000140: 30b2 efdd dcae c23f 9660 0d04 7a9e ad3f
00000150: 37a8 e9cd 42c1 ad3f 70a9 b8a7 260c c23f
00000160: 11a9 e1a5 4a7b b03f 1dcc f18e 90fa b03f
00000170: c8e3 66c4 8f80 c23f 5cca 875a 4470 ac3f
00000180: f620 56c7 9f1d a33f 9909 ea1f 101a a73f
00000190: f077 1652 48e4 953f 18bc ad02 0cbd 943f
000001a0: b94d 79a5 9dbc 983f b570 d0c9 7ce8 9b3f
000001b0: 73d9 3943 15e3 a13f 5fa4 cf61 63a9 a03f
000001c0: efbc 3ca5 8545 75bf ff3d 71ba 75f1 a33f
000001d0: c4d9 65c5 1eec a13f 5a24 4106 ee66 8d3f
000001e0: 23a1 2e37 e323 a23f 46f6 d212 3a69 a23f
000001f0: 9004 0524 05ab 9f3f fc27 8cea 4b5a a93f
00000200: 1293 421a 6381 a73f d687 593b 45a1 a33f
00000210: d01e 4f99 71d3 a33f 917d 5330 a520 b03f
00000220: 0163 40c4 afe3 903f 5084 c2a1 4ca4 a43f
00000230: 91a3 ac6b 0f3e 933f a41e 3669 2213 9c3f
00000240: ae53 897d 97fa 8b3f ac17 1a88 68e1 a33f
00000250: 9bc3 aafb ab9d 983f 3194 b648 0719 a33f
00000260: ff62 78ae 9f23 9c3f 3fd8 0daf cc4a 983f
00000270: 2ef2 f564 f24f a23f 819f 4430 283f a53f
00000280: db58 e405 3d6d 9c3f 56f9 2cb7 e304 ab3f
00000290: 9b41 3b73 b1f0 9f3f 46fa 7d7e fc58 9a3f
000002a0: 288b 4880 6501 983f 7a16 3f4b b2e7 a13f
000002b0: f9ef f171 ad67 993f d846 66c3 f06e a63f
000002c0: 7876 0cb3 6520 a43f cfec f22e 15ad a23f
000002d0: 8241 b1f5 a5c2 a03f c4e2 e211 568d a83f
000002e0: 8695 7531 23bc a43f 0fbf 6f22 3be1 ac3f
000002f0: 203e d950 36f4 a63f 4f32 7993 52ed 943f
00000300: 67d4 336f c045 ad3f 7fa9 b088 3052 b83f
00000310: 256e 9168 d98c ba3f 1e91 8c67 0dbb ad3f
00000320: 3463 6b62 8fde b53f cf7b 3cff 79a2 b23f
00000330: dd70 0f50 5cb2 b03f 3da4 0b51 f1c8 aa3f
00000340: 5a27 c200 ad10 ba3f 818e e784 a053 b03f
00000350: 1b17 ed5b 3e29 b03f 93f1 6ac2 dcf4 bf3f
00000360: ddd4 93f8 0b4d aa3f 4ca2 00a2 70f5 b43f
00000370: 02b6 fba8 3578 ba3f c4d8 dc0d 351c b23f
00000380: 1eb2 a79f 4a1f af3f 5a87 1124 bb11 ba3f
00000390: cf4a 9475 72e7 a53f 5032 b144 fa45 b13f
000003a0: e3bd d0db 633b b63f 9d07 e3a5 f5b7 b43f
000003b0: cd23 bd4b 7a90 b23f f8af 4115 09c0 b23f
000003c0: 352c d28c 3b53 ad3f e468 c135 37a2 b03f
000003d0: d51e 2195 0ed1 bb3f 6720 d78a 9c7c b43f
000003e0: 56aa db08 2bba b13f da77 8072 1baa bb3f
000003f0: 43aa 9381 cbbf af3f d3c4 64e1 bf63 b13f
00000400: 8c1d 3e2f aebe bb3f c32b edd4 8166 b33f
00000410: 181f 71ca e942 a93f c354 ad68 9881 ba3f
00000420: 0955 9479 9b6b af3f 37c6 51c3 e518 ab3f
00000430: ad9b 69ad e631 b93f 2eb9 955d b601 b03f
00000440: 0c58 f2de e5d2 b03f 40cc 692e e68e ba3f
00000450: 1247 e66c f2ef ae3f 13aa a27c 1e05 ae3f
00000460: 325e 6e55 42dd ba3f 6f04 408c 68ac b43f
00000470: 3fb2 84ff 5bda b13f bbbc 41d7 bd01 b83f
00000480: e85f 19ab dc19 b23f 3aeb 2439 ed21 b13f
00000490: 6386 245e b83f b03f f65d d346 efa3 b33f
000004a0: 2b48 2683 1e26 ad3f 4058 7c70 505b b13f
000004b0: c08e 7dcb 97cd b33f 3c8c 06c1 5428 b43f
000004c0: 57ae 9a60 a855 b13f 623a 6c74 892b b33f
000004d0: c7c8 b323 5863 b33f 5fdc 6566 0517 ab3f
000004e0: ba0c f8dc d066 ae3f 273d d3bc 12cf b33f
000004f0: 282c 46b8 ae92 af3f 2718 8225 8d5a ae3f
00000500: e759 0c47 b79d b03f b6b0 aac7 b676 b23f
00000510: 0403 f728 5d79 ac3f 3f03 5d37 e604 b53f
00000520: ccab 2355 94c8 af3f 5d67 aaf8 edf6 b33f
00000530: 7e1e d679 90ba ad3f 9675 4b23 86e6 b03f
00000540: c602 8bee db3f b13f c348 c633 0908 b33f
00000550: f924 4b13 2d5e a93f 20b0 72a9 ec8c b03f
00000560: 2df9 48a1 0797 a43f f8ef 49bb 034f b23f
00000570: 8772 15b8 ca8a b33f 9356 08f9 e404 b43f
00000580: fe4e 21c1 064d ab3f 85e9 7ebd 72ed b13f
00000590: eb52 318c 3c09 b23f 3a8f 9c99 08f8 ae3f
000005a0: ee34 0546 ded1 b23f 179f 0468 bf9c b33f
000005b0: 73c3 00bb 3a37 b13f b495 5bcf 3dc2 b23f
000005c0: dd09 ee0f 0472 b03f 4007 debe c1a9 aa3f
000005d0: fcc4 9336 7bfb ae3f 288a bb0f 0586 b33f
000005e0: e1ad 1f31 33c4 ad3f 989d 7f92 aaf4 b23f
000005f0: 27e8 f6a4 f1a0 b53f 8737 d95b a17b ab3f
00000600: 65e1 573a ce61 b43f f955 cafe bd05 b23f
00000610: b59d 3922 e7e6 b33f 1f12 7a6d 809b ab3f
00000620: 5713 29ba cdb2 b83f 0f4e 437f bb07 bc3f
00000630: 2ead ea75 fcc4 a83f 456a d5e9 88f4 ab3f
00000640: 9dd5 cd0a 11b1 be3f c563 e66b c180 b33f
00000650: d841 ad14 b49f b33f 7b7b d3b0 78a4 ba3f
00000660: 602c feb5 352e ad3f e7a9 6b35 c6f8 b23f
00000670: 4837 55a1 2ac1 bb3f 7614 f86a a74c ad3f
00000680: 6c41 94cd 2499 b63f c35d 9816 7a07 bc3f
00000690: 8840 6533 92b4 a73f 5d2f 0d4b 8a1f b13f
000006a0: 601a 0887 03af b83f 4351 8094 2ba3 a53f
000006b0: 8246 6146 10b9 b33f c164 56d3 e0dc bc3f
000006c0: 1688 e8a2 dcc8 ab3f 2857 24b5 b5bf b23f
000006d0: f892 0d1a 0abb b63f 3b11 0969 2e83 b03f
000006e0: 90ca 6b59 28f0 a63f 3163 81c8 30a5 b33f
000006f0: f56b bc62 19ca b03f a22d 7fbf 2ba4 ad3f
00000700: 68ab 9b33 7243 be3f ea8d feb9 7b04 b33f
00000710: bce0 8735 1a87 b03f 633a b3a8 00d0 b93f
00000720: 306b c33d 9e1f a73f d705 1c0f 9eac ac3f
00000730: 6bc8 ebb6 0163 b63f 6fd4 0670 470e ac3f
00000740: 7ba0 a150 9cd0 b33f 3812 1ff7 1c1f bb3f
00000750: 3378 86fc 7aa4 a33f ea5b a782 10cc b23f
00000760: b8c8 38e8 7ae1 b43f 0026 34d0 7197 b03f
00000770: 2d67 6d49 2568 b23f a18d ae2c a159 bc3f
00000780: a29f e5d2 4812 c83f 8398 2f3b 1b94 c63f
00000790: af7c 0658 739a c13f a117 589c 68d2 c63f
000007a0: 3688 f00e 5f9e c63f a667 b1df a296 c33f
000007b0: 69b8 f24a d4ba c83f a830 d32a 35e3 c43f
000007c0: b20d dbac 96fb c23f 59a6 f209 09a5 c53f
000007d0: 35ca aa91 21f3 c53f 30d0 d362 1a17 c33f
000007e0: 84f5 5a44 0e2d c83f 0e84 eadc 26d3 c63f
000007f0: de3c 4b31 d1ea c03f 19da bb33 a4d6 c73f
0.056809235307291046 0.1364489329332535 0.06004752670419657 0.05214906952790571 0.11967765259262839 0.06274025710013455 0.04250665981698179 0.12156376110134323
0.034906823163338443 0.053171261586061926 0.15135888362725036 0.057890619225190426 0.06377093289941829 0.10596424829402129 0.06123995624160977 0.053021793204471215
0.11763334128601788 0.07353001262587504 0.060574198201705357 0.11338621049384819 0.06260613593740796 0.05389859770514932 0.1400150071307542 0.044212664773001835
0.0495906430098168 0.10948230857765132 0.08336115573595494 0.04397029503267892 0.1255493763521676 0.05249415822851761 0.052514274377796405 0.13133457253254302
0.05700806122839187 0.0646839220870747 0.11368526768461132 0.06763921108150227 0.04463648526477296 0.11058868199625364 0.05090348271814557 0.05121023985567982
0.14596138798460023 0.05784970569101337 0.058115089069204755 0.1409958189918359 0.06438128042069403 0.06632331361633743 0.14454838838517348 0.05554402928455168
0.03733538921648176 0.04512071981027361 0.0213786411383054 0.02025240675305548 0.02415701220009023 0.02725405675674671 0.03493563123349732 0.03254232949240853
-0.005193254520960296 0.03895156765849705 0.03500457915918134 0.014356479230757713 0.03543005035982307 0.03595906715188994 0.030925827334844558 0.04951703298691254
0.045909020381520574 0.038339770788993796 0.038722562756047574 0.062998127268193 0.016493555405847186 0.0403160045109493 0.018791428515359924 0.027416742011637255
0.013661559599464326 0.03882910405540882 0.02403897021821742 0.037300326944468394 0.027479643844432463 0.023722837624028378 0.035766196083362053 0.04149747456750586
0.027760461315744372 0.052771679029762694 0.031191609056635632 0.02573008081480512 0.0234428271816213 0.034970828709941906 0.024809560851721788 0.04381515870330838
0.039309671503571175 0.03647676656825071 0.032735048524616964 0.04795330971086778 0.040497875010980386 0.05640587611548941 0.04483194100305021 0.020436563731254073
0.05717278821422483 0.095004113551715 0.10371168902332124 0.05806772126223535 0.08542724755114933 0.07279169541696649 0.06522156672093922 0.05231432070088047
0.10181695240512792 0.06377604717959608 0.06312932724275948 0.12483005281951014 0.05136907014267831 0.08187011675966821 0.10339675307815102 0.0707429083675804
0.06078561018862082 0.10183305388048094 0.042781426289499096 0.06747402360014942 0.08684372059428073 0.08093200015994602 0.07251705502598256 0.07324272889098882
0.05727563947683515 0.06497521459951688 0.10865870610097812 0.08002642049462026 0.06924694982777999 0.10806438012556843 0.062010154311640274 0.06792830708288315
0.10837830212959981 0.0757828850593532 0.049338632547515526 0.10353996806709902 0.061367853728521445 0.052924327938751174 0.09841768010811221 0.06252612862383408
0.06571804707559198 0.10374296792160553 0.060424400132559467 0.05863280555179897 0.10493864618035145 0.08075574325632016 0.06973814953080025 0.0937765741853011
0.07070712258553125 0.06692392964479846 0.06347229288487592 0.07672019461767107 0.056931451329674886 0.06779959436639249 0.07735584943798823 0.07874040329493054
0.06771328314305812 0.07488307087280924 0.07573462363851312 0.052910012006514455 0.05937817284941489 0.0773784361838251 0.06166597365798793 0.05928460200179613
0.06490655407501543 0.07212393164326411 0.05561343312320413 0.08210600711482828 0.062077174561487064 0.07798659630716771 0.05806399810086037 0.06601751672447728
0.06738066266826612 0.07434136880900426 0.04954663143650779 0.06465033661760389 0.04021476596652671 0.07151816675644784 0.07633654588921433 0.07819968299767259
0.05332203967614467 0.0700294220577345 0.07045343802139896 0.06048609614506835 0.07351483544808321 0.07661052979949222 0.06724898400785921 0.0732763892406954
0.06423974408065854 0.05207639174388001 0.06051240006662259 0.07626372942062487 0.05813751196532358 0.0740458114302015 0.0844870593781769 0.05367759939382127
0.07961739467999036 0.0704001185461819 0.07774204812596149 0.05392075859439082 0.09647832674916167 0.10949298722271571 0.04837788524067786 0.05460002760328967
0.11988932145853544 0.07618340381885876 0.07665563111118645 0.1040721351341584 0.05699317785828195 0.07410849384510919 0.10841623724738014 0.05722544842505155
0.088274288358894 0.10948908855095056 0.04629952313791913 0.06688751537620648 0.09642049833937838 0.04226051509627606 0.07704259603749544 0.11274533424001999
0.05426682938220055 0.0732377593270398 0.08879149566707756 0.06450166763631142 0.04480100719037694 0.07673935790206766 0.06558378849551601 0.057893149496148114
0.11821664581263536 0.07428715983274228 0.06456149870780598 0.10083011740355512 0.045163102187606774 0.05600446638528538 0.0874482223114527 0.05479644052994891
0.07740189522303524 0.10594349892841926 0.03836426098426706 0.07342627706326224 0.08156555337407922 0.06481086094949973 0.07190163653049515 0.1107426389776749
0.18805799768165082 0.17639484777390999 0.1375259570895415 0.17829616197576306 0.17670810918304064 0.1530345527888219 0.19320157680107578 0.16318382826864775
0.14830287399500502 0.16909897790655995 0.1714822732224818 0.1491425497584955 0.1888749917760998 0.17831884180944296 0.13216605097702588 0.18623783613266268

bias f8 [112]
00000000: a93c 56d5 5936 b73f ab71 4d39 d979 b63f
00000010: 4f9b 00cf da53 ba3f 81c7 cedc f8ce ba3f
00000020: be80 beb0 e789 b73f 5529 c009 baae c03f
00000030: d911 4a53 72fe a93f ad81 8ad0 a760 bd3f
00000040: 871d b7d0 6823 b63f ea2a 86d3 1fb4 bf3f
00000050: d52a abfd 6e5f ba3f fd16 d29f ba86 bd3f
00000060: a70c 2991 f479 b13f 4e6f e039 a091 b63f
00000070: 3b5c f7a0 8c99 b83f f1d8 b822 d69e b83f
00000080: 1f44 f5da e324 af3f 875d 27f4 289d 9c3f
00000090: 79fc 4c9d 5b21 993f d46f 0a20 abac a43f
000000a0: 7ba2 16b7 6b56 903f b0fd 0512 d70a a63f
000000b0: faaa 42c9 fcf7 a33f b8a3 389c b830 aa3f
000000c0: cfe7 23c9 ab92 a23f 95bf e436 0fd5 a73f
000000d0: abb4 3118 d4fa ab3f 87b3 0b40 32f4 a23f
000000e0: 80c9 1488 2164 ad3f 40fb 4620 ee45 a63f
000000f0: 7f6f 43d2 a440 a73f a7dc afc7 9d0c a83f
00000100: 3e57 5133 b2e1 b03f ddc9 8acc c497 b33f
00000110: d00d 585d dafc b23f 6154 44ff 0723 b03f
00000120: bdeb 1a4c 2c92 b13f d431 1e68 afe8 af3f
00000130: 6dbe 78f1 a375 af3f 993b e360 680f b03f
00000140: 38a9 9490 a8e0 a93f e17f b246 281f b53f
00000150: e0fd 126c 02f7 b63f e68b 4a8b 2681 b63f
00000160: a1f6 437f d223 ab3f d06c e10c 77e2 b43f
00000170: e1fa 4cc5 086c ad3f 9dd8 f75c b0fb b13f
00000180: c92e f7df be0d af3f bcab 6046 5a0d b33f
00000190: 0b28 e5d2 2d54 b23f 4ee0 ab33 3a30 b23f
000001a0: 65c6 c246 1c7d b53f 90e3 1403 1173 ad3f
000001b0: 9624 424f 11a5 b43f 5337 cfd2 d585 a73f
000001c0: bcc6 9097 76f0 b03f f718 8ffb a195 b53f
000001d0: fecd ec3e 2c06 a83f 369e bfb4 3eaa ab3f
000001e0: b4a8 071b 89c1 ad3f ff8a 93f4 a621 b23f
000001f0: 326e 696a 371e b03f 8643 e320 9e10 b23f
00000200: a228 67cd 8616 b33f ab7b d501 7718 b43f
00000210: 3285 42c5 0654 b23f 4502 c7db 888d b23f
00000220: bd64 d1c6 8ca7 b13f 775e 1b55 790c b03f
00000230: 79e5 cc5d bf7f b03f c7a8 d386 068b b33f
00000240: eb11 b8bc fc38 b03f 53cd c205 de93 b23f
00000250: 41c5 6dee 0430 b33f 6d96 e72a 4f52 b73f
00000260: f6ae 61ec 247b aa3f 5fa5 d6a4 edc9 b03f
00000270: 9797 7fa6 81ad b03f 9d7c b439 1bb3 b03f
00000280: edc1 0504 6dd7 c63f bc79 35e6 f66e c93f
00000290: 93ec 36b6 3af2 c63f 4d8e 70f2 1c07 c73f
000002a0: 8b53 93d8 ff2b c73f e3b3 70c2 b93b c93f
000002b0: 6858 4155 9deb c93f 2464 0433 065c c83f
000002c0: e033 d9ae b002 c73f c1dd f010 f1df c63f
000002d0: b509 d979 3531 c73f 562e ddfc 6c7e c73f
000002e0: b38a 8702 bb72 c73f 5435 12a2 83b2 c73f
000002f0: f4c8 1bac a078 c83f ef83 4d14 5b25 c73f
00000300: ebeb 6d1e 5159 b53f c72d d83e 06d7 b43f
00000310: e5d8 3271 075c 923f bb2d f0e5 6fae 98bf
00000320: c3f1 3a01 d3e2 a03f c33f 5e8d 4fab b4bf
00000330: 42ac d45d d4b5 b53f 7090 5024 bc37 a43f
00000340: a93c b70d f8f9 a5bf aa98 96bb e426 b33f
00000350: 5b80 09e8 5ca7 b93f 2ad3 1bb6 dc98 b53f
00000360: b99c f98a 99b1 9bbf 3363 92ee f106 b13f
00000370: 2993 4a50 c42b b4bf d79c ef3e 5b3b b1bf
0.09067307909411916 0.08779676102626037 0.10284202150124354 0.10472064390958559 0.09194801392596028 0.13033223606209768 0.05076939837184442 0.11475609628042234
0.08647780509556045 0.1238422290245286 0.1030187005336914 0.11533705140945112 0.06826714080766526 0.0881595746326955 0.0960929768547069 0.09617365215021657
0.06082832382038127 0.027943267728770784 0.02454131267154167 0.040379855786539715 0.01595466904623997 0.043051453542826024 0.03900136906425718 0.051152962751366216
0.036275261214498415 0.04654738946044216 0.054648044541729966 0.03701931983764611 0.057404563771700445 0.043502274932953444 0.045415068308755295 0.046971254945611655
0.06594384911417436 0.07653455728249221 0.0741707303896455 0.06303453428366047 0.06863667352710841 0.06232212205859225 0.06144440004970595 0.06273510327740296
0.05054213299657068 0.08250667310721795 0.08970656527070942 0.08790818119682306 0.05300767711194721 0.08158058227984388 0.05746486099677895 0.07024671811800194
0.06065174564318238 0.07442249506190896 0.07159696959311661 0.07104839097508028 0.08394028403815808 0.057518512369319486 0.08064373192805116 0.04594295690877339
0.06616917801218397 0.08431446448875933 0.0469220949948088 0.05403324085619625 0.05811718420939496 0.0708259913549618 0.06296106670327431 0.0705660658161503
0.07456247820587916 0.07849830431722064 0.07159464183725531 0.07247214666041042 0.06896285871461579 0.0626903374462645 0.06444927253769163 0.0763401106993654
0.06336955649755509 0.07256877556465229 0.074951465807108 0.09109968945957699 0.051720765929386944 0.06558118128181921 0.06514749827291975 0.06523294600309489
0.17844927498255406 0.19869886627834699 0.17926725289530462 0.17990457380175187 0.18103025507903356 0.19713518137123662 0.20250288641790637 0.19030835619995046
0.17976959741136422 0.17870915724937045 0.18118923616027663 0.18354570719599178 0.18318879722126766 0.18513532079343042 0.1911812630056101 0.1808275078901995
0.08339411728768169 0.08140601190841955 0.017929188045592865 -0.024102924737275915 0.03298053159730643 -0.08073899461146454 0.0848057488516796 0.03948772376341558
-0.0429227368109591 0.07481221751968073 0.10021000542610763 0.0843637413598343 -0.027044676883090733 0.06651222300059771 -0.0787928291343404 -0.06731195723078841

weight f8 [112, 16]
00000000: 49e2 2e8c ff23 9d3f b542 bfbe 9b05 a13f
00000010: a807 cc9d 6bed a53f 33ad 4a75 ef9b a23f
00000020: b826 5050 1bcc ab3f e976 57e9 1127 993f
00000030: b98b 0737 85bb a33f 7e1f cb3b a837 933f
00000040: c719 e5aa df81 963f 9619 c460 e0ee 9d3f
00000050: 4fb1 29a7 3cf3 a53f 0a84 dcf3 c641 a63f
00000060: dd17 0e20 251d 9e3f 594b 244b 961d a13f
00000070: 127f ac70 06cc a63f 201a 2ed7 b5fe a73f
00000080: f810 3e2b e7db a43f 3283 b41f 964c a53f
00000090: 29b4 081d ad89 923f b811 cea6 4218 9d3f
000000a0: c66b 51ff f93c a03f 8814 a832 778b 983f
000000b0: 1400 e379 c3f3 a03f f8c0 9eab 0246 a43f
000000c0: e7a8 c854 d4f2 a23f a39b aae0 e7c5 a43f
000000d0: b5fb 2b58 3a96 923f b971 5437 9f75 a23f
000000e0: 6918 8bb2 9194 9f3f dd70 b369 2bec 9f3f
000000f0: 50b2 ec24 7b40 a03f f389 ff93 f946 a03f
00000100: a574 2126 9bfa a93f 4eb0 5c1a c9df 9f3f
00000110: 57fd 7e97 7bd7 9f3f 2b3f 5da6 9710 ab3f
00000120: b670 cfaa 1f2f a83f 30c8 d0e6 e81d a83f
00000130: 6982 6488 f7b9 9a3f 08e0 4e8c 2933 a13f
00000140: 7081 4528 0ffd a53f fd8b f10d 887b a03f
00000150: 3b9d 9aa3 5644 a73f d676 13cf 326f a93f
00000160: c387 6e30 823b a23f 9774 d02c acac a13f
00000170: d9a6 6169 0253 953f be1d e4ab 9112 aa3f
00000180: 7f67 6665 b9fd a23f 2b5e 2196 7324 a23f
00000190: cf06 1572 d6c0 a43f 324b bb33 6abc a93f
000001a0: fabb d896 115f a53f 667d b269 2f3f ad3f
000001b0: ead1 1362 280f a63f 20b6 cab5 b991 a63f
000001c0: 2643 2ce8 63ba 973f 06e2 a57f abb4 9b3f
000001d0: dfa3 2d27 2b9e a03f e2c0 12b7 4cca b03f
000001e0: 0f5b 1907 d19c a83f cbdb 3dc1 4c24 a43f
000001f0: 3796 09ef 9e0e a63f 8b4e 7654 ef72 a13f
00000200: 8082 16b3 06a1 a53f 9815 7085 1d92 963f
00000210: 3bef 7ced 42b7 863f f4e6 c54b 12e9 993f
00000220: 56e4 ad33 b2b6 963f bc71 fbfd 705b a53f
00000230: 006f 4fbc 3e81 a13f e3af 6efb 3928 8a3f
00000240: 626c c6f1 d53e 883f 1ea9 8d09 db3b a03f
00000250: 95ac e679 7486 913f 1621 fa77 8f08 953f
00000260: b5bc 4cec eba9 923f edd0 bdaa 66b9 9b3f
00000270: 128e 7789 eed0 a43f 8e05 30cb 7257 a43f
00000280: cf08 86cb 0a17 983f 57e7 2b42 0a50 963f
00000290: 6f73 c85b efd3 9c3f 6ebb 4ae0 560e a33f
000002a0: fe45 a3c2 c332 a23f c6a8 2467 1c77 a13f
000002b0: 109f 9a18 28a4 963f 89bf 27e9 1ba7 a33f
000002c0: 99a9 f240 a247 a03f f515 04e5 0d49 9a3f
000002d0: 6fc3 6747 d071 933f 0f26 031e 16b8 a23f
000002e0: a794 81ef 65d7 9b3f b657 297d 68e5 a43f
000002f0: 0317 9808 d2fb a43f 8a0a 92ca 6c73 a23f
00000300: b484 b51f cdb7 a03f cb18 ab5e ceac a43f
00000310: 18a2 eec2 749e 993f 87bc 886f e76c a13f
00000320: 3e71 a7ef 2c71 9c3f 9b5b 2c51 4977 9a3f
00000330: da22 5bf3 f258 a23f 634f 86ee ea5c 9b3f
00000340: 084b ef0a ff17 a73f 45a4 a17c 0095 a23f
00000350: 77e0 ada8 b467 a23f 7ede b4d6 35d7 a23f
00000360: b51f a78a c8c0 9a3f 6bd3 1372 1217 833f
00000370: c290 1493 cc54 993f c802 5ff5 ea21 a73f
00000380: 0eea 3cc7 a7c1 a83f 49f6 01c8 d763 8e3f
00000390: 9167 035c 151a a73f 6cd4 27f6 517a a23f
000003a0: 328f cbf4 8614 a23f a404 2676 ab02 a23f
000003b0: e9f1 0ec5 a46c a43f 4a9c 96f5 b27b a73f
000003c0: 2eff d02f 506e a03f 62c4 ab9a 391f a53f
000003d0: 9920 4cc7 7a5f 9d3f cb1b 46a9 81ab a33f
000003e0: cbed 876a aeeb 9d3f 14d9 6402 6cac 953f
000003f0: ca7a f46f 5526 9c3f da08 51f6 13be a53f
00000400: 6158 0017 799b a03f b394 ccfb ec3b a23f
00000410: 1375 bd0f cd6e a13f 76d3 fd51 bc86 9b3f
00000420: 3cc7 f8b2 6c1e a33f cb8d 3396 c6a1 813f
00000430: 0d3d db31 43df 873f 4237 bc16 3636 a63f
00000440: 3958 7268 5ce4 9c3f e47f f1de 8ab1 a33f
00000450: 23af 3f62 710e a53f 42c0 7834 9590 a03f
00000460: 2592 e9d1 8a6f 9f3f 9156 27cc e6d6 a43f
00000470: ebe6 8921 f973 a33f 75b5 a77e 7697 a53f
00000480: 4fdc 55c4 c734 a03f bf32 b7ec 8178 a03f
00000490: 8a54 a662 fb3b 9d3f 11f6 2e52 47fe a13f
000004a0: 0d81 530a edda 993f 0103 8b21 a50f a53f
000004b0: 26e4 3bde 5758 a63f d0cb 5964 044b a73f
000004c0: 68e5 0f6b 1817 a23f de75 d07d e4e1 a83f
000004d0: 4680 dfc3 c0b8 a93f 9697 428a e016 a33f
000004e0: 028c 0c07 c271 a33f 79db 73ca 47f6 a63f
000004f0: 0d05 470e 7a34 a33f 957e 777d 4c05 9b3f
00000500: 050d c760 c687 a23f 29b8 89b3 9abc 953f
00000510: 06d3 df0d e421 ac3f 589c ed2a 72d8 963f
00000520: b979 beb3 fa2f a33f 4e65 f18e c911 a63f
00000530: f962 cefc be62 a23f ae53 da32 742a a53f
00000540: 60ff 4a0d f383 9c3f 23dc 7888 dbeb a43f
00000550: 5f74 9c46 1749 9c3f d3f8 4ced 11ba a43f
00000560: decc 0f2d a5e6 a73f eddf 0f9c cb8f a13f
00000570: 85c7 dd3d ed57 9e3f e2aa 29b3 d4f1 a03f
00000580: 5fae d17f 183b a23f 8e13 48bf afe9 a43f
00000590: 4e1c 6f38 0d0a a13f 2b59 5c90 99bc a43f
000005a0: 3b7a 3ae4 730a a73f 7094 fab2 229f a23f
000005b0: 075e e312 5c74 a33f 591a 9810 6d59 9e3f
000005c0: 9157 5416 ad15 9d3f 05e7 2197 2bc1 a33f
000005d0: d8fe eb8b a2b4 a23f 7659 d43b 79ad a03f
000005e0: d2f8 b663 b5d2 a13f c9f6 8395 5ead a23f
000005f0: fed5 59a7 6fa5 9e3f 37cf 603c 9edd 813f
00000600: 1658 0865 5e03 a13f 9fe4 6155 a89c a33f
00000610: 2d50 bcad 0422 a13f 597f 3ebd 57bc 923f
00000620: cb00 6892 7f02 a23f cbd3 68d1 2acd a63f
00000630: a778 3b1e 9843 a23f 38f7 aa9c 66fe a03f
00000640: 14e4 846a a1bf a23f 6cdd 618f 9dc6 ae3f
00000650: a1bb 8f4e d201 9b3f cda4 78a2 056c aa3f
00000660: abfa 935a 22a5 983f edc2 7e46 d67c a73f
00000670: 5a42 528a 8739 a63f 6019 adfb 8b3a a23f
00000680: 1a84 d4fb de39 a53f 6d53 ed8e 8a90 a53f
00000690: 49b0 ebdf 584d a23f 2fbc e559 2541 973f
000006a0: cfb7 647b 5ccb a83f 758d 407b 7418 aa3f
000006b0: dfb8 33e9 c9c7 993f 3db5 c855 b46c 9a3f
000006c0: 3406 2746 c7ae a43f c95d a6c9 31be a73f
000006d0: aa35 cfce 5481 a33f 14f2 4b20 4b08 a83f
000006e0: d4b9 a593 4e70 913f a3fa 3545 9c06 a53f
000006f0: ac0b 2118 231c a23f 6afa 776a 1b4a 9f3f
00000700: da2e 7f03 47a1 983f 4626 b7fd 5603 a23f
00000710: 399b aa63 3b3e 9f3f 807d 58e4 b314 a53f
00000720: 49b3 1a39 31e6 a23f b74c cc45 0b20 9a3f
00000730: 6fb4 dd57 b245 a03f 1766 e73c 5ada a33f
00000740: 8e0c 3bc6 755e 9d3f 00a2 d094 0246 a73f
00000750: 0b62 1750 ef8a a13f 53f9 80e3 6703 a43f
00000760: 0035 6f2d 064e a03f ce9b 5ad2 aad5 a53f
00000770: 3ff5 10cc 9a3e a43f a737 6186 7770 893f
00000780: 5a68 6c47 521a a13f 1062 d7ca 7eb2 a53f
00000790: 3a46 f537 2a0c a13f e64d 3005 1f5f a73f
000007a0: 1d36 dd09 9c34 a93f 39a1 21c0 6306 9f3f
000007b0: 4ba8 05f1 dd3c a73f 66c6 c10a 4a06 a43f
000007c0: f806 be0c d6b8 a43f fd78 175c bf80 a53f
000007d0: bb72 1d9e 2d2d a03f cc9f 5ac4 ab41 a73f
000007e0: 0cc0 2742 292b a23f f9a3 5e24 bd3d a03f
000007f0: 8273 761b 3f94 943f edfe e1da a9f5 ad3f
0.028457634860134005 0.03324591353851273 0.04282699872238932 0.03634594256194603 0.05429158549675378 0.024563102595371786 0.03854004189249544 0.018767002725126762
0.021979803853605675 0.029231553941849585 0.04287137547075536 0.04347058989356618 0.029408054429516873 0.03342885653741829 0.04452533841526764 0.04686516048154865
0.040740226772898624 0.041599933023695704 0.01810331811627833 0.02841285842034022 0.03171521417308258 0.023969519106704 0.03310976851344108 0.03959663720104517
0.037008891439045226 0.04057240121374341 0.018151198989467782 0.036053634170659384 0.030840183756275872 0.031174352957223362 0.031741951234242394 0.031791495624719966
0.05074009743177869 0.03112711165810849 0.03109543907316711 0.05286096483052768 0.047234525299900396 0.04710319345066727 0.026100032520050585 0.033593462350324954
0.04294631353946243 0.03219247026643044 0.04544325587385819 0.04967650201591105 0.03561026421745297 0.0345205120758944 0.020824468309377096 0.05092292044906398
0.037092012050563554 0.0354343529476718 0.040533734727899444 0.05026561624040084 0.041740941680806956 0.057122689869397544 0.04308439442857888 0.04408054680002871
0.023171959920605854 0.02705638853646699 0.032456730396752446 0.06558684796869188 0.04807141505869172 0.0393394456759136 0.043080298117996234 0.0340800085642999
0.04224415718204444 0.022041760701559804 0.01109173094993531 0.025303159594364424 0.02218130531716541 0.04171326732987121 0.03418918656072201 0.01277203844605163
0.011838599625482785 0.03170666209810434 0.017114467563868436 0.020540467927760174 0.01822632436522716 0.02707443635104394 0.040656523018494664 0.03972967844311902
0.023525398895352375 0.021789703644550098 0.02815221784304661 0.03721877563417918 0.035543553838248684 0.03411186942169446 0.022110582830150938 0.038384315692268585
0.03179652254887628 0.02566930494596949 0.01898885188888094 0.03656071773873403 0.027188866370484146 0.040812745359900246 0.040983737515530215 0.036036872604218464
0.0326522923667282 0.040380906158632955 0.025018524549212356 0.03403399693012781 0.027775480391811096 0.025845666484282864 0.035834877211134944 0.02672164040411874
0.04510495193939873 0.03629304429416228 0.03594746169159262 0.03679817434243392 0.02612603517789554 0.009321350199096043 0.024737545468398243 0.04518064732792976
0.048352473326719644 0.014838872710465927 0.04512087581834046 0.036089478777207556 0.035312859899731555 0.035176618740487414 0.039891385130861164 0.045865623930972335
0.03209162315078938 0.04125385296891505 0.028684538282533898 0.038417865670502836 0.02921936536038831 0.02116554989444193 0.027489981611433824 0.042465804880082295
0.032436164911062056 0.03561344693870563 0.03404846970691202 0.026881163124432082 0.03734149632181391 0.00860934396627657 0.011656308135029403 0.043382349276824175
0.028214877962988025 0.03846391650654349 0.04112581562352904 0.0323530794670437 0.030698937475238126 0.04070206873045124 0.037994180053784486 0.04217119499285619
0.0316526820342281 0.03216939940066287 0.028549125572301416 0.035143116743238896 0.025249198680172436 0.04113498720608356 0.04364275539223454 0.04549421048150004
0.03533245379362421 0.048598423345747696 0.05023767844227271 0.03728391349549935 0.03797727905318739 0.04484772058815784 0.03750974106106684 0.026387400777706366
0.03619213038794026 0.021227280815246417 0.05494606656421834 0.02231005084049928 0.0374754280485265 0.04310445661458094 0.03590962253583103 0.04133952255975913
0.027847097097719042 0.04086195031089115 0.027622569737208 0.04048210164772716 0.04668155837125608 0.03430019645742264 0.029632288838406424 0.03309502303166824
0.03560711441317887 0.04084538660030211 0.0332798129452888 0.04050140273300181 0.04500162278167293 0.03637035784530773 0.037997128778155136 0.02963800824911753
0.028403000343210364 0.03858314723852455 0.03653438528089986 0.0325734982999845 0.034810703680237545 0.03647895407810393 0.029927963818826335 0.008723484246821662
0.03322882636364015 0.038304577276855094 0.03346266384883765 0.018296595502419553 0.03517531072793786 0.04453405195491874 0.03567195290610075 0.03319092428635745
0.03661827492982908 0.06010906577369721 0.026374136013994968 0.0516053925351315 0.024067436960644766 0.04587430582558292 0.04340766490452515 0.035602926704586535
0.041457145920738195 0.04211838717188852 0.03574636205107191 0.02270944939794733 0.04842652326838925 0.050967826886586666 0.025176195963404587 0.025805299506989277
0.040395953477411345 0.04637294374986884 0.03809609436539614 0.046938274090255444 0.01702997947853098 0.041066058586684016 0.03537091893715369 0.03055613362630042
0.02405272444575144 0.035181730719682267 0.030510833700329008 0.041173574089266474 0.03691247770379975 0.0255128632880541 0.03178174326499394 0.03877527230697469
0.02868064901737149 0.045456009546175125 0.034263113524222254 0.03908848430772829 0.03184527687663241 0.04264577691838377 0.03954013577502246 0.012421544826931653
0.03340394136303422 0.04237743593302323 0.03329593594629583 0.045647591956505626 0.049229503826250666 0.030297812082069362 0.045386253043787926 0.03911048299131607
0.040472687774139204 0.041997890464459765 0.03159468226542602 0.04542290470027374 0.03548554356154918 0.031721029939326635 0.020096765567007242 0.05851488873395092

bias f8 [112]
00000000: a93c 5685 a462 b73f a871 4db8 c808 b53f
00000010: 4f9b 001d c305 ba3f c063 6716 fe0e c13f
00000020: c380 be4e df10 bd3f 5529 c039 17af c03f
00000030: e908 a555 9db8 b03f ac81 8a58 0653 bb3f
00000040: 851d b7ea 8d0a b53f ea2a 86ef 5ebf b93f
00000050: d52a abfd e852 ba3f fb16 d2fb 27c7 b63f
00000060: a00c a924 0b9c b43f 566f e0dd e160 b83f
00000070: 3d5c f794 fef6 b73f efd8 b8e4 c271 bb3f
00000080: 2e44 f542 8fb2 a03f 915d 27b4 7ffc 9c3f
00000090: 6ffc 4c7d 66f1 993f d66f 0a40 5c85 a03f
000000a0: 3851 8b53 c090 a63f 90fd 05c6 5a5a ad3f
000000b0: f9aa c232 4a70 a53f baa3 3802 f7ee a43f
000000c0: d0e7 23cb 9ed9 a93f 95bf e4ac bef2 a73f
000000d0: afb4 3108 e341 ab3f 89b3 0ba4 2496 a93f
000000e0: 6dc9 1434 d8e9 a73f 41fb 46fc e02c a73f
000000f0: a16f 43f6 9739 ad3f c2dc 6fa2 7ebf ad3f
00000100: 3e57 51e2 a138 b33f d2c9 8a69 0ae4 b03f
00000110: d00d 587b cdc8 b23f 6c54 4417 f0e7 b43f
00000120: c9eb 1a41 4f19 b03f f018 0f2a b2e3 b03f
00000130: 415f bc48 ca46 b23f 8b3b e3cf 84f4 b43f
00000140: 34a9 94ce fca7 ae3f df7f b2c6 4638 b93f
00000150: defd 1204 2ffc b53f e68b 4a9f a614 b53f
00000160: a0f6 43f9 b767 af3f d26c e140 6928 b73f
00000170: dffa 4c18 46df af3f 92d8 f7fa 8855 b03f
00000180: 6497 fb83 9b68 b43f bbab 60ec 45a3 b43f
00000190: 3750 ca50 670a ac3f 4ee0 cb3a 66d8 b33f
000001a0: b88c 85cd d86f af3f ce71 8a2d 321a b53f
000001b0: 4e49 84f2 7824 af3f 999b 67cb 6879 b23f
000001c0: c3c6 b82c b81e b03f f531 1e87 ac9e a93f
000001d0: 0c67 76bb c21c b43f 369e bf74 cab4 ab3f
000001e0: 62d4 8369 d03a b03f 0c16 272e 9079 a83f
000001f0: 2d6e 69d4 96bd b33f 8543 e370 f028 b13f
00000200: a928 e75c 4e87 b13f a97b d5f2 0377 b23f
00000210: 3885 4247 1d6c b33f 4702 0756 8ba2 b23f
00000220: ba64 d19e ce94 b53f 765e 1b05 fc35 b03f
00000230: e2ca 99e5 9835 a83f c7a8 d3f6 1ed3 b23f
00000240: dd23 70ee b586 ae3f 9d9a 8509 ca41 ae3f
00000250: 45c5 adce b324 b23f 6d96 e76c fa16 b43f
00000260: f7ae 6124 17b4 a83f 64a5 d608 5e43 b03f
00000270: 312f ffe1 168f ac3f a17c b493 c4f4 b03f
00000280: efc1 853f 3e5a c63f bc79 b595 1288 c73f
00000290: 93ec 3603 dde2 c63f 4f8e 70a2 8d81 cb3f
000002a0: 8b53 f3f8 db3b c73f e3b3 7080 7c2a c63f
000002b0: 6a58 41d7 6013 c93f 2464 044f 946c c83f
000002c0: e033 d974 7158 c53f c5dd f06d 67f7 c53f
000002d0: b509 d96d 3b1d cb3f 552e 5d48 01ce c73f
000002e0: b18a 276e 7dbb c83f 5435 926e f1ef c83f
000002f0: f6c8 1b9b fd9b c63f ef83 6d03 12db c73f
00000300: ebeb 6d7a f262 b73f 815b b01f eee9 ae3f
00000310: c2d8 3288 eaa6 9b3f c62d f095 3058 9bbf
00000320: c1f1 3a75 4b78 a53f c33f 5ee9 8625 b4bf
00000330: 42ac d43f 5ce9 b53f 6b90 50d0 11c6 a73f
00000340: a93c b751 3371 acbf a998 96d3 001d b83f
00000350: 5980 0910 afc2 b13f 2ad3 1b84 8989 b53f
00000360: 5bce 7c29 471a a5bf 3163 921e ac9b b23f
00000370: 2e93 4a42 8ae6 b6bf b439 df2d 7b2d abbf
0.09134891753477582 0.08216528415272839 0.10165042360368413 0.1332700356859089 0.11353870079483656 0.1303433448777677 0.06531699505743273 0.10673560773512375
0.08219229679445135 0.10057633731609497 0.1028276080425415 0.08897638223615083 0.08050603528049516 0.09522830645476907 0.0936125863730561 0.1072046097186534
0.03261230175360939 0.02830695664473876 0.025334931752919617 0.03226745874164265 0.044073114584224304 0.05732997576978527 0.041872328468647475 0.04088565733065459
0.050488436028856776 0.04677387104527423 0.05323705172563941 0.049973626160727376 0.04670596729046648 0.045264273448529575 0.05708002930779733 0.058101613358240836
0.07508289122901332 0.06597962452614262 0.07337650548293273 0.08166409080543396 0.06288619365197613 0.06597436453657557 0.07139267230774939 0.08185606074697042
0.05987539312111992 0.09851496077544607 0.08587926721064984 0.08234635724015468 0.061338185480037 0.09046037515638553 0.06225031897201005 0.06380516173507747
0.07972118351207552 0.0806163503736305 0.054766872989745634 0.07752074180086874 0.06140019902047683 0.08243096935115732 0.06082513771447627 0.07216505971847055
0.06296874133911516 0.05003871106518779 0.07856385304185326 0.05411369967606243 0.0633974320988542 0.04780245364558419 0.07711165128551363 0.06703093296097336
0.06847085731638693 0.07212853125154929 0.07586844434492412 0.07279272890355869 0.08430186631575767 0.06332373737984107 0.047283914592204615 0.0735339501003721
0.05962151084538168 0.05909568182214751 0.07087253375882081 0.07847561987690606 0.048248980704412796 0.06352794376166099 0.055779185378553094 0.06623486143188241
0.17462900258716682 0.18384010610584578 0.17879831940613097 0.21489115172981818 0.1815142598703939 0.17317158004280406 0.19590387831221118 0.1908135782075827
0.16676157193651786 0.17161267154891227 0.21182959426557849 0.18597427400014746 0.1932217395652365 0.19482248209934971 0.1766354567876715 0.18637299697277807
0.09135356415747224 0.060378495567582575 0.027003922045616198 -0.026703604842664118 0.04193340116532652 -0.0786976165529714 0.08559204634063725 0.04643302600769136
-0.05555115101344061 0.09419255414704487 0.06937688962489243 0.08412990069684825 -0.041216110052485454 0.0726878714216468 -0.08945526236000198 -0.05308136877976058

weight f8 [3, 16]
00000000: 82b6 a38c 6d83 cebf 29e7 ce47 ebce cdbf
00000010: 9c4a ec5b 8f96 cebf 4b34 e512 499e cebf
00000020: a88e 3ac7 e02e cfbf 8f2a 02ff 8fba cebf
00000030: b758 0b99 ff60 cebf fd16 9c9e 0ee6 cfbf
00000040: 9bfc 63b8 bd54 d0bf e0f9 2f64 9ff5 cdbf
00000050: 0dd4 2be1 db26 cfbf 999d 0e0b a30d ccbf
00000060: 6d74 698e 5a6c d0bf 33e4 6065 1b68 cfbf
00000070: cfa2 5613 804c cfbf 769d b976 dd94 ccbf
00000080: eeb8 c89f 2531 cdbf caff 1b45 53fc cebf
00000090: 8685 8235 4fb3 cdbf 3562 9188 bcdd cdbf
000000a0: deff d898 844b cfbf c929 4804 616b cebf
000000b0: 3560 914b 81fb cdbf d517 f485 cf1c cebf
000000c0: 4da6 346f 932c d0bf 8709 a977 606b d0bf
000000d0: d235 5afc 9900 cebf 7576 b343 3086 cfbf
000000e0: beff aa1c 7715 d0bf c462 25ab cf40 cdbf
000000f0: 6281 b04c 0006 cfbf d811 67c7 b717 d0bf
00000100: 81a2 f964 be51 d0bf 878f 7348 ff6e cebf
00000110: 2116 7a5e 823c d0bf 7a7a 1114 7115 cebf
00000120: 7830 04a8 f546 ccbf 5fb8 20be 043a cdbf
00000130: f7dc 6aa5 bf5e d0bf 4f2c 1576 555f d0bf
00000140: fe5d ca93 6f2c cfbf 1817 cbc4 c6c9 cdbf
00000150: a147 d433 cd13 cebf 4fea 7993 45c1 cfbf
00000160: b120 da4f 7994 cebf f8d1 de45 dea3 cebf
00000170: 2147 3e14 6a45 d0bf 51df 6902 49aa cebf
-0.23838586203730833 -0.23287716871510014 -0.23896972645214454 -0.23920548842071052 -0.24361810424772057 -0.2400684352072244 -0.23733515713565165 -0.2492082857572128
-0.25517218596355357 -0.23405830757106028 -0.24337337965667452 -0.2191661647786816 -0.256613387178567 -0.24536459398385232 -0.24452210373171687 -0.2232930021011545
-0.22806234647709495 -0.24207535624009174 -0.2320345889357151 -0.2333293597064469 -0.24449212516083113 -0.2376519461543707 -0.23423782529676065 -0.23525423088739097
-0.2527206979744719 -0.25655376134468394 -0.23439335653203713 -0.24628260904039548 -0.2513101367912859 -0.22854038101902152 -0.2423706411800693 -0.2514476249018833
-0.2549892412267028 -0.23776236570040174 -0.2536931917787531 -0.23502934913536305 -0.22091551498340656 -0.2283330849035705 -0.25578299669309906 -0.25581871539606466
-0.24354357448895309 -0.2327202282814873 -0.23497929602359327 -0.24808568669307582 -0.23890606307054932 -0.23937586223259166 -0.25423671700365175 -0.23957169168329043
