Retweet/RetweetNetsV5/TrainNet_ep2.pt (torch, 23441 bytes, 6 tensors)

scale f8 [3]
000000 8c a4 9e f7 c8 41 e5 3f 9b 74 96 c9 4c 45 e5 3f
       0.6642803989717705 0.6647094666729062
000010 16 a2 e1 ab d3 39 e5 3f
       0.6633089406068986

weight f8 [112, 3]
000000 74 c0 0d aa b1 48 a7 3f 3e 29 30 c5 0c 7b c9 3f
       0.045476486214170914 0.19906768444372774
000010 87 c2 7c b2 71 79 b1 3f 18 00 e5 ad 1a d3 a3 3f
       0.06825934035874513 0.038719972350463816
000020 0d f9 da 13 4c 27 c3 3f 8e 1e 52 a7 ef 43 ae 3f
       0.14963675469875462 0.05911206166734671
000030 79 8b 31 06 8d f9 c2 bf d2 54 f2 5e 2f 84 aa bf
       -0.14824068834704088 -0.051789741840517
000040 67 39 d6 34 94 2c a0 bf 6e fb 9d dd 3c 26 d1 bf
       -0.031590110254103014 -0.2679588474492708
000050 53 d2 3b 72 a2 7c c1 bf df 8a f6 50 90 c5 a2 bf
       -0.1366160447866088 -0.03666354168242036
000060 bb 5f c4 43 ec a4 ad bf c2 77 cb 06 c8 c2 8f bf
       -0.05789888694033559 -0.015508234698639604
000070 39 d9 96 e5 1c 2f a0 3f 75 e5 9c 13 c1 fe d4 bf
       0.03160944273570227 -0.328048962739181
000080 25 3c a0 6f f0 ad d0 bf 8d 6d 7f d2 17 7c b7 bf
       -0.26061640644997147 -0.09173725976091003
000090 55 d1 81 26 d8 5a ab 3f 57 ba 66 78 91 b7 c5 3f
       0.05342746229226473 0.16966455821007528
0000a0 8c 81 89 e5 ea 3d b2 3f 22 fb 6f 46 10 15 80 3f
       0.07125728706296836 0.00785267558057751
0000b0 2d b4 da ed 02 0c c4 3f d9 08 d5 31 8e 13 93 3f
       0.1566165601156241 0.018629285613550237
0000c0 77 66 94 a4 fa 20 d3 bf 8c a8 23 ef bd ec ce bf
       -0.2988878829215546 -0.241599790351135
0000d0 01 be ad 62 44 44 b3 bf a6 63 dd eb 0f cd a9 bf
       -0.07526042374751542 -0.05039262537201887
0000e0 07 06 83 e3 79 03 a2 bf db 47 bf 98 d9 63 96 3f
       -0.035182770750463326 0.02186527247233259
0000f0 6a c1 de 87 4e 65 96 3f 66 80 9f f0 f6 9b c7 3f
       0.02187082962308421 0.1844471621434451
000100 e5 7e 0c a4 33 91 ae 3f 40 2e 3d cf 2e 9b b2 3f
       0.05970155122326818 0.0726804023699339
000110 35 0e e3 88 ea 14 bc 3f 35 7d 36 c1 e6 23 a8 3f
       0.10969415513960075 0.0471489058356788
000120 68 ff 36 60 56 80 d1 bf 11 29 aa 16 02 f0 ca bf
       -0.2734580936048503 -0.21044946772264742
000130 28 98 fa 27 aa 22 b1 bf fd f1 ef ca 25 22 bb bf
       -0.06693519092604616 -0.10598980145000066
000140 9e 5a d3 e6 05 9c ac 3f 06 b0 da e5 32 26 94 3f
       0.05587786143012362 0.019676966933431593
000150 1e 42 ed b7 3d b1 d2 bf ce 04 7a 12 7b ca cb bf
       -0.2920679374847469 -0.21711672212771876
000160 7e 32 41 7d 5d 31 ba bf 16 28 9e c5 e1 4a d3 bf
       -0.10231575305915361 -0.30144542978871536
000170 1f 06 b2 7f 6f 73 cf bf 8d f5 59 10 92 11 be bf
       -0.24571031317832223 -0.1174556054993074
000180 3b d6 bb 45 d5 ac 95 3f b7 50 00 d1 58 e3 62 3f
       0.021167118436059545 0.002305673093369344
000190 08 9c 4b bf 1c 34 b3 bf 71 67 aa e1 8d fa 8f 3f
       -0.07501392050072309 0.015614613007801844
0001a0 4b d8 30 91 8e 53 b6 bf 64 48 85 55 8f 93 b2 bf
       -0.08721247715661311 -0.07256408536821507
0001b0 ac 25 98 a5 f1 c4 94 3f 97 b1 b7 63 e1 dc be bf
       0.020282531482768526 -0.12055786785612664
0001c0 2f d2 5c 0d a8 81 c2 bf a4 05 15 6a b5 94 a7 3f
       -0.14458180096120674 0.046056431960561
0001d0 87 78 48 9b 33 26 c3 bf 33 cb 41 15 2e 81 b6 bf
       -0.14960331995184026 -0.08790863055200475
0001e0 38 73 52 fc b8 77 11 bf f3 45 6e f2 bc 76 c1 bf
       -6.663385927869754e-05 -0.13643609845580293
0001f0 75 c7 66 2d 8f 6d a5 bf 04 f7 62 f2 a1 07 b6 3f
       -0.04185149602143571 0.08605396430627016
000200 0a 3d 05 10 19 34 c3 bf 75 86 d7 40 79 c3 8a bf
       -0.15002740175484802 -0.013068148890798196
000210 f6 54 a7 cd 22 65 9c 3f c5 59 a9 ed 9b 60 94 3f
       0.027729553033926067 0.019899784451206565
000220 11 a3 b1 63 77 e1 ab bf 7d 10 db cc 51 e1 8b 3f
       -0.05445454685179219 0.013613356651497316
000230 b1 97 d9 8c d9 67 b3 bf 9a 5c 48 5f ad 1c ba bf
       -0.07580337227554314 -0.1020000798820199
000240 ff 29 b2 92 e0 30 a6 3f 2e db 4b ce 6e a3 c2 bf
       0.04334165373537146 -0.14561257432043234
000250 b1 ea 1b 84 0f 5c 91 bf 75 ec b5 ac b5 e0 a9 3f
       -0.016952745855614185 0.05054252370151683
000260 95 51 e0 21 0c 5f c8 bf 21 a2 d1 49 c2 ce ac bf
       -0.1904006162082054 -0.0562649455176294
000270 16 f2 99 7a 82 3c 85 3f 1f 76 c1 dd 62 8b a3 bf
       0.01036931931161526 -0.03817280728319993
000280 ae cc 5f 1a db a6 b1 bf 27 7a 11 1a 32 d6 b3 3f
       -0.06895226854230671 0.07748711716110589
000290 a8 6d 37 94 42 68 bf bf 57 c3 83 2e cc b0 bb bf
       -0.12268463247840222 -0.10816646705258158
0002a0 88 01 fa 8b e1 ae 9b 3f 5c 34 88 c1 f5 b0 c1 bf
       0.02703430573319701 -0.138212890146323
0002b0 46 0c 78 13 5c fb 8e bf c8 71 76 7b e5 a4 8e bf
       -0.015127868026871504 -0.014962952451974668
0002c0 d8 3e 00 14 8a 26 b5 bf 6a 54 90 d1 89 c9 ac bf
       -0.08261931408219014 -0.056225115615384194
0002d0 91 c3 75 7f d5 d1 b2 3f 49 47 75 ce 72 a1 c1 bf
       0.07351431237999707 -0.13773951607668725
0002e0 7c 3d 2f 61 c8 5e a4 bf 39 22 d9 03 06 ec c1 3f
       -0.0397856348641836 0.14001536548518503
0002f0 1d f6 41 2d 35 6f c9 bf a8 ed 5b 88 4d 1c a5 bf
       -0.19870629033896217 -0.04123155869998679
000300 70 b5 f8 f6 45 d1 ad 3f 99 0d 19 ff 28 0f b9 3f
       0.05823725356854481 0.09788757541632832
000310 5d 7d 02 5f a0 9b c1 3f 25 96 04 05 3c 4d ae 3f
       0.13756184233805416 0.05918300210241182
000320 45 2c 0d ed 15 9f b6 3f a5 74 05 60 90 c1 bb 3f
       0.08836495435132104 0.10842230171461383
000330 55 dd be dc 19 fa b0 3f b3 e6 c9 a4 e1 4e ac 3f
       0.06631623877807631 0.05528931747990153
000340 b8 14 ef 96 bc b6 c1 3f a0 6e 59 1a e5 98 b0 3f
       0.13838918084926433 0.06483299153608835
000350 d3 7d 19 e9 ed ec b0 3f 6a 48 06 54 d0 bc c4 3f
       0.06611525479228612 0.16201213934670317
000360 7d 9b 4e 65 db d7 aa 3f 59 41 16 89 8a b6 b5 3f
       0.052428108326515656 0.08481660696839323
000370 6a f1 72 d2 d1 d8 c1 3f 2c 80 5f b4 94 5c b2 3f
       0.1394293096144666 0.07172517207754997
000380 32 ba 2b cf 89 37 b0 3f ab dc fb 49 65 b8 c1 3f
       0.06334744747048474 0.13843980896465288
000390 a3 1d a4 99 61 6f a6 3f 03 5a c1 b8 55 f8 b1 3f
       0.04381852150441581 0.0701955390989966
0003a0 83 0d 8c 0e 84 20 bf 3f 61 52 f1 9b 13 f9 b4 3f
       0.12158990245011662 0.08192560727304389
0003b0 17 31 ae b3 6b 3e b3 3f 8b cd 9a 9d c4 1b bb 3f
       0.07517121445397766 0.10589245651026695
0003c0 1e 51 b9 0a 15 cb ad 3f 4f c8 6c 06 9d 2f b1 3f
       0.05819001918703946 0.06713277251108817
0003d0 0a 21 68 3c 1f 46 c2 3f 45 03 9e ba 82 c5 b4 3f
       0.14276495408581297 0.0811387734993448
0003e0 14 84 85 37 9d 76 b2 3f 8e 8e 16 e7 92 69 c2 3f
       0.07212240796572217 0.14384685786818746
0003f0 87 54 89 77 08 30 b0 3f ff 6d ea da 97 3d b2 3f
       0.06323292654390587 0.07125233740446645
000400 25 57 8f 9b 03 8d c2 3f 13 00 bc bb db b2 b3 3f
       0.14492840858172787 0.07694791158064644
000410 65 a3 97 04 2b ce aa 3f 8e f3 5f 92 e4 c0 c1 3f
       0.052354187307918555 0.13869912287910008
000420 fa 5d 9f 74 01 dd af 3f 03 b0 72 c2 ec 28 ac 3f
       0.062233014570377734 0.05499973176605979
000430 77 80 d0 86 a4 d4 c0 3f 26 6c de cf f1 4b b0 3f
       0.13148933966386142 0.06365882229731365
000440 68 0d 5d bc 78 a1 b1 3f a0 17 e4 fd 90 01 c2 3f
       0.06887011145322719 0.14067280194302345
000450 02 7d 11 e6 8c 6c af 3f a4 72 78 65 bb 2b af 3f
       0.06137504871798606 0.06088052381185108
000460 1f 03 a0 65 08 da c1 3f d9 82 8b af 65 f1 b4 3f
       0.1394663330284169 0.08180842910543208
000470 db 4e 34 2a 8d 7d b2 3f 0e 5a b2 f3 fa 91 c0 3f
       0.07222826271418674 0.1294549646306255
000480 3c bb 6d 38 a4 20 b2 3f b6 1d 8e cd 42 26 b1 3f
       0.07081056955005932 0.06699006575046593
000490 d7 4d 53 10 75 56 b0 3f 9a 1a 4f af a9 ad b3 3f
       0.06381923340386862 0.07686863451008677
0004a0 d7 c7 b2 37 4b 2e ad 3f 93 8f 95 e6 60 75 b1 3f
       0.05699381880675929 0.06819730405328377
0004b0 45 4c 7e 74 c3 d7 b3 3f 91 c0 d3 ba ba 27 b4 3f
       0.07751103967739066 0.07873122273645296
0004c0 ca 28 a5 3a d9 69 b1 3f 06 6a 9d 49 69 34 b3 3f
       0.06802137071386763 0.07501848265875574
0004d0 32 dc 13 32 46 59 b3 3f 15 98 68 a2 a1 37 ab 3f
       0.07558096621129165 0.05315880877996918
0004e0 03 b0 9f fd 8b 71 ae 3f 3e 08 6b 14 df c5 b3 3f
       0.05946004363053705 0.0772380280350555
0004f0 21 99 ef 58 3a b6 af 3f 6e f2 2e c4 fc 95 ae 3f
       0.061937163692890936 0.05973806280915005
000500 28 5d 42 6c ef 92 b0 3f 55 af 6e 02 46 8e b2 3f
       0.06474205391929344 0.07248342093833789
000510 a4 54 18 d4 03 97 ac 3f 59 c4 53 c8 3b 0f b5 3f
       0.05583965267229843 0.0822636951522936
000520 f5 0c 04 0b 55 01 b0 3f a7 45 87 6b 52 ff b3 3f
       0.0625203277486895 0.07811465382771719
000530 39 d8 e8 b5 9f c2 ad 3f d5 b2 7d 1a ff fa b0 3f
       0.05812548728538087 0.06632990261796164
000540 eb 49 c0 54 f5 67 b1 3f 62 1e 5c 59 82 15 b3 3f
       0.06799252814406713 0.07454695397984204
000550 e6 20 16 99 df a3 a9 3f b0 59 84 df e4 94 b0 3f
       0.05007838004809333 0.06477194268186426
000560 07 52 f7 3c 4b 83 a4 3f be 47 72 1c 63 5f b2 3f
       0.04006419295516044 0.07176799244396556
000570 40 5a 74 9e d5 91 b3 3f 5f 64 c1 94 e2 07 b4 3f
       0.07644400709646337 0.07824531680798107
000580 55 eb e2 a9 6a 7e ab 3f 51 b2 93 29 21 f7 b1 3f
       0.05369885753449092 0.0701771475321007
000590 12 98 cb 61 34 0b b2 3f 63 29 66 2f 3a 25 af 3f
       0.07048346889095594 0.06083089665033261
0005a0 53 e0 50 6f 0f f5 b2 3f 71 10 5a da 61 ad b3 3f
       0.07405182330774211 0.07686435299734896
0005b0 1f 6b 55 43 09 5a b1 3f 10 ca 66 7e db c8 b2 3f
       0.06778009313476872 0.07337734065985324
0005c0 45 d7 6d 4c 3c 71 b0 3f 0c 92 7d 8c 36 d7 aa 3f
       0.06422783723777765 0.05242319550487559
0005d0 1b 62 01 4b 2b 50 af 3f 9c ce 87 28 ec 92 b3 3f
       0.061158516794140826 0.07646060933603355
0005e0 c7 29 d1 5f ed 00 ae 3f 9d cb ad d2 48 1e b3 3f
       0.058600824304977865 0.07468085425879996
0005f0 6e 20 35 50 ec 9c b5 3f dd 68 52 f3 c8 ad ab 3f
       0.08442570646468692 0.05406024904478255
000600 3d 63 87 d5 17 a7 b4 3f f6 eb a9 30 e4 cc b2 3f
       0.08067463839632878 0.07343889415817259
000610 f8 49 e3 bc e5 96 bc 3f fa 68 7d 34 6c 2d ac 3f
       0.11167751180190766 0.05503404751535075
000620 8f 42 86 6b 0b 7d b9 3f 82 f8 ca 1f e7 9b c2 3f
       0.09956427931889265 0.14538277675996275
000630 86 4a 0e 38 15 33 a9 3f cd 27 90 3d ec 47 ad 3f
       0.04921785649562076 0.057189352526691196
000640 75 51 5f d0 c3 eb c3 3f e2 a0 c2 6c 15 af b3 3f
       0.15563247370176794 0.07689031510620084
000650 12 3d 8d f0 9c 42 b4 3f 2e 9e e4 88 d5 09 c2 3f
       0.07914143441052016 0.1409251135275879
000660 5c 58 3c 6e 02 a7 ad 3f 1f 6a c9 e5 08 b2 b3 3f
       0.057914806324490725 0.07693534479168605
000670 b6 df 8f f3 89 80 c2 3f 91 9d 19 95 5c 90 ad 3f
       0.14454769509006632 0.0577420169836912
000680 5b 86 0c 13 5a 14 b7 3f e3 49 38 16 91 b1 c2 3f
       0.09015429463445328 0.1460439070220466
000690 a1 8e 16 1a 25 39 a8 3f ef f6 a7 00 8d d6 b1 3f
       0.047310981211265764 0.06968003526705123
0006a0 94 a8 87 8c c3 be c0 3f 3e 90 3c 05 63 1c a6 3f
       0.13082165109455401 0.04318532408640906
0006b0 f3 57 6c a0 e7 67 b4 3f ec 2c b7 40 98 8a c2 3f
       0.07971046129782149 0.14485457572877836
0006c0 9f f3 10 87 26 13 ac 3f ae b0 da 8c e2 2d b3 3f
       0.054833606708121645 0.07491889895271939
0006d0 fc 64 f6 df 1c 88 bf 3f 2f e1 c7 b9 82 c4 b0 3f
       0.12317066638788171 0.06549851451552934
0006e0 9d 5b 27 b5 7d 42 a8 3f 1b 24 25 bc 3e b1 bc 3f
       0.0473822864184321 0.11207954495797916
0006f0 56 b7 e5 44 d8 17 b1 3f 68 39 7e a3 ac 69 af 3f
       0.06677009279311838 0.06135310645832953
000700 ba e7 c7 6d 5b cd c3 3f c5 30 bc dd f4 50 b3 3f
       0.15470450268167985 0.07545404828505571
000710 e8 38 2f 58 8f 4f b1 3f 48 32 2a 75 f5 66 c1 3f
       0.06762023833218544 0.13595455380381538
000720 35 08 83 0f 05 6c a7 3f 1c bf 76 4a a2 8a ad 3f
       0.04574600042680325 0.05769831809027279
000730 ba ab ba ae 5a e7 be 3f 0c 88 1c ca fb 86 ac 3f
       0.12071768537377539 0.055717342778976414
000740 95 83 99 10 57 93 b4 3f 70 64 7f f5 d4 39 c2 3f
       0.08037323146119342 0.14238988864125046
000750 20 d1 f7 b7 d0 f3 a3 3f e5 79 b9 3e 3e 3f b3 3f
       0.03896953817084836 0.07518376380310306
000760 f2 1a 05 4b 29 c8 bd 3f ca 48 af 64 d9 c1 b0 3f
       0.11633546906987727 0.0654579039394633
000770 4c 9f 3b 68 40 df b2 3f 0c e9 35 a9 1f c6 c2 3f
       0.07371904892681619 0.14667125475154597
000780 d9 4d a1 a3 94 cc c8 3f ba 19 00 3c 8b 4f c7 3f
       0.19374330510855378 0.1821149867029826
000790 1d ee 85 67 02 ea c2 3f 6d f6 5c 82 66 97 c7 3f
       0.14776639990655918 0.18430787434947452
0007a0 d3 60 f2 b3 a0 61 c7 3f 87 17 a3 05 c3 07 c5 3f
       0.18266686235870697 0.16429937148330628
0007b0 34 83 d6 e5 df 82 c9 3f fd df 82 07 e5 ac c5 3f
       0.1993064758544506 0.1693388258624963
0007c0 9b c6 0b 7e 81 6d c4 3f bb 47 ac 56 0c 66 c6 3f
       0.1595918527087193 0.17498926384047117
0007d0 e5 5d 95 f0 50 b3 c6 3f 61 87 31 58 60 7f c4 3f
       0.1773472952579446 0.16013721758195756
0007e0 d6 e5 e7 e6 63 e7 c8 3f b1 bf 38 99 68 8d c7 3f
       0.19456146979045624 0.1840029476311407
0007f0 4f c3 1c 68 7f 48 c2 3f 09 8e 6a ee 82 93 c8 3f
       0.14283745368586628 0.19200169221322508

bias f8 [112]
000000 90 73 6c 49 93 53 c1 3f 26 4d 09 ae 95 09 ba 3f
       0.13536301694048491 0.10170875071462557
000010 9e 69 27 a6 01 7b bd bf f8 72 08 81 54 c3 cd bf
       -0.11515817934506464 -0.23252350140037215
000020 ba 8e 1c 9f f3 12 b1 bf 7d 1a 7a 82 87 46 d1 bf
       -0.06669542917785068 -0.26992976896182325
000030 c4 3f 99 41 88 0f b6 3f 68 50 4d ff d4 a1 b9 3f
       0.08617450334099802 0.10012561066588577
000040 6f 06 df d4 e4 d0 d2 bf 3e fd 61 11 61 b1 a6 bf
       -0.2939998701877817 -0.04432204568092367
000050 23 41 85 a2 8f c3 c0 3f 7f 2c 4c 62 f1 fd bc 3f
       0.13096805034229772 0.11324986123888613
000060 e3 b2 7d ed ad 4e d2 bf b1 06 cf db ca 98 ae bf
       -0.28605220978242424 -0.05975946362697238
000070 f1 79 4b 1b 17 75 d2 bf ad ee da b0 53 a3 d3 bf
       -0.28839662232886015 -0.30684368392005973
000080 c0 df 26 ca 59 7c a1 3f 78 97 a6 69 4f 71 86 bf
       0.03415184586214037 -0.010958309566216448
000090 79 5c db d3 ca ff aa bf f8 ee 28 3f 54 d1 a4 bf
       -0.052732790337977904 -0.04065955420489148
0000a0 38 7b 56 be 54 89 b4 bf 72 97 78 7c eb 23 9d bf
       -0.08022050520820023 -0.028457335922346734
0000b0 63 d0 2b 7a 38 ee 8f 3f 43 d0 04 f3 d0 dc 46 bf
       0.015591088512771195 -0.0006977100620475591
0000c0 fb 9f 02 41 79 ba a3 bf 48 f2 3c ca 49 be ac bf
       -0.03853205603201101 -0.05613928407408203
0000d0 ad cb f7 95 f0 61 8d 3f d8 dd 7d d8 bd f3 86 bf
       0.014346961571367911 -0.011207087678243008
0000e0 60 a3 4f 94 7b df 96 bf b7 b6 66 36 3c 90 a3 bf
       -0.02233689396590266 -0.03820980228497944
0000f0 23 85 aa 0b b9 bf 98 bf fe 73 db 24 41 68 9b bf
       -0.02416886457161128 -0.02676488673647625
000100 11 be 7d ec 77 2f b2 3f 7c a5 3b f6 cb f6 b4 3f
       0.07103681110105976 0.08189081918285085
000110 4c a1 6b 94 57 67 b4 3f 70 21 74 7b 5e 9c b1 3f
       0.0797018754343572 0.06879225267414824
000120 0a 3e 58 f2 a0 f8 b2 3f 11 85 03 99 57 56 b1 3f
       0.07410627285593577 0.06772372708976017
000130 8d 57 94 5b 1d f9 b0 3f cc b1 6a 3f 02 4e b1 3f
       0.06630118833376582 0.0675965695215332
000140 20 94 ac ec 20 15 ac 3f 23 1a a0 2a c0 86 b6 3f
       0.054848698511968275 0.08799363175067092
000150 0a 27 81 b0 e3 7b b8 3f 01 71 46 de fc e6 b7 3f
       0.09564040240470831 0.09336834360732739
000160 55 97 86 dc 5c 3a ad 3f a5 21 17 15 16 5c b6 3f
       0.057085897369047935 0.08734262480641648
000170 5b eb 6a 69 1c b9 af 3f d4 64 ea ba ef 54 b3 3f
       0.06195915972553819 0.07551477731103101
000180 a0 0f ef 5a f4 1b af 3f 70 e7 9b bf 0d 16 b3 3f
       0.060760151005097685 0.07455526283220393
000190 03 60 bd df a6 5a b2 3f a8 ee ec ad b6 31 b2 3f
       0.07169573748012685 0.0710710692046016
0001a0 be 56 f9 a8 58 7d b5 3f 1a 85 c3 15 b0 8c ad 3f
       0.08394388318387322 0.05771398797674916
0001b0 2e eb 8e ba 46 b3 b4 3f af be ff fa 26 95 a7 3f
       0.08086053900380527 0.046059816493536736
0001c0 18 4d 7a a0 67 0d b1 3f e4 53 2a 3d a4 96 b5 3f
       0.0666107909003596 0.08432985776228424
0001d0 8e 68 ab dd c1 13 a8 3f b6 8c 2a 11 59 b9 ab 3f
       0.04702573615004822 0.05414846739338357
0001e0 4d b8 1e 2b ff f8 ad 3f 1f 61 71 b7 64 26 b2 3f
       0.058540319455787505 0.07089833715997827
0001f0 d0 3e a5 99 ee 3b b0 3f 71 d7 4c 10 9b 26 b2 3f
       0.0634144902335223 0.07090157649949248
000200 72 1e b4 97 e7 6c b4 3f bc 2d 76 fa b8 7a b5 3f
       0.07978675321293752 0.08390384783540744
000210 af d8 db 2c 32 9d b3 3f 24 66 f8 2d 12 ed b3 3f
       0.07661737055954874 0.07783616659471498
000220 84 30 d0 51 f5 06 b3 3f d2 6c 97 8d 1e 4b b1 3f
       0.07432492492097437 0.06755248028587182
000230 c3 3d 1c ab 54 ba b1 3f b2 e0 21 0a 38 bb b4 3f
       0.06924943139551147 0.08098173377391296
000240 3b b7 6a 6c ff 3e b1 3f eb 71 c0 71 aa ea b3 3f
       0.06736751934905964 0.07779946591512725
000250 51 cc 07 2f cf b4 b4 3f 1e 4b a6 b4 c4 b9 b8 3f
       0.0808839311428511 0.09658460054769732
000260 f0 eb 7e 97 ee 6c ac 3f f8 ca 5c 9f fe 2f b2 3f
       0.05551858519853414 0.07104483977017739
000270 22 63 11 8b 15 bf b1 3f fc 85 3d 66 06 ed b1 3f
       0.06932196278775085 0.07002296444036199
000280 9a a2 96 8f d8 a5 c7 3f ee cb 1e a0 3e 48 ca 3f
       0.18474871646073582 0.2053297311627768
000290 3c 64 f4 29 02 d0 c7 3f bf b0 77 10 86 dc c7 3f
       0.1860354142052375 0.186417348900596
0002a0 64 b2 08 db ee fa c7 3f b4 d1 5d af ae 0d ca 3f
       0.18734536833780446 0.20354255259338816
0002b0 19 56 9a be e8 d0 ca 3f 83 6d 5b d7 d4 28 c9 3f
       0.2095004015615565 0.1965585757778677
0002c0 73 76 f8 c6 16 fd c7 3f db 55 18 60 5c b1 c7 3f
       0.187411162522881 0.18510012333051304
0002d0 b9 12 32 a8 80 03 c8 3f 6c 84 ed 22 55 4f c8 3f
       0.18760688984561627 0.189921037726012
0002e0 d4 9a 59 ef e8 6e c8 3f c9 f8 e3 f5 2d 8d c8 3f
       0.19088470160496362 0.1918084574353485
0002f0 cb 3f 1f e5 33 6a c9 3f 76 15 a9 9e e8 fd c7 3f
       0.19855354964829383 0.18743617770284587
000300 ce b8 82 fb 31 19 cc bf 25 e7 a8 3a 5e d0 d3 bf
       -0.21951889782707784 -0.3095927784776101
000310 8a 87 1a c5 4b a5 e2 bf fa 80 a3 b3 bc fa e2 bf
       -0.5826777314834868 -0.5931075581138707
000320 18 56 9e a0 9a 87 e1 bf 21 04 7f de 83 b7 e1 bf
       -0.5478032242851354 -0.5536517472866117
000330 04 ce 1b 9d 1e 14 ca bf e9 78 33 0a aa ab d6 bf
       -0.20373900100058517 -0.35422755237767817
000340 02 72 c1 a4 e1 93 e2 bf 53 02 d0 aa a8 fd de bf
       -0.5805519311794003 -0.48423210793410937
000350 f6 31 52 ea 1b a3 d0 bf b5 fc ee df 6f 1b d5 bf
       -0.25995538599889245 -0.32979962223539455
000360 16 4c ac 0b 44 8e e2 bf 09 96 05 09 91 d0 df bf
       -0.5798664310444817 -0.4971048915961949
000370 d7 b4 6e c4 fe 11 e2 bf 23 88 27 b9 b1 3f e1 bf
       -0.564696677834628 -0.5390251747414861

weight f8 [112, 16]
000000 a5 7e 3e 8b 76 c5 99 bf 11 bd 51 87 0c 0a 94 bf
       -0.025167324303423517 -0.019569583663209992
000010 40 5f f9 6a 4c be 86 3f 39 b1 2c 80 7d 58 97 3f
       0.011105153097716092 0.022798500965266675
000020 31 f3 22 5c 61 10 8d 3f 89 12 6a 64 1a 57 95 3f
       0.014191399215968655 0.02084008443718458
000030 d5 5d 48 b6 60 63 98 bf f8 aa c3 4e a1 1c 9c bf
       -0.023816596151020015 -0.027452965195076978
000040 2d 48 49 31 d4 a7 8c 3f 99 b0 1c 75 cf 4d 81 bf
       0.01399198317918512 -0.008449192773319946
000050 b8 ee 1c 79 cd 80 81 bf 6c 0c 95 a5 b2 fa 73 bf
       -0.008546452768875099 -0.004877755965313129
000060 be 1b 0c c1 7a fc 8f 3f 76 b2 cf bf 75 4d 7a bf
       0.015618285194717415 -0.006421527822550224
000070 27 12 09 07 22 c9 a3 3f 2e 0b 5f 28 67 87 a6 3f
       0.038643897398774656 0.04400179260075841
000080 39 48 2c 6e 4b 07 aa bf 6f 85 98 67 ee 8d a8 bf
       -0.050836903761720405 -0.04795784964177129
000090 f3 00 51 0a 2b d2 9e bf ca 5f b6 18 4f 75 90 3f
       -0.030098602776207305 0.016072498210263388
0000a0 9b 77 aa ea fc 78 a2 bf 97 2e ba f6 d0 36 9f 3f
       -0.03607931484769652 0.03048254495528954
0000b0 11 1b 7c cc 5e f3 b1 bf 76 5b 45 f0 77 ee a3 bf
       -0.0701197861891212 -0.03892874534601891
0000c0 66 47 15 c3 ca 0f a4 3f 9c 77 f2 49 4b b6 96 bf
       0.039182983697755344 -0.0221797717937232
0000d0 fd fc 61 35 cd e7 b1 bf 2a f7 14 9c 74 17 a8 bf
       -0.06994326165476035 -0.047053951313939926
0000e0 b9 dc ed 21 86 0f 96 3f 15 6b 81 9d fb 6c a1 bf
       0.021543594189520763 -0.03403459832835246
0000f0 23 50 6e 87 bb 83 a3 3f 8c 73 14 bd 7e cf a4 3f
       0.038114414484113256 0.040645561772385624
000100 73 e9 ad 91 34 22 d2 bf 62 e2 1d eb 3e 39 d3 bf
       -0.28333772875307445 -0.3003690048276778
000110 4d c1 4b a8 2f c3 cd bf 89 5c 2d b8 6d fb b8 bf
       -0.23251910893987784 -0.09758649584306246
000120 85 2e f5 47 48 9a ce bf 25 cf 3d b3 48 b5 a2 bf
       -0.239083323608032 -0.03653933704381832
000130 54 ce b5 e1 06 88 d4 bf 37 19 5f 0c 75 38 d2 bf
       -0.32080242197046016 -0.2846958752455921
000140 3d eb d6 a9 97 a7 aa bf e1 3d 30 3d 58 ff cf bf
       -0.05205987880932248 -0.24998000133244516
000150 9f 56 5e d8 fe 35 d2 bf e5 41 bf d4 92 89 d1 bf
       -0.2845456231092189 -0.274021823654975
000160 bf 9a 13 c8 b9 e3 b8 bf 67 d3 4b 5f 19 48 d0 bf
       -0.09722481856042985 -0.25440058046597475
000170 41 da a9 9e 23 ac b2 bf 12 3b 6f 90 9b ad 9f bf
       -0.07293913482303883 -0.030935698214132286
000180 ed 09 4c 7a 3a e6 da bf 94 39 08 fb 45 d3 da bf
       -0.42030202811306944 -0.4191451026425963
000190 de 0a ee 6a 15 e1 d5 bf 8b f4 f1 50 2d 02 d1 bf
       -0.34186301653259743 -0.2657578745345936
0001a0 84 02 d1 2d 4b 59 d7 bf ee a2 28 0b 15 bf c7 bf
       -0.3648250529695718 -0.185518866013147
0001b0 16 8a f3 e2 8c 37 db bf 68 18 a9 21 6f 7f d9 bf
       -0.42526552355971725 -0.3984029606548405
0001c0 07 b6 26 28 f1 74 d0 bf ef 7e 14 64 d6 1b d8 bf
       -0.2571375743962964 -0.3766990640014986
0001d0 4e b9 dd 14 19 f2 da bf 82 da fb 05 ef 6e d8 bf
       -0.4210264877100557 -0.381770854800756
0001e0 56 f6 93 de 40 0e d2 bf 8e b8 53 d7 64 b5 d7 bf
       -0.2821199582684576 -0.3704464056780886
0001f0 fa 13 02 4c e2 ff cd bf 77 2c 0d 57 41 e6 ca bf
       -0.23437145911535123 -0.2101518321090656
000200 28 f0 6e f1 6b 16 d0 bf 85 9a 69 28 80 3d d1 bf
       -0.25136850907779484 -0.2693786997464616
000210 5c f2 04 de 0f 0d ca bf 7e 30 2f 73 56 4a b5 bf
       -0.20352362004077207 -0.08316555320851823
000220 be 22 89 60 a4 f0 cc bf 7b b7 a7 d7 74 22 9d bf
       -0.22609381402641832 -0.0284517532945112
000230 b3 ee aa 1a c0 80 d1 bf 0c 8e 06 e2 08 fc d0 bf
       -0.27348330120342296 -0.26538297722638116
000240 43 57 f1 12 0c 56 b1 bf 33 23 36 b1 b2 1d cb bf
       -0.06771922552556213 -0.21184381153968843
000250 c9 c1 2b ac ce 6e d1 bf dd 2d f5 cf 5e d3 d0 bf
       -0.2723881417614647 -0.26290102299091506
000260 78 6f 37 e6 b5 08 b6 bf 30 69 73 ea 99 8b cc bf
       -0.08607041235467061 -0.22301029155534868
000270 da 31 34 23 51 4c a2 bf 31 25 b3 4b 7d d9 9c bf
       -0.035738502070760084 -0.028173406358097345
000280 c7 56 3b 7a bc 53 db bf 04 7e ac 4a 02 46 db bf
       -0.4269858544988491 -0.42614800732005187
000290 b8 94 5e 3a 95 52 d7 bf 6e bb b8 e2 98 69 d3 bf
       -0.3644154615415789 -0.30332014218122694
0002a0 3c 92 6a ba 56 fd d7 bf f1 b0 c3 af dd cd d0 bf
       -0.3748375721427555 -0.26256506123060236
0002b0 2a 2a e2 3c 81 ef db bf b3 c4 3e 98 1f 98 d9 bf
       -0.436493215042591 -0.39990987651533344
0002c0 2d 09 56 f8 6e 6d d1 bf 55 82 88 98 4e 7e d8 bf
       -0.27230428935594625 -0.3827091683943185
0002d0 0b 26 64 e4 38 6c db bf dd 4d fe 74 f5 fc d9 bf
       -0.4284803610213152 -0.40606438088545166
0002e0 b3 54 85 0d 31 96 d3 bf b0 29 07 f4 1a d1 d7 bf
       -0.3060419685401243 -0.3721377738080731
0002f0 3d f5 d9 88 1b 84 d0 bf 32 1d 16 99 89 a3 d1 bf
       -0.25806320537943234 -0.27560653638689125
000300 a7 c1 16 34 3b 67 80 bf 8e 71 ab 64 b8 65 30 3f
       -0.008009398009421199 0.00025020362651930687
000310 ba 75 75 d0 91 e4 32 bf 43 05 ad f7 b3 ea 96 3f
       -0.0002882820121693181 0.022379695884642514
000320 77 02 c1 03 45 6b 6f bf 3c ae 8a a5 7d 8f 96 3f
       -0.0038353298132565677 0.022031748989929975
000330 0b 68 ea e8 0e 87 87 bf a7 8b 2c 90 b2 9d 81 bf
       -0.011488071902295635 -0.00860156538471364
000340 2a fe f8 97 7f 6a a3 3f 18 77 1b d4 b8 6d 7a 3f
       0.03792189340719816 0.006452295290470443
000350 a1 07 c9 65 d6 fb 69 bf 60 80 50 fd 54 80 06 bf
       -0.0031718432858562494 -4.291781775855939e-05
000360 0d b6 0b 8f 8e 8d 8d 3f 7a ec 45 1a 31 64 96 bf
       0.014430154552850483 -0.021866576412759
000370 66 3b 1d 00 56 9c 93 3f 17 28 e3 08 c6 80 a5 3f
       0.019151061779946764 0.0419980893944542
000380 12 12 56 a5 4f a0 b9 bf 6d 8e 3c d6 d6 e0 c0 bf
       -0.1001024035122742 -0.1318615480496307
000390 a1 08 34 60 94 d1 a4 bf 89 84 82 77 4b 9c 95 3f
       -0.040661465400277715 0.02110402981691498
0003a0 9e a4 9f 6e cb 3b b5 bf 53 ca 05 54 54 57 aa 3f
       -0.0829436440541422 0.05144752050081949
0003b0 2f b0 7d 55 e6 3a bf bf 8d 47 e7 31 74 75 b6 bf
       -0.12199248873884082 -0.08772970407815546
0003c0 bc 41 f0 79 ae d2 a4 3f ba 8f ac 9f 3c f5 b1 bf
       0.04066987265116803 -0.07014826677601507
0003d0 a5 7d 7d 37 5e b4 bd bf f7 23 3c 82 82 d6 b9 bf
       -0.1160334477876775 -0.10092940978587693
0003e0 92 c7 16 4a 20 e9 93 3f ff f0 ac 81 b3 cf b7 bf
       0.01944399311259521 -0.0930130187597946
0003f0 a5 c0 15 5a 16 f8 a4 3f 56 9f 9d c9 d6 70 af 3f
       0.040955255982113394 0.061407768355649026
000400 92 5b f8 d0 66 c4 da bf 68 f5 52 87 fb 5f da bf
       -0.4182374039386839 -0.41210830893745376
000410 ec 4a 9b c2 cc 9e d6 bf fe 2d e2 4e 0c 3e d3 bf
       -0.3534423733191676 -0.30066211417644684
000420 5b 29 04 c3 c1 ac d7 bf f9 b5 a2 1b 77 cd d3 bf
       -0.36991924328380826 -0.30941560457981115
000430 44 05 0f 42 0b 9f dc bf b8 58 80 4a e6 3f d9 bf
       -0.44720727397005455 -0.39452512050173594
000440 13 8b 3f 09 05 aa d1 bf 5f 30 6a 31 26 7a d7 bf
       -0.2760021772684677 -0.36683039498962516
000450 90 5e c4 38 ea 00 da bf 5f eb f6 2a 9c 39 da bf
       -0.4063058428159616 -0.4097662372184256
000460 f1 cf e0 3a fe 56 d2 bf 28 59 7c 6c fe a0 d7 bf
       -0.2865596365911634 -0.3692012843543062
000470 80 31 51 74 5a c5 d1 bf 56 55 9c c9 9c bf d1 bf
       -0.2776704917821675 -0.27732009590666473
000480 69 e5 d9 a2 65 bc d1 bf 83 31 cc a3 d1 86 d1 bf
       -0.27712384131844786 -0.27385369296896317
000490 0d 14 e1 dd d4 6f ca bf 66 51 7f eb 61 6b b6 bf
       -0.20653782686181935 -0.08757602691122698
0004a0 73 df 9a f8 9d 9e ce bf 32 b9 70 66 57 bf a1 bf
       -0.2392156089679208 -0.03466294408313998
0004b0 98 a2 38 51 21 c5 d1 bf 7e a0 c3 ca a4 ac cf bf
       -0.2776568692375263 -0.24745616818040966
0004c0 c7 a6 5d 3e 16 d9 a9 bf 6d 4e 60 53 a9 03 cb bf
       -0.05048436652471149 -0.21104923792937616
0004d0 9e cd 59 4d 54 47 d0 bf fc 3f fb 22 d0 b5 d0 bf
       -0.2543535952929349 -0.2610969869247126
0004e0 8a ef ea 34 4f 63 b3 bf 61 07 24 10 27 69 cc bf
       -0.075734091204991 -0.22195900238153413
0004f0 91 96 73 c9 de 1f a7 bf 06 07 b3 ec 1c 86 a7 bf
       -0.04516502579808191 -0.04594507588764256
000500 2f df 6e b3 d1 82 ac bf 3d ce b2 03 9b 97 b1 bf
       -0.0556855708632028 -0.06871956672949238
000510 d4 08 bf 5c 44 f2 71 3f 56 6c 3e 2a 46 6b 7e 3f
       0.004381434478945862 0.007426523286905148
000520 08 e3 bc f0 a9 14 a0 bf 93 c2 2e 83 1c 38 a8 3f
       -0.03140765250868155 0.047303095830448026
000530 29 57 03 15 c7 38 b1 bf e3 d8 2f a6 c2 8e a3 bf
       -0.06727260840429196 -0.03819855002068253
000540 fa 98 72 06 2e 9b 9a 3f 3f e2 70 89 87 cc 97 bf
       0.025982588904889227 -0.023241155399065013
000550 f2 33 69 d8 16 1e af bf c6 9f 33 c1 c3 25 a6 bf
       -0.06077643768058029 -0.04325687154215489
000560 b4 15 29 88 d8 0c a1 3f d0 73 d7 da f9 a7 a0 bf
       0.033301130887177705 -0.03253155514150985
000570 70 e4 c8 23 b9 7f a0 3f 6e fa 84 9f 68 18 a4 3f
       0.032224450701001994 0.039248723480785994
000580 62 f4 4a 0a 41 68 b6 bf fc 03 c8 b2 d8 75 b4 bf
       -0.08752829076088767 -0.07992319454935165
000590 34 c6 33 b5 87 30 a0 bf b9 b9 4c 5a bc bc 9d 3f
       -0.031620255345739784 0.02904028226037678
0005a0 d6 42 d4 76 df 3f a8 bf 35 0e da e6 61 5f a9 3f
       -0.047362311606894344 0.049555835180424536
0005b0 35 55 91 30 5e 17 b9 bf c1 a7 67 45 b6 fc b3 bf
       -0.09801281629309673 -0.07807482904868747
0005c0 d3 d8 12 56 69 46 a2 3f f5 d7 bc 2a e2 17 a8 bf
       0.035693446881326495 -0.047057216374398005
0005d0 8a 15 15 03 94 27 b5 bf 62 45 15 77 ee ad b4 bf
       -0.0826351649785321 -0.08077898413946152
0005e0 5d 30 3a 0c 06 e2 9b 3f 74 46 50 75 70 fc aa bf
       0.027229399200720972 -0.052707208939080014
0005f0 47 a9 f4 fe 05 87 a5 3f 7e fd 69 50 d3 83 99 3f
       0.04204577195408148 0.024916936667521032
000600 f6 96 35 59 5f 29 da bf 2c b3 a9 76 bd aa d9 bf
       -0.40877517425393195 -0.4010461481873786
000610 1f 8b 7d b5 36 c7 d5 bf 0a d9 35 26 6d 39 d2 bf
       -0.34028403972313187 -0.2847550271175271
000620 8c 50 5b 71 f7 0a d7 bf 11 63 3a b6 a0 75 cb bf
       -0.36004434652318973 -0.2145272149835127
000630 ba 76 41 e6 61 a8 da bf cb b7 9a c6 a6 4e d9 bf
       -0.41652724729452084 -0.3954255046363612
000640 e9 08 1d f0 4b 87 d1 bf 91 3b 8e ed df 51 d5 bf
       -0.27388285111022853 -0.3331222362402793
000650 9a 1a 86 66 07 62 da bf da c8 b1 ee c4 65 d8 bf
       -0.4122332097253235 -0.3812115031243032
000660 37 de a3 8c a8 71 d2 bf 36 4f 84 b2 d6 8f d6 bf
       -0.2881871579588479 -0.3525292151764349
000670 6e d9 fd 34 d6 ae d0 bf 79 ac cd c4 5b 23 cd bf
       -0.2606711881157001 -0.22764155492345475
000680 cd 59 bf 92 f8 44 cd bf f1 6d ba 52 42 c9 cc bf
       -0.2286673275509216 -0.22489193953957412
000690 ed 2e 0d 5e f0 1c c4 bf 30 93 22 f3 d0 c7 aa bf
       -0.15713314621313348 -0.05230572669942146
0006a0 2f 82 ce 82 4c ea c6 bf 9a 41 f0 da 62 c9 99 3f
       -0.17902523409886004 0.02518228970808565
0006b0 46 93 79 06 19 77 d0 bf 1a 3f a4 77 66 16 cd bf
       -0.2572691500884513 -0.22724610177874
0006c0 40 7c 06 20 4b a9 7f 3f 1d 1c 7a 0d 93 71 c6 bf
       0.007729810197274978 -0.17534101636940216
0006d0 d9 40 12 14 5f 26 cd bf 8f 82 69 c7 49 33 cb bf
       -0.22773350219768565 -0.21250269162102994
0006e0 a8 51 62 44 23 06 a7 bf 89 53 52 69 33 b4 c7 bf
       -0.044968702409423245 -0.18518679278045294
0006f0 d4 5a c0 cf b4 46 77 3f eb d7 05 7a 37 40 80 3f
       0.005682665152582717 0.007934983645764468
000700 c7 71 65 3d 7f 28 db bf 79 3b 97 4e d4 45 da bf
       -0.4243467425892757 -0.4105120437133603
000710 1b 7d 3c 99 dd d7 d6 bf bc 4c 1d 90 fd 75 d2 bf
       -0.35692539181214195 -0.2884515673988053
000720 7f 89 d6 5d 83 a4 d7 bf 8a 00 46 98 3b d9 d2 bf
       -0.36941608585234315 -0.2945088374181145
000730 33 1f 7f ac 27 36 db bf 4a e6 b9 80 af 69 d9 bf
       -0.42518035741203447 -0.397075534543181
000740 41 79 53 fd f6 17 d1 bf d1 79 b5 d1 53 f8 d6 bf
       -0.2670876954924957 -0.3589067027986888
000750 b6 be 8c af f9 4c da bf 4b 1f bf 9b 78 a9 d9 bf
       -0.41094820159467405 -0.4009686966860399
000760 d4 31 fd 24 f3 6e d2 bf 60 0c 3b 5f c7 72 d7 bf
       -0.2880218373509511 -0.3663805418002024
000770 69 0d 2d 31 bd cf d0 bf 08 a0 52 09 42 fa d3 bf
       -0.26267938425390597 -0.3121495333712123
000780 71 0f ba 1b a3 cb da bf 74 64 c5 2a 95 0f da bf
       -0.41867902476973656 -0.4072010915456936
000790 c7 3d 65 f7 ed 2a d7 bf c1 a7 96 51 89 18 d3 bf
       -0.36199521217073677 -0.2983725830805462
0007a0 52 49 fb 54 bb 43 d7 bf 16 ed cd 44 b7 b6 d0 bf
       -0.3635090188883129 -0.2611520931165655
0007b0 7b 5c b8 80 ad 8b da bf 8a 41 1a 6b c4 a9 d9 bf
       -0.41477525301292645 -0.4009867711947882
0007c0 b0 15 6d 0b 57 2c d1 bf 6c b4 22 ec bd 99 d7 bf
       -0.26833129993277804 -0.36875865993608303
0007d0 a8 64 9f 15 6a b8 da bf 08 af 5a dc 80 87 d9 bf
       -0.4175057612570279 -0.39889546889274685
0007e0 d9 8c c5 72 3a 4f d3 bf 56 33 19 35 4a 8c d8 bf
       -0.3017107125107948 -0.38356261430162897
0007f0 26 70 d8 0f d5 1c d2 bf dd 3f 70 f9 34 55 cf bf
       -0.2830097822895844 -0.24478780917752277

bias f8 [112]
000000 8f 73 6c a1 b8 69 c1 3f 24 4d 09 2d 85 98 b8 3f
       0.13603885538114155 0.0960772738410936
000010 a0 69 27 58 19 c9 bd bf f8 72 08 d9 d2 1b ca bf
       -0.11634977724262408 -0.20397410962404883
000020 6a 1d 39 02 f8 17 a7 bf 7d 1a 7a ea 58 46 d1 bf
       -0.04510474230897439 -0.26991866014615323
000030 c0 3f 99 6d ec c8 b9 3f 6c 50 4d 87 33 94 b7 3f
       0.10072210002658633 0.09210512212058725
000040 71 06 5f 8e 1b 17 d3 bf 9a fe b0 6c 71 4d b1 bf
       -0.29828537848889086 -0.06758793738935723
000050 24 41 85 a2 4c bd c0 3f 81 2c 4c be 5e 3e b6 3f
       0.13077695785114785 0.08688919206558589
000060 e5 b2 9d 48 28 86 d1 bf a1 06 cf 93 47 fa aa bf
       -0.27381331530959435 -0.05269073180489881
000070 ef 79 4b 9e ba 9d d2 bf ab ee 5a 80 98 ee d2 bf
       -0.29087701281051087 -0.29581272635162276
000080 7e fe 36 91 29 50 78 3f 64 97 a6 e9 a1 b2 85 bf
       0.005935823795368498 -0.010594620650248472
000090 7a 5c db 63 c5 97 aa bf fa ee 28 1f a3 f8 a8 bf
       -0.05193917125659993 -0.04877195124978857
0000a0 71 f6 ac 04 1f ad aa bf 6b 2f f1 28 c8 09 8d bf
       -0.05210205967021587 -0.014178813695387501
0000b0 2b e8 15 10 b7 e7 92 3f ff 4c 30 77 d3 74 86 bf
       0.018462047917161478 -0.010965015482759187
0000c0 fa 3f 05 7e 0c e7 98 bf 49 f2 3c 54 9a a0 ac bf
       -0.024318881217652667 -0.055912802489249964
0000d0 bb cb f7 55 2c 7e 8a 3f b1 11 11 bc 5d a0 5c 3f
       0.012935968755277352 0.0017472186448382716
0000e0 c4 d1 27 1e 07 ea a0 bf b5 b6 66 5a 49 a9 a2 bf
       -0.033035490447136634 -0.0364478037694033
0000f0 bb 09 55 87 a5 9b 89 bf c8 73 5b 6f 7f 02 90 bf
       -0.012503903572569244 -0.01563452832384707
000100 11 be 7d 9b 67 86 b4 3f 70 a5 3b 93 11 43 b2 3f
       0.08017585321589872 0.07133588642650124
000110 4c a1 6b b2 4a 33 b4 3f 7b 21 74 93 46 61 b6 3f
       0.07890765052764442 0.08742180919592173
000120 16 3e 58 e7 c3 7f b1 3f 17 85 03 0f b2 45 b2 3f
       0.06835579298080349 0.07137596956774349
000130 9c 57 94 ab 15 85 b3 3f be b1 6a ae 1e 33 b6 3f
       0.07624946059180931 0.08671752699110066
000140 14 4a 56 95 3a 6e b0 3f 21 1a a0 aa de 9f ba 3f
       0.0641819586365176 0.10400191941889904
000150 08 27 81 48 10 81 b7 3f 01 71 46 f2 7c 7a b6 3f
       0.09181310434464873 0.08780651965065901
000160 b1 4b 43 2b 21 bf b0 3f a7 21 17 49 08 a2 b8 3f
       0.06541640573713782 0.09622241768295813
000170 a6 75 35 de 2c 16 b1 3f c9 64 ea 58 c8 ae b1 3f
       0.0667446177007692 0.06907322092810654
000180 ca 87 77 41 b6 6f b4 3f 6f e7 9b 65 f9 ab b4 3f
       0.07982958887399075 0.08074911814392548
000190 25 c0 7a 6a 59 17 ac 3f a8 ee 0c b5 e2 d9 b3 3f
       0.05486564087675586 0.07754342003039005
0001a0 78 ad f2 91 51 70 af 3f 9c c2 e1 b6 01 27 b5 3f
       0.06140379816619207 0.08262644495858712
0001b0 7b d6 1d c9 e3 40 af 3f 4f df 7f 5f 11 81 b2 3f
       0.06104194479023036 0.07228191930323401
0001c0 1f 4d a2 35 a9 3b b0 3f ee a7 54 0a b1 a0 a9 3f
       0.06341035422729079 0.05005410433871292
0001d0 46 b4 d5 8a 8d 23 b4 3f b6 8c 2a d1 e4 c3 ab 3f
       0.07866749419709249 0.05422892621324975
0001e0 32 5c 8f 71 8b 56 b0 3f 58 c2 e2 b3 0b 83 a8 3f
       0.0638205673452468 0.04787479945060075
0001f0 cb 3e a5 03 4e db b3 3f 71 d7 4c 60 ed 3e b1 3f
       0.07756507481576162 0.06736644364431556
000200 79 1e 34 27 af dd b2 3f ba 2d 76 eb 45 d9 b3 3f
       0.07369513232344528 0.07753407476973609
000210 b5 d8 db ae 48 b5 b4 3f 26 66 38 a8 14 02 b4 3f
       0.08089117306721756 0.07815674883786325
000220 81 30 d0 29 37 f4 b6 3f d1 6c 97 3d a1 74 b1 3f
       0.08966393252211625 0.0681858802194484
000230 76 7b 38 80 c3 aa aa 3f b2 e0 21 7a 50 03 b4 3f
       0.05208407345002446 0.07817557317491966
000240 48 b7 ea a6 5d 49 b0 3f ed 71 c0 70 b1 77 b0 3f
       0.06361947369688636 0.06432637217262256
000250 55 cc 47 0f 7e a9 b3 3f 1e 4b a6 f6 6f 7e b5 3f
       0.07680499909456391 0.0839605309650264
000260 f1 eb 7e cf e0 a5 aa 3f fd ca 5c 03 6f a9 b1 3f
       0.052046799973559994 0.06899160225001917
000270 23 c6 22 ab 3e b2 ae 3f 00 86 3d c0 af 2e b2 3f
       0.05995364989338394 0.07102487986914952
000280 9c a2 16 cb a9 28 c7 3f ee cb 9e 4f 5a 61 c8 3f
       0.18092844406534858 0.1904709709902756
000290 3c 64 f4 76 a4 c0 c7 3f c1 b0 77 c0 f6 56 cc 3f
       0.18556648071606385 0.2214039268286623
0002a0 64 b2 68 fb ca 0a c8 3f b4 d1 5d 6d 71 fc c6 3f
       0.1878293731291648 0.1795789512649556
0002b0 1b 56 9a 40 ac f8 c9 3f 83 6d 5b f3 62 39 c9 3f
       0.2029013934558613 0.19706379778549996
0002c0 73 76 f8 8c d7 52 c6 3f df 55 18 bd d2 c8 c6 3f
       0.17440313704803465 0.17800363763005486
0002d0 b9 12 32 9c 86 ef cb 3f 6b 84 6d 6e e9 9e c8 3f
       0.21824724795091813 0.19234960453016767
0002e0 d2 9a f9 5a ab b7 c9 3f c9 f8 63 c2 9b ca c9 3f
       0.20091764394893247 0.20149561874126778
0002f0 cd 3f 1f d4 90 8d c7 3f 76 15 c9 8d 9f b3 c8 3f
       0.18400774343035523 0.19298166678542444
000300 ce b8 82 4d 61 14 cb bf 27 e7 68 06 e2 28 d5 bf
       -0.2115594509572873 -0.33062029481844707
000310 8d 87 62 ac f4 5a e2 bf fc 80 23 b9 0a 10 e3 bf
       -0.5736029974834637 -0.5957082382192591
000320 18 56 5e 19 43 3e e1 bf 21 04 ff c9 ca a6 e1 bf
       -0.5388503547171153 -0.5516103692281186
000330 04 ce 1b ac 5a fa c9 bf ea 78 b3 54 df 39 d6 bf
       -0.20295270351162753 -0.3472822501334024
000340 02 72 01 59 55 fb e2 bf 51 02 d0 a4 21 c0 dd bf
       -0.5931803453818818 -0.4648517713067451
000350 f8 31 52 60 47 9c d2 bf b5 fc 6e ac 44 1f d5 bf
       -0.29078850180010773 -0.3300334628983806
000360 14 4c ec b1 5b 02 e3 bf 09 96 05 7d 62 6b df bf
       -0.5940378642138762 -0.4909292431751458
000370 d5 b4 ae 82 57 69 e2 bf 23 88 27 04 1e cb e0 bf
       -0.5753591110602893 -0.5247945862904583

weight f8 [3, 16]
000000 6b 11 a4 58 9b 71 d0 bf 63 50 66 c7 07 1f d0 bf
       -0.25693401008927336 -0.25189394447921226
000010 0b b3 2d 4f 57 8b d0 bf 71 31 b8 e6 c5 82 d0 bf
       -0.25850470287586863 -0.2579817536468659
000020 e0 41 93 d2 b0 c5 d0 bf c0 09 a2 70 23 8e d0 bf
       -0.26206608356463157 -0.25867544173538803
000030 e0 61 0a d9 99 77 d0 bf 36 df fa 73 73 26 d1 bf
       -0.2572998637711219 -0.2679718620888595
000040 27 9b 26 45 13 b9 d1 bf e7 18 5d 4c d3 2d d0 bf
       -0.2769210982609586 -0.252796959470642
000050 e6 e3 a1 15 7a c3 d0 bf 11 2e 88 49 13 6d ce bf
       -0.2619309626821277 -0.23770371523311032
000060 08 22 b9 8f 56 d1 d1 bf 15 51 b4 db 12 ec d0 bf
       -0.2784019855066906 -0.2644087930250561
000070 03 ed 8c a4 c8 fe d0 bf ef 7c 47 5c 90 05 cf bf
       -0.2655507666529077 -0.2423572969991947
000080 9b 74 6b 8d 96 93 cf bf 38 67 14 8d 2f b7 d0 bf
       -0.24669153123150953 -0.2611807706576772
000090 2d c7 22 fe e0 1b d0 bf d3 77 d1 49 c5 24 d0 bf
       -0.25170159166292444 -0.25224430283367133
0000a0 7e fb bf b1 cc d5 d0 bf a1 b1 1f eb 23 69 d0 bf
       -0.2630492912139103 -0.2564172550326252
0000b0 fe f8 32 b6 5c 46 d0 bf 2a fd 76 91 4e 43 d0 bf
       -0.25429456513292326 -0.2541080875925724
0000c0 51 6f 68 c5 11 94 d1 bf f0 ee 30 56 70 a0 d1 bf
       -0.2746624400913236 -0.2754174081526193
0000d0 16 97 e2 eb b0 31 d0 bf a4 7b 95 79 4e f4 d0 bf
       -0.2530329040113072 -0.26491128800801733
0000e0 22 60 87 27 86 7d d1 bf a8 98 13 c1 6e b4 cf bf
       -0.2732863794349233 -0.24769386699262452
0000f0 8d 68 0b a1 92 de d0 bf e4 6b cb 40 0a 53 d1 bf
       -0.26358476378448686 -0.2706933624992287
000100 df 6e ef 9b f8 8d d1 bf 4d d7 78 f8 a2 7b d0 bf
       -0.27429023006491876 -0.25754617943618
000110 c5 c0 79 57 58 87 d1 bf b1 88 88 25 0b 47 d0 bf
       -0.2738858083967098 -0.254336153653763
000120 d8 1b 42 56 d0 b8 ce bf e9 9d fa c9 8f aa cf bf
       -0.2400150700743484 -0.24739262926344388
000130 c7 40 ac ae 52 b3 d1 bf 92 4e cd e2 df 9e d1 bf
       -0.2765700059690172 -0.2753219332564437
000140 fa 30 2d c6 dc 03 d1 bf ee ab e4 09 de 22 d0 bf
       -0.26586074212242716 -0.25212813345086615
000150 f3 9b 55 38 2f 46 d0 bf 52 c1 40 3b 80 1c d1 bf
       -0.2542837190762263 -0.2673645571367348
000160 06 4d b2 8d 18 b9 d0 bf 78 36 1c 05 25 95 d0 bf
       -0.26129735791728625 -0.2591030645279271
000170 0e 2c a1 4d 07 a7 d1 bf f6 f7 b5 12 57 95 d0 bf
       -0.2758196123219826 -0.2591149981234361
