Retweet/RetweetNetsV5/TrainNet_ep0.pt (torch, 23441 bytes, 6 tensors)

scale f8 [3]
0	0x3fe8e03f50c44d74	0.7773739411808678
1	0x3fe8e4668b7551c5	0.7778809284014235
2	0x3fe8e8be96de23a4	0.7784111925731065

weight f8 [112, 3]
0	0x3fa8ba2ff6221931	0.04829549674564005
1	0x3fb61d38b16e81d8	0.08638338405444956
2	0x3fa8924fe7176c8b	0.04799127288762247
3	0x3fa73d73b8abd8fb	0.04539071683204728
4	0x3fb2976bfe175f43	0.07262301400566877
5	0x3fa99dc27e54e937	0.05003173629889306
6	0x3fa1a5537d9496cf	0.034464463309900155
7	0x3fb283dc7f1d052c	0.07232454398492355
8	0x3f9695a4a92e2e13	0.02205521853060872
9	0x3fa5fcd6de0f6032	0.0429446359700595
10	0x3fb93d4d8c36b8f0	0.09859165833652006
11	0x3fa6d42f40b44e85	0.04458758988235182
12	0x3fac7989b720ea6d	0.0556147609754206
13	0x3fad87f6a2ee6e27	0.0576779436007338
14	0x3fa8c0b3e957b660	0.048345205530364366
15	0x3fa586458f9b2cb6	0.042040036945388534
16	0x3fb0e42a4026ba96	0.06598152223771545
17	0x3fae2c3c6ff97572	0.0589312445342597
18	0x3fac2b77429e9748	0.05501911819673794
19	0x3fb205bfd0462294	0.07040022692502595
20	0x3fa9c8d567b7ee14	0.050360363875338404
21	0x3fa697b756d35536	0.04412625250703643
22	0x3fb6ad6200713f8c	0.08858311186599915
23	0x3fa036c177d0db9d	0.03166775310130918
24	0x3fa5fa60ad3acfde	0.04292585482235699
25	0x3fb1a4370689621a	0.06891197118364581
26	0x3fb1b191878a8671	0.06911572989567973
27	0x3fa155e283e65cc2	0.03385837421517969
28	0x3fb34de0d55fe5b4	0.07540707787838735
29	0x3fa48e3a9c33cba8	0.04014762074248007
30	0x3fa634b733d74250	0.043370938375691837
31	0x3fb474821ec343de	0.07990277529758269
32	0x3fa6e8af19fd5047	0.04474398796324457
33	0x3facd4e9da41ba35	0.05631190099017084
34	0x3fb0928bc3426d90	0.06473611371114019
35	0x3fac77509da202f4	0.05559780048588961
36	0x3fa405a15726910c	0.03910545529223172
37	0x3fb2c8f598ff9f0b	0.07337889657321399
38	0x3fa2f68a28b3945c	0.03703719851345319
39	0x3fa62ef3e2c7b85f	0.043326970513462675
40	0x3fb89549a963cec6	0.09602795014853446
41	0x3fa75716ecf37a3e	0.04558631556004798
42	0x3fa9b7d58faec4dd	0.05023066882075409
43	0x3fb90ae06dd5f49a	0.09782221490418622
44	0x3fa9abbb16e01588	0.05013832716216898
45	0x3fac9d9c0d36c86a	0.05588996564201028
46	0x3fb8b430cff1248d	0.09649949146946053
47	0x3fa569a6b5225026	0.04182167969807464
48	0x3fa467aad72c8bd9	0.039853419081076154
49	0x3faefcdfe66c3bd9	0.0605230301645105
50	0x3fa04b433a6bf9c7	0.03182420814663405
51	0x3f971c74edaa9ea4	0.02256949139214605
52	0x3fa4ac6640b8b689	0.0403778032308369
53	0x3fa22f264e3b302e	0.03551597313853026
54	0x3fa32f23af24dbb7	0.037469020013694836
55	0x3fa8b7d415f7c297	0.048277499848954956
56	0x3f72346f5fc7afa1	0.004444537215459039
57	0x3fa5675276df4c8a	0.041803910265707137
58	0x3faadacae1f7653c	0.05245050438288465
59	0x3f9900a8f720efe1	0.024416580279861825
60	0x3fa3980364659822	0.03826914406344907
61	0x3fabfce0dad4b688	0.05466368361736068
62	0x3fa4aab7309fb8b2	0.04036495655587781
63	0x3fab1c748aba6fd1	0.05295147126636802
64	0x3fb10f6694f7ece2	0.06664124619412662
65	0x3fa9f818602593b0	0.0507209412924462
66	0x3fa5028efd9526db	0.04103514523974435
67	0x3fb3a8fde4a08bef	0.07679735976903122
68	0x3f97fd45ae57bf0c	0.023427094236409693
69	0x3fa618a5c5662e50	0.04315679583222887
70	0x3fa17be1934013a5	0.034148263192072016
71	0x3fa344912cf4e883	0.037632500398516754
72	0x3f9258b7e92080ac	0.017916558841648708
73	0x3fadf55d3fcf4f49	0.05851260570457712
74	0x3fa0689fd961690b	0.03204822090693157
75	0x3fa490cab4f89997	0.04016717394943042
76	0x3fa7fd7a6dbdc863	0.046855760475310836
77	0x3fa1515c5b501305	0.03382385840089878
78	0x3fa3bc7bd3b869a6	0.038547391505022774
79	0x3fadcf11a4ba7e61	0.05822043548436962
80	0x3fa3310e63b6d0c7	0.03748364417279642
81	0x3fac12332759a926	0.054826353600974806
82	0x3fa807b1b31a6777	0.0469337016231312
83	0x3fa1f0fc9aa332c6	0.03504170787491527
84	0x3f9c273ece0e2650	0.0274934590593488
85	0x3fab38aa6b978adb	0.05316670001390885
86	0x3fa025bd23eab008	0.03153792441784736
87	0x3fa7d21782978f7e	0.046524748507891
88	0x3fac11897613b3a9	0.05482129637116568
89	0x3fa765aca5db6be7	0.04569758915541638
90	0x3fa30cc61bdfc950	0.037206831839187715
91	0x3fb20abfdbffd0b3	0.07047652360035066
92	0x3faa9eecdc7f717d	0.05199375335334631
93	0x3fae9a61678e11b5	0.05977157963846783
94	0x3fb14d121a49202b	0.06758225576152259
95	0x3fa0ce951b984149	0.03282609903192452
96	0x3facb3e9f2fa0003	0.056060133848404824
97	0x3fb7833cbc1c67ba	0.09184627144386939
98	0x3fb2746331cba8a8	0.07208843198501091
99	0x3fad1f0b97c29ba0	0.05687748172322604
100	0x3fb50750e26aa375	0.08214288261173215
101	0x3fa41bb2bb58f26b	0.03927382027584233
102	0x3fb060b709d1303b	0.06397575368572543
103	0x3fa8ff78f64b8ebc	0.04882410055668404
104	0x3fb12a79edb8da8c	0.06705438665162883
105	0x3faffc1d314e1d5b	0.06247035242909745
106	0x3fae67d1ef069921	0.05938583414836019
107	0x3fb6d1aabf04bc05	0.08913676417863321
108	0x3fa9af2d6fc1b240	0.05016462315765979
109	0x3fb41044ba4c0272	0.07837323711647473
110	0x3fb1b620544034e1	0.0691852765741774
111	0x3fb1cad52874da0c	0.06950123059946395
112	0x3fad48a9b4be3376	0.05719499903998486
113	0x3fb1164504cf0afe	0.06674605719949153
114	0x3fa5526846978bb0	0.04164434301107833
115	0x3fb08088ecd3f593	0.06446128637249719
116	0x3fabe67832ab0ed5	0.05449271791942826
117	0x3fb47298f95fbfa1	0.07987361992104393
118	0x3fb1cdf9ad6239ec	0.06954918368339918
119	0x3fa5f3d1b92b5ee6	0.042875818113030026
120	0x3facbaae0e04ef75	0.056111754618966815
121	0x3fafcf1649e535b0	0.062126823921612284
122	0x3fb3b408243beabf	0.07696581730480555
123	0x3fb42c474645cf05	0.07880063501016472
124	0x3fb0d9a4e6bd9393	0.06582098611177249
125	0x3fb2f8e0227374a8	0.07411003914917791
126	0x3faf188b163fa4a6	0.06073412558164053
127	0x3fb07424101e03aa	0.06427216905105007
128	0x3fb2d8042fdf3796	0.07360864800213415
129	0x3fb3172c9887d5b1	0.07457236026660642
130	0x3fa78872b909324a	0.04596289166201879
131	0x3fb203e8e62c77ec	0.07037215823626725
132	0x3faed584f082e4b4	0.06022277294091208
133	0x3fa9b89dcc6956b1	0.05023663635499299
134	0x3fb1654eb49559d3	0.06795207890295467
135	0x3faf5b8b1f8ea2cb	0.06124529609889392
136	0x3fafca5e3274124f	0.06209081998716625
137	0x3fb18dd62dec3587	0.06857050534400431
138	0x3fae569d80dc43a9	0.05925457189562817
139	0x3fac811c0cb8a77c	0.05567252784051299
140	0x3fb299ef36df56d0	0.07266135301264431
141	0x3fb45afb12a77c18	0.0795132561247417
142	0x3fb0f7bfab891287	0.06628034532429626
143	0x3faea3259d2a3b0c	0.0598384622909319
144	0x3fb207bbf9aa4f2d	0.07043051572173616
145	0x3fb1105ecc129852	0.06665604097597225
146	0x3fb0136da221052c	0.06279645164706399
147	0x3fb38b50a6505083	0.07634452877420199
148	0x3facf65f042cb65b	0.05656716276130843
149	0x3fb126be997ee9ee	0.06699744460539822
150	0x3fb3b6046b7fa68f	0.07699611305693053
151	0x3fb411aa02884f98	0.07839453279330966
152	0x3fb120f2c0aac961	0.06690900043284877
153	0x3fb31872b7bf4712	0.07459179864897816
154	0x3fb3510002a8e82c	0.07545471253334374
155	0x3faab35726c7968c	0.05214950893768586
156	0x3fae448096eb54de	0.05911638109470528
157	0x3fb3bf6aa92fe5ec	0.07713953619522557
158	0x3faf360d4d07319e	0.06095925870212969
159	0x3fae3a8bccce4011	0.0590404212481418
160	0x3fb08e9abca2b5e5	0.06467597108231578
161	0x3fb2479c2a50b59f	0.07140518220031432
162	0x3fac302e2ec8977e	0.05505508729065321
163	0x3fb4e456bd02f1de	0.08160917391337061
164	0x3faf538d8036a5fc	0.06118433179956281
165	0x3fb3e2a927ed2d07	0.07767731880919736
166	0x3fad921ef9cceaba	0.057755439751834683
167	0x3fb0bb62b2d7fed5	0.06535927645017676
168	0x3fb10f03719aa032	0.06663533710036587
169	0x3fb2dc14d67b945b	0.07367067562479816
170	0x3fa8d394d1a3f916	0.048489237395175674
171	0x3fb07b8a75ffdbd2	0.06438508396955392
172	0x3fa4747d9587cb63	0.039951252463558594
173	0x3fb220f4ac3b6398	0.07081536488420992
174	0x3fb3770a969612e6	0.07603517700597315
175	0x3fb3f1f7fb9badc4	0.0779108990934026
176	0x3faaec152866ae39	0.052582417661451726
177	0x3fb1d89c3c0abcd5	0.0697114607416894
178	0x3fb1f54524a84b7c	0.07014877457576846
179	0x3fae98cc854895c7	0.05975951315876276
180	0x3fb29948d93db128	0.07265143684134456
181	0x3fb3697f4af487ff	0.07582851009331647
182	0x3fb0ef283cebad69	0.06614924895591447
183	0x3fb2ab7613d9d971	0.07292879089968608
184	0x3fb05bd1fe7197ee	0.06390106641774171
185	0x3faa3f9150d4d40a	0.05126623260222381
186	0x3faea09aa208198f	0.05981906154561322
187	0x3fb35d15e1534800	0.07563912154299146
188	0x3fad4017f2672def	0.05712961992284337
189	0x3fb2dda386cbcf75	0.0736944393245816
190	0x3fb58b5211f58d2c	0.08415711344200777
191	0x3fab13e3775b935a	0.05288611251834281
192	0x3fb4182e78deb0e7	0.07849398089337321
193	0x3fb1331106247ae1	0.0671854629513109
194	0x3fa792fec4c74457	0.04604335929946817
195	0x3faafcaf851a8caf	0.052709088323603985
196	0x3fb7d5211ba96f79	0.0930958454641181
197	0x3fb35dfabc2cb1de	0.07565276235681703
198	0x3fa824fd23477c6d	0.04715720229773344
199	0x3faa34814b79f6de	0.0511818318018251
200	0x3fb6003eb2a6cb0b	0.08594123708352812
201	0x3fb32b35977b9feb	0.07487807224572378
202	0x3fb2a8e5871c3dbc	0.07288965748397563
203	0x3fb190e249ae1a3a	0.06861700342970148
204	0x3fac8df4f1fa68bc	0.05577054456553429
205	0x3fb20e142a7e8a6c	0.07052732503374565
206	0x3fb2f320b52e4584	0.07402233527525054
207	0x3faca6ed42efeb00	0.055961050435106685
208	0x3fb5a74f18f839ef	0.08458418235407071
209	0x3fb2fdecd8d88370	0.07418709081731634
210	0x3fa720398a4f2cc4	0.04516773045869507
211	0x3fb05ada83b85a35	0.06388631549666786
212	0x3fb08158c983c3cf	0.06447367591660157
213	0x3fa519df80473962	0.041213020714723894
214	0x3fb2f8104a76e1f2	0.07409765069940713
215	0x3fb53983166703bd	0.08290881440099347
216	0x3fab2dae2006e705	0.053082887086430865
217	0x3fb1fe967dce745e	0.0702909524101911
218	0x3facf724801b4847	0.05657304824639247
219	0x3fb033bb20fd019f	0.06328935199144901
220	0x3fa5328b52ac8de0	0.041401246873899344
221	0x3fa626794c0c2379	0.04326228192628085
222	0x3fb0762ab4d26b5b	0.06430308260534671
223	0x3fabc0080539657b	0.054199457776756575
224	0x3fb562b857011e98	0.08353759884004786
225	0x3fb2b48f6bd7c4d4	0.07306763060457239
226	0x3faf4ce7898e3fcc	0.0611336093344331
227	0x3fb151e244d7b218	0.06765569859243958
228	0x3fa6871c642c7c4f	0.04399956438850749
229	0x3fab4262f942ecba	0.053240864684505465
230	0x3facfc410bc99719	0.05661204594507136
231	0x3fab68555a838048	0.053530375765831695
232	0x3fb2e4c597a63346	0.07380328132985622
233	0x3fb23e23a98e3721	0.07126067056216502
234	0x3fa307ecce25f2e2	0.03716983810861564
235	0x3fb202f302d17048	0.07035750216295
236	0x3fa8f83fc36c535e	0.048768990140308985
237	0x3fb04393bb31c042	0.06353114433454812
238	0x3fb17bd6b7356a68	0.06829587910525847
239	0x3fb3841188849064	0.076233955220745
240	0x3fc66a976cc0db0b	0.17512791452619356
241	0x3fc4f29641bb62a6	0.16365316590851825
242	0x3fbf63c215fae139	0.12261593853589127
243	0x3fc511fa1f03dfcf	0.16461111559305983
244	0x3fc4e8cbb6577e0f	0.16335436252028088
245	0x3fc183cf90575628	0.13683504627140164
246	0x3fc6f1720ec9cc5e	0.1792433330734608
247	0x3fc31e2cf2665686	0.14935838542867347
248	0x3fc0e04a3a9a3237	0.1318447862762626
249	0x3fc3ee30ec0163c2	0.15570651553824005
250	0x3fc4468e61e00c5a	0.15840320376455247
251	0x3fc1133862ef25a6	0.13339905577440198
252	0x3fc6852ce3963854	0.1759391890777261
253	0x3fc532b6716bb628	0.16561012781259987
254	0x3fbdeb2ac8f09abd	0.11686961560972527
255	0x3fc62aa12468647a	0.17317594793056285

bias f8 [112]
0	0x3fac955117f65e6b	0.055826696562857624
1	0x3fadba216b6d80d3	0.05806068836568703
2	0x3fb1e4c1a484df08	0.06989679590776288
3	0x3fb1173ecaaeb829	0.06676094482710994
4	0x3fae14dc3ddee18f	0.05875290160423951
5	0x3fb75fe267a40751	0.09130682974139616
6	0x3f9a68002cc229bc	0.02578735612090964
7	0x3fb396190c06c52f	0.07650906127561961
8	0x3fae87d72219c9c0	0.05963012973088011
9	0x3fb5d2576af5a90e	0.08524080621069549
10	0x3fb0dc5f8ab84d29	0.06586262833325364
11	0x3fb4d33b8ea730a9	0.08134815438023914
12	0x3fa7019c8031134b	0.044934168480301816
13	0x3fab880ee44fa543	0.05377241646767541
14	0x3fb11feb7b0a6f90	0.06689330820012018
15	0x3fae9086301b5cb0	0.05969638192407822
16	0x3fb154e00a1f1b83	0.0677013420782782
17	0x3fa1b6f0e83f76df	0.03459885439927545
18	0x3fa0244a1d5b390b	0.03152686699250936
19	0x3fa8aadf688766be	0.048178655156971825
20	0x3f985f7962da5a72	0.023801705034737393
21	0x3faad0fac868dd83	0.0523756379738485
22	0x3fa72b27f888f25b	0.04525113018869283
23	0x3fae11070d49704d	0.05872365987008319
24	0x3fa7f0f3e9a2e930	0.04676019885069349
25	0x3fac43e1deb95139	0.05520540088460497
26	0x3fafd267ca03c09e	0.06215214100836984
27	0x3fa652d4493aae7b	0.04360068696891247
28	0x3fb13cd8fb4840ba	0.06733471045322661
29	0x3fa9ead8ba1f50e0	0.05061986228943893
30	0x3facfe5a7631d729	0.05662806217962519
31	0x3fad400f75b5fa5c	0.05712936698818247
32	0x3faf53140de60507	0.06118071241054151
33	0x3fb24dea83d172d5	0.07150140493599662
34	0x3fb1a0f8e1d8a00c	0.06886249078581858
35	0x3fad5e8132f5a4c6	0.0573616385179974
36	0x3fb03917ce801bf1	0.06337116996301952
37	0x3fad1c8e912672bf	0.05685849687435995
38	0x3fad1f9234ea68b7	0.05688149352973098
39	0x3fadc6753c45408d	0.0581547390053184
40	0x3fa7abd47bb89b97	0.04623283396022442
41	0x3fb3c58c750f0945	0.07723310335044171
42	0x3fb58ac7a0574766	0.08414886154721798
43	0x3fb53068003f099b	0.08276987081538893
44	0x3fa90ca7c6a15ece	0.0489246778458302
45	0x3fb379f43043cbce	0.0760796182474188
46	0x3fab212f1d7d7e6f	0.052987549161795815
47	0x3fb0a1a4d0e006db	0.06496648883333071
48	0x3faee50a96545996	0.060341196871536315
49	0x3fb2f270d9b163d5	0.07401185335892475
50	0x3fb23a5c4a766642	0.07120301073009563
51	0x3fb21ab038354fd4	0.07071973202010834
52	0x3fb569ff842984b4	0.08364865280738593
53	0x3fad4e778dc326ba	0.05723928075310654
54	0x3fb47fda68bbfaf0	0.0800758844088525
55	0x3fa758aea0315d2b	0.04559846597174507
56	0x3fb0bf42e247aa47	0.06541841530239721
57	0x3fb581af34f79c13	0.08401007693429134
58	0x3fa7d9fe1be03f38	0.04658502664835712
59	0x3fab7c35e455654b	0.05368202602648838
60	0x3fad5060b267b9f3	0.05725385835454579
61	0x3fb208598e28ba42	0.07043990822487792
62	0x3fafe0944484a197	0.062260278095268955
63	0x3fb1f777fed7965b	0.07018232318622479
64	0x3fb1d8733635116f	0.06970901559276908
65	0x3fb2cbbde47b8f47	0.07342135265531367
66	0x3fb1061570b2ce97	0.06649908067157138
67	0x3fb11820279f8970	0.06677437751162585
68	0x3fb04a1beeae819b	0.06363081528843965
69	0x3fad43fe4dc9679f	0.05715937327904829
70	0x3faeb2aaf3cf51c6	0.05995687700456957
71	0x3fb26a577ac7181f	0.07193514583113413
72	0x3fae2b8a19cd22d8	0.0589259296890014
73	0x3fb13f0e1dffe881	0.06736839516080019
74	0x3fb1c4d5b648f83e	0.06940971088712986
75	0x3fb5ff4e7a8e5143	0.08592691890800545
76	0x3fa8598a0902ab33	0.047558129882722254
77	0x3faed119ce6781fa	0.0601890625437171
78	0x3faefe949d4ed3ea	0.060536045267703134
79	0x3faea22a5db33506	0.05983097451972168
80	0x3fc51d21914f3b2a	0.16495151133718738
81	0x3fc79cc3d4c96414	0.18447158708548328
82	0x3fc513e609f20fcd	0.16466975675223097
83	0x3fc53eab53106803	0.1659750133119929
84	0x3fc571565869dba7	0.16752127949777426
85	0x3fc77c8c1e5226e7	0.18348838310730928
86	0x3fc7fc0b83adda7a	0.18737930230755123
87	0x3fc6a1744ab400ee	0.17680219314207285
88	0x3fc4e0824c518505	0.16310147024618274
89	0x3fc51d1bf907e3e0	0.16495084438045549
90	0x3fc56e684defdf05	0.16743186765210552
91	0x3fc5bf800c6f91db	0.16990662200181714
92	0x3fc54cbfdb50ddc7	0.1664047070387211
93	0x3fc5dd0f4bb835a0	0.1708087081646399
94	0x3fc66bbcae87f045	0.17516287347814533
95	0x3fc555ff5cfd989c	0.16668693581158756
96	0x3fbc4bd59889c791	0.11053214048459227
97	0x3fbbdda0b41af4bb	0.10885052106000874
98	0x3fb4464f53cd74e5	0.07919784351311739
99	0x3fb47748cac74cef	0.07994513464591411
100	0x3fb4c5feaf88bc05	0.08114616189480735
101	0x3faddcc3b31918fa	0.05832492409949626
102	0x3fb9723d8e09837d	0.09939942090706029
103	0x3fb799ff5e608845	0.09219356588485635
104	0x3f9e4f709f69992d	0.029599914293066455
105	0x3fb99aa2015255ba	0.10001575977579238
106	0x3fc022d7b7b4a54f	0.12606331319811168
107	0x3fbf1e7931b2c8ef	0.12155873740519828
108	0x3f9bac017004fd79	0.02702333685124134
109	0x3fb86e9104a725a1	0.0954371105537093
110	0xbf47d722525b71e3	-0.0007275502764190724
111	0x3fa3ae83be2f3ad7	0.03844081589305908

weight f8 [112, 16]
0	0x3fa4dc661e09d5ab	0.040744010130690476
1	0x3fa7bd01890b825c	0.046363876322861514
2	0x3facbf1f3518c69c	0.05614564440874156
3	0x3fa9085607250deb	0.04889172398773297
4	0x3fb1047616977962	0.0664743237643726
5	0x3fa2ce37d2455276	0.036729568879910454
6	0x3fab12f6c9050500	0.05287905887463218
7	0x3f9ffcd0498f8eea	0.031237844934266436
8	0x3fa3e7055dbde9b7	0.03887192506131803
9	0x3fa54fe48e38cb9f	0.0416251586542764
10	0x3fac53785b9b3179	0.05532432668914828
11	0x3fac999f05d7e44e	0.055859536612793734
12	0x3fa7dc4e0e503862	0.04660266804431569
13	0x3fa7c415fddaa649	0.04641789172940187
14	0x3faecc911372b018	0.060154470085166334
15	0x3fae829805351aa1	0.05959010184829095
16	0x3faa726318a2e2b4	0.05165395427451838
17	0x3fab422159c443d6	0.05323890896591592
18	0x3f9ea33e73766d97	0.029919601247099328
19	0x3fa44096060c192f	0.03955525230235179
20	0x3fa5c76cd1effc8e	0.04253711760247213
21	0x3fa1ce2b211a9f32	0.03477606562711201
22	0x3fa7767d6b2a8d7b	0.045825881320776106
23	0x3fa9f2fb7d5b43cb	0.05068193345289947
24	0x3faaa15914e58580	0.05201223735890448
25	0x3faa68ef4aec46f9	0.05158183850848092
26	0x3f9dea7d016f7c8a	0.029214814388862233
27	0x3fa81771d966eea7	0.04705386904558156
28	0x3fa79e0d45456df9	0.046127714830358664
29	0x3fa5dd158a672b10	0.042702363152406275
30	0x3fa75a70d77c6a4c	0.04561188345379161
31	0x3fa60f60f255064d	0.04308608015209057
32	0x3fafef7b8df35549	0.06237398250383792
33	0x3fa64aaceb0a6782	0.04353847855709515
34	0x3fa65f804baf3f35	0.04369736598857658
35	0x3fb092bdd048a14d	0.0647390969758181
36	0x3fae1707191b4f35	0.05876943761327739
37	0x3fae03b996b60d66	0.058622169158321566
38	0x3fa44e389c989f51	0.039659279933686016
39	0x3fa73f921ea94c30	0.04540688156398465
40	0x3fae2d00044e2dad	0.05893707325511897
41	0x3fa67dfe4f011b7d	0.043930003303606725
42	0x3fad4e0b15fae9fb	0.057236048157807994
43	0x3faf70cd2653885d	0.06140748112535797
44	0x3faa933bb6f40263	0.05190455063166579
45	0x3fa7f7c9d4ee40ab	0.04681235050441165
46	0x3fa23b8c877551aa	0.03561057237189698
47	0x3fb01e925fd86784	0.06296648826574197
48	0x3fa9dcb175daa19f	0.050511880527952295
49	0x3fa97aa9a525495c	0.049763966950780086
50	0x3fac336bede799be	0.055079815665340245
51	0x3fb06045b87c60b3	0.06396899942444882
52	0x3fac2efb66be4cf1	0.05504594449225831
53	0x3fb20655bd62f85e	0.07040916322418542
54	0x3fae140663787894	0.05874652828446006
55	0x3fad8b36cf312e4b	0.05770274428558916
56	0x3fa55216d23513ce	0.0416419154740094
57	0x3fa4c8d7f0bf0c02	0.04059481443211867
58	0x3fa7951f58d2b262	0.046059588997512405
59	0x3fb4415b8a502e9c	0.07912227751529105
60	0x3fb11f6d73a9fec0	0.0668857962973517
61	0x3fab67de72ed0bc6	0.05352683213143154
62	0x3faecd325314d80a	0.060159275666976056
63	0x3fa8909606dde3b5	0.04797810396025374
64	0x3facc5e644035de4	0.05619735317457833
65	0x3fa2e8f2c5abb302	0.036933504705166
66	0x3f9ad8157da1e960	0.026214919846532125
67	0x3fa43fb8b9565ddc	0.039548657058897624
68	0x3fa270cd91073189	0.036016868547082366
69	0x3fac6ec1ec9cca37	0.05553251279197407
70	0x3fa9d875ae71b030	0.05047958139843478
71	0x3f9b9537cbf73428	0.026936408828806574
72	0x3f9fce360fb49cb0	0.03106007071360456
73	0x3fa77091d2322a32	0.04578071299427612
74	0x3fa0006e05006497	0.03125327883771794
75	0x3fa1b796c5cd5ba8	0.034603797574781325
76	0x3fa35bb10e27c07a	0.03780892656129793
77	0x3fa569902a158aea	0.04182100785944505
78	0x3fadea06cfc68569	0.058426106322495404
79	0x3fabbd5b83e1d85b	0.05417905793085317
80	0x3fa4b8ca4082cd9f	0.04047233617293532
81	0x3fa46abc714dea5f	0.039876831847284626
82	0x3fa7d1e53c2bb61f	0.04652325019365499
83	0x3fabe9ff1210bc33	0.05451962562107617
84	0x3faacd365440137b	0.052346895012340654
85	0x3faa0f033a7fc6a2	0.050895787135130335
86	0x3fa572081710aad0	0.041885617080273385
87	0x3fac750ca4f74471	0.055580515992581854
88	0x3fac35c1e8ee16c8	0.055097636875002076
89	0x3fa5e57506a64df8	0.0427662439934941
90	0x3fa28365dff8ac7f	0.03615873679185543
91	0x3fab77f822173ea4	0.0536496678938623
92	0x3faa12ff0d4642ee	0.05092618023912175
93	0x3fae1109600e4207	0.058723729110287386
94	0x3fb0028b3feb2bd3	0.06253881750596628
95	0x3fab702dc77fb064	0.053590231516722736
96	0x3fa598facf08763b	0.04218276765116654
97	0x3fa9dd176be0852e	0.050514919203360584
98	0x3fa2146571606c69	0.035311861123965844
99	0x3fa6676e3f7122df	0.043757863277795066
100	0x3fa30f3fd730b384	0.037225718515720124
101	0x3fa21089adad3885	0.03528242344928948
102	0x3fa7ff45d5de225e	0.04686945186319201
103	0x3fa2a3e9126b528d	0.03640678739399048
104	0x3fadbb24d1d021f6	0.058068419086399745
105	0x3fa7819919f37c9c	0.04591062967096457
106	0x3fa759dbfd4518e9	0.045607447306382394
107	0x3fa7c1f9f17e4ab1	0.04640179703632919
108	0x3fa422af1ace607c	0.03932711794112806
109	0x3f93d518aade5747	0.019367585591303606
110	0x3fa2d0d3b659df44	0.03674947358098149
111	0x3fac2d0851caa6aa	0.05503107069428144
112	0x3fafcd25697aafb9	0.06211201584423471
113	0x3f9e3b80c8430ec0	0.029523861144084007
114	0x3faebd25961cd7ab	0.0600368257277489
115	0x3fa9ab4359f92ad6	0.05013475869471555
116	0x3fa910a8190def58	0.048955205019381054
117	0x3fa8fca39e9e6213	0.04880248366606934
118	0x3faca1883a7b3892	0.055919892443499056
119	0x3faea11880f04f99	0.05982281278571051
120	0x3faa0deee181381c	0.05088755133384401
121	0x3fac3aabfc9cab86	0.05513513048784717
122	0x3fa5d2c5a8dd4e8a	0.04262368856748562
123	0x3faac67ba333c9dd	0.05229555480208934
124	0x3fa8bda318275b28	0.04832181615682024
125	0x3fa24854f06cf499	0.03570809779055501
126	0x3fa7003fa35d773e	0.0449237715645112
127	0x3fad0a42909e1389	0.056718902734281214
128	0x3fa7f1fba228e44c	0.04676805834282813
129	0x3fa9fb3eab5b801b	0.05074497071996139
130	0x3fa94fd0db826df8	0.04943707160529337
131	0x3fa53c8679177624	0.04147739627999794
132	0x3faa64e627875121	0.05155104858900673
133	0x3f9758718f231323	0.02279832302226049
134	0x3f9ca8ada7cba716	0.027987206808496166
135	0x3fadac8a1d130d7e	0.057956996964573
136	0x3fa82645faa42dad	0.04716700253092241
137	0x3fab1b27bbdd5ca8	0.05294155281324581
138	0x3fac7d3047eeb998	0.05564261320192826
139	0x3fa7f51c349813bd	0.0467919172479365
140	0x3fa9950c61367a49	0.0499652737300847
141	0x3fac8912e9075ccf	0.05573329062070231
142	0x3fac809fcf12091f	0.055668825175432916
143	0x3fad273f4c6a6935	0.05694005782898374
144	0x3fa84385ed7c5327	0.047390160789438966
145	0x3fa9125ef78c27a2	0.048968284338186466
146	0x3fa75941eae281c4	0.04560285560842517
147	0x3faa37efebd1a7b8	0.05120801690721016
148	0x3fa4eaa689cd280c	0.04085274154802229
149	0x3fad0a04d33d44f3	0.05671706274609702
150	0x3fafbc86fbd4159c	0.061985223999765554
151	0x3faf7800846772fb	0.061462417757615705
152	0x3fad214fddf1f23d	0.056894775240810415
153	0x3fb081579bcfea4d	0.06447360567100553
154	0x3fb0f169593e4a8f	0.06618364743034476
155	0x3fab3730fdc3eb82	0.05315545175286386
156	0x3faead5d53841471	0.05991641659242298
157	0x3faf7a666a2c6e6f	0.06148071332992521
158	0x3fad6e3125cd601b	0.05748132311299533
159	0x3fa5dad8f496739e	0.04268529878320425
160	0x3fa95f7f7368ced5	0.04955671581083513
161	0x3fa22c368f5d3a7a	0.035493569374570336
162	0x3fb1c5f3714aeb4b	0.06942674175199419
163	0x3fa268c219d6d28a	0.035955491689866184
164	0x3fa9f8c12152c876	0.05072597057132182
165	0x3facd8097b4c63e8	0.05633573179347434
166	0x3faa5d6f8a929209	0.05149410788115822
167	0x3fac1ca999620392	0.05490617749547434
168	0x3fa7a8a72e6ff518	0.04620859567510588
169	0x3fabd30424417e9c	0.05434430067611837
170	0x3fa514207e886d14	0.04116918129531136
171	0x3faba0ba2e48f8a3	0.05396062674525239
172	0x3fb0bcaaae868758	0.06537882576824694
173	0x3fa8cb45b11d1f07	0.04842584406884325
174	0x3fa7de66438242ce	0.04661864828188343
175	0x3fa807a399193251	0.04693328136327025
176	0x3fa82cbfedfbe6ff	0.04721641330793424
177	0x3fab42f3348e2af8	0.0532451631216499
178	0x3fa77b98dda62258	0.04586484628368187
179	0x3faace857a35bb1d	0.052356883209418316
180	0x3facef1fb28ef113	0.05651186995189241
181	0x3fa881a2a3a6ec54	0.04786403892236338
182	0x3faa6511d97e4f48	0.051552350806700675
183	0x3fa5357cc66b2ccd	0.041423701497103595
184	0x3fa6ba50f23425c1	0.044390229764825324
185	0x3fa9c009f7513138	0.050293265762407946
186	0x3fa8bb2b4af0211e	0.04830298700113843
187	0x3fa6abf59570383f	0.044280695430743304
188	0x3faa289473a2b8b6	0.05109084998672257
189	0x3fa8f65b27c086b5	0.04875454769377311
190	0x3fa6e46407cd3620	0.044711233093590375
191	0x3f953e91668f4472	0.0207464903685985
192	0x3fa7a6ed64d0c828	0.046195429379068564
193	0x3faa9bbbf2e0a6bd	0.051969407461297724
194	0x3fa83f7f644cc2b3	0.047359448426850824
195	0x3fa02059c94c3d0b	0.031496816465841425
196	0x3fa8979246d8a2d9	0.048031397960874585
197	0x3fad5fad15015418	0.05737057572756771
198	0x3fa9cb7ab0d809c0	0.05038054856051444
199	0x3fa7bf48eeb68743	0.04638126291253155
200	0x3fab74826f5b1c6d	0.053623272031068626
201	0x3fb2bdd5d0cca710	0.07320915553705398
202	0x3fa43a5b2661aacd	0.039507721362345906
203	0x3fb08dfde5394eff	0.06466662260327992
204	0x3fa52a0944ac0c35	0.0413363357856941
205	0x3fae70ef1361bbe8	0.059455367198886055
206	0x3fae5c7f9ffaf8e2	0.05929945781598335
207	0x3fa9104136f27f7d	0.0489521388601579
208	0x3fab80b378ca8584	0.05371628617764215
209	0x3fac42b38830842d	0.05519639050931633
210	0x3fa919a84d211324	0.04902387563246283
211	0x3fa209157f7398d9	0.03522555523686472
212	0x3faf04708e0212f5	0.06058074697015129
213	0x3fb0279a5cb4479b	0.06310429347311557
214	0x3fa433a40ccfb295	0.03945648819339912
215	0x3fa395d4ea5ac754	0.03825250015996909
216	0x3fad4cf8c9017513	0.05722787336046955
217	0x3fae138765cec4ab	0.0587427436615909
218	0x3fa9de2e5316e7a4	0.050523231165654964
219	0x3fae5d0464476689	0.059303414574697184
220	0x3fa18013ca7b5a6a	0.03418027731611491
221	0x3faba840e004d435	0.05401804670911085
222	0x3faa148f850627ab	0.05093811510876319
223	0x3fa62476a93b1dc3	0.0432469445782391
224	0x3fa49982e7da0db1	0.040233698656290236
225	0x3faac993ff7b1462	0.05231916898404944
226	0x3fa88b4ccb4866bb	0.04793777448157984
227	0x3fad8636c7f561f8	0.05766459647083261
228	0x3fab1d2d9d29c125	0.05295698684210696
229	0x3fa54483fc8f8d5f	0.041538357334298885
230	0x3fa9c940ee7edc0b	0.0503635684139497
231	0x3fac45a7dfd55c48	0.05521893126813687
232	0x3fa9c92cc8192fcd	0.05036296789748427
233	0x3fafa37350156a81	0.061793902898632964
234	0x3fa9eef273e28b6e	0.05065114655123791
235	0x3fac5c0e70fdded4	0.055389834683351374
236	0x3fab9ab3ef8954fb	0.05391466425923316
237	0x3fae8b098b7d6344	0.05965452029949472
238	0x3fae915eda685af0	0.059702839051331114
239	0x3f9dd2883ccd4749	0.029123429022838185
240	0x3faa08439aacdd92	0.05084429991841967
241	0x3faf35912db2e783	0.060955559566948224
242	0x3faab58a32d9f306	0.052166289050523715
243	0x3fb03dd299595ec6	0.06344333881258554
244	0x3fb107a46512863a	0.06652286021792345
245	0x3fa85af99475a4ad	0.04756908356905263
246	0x3fb0ce5ff9ab062f	0.0656490311185045
247	0x3fad169bce0e97d5	0.05681311502785006
248	0x3fb07554b727fa17	0.06429032775484021
249	0x3fae834e31cc72d9	0.05959553106206323
250	0x3fa938f8f57ebb5c	0.04926279064908698
251	0x3fb0212d3649f4a7	0.06300623488819444
252	0x3fae97a6d1045211	0.05975076009250214
253	0x3fa9aa4286cc4619	0.05012710471613619
254	0x3fa59574089f8f35	0.04215586285843501
255	0x3fb3998e2044c51c	0.07656181609924712

bias f8 [112]
0	0x3facede677f65e69	0.05650253500351427
1	0x3faad800696d80d1	0.05242921149215508
2	0x3fb196a9f284df08	0.06870519801020347
3	0x3fb866421aaeb82c	0.0953103366034333
4	0x3fb49165bcef70cb	0.08034358847311578
5	0x3fb7609cc7a40751	0.09131793855706617
6	0x3fa4a6c86e6114df	0.04033495280649801
7	0x3fb188779406c52e	0.06848857273032102
8	0x3fac56215619c9c0	0.055344621429771035
9	0x3fafbb2d0deb521a	0.06197491450226185
10	0x3fb0cfd98ab84d29	0.06567153584210374
11	0x3fac2751d54e614b	0.05498748520693882
12	0x3fad45c9a7311349	0.0571730629531318
13	0x3faf26922c4fa545	0.06084114828974888
14	0x3fb07d5d6f0a6f92	0.06441291771846938
15	0x3fb21b2fda0dae58	0.07072733949251508
16	0x3fa4376b7c3e3707	0.039485320011506224
17	0x3fa1e69c483f76e1	0.034962543315243406
18	0x3fa08c4f8d5b390a	0.032320486073887336
19	0x3fa48390888766c0	0.04006625811207476
20	0x3faa9547296d2d38	0.05192015057272176
21	0x3fb1103f3e346eb4	0.06665416020080778
22	0x3fa8a3756208f25a	0.04812208959308313
23	0x3fa8cf457349704f	0.04845635444937157
24	0x3faf37e6eba2e931	0.06097337366505185
25	0x3fac619154b95139	0.05543188246943704
26	0x3faf1976ba03c0a2	0.060741148192279285
27	0x3facf4c6ad3aae7d	0.05655499329199374
28	0x3facff68a290815e	0.05663611397199263
29	0x3faad1cb961f50e1	0.052381860805015064
30	0x3fb17ba6cd18eb9c	0.06829302317866709
31	0x3fb17978283afd30	0.06825972540081149
32	0x3fb20079b5f30284	0.07031975452538047
33	0x3faf346041a2e5a1	0.06094647217964711
34	0x3fb16cebffd8a00c	0.0680682658791058
35	0x3fb37428b17ad265	0.07599119503977077
36	0x3fad8075870037ee	0.05762069008788716
37	0x3faefb437d2672bf	0.06051073935234318
38	0x3fb11bc16a753458	0.06682976578777422
39	0x3fb3c8570d22a03f	0.07727569647488595
40	0x3fac7328b9b89b93	0.055566094084773664
41	0x3fb7deaaf50f0943	0.09324139101866984
42	0x3fb48ff438574764	0.08032156348715841
43	0x3fb3c3e8143f099b	0.07720804685872056
44	0x3fad508d40a15ecd	0.057255186213919985
45	0x3fb5bfe66443cbd0	0.08495941112396044
46	0x3fad946c707d7e6d	0.05777300713702691
47	0x3fadf6faddc00db4	0.05852493245040638
48	0x3fb454415f2a2cc8	0.07941063474042942
49	0x3fb4885c7fb163d4	0.0802057086706463
50	0x3fabd6c43feccc92	0.05437291412672453
51	0x3fb3c2dc3f554fd4	0.07719208284589679
52	0x3faf499f48530968	0.061108567789704804
53	0x3fb507e572e19361	0.08215173773494434
54	0x3faeda0b2577f5fe	0.06025729019527758
55	0x3fb262d53218ae91	0.0718205687814424
56	0x3fafdb08eedf548e	0.062217978629328305
57	0x3fa976c6f9ef381d	0.04973432351071969
58	0x3fb406aba9f01fa2	0.07822678469540148
59	0x3fab86c1a455654b	0.05376248484635456
60	0x3fb0023c3533dcfa	0.06253410624400493
61	0x3fa846f56151748d	0.047416370515500274
62	0x3fb38fa98c4250c5	0.07641086267750825
63	0x3fb10fca4ed7965a	0.06664719033104785
64	0x3fb0493ac5b51176	0.06361739470327685
65	0x3fb12a4ad57b8f45	0.06705157958964232
66	0x3fb21e2bf2b2ce9c	0.07077288317924019
67	0x3fb12d22a1df8972	0.06709495975477411
68	0x3fb4375dc6ae8198	0.07896982288958154
69	0x3fad9703adc9679f	0.057792773212624875
70	0x3fa5e8c51dcf51c5	0.04279151905908266
71	0x3fb1b26feac71820	0.06912898523214084
72	0x3fac40468ecd22da	0.055177884036827954
73	0x3fab982a39ffd0fb	0.053895301418295426
74	0x3fb0b9849688f842	0.06533077883884267
75	0x3fb2c3f9bc8e5143	0.07330284932533453
76	0x3fa6927c4102ab34	0.044086344657748106
77	0x3fadc3fa966781fa	0.05813582502355881
78	0x3faa32a8324ed3ea	0.05116773237333645
79	0x3faf257d11b33507	0.060832889948509154
80	0x3fc49ff2cccf3b2c	0.16113123894180015
81	0x3fc5b5df84496414	0.16961282691298207
82	0x3fc5048856f20fcd	0.16420082326305732
83	0x3fc9b91c03106805	0.20096159124005922
84	0x3fc5813278c9dba7	0.1680052842891346
85	0x3fc46b4edc5226e7	0.15952478177887672
86	0x3fc723cf05adda7c	0.18078029420185604
87	0x3fc6b20266b400ee	0.1773074151497051
88	0x3fc3364312518505	0.15009344477133638
89	0x3fc434925607e3e4	0.1578543586799973
90	0x3fc95a6e41efdf05	0.19807222575740738
91	0x3fc60f1457ef91da	0.17233518880597282
92	0x3fc6958246f0ddc5	0.17643764938268994
93	0x3fc71a7d183835a0	0.18049586947055918
94	0x3fc48f199d87f047	0.16061706726020672
95	0x3fc60bb64c1d989c	0.17223242489416613
96	0x3fbe5576f489c790	0.11849158735438281
97	0x3fb67b91851af4b5	0.08782300471917177
98	0x3fb69908198d74e4	0.08827257751314083
99	0x3fb3ccd89ec74cee	0.07734445454052594
100	0x3fb710bae988bc08	0.0900990314628275
101	0x3faee854fb1918f9	0.06036630215798939
102	0x3fb9a5c57009837d	0.10018571839601793
103	0x3fb9612a34608845	0.09913886812913215
104	0x3f9160fa1769992f	0.016971500090584953
105	0x3fbe90be195255b9	0.11939609640315653
106	0x3fb8610197694aa2	0.09523019739689656
107	0x3fbf0f25ffb2c8ef	0.12132489674221224
108	0x3f8a52195009fae9	0.012851903681846593
109	0x3fba034b34a7259f	0.1016127589747584
110	0xbf8753a1b525b726	-0.011389983502080602
111	0x3faaf7bf0e2f3ad1	0.05267140434408691

weight f8 [3, 16]
0	0xbfc9acb38125852c	-0.2005829220388845
1	0xbfc8d910ec52b3fd	-0.19412433184825764
2	0xbfc982a16c533cb0	-0.19929902829469404
3	0xbfc9c00f6846a68d	-0.20117371169662981
4	0xbfca614ac6fc8ba4	-0.20609411922586418
5	0xbfc9eabe1c153238	-0.2024762761233363
6	0xbfc92bb4242829a4	-0.19664623036835593
7	0xbfcb02506a0c21e7	-0.21100812128157928
8	0xbfcb0980df2f886c	-0.2112275209211164
9	0xbfc914c820207215	-0.1959467083805896
10	0xbfca4fd9303302f0	-0.20556177953223864
11	0xbfc737e9320b1c6c	-0.18139376586461553
12	0xbfcb340f997eb0ff	-0.21252627367847052
13	0xbfca73157b57b05d	-0.20663708231529912
14	0xbfc9dc0a2df4b6f0	-0.2020275806802867
15	0xbfc7a683aec06ddc	-0.1847691157607717
16	0xbfc858eed058e2ca	-0.19021401570514335
17	0xbfca04d78c9a64bd	-0.2032727657831738
18	0xbfc89d9f98c28a29	-0.19231028517704488
19	0xbfc8fdffe6bc73e6	-0.19525145307935005
20	0xbfca7c78b4c974bb	-0.2069235689877241
21	0xbfc99a1354247a92	-0.20001451118965413
22	0xbfc8c44bb8127443	-0.19349047172446107
23	0xbfc9379769152b46	-0.1970090163325386
24	0xbfcab6e3c03c3dbd	-0.20870634924402323
25	0xbfcbf4676af87bb2	-0.21839611743140847
26	0xbfc928220e581abc	-0.19653726292036378
27	0xbfcaaef8c9803c39	-0.2084647163287359
28	0xbfca83f56fda4044	-0.20715206109571416
29	0xbfc84a2ceb9f8059	-0.18976365571052403
30	0xbfc9936d96646fb1	-0.1998116478288217
31	0xbfcb3f79db81023a	-0.21287463396039802
32	0xbfcbbd6ea56f3716	-0.21671851232388722
33	0xbfc96921e1e40784	-0.1985208847982528
34	0xbfcb548a412ea10d	-0.21351745779725953
35	0xbfc927bc3a0585b4	-0.19652512391171018
36	0xbfc76a31740a8dff	-0.18292825857234615
37	0xbfc85af30ca6b954	-0.19027555577981536
38	0xbfcb76e9db6b1581	-0.2145664521578219
39	0xbfcbcb7999ca6ecc	-0.21714706429781072
40	0xbfc9793105a322bc	-0.1990109708333615
41	0xbfc8d977bdb846f7	-0.19413658870376313
42	0xbfc92d7e9f735d25	-0.1967008856360987
43	0xbfcadc3a01a3e608	-0.20984578209008498
44	0xbfc8dc7493fc0284	-0.19422776437570033
45	0xbfc99ee3c354cf8f	-0.20016142881069895
46	0xbfcb07ff3eb33a2d	-0.21118155061272273
47	0xbfc9ac178ac1f409	-0.20056432986521625
