Retweet/RetweetNetsV3/TrainNet_ep12V2.pt (torch, 23477 bytes, 6 tensors)

scale f8 [3]
00000000: 4dce e25b f7e4 e03f c66e 1798 b5b6 e03f
00000010: cc22 4084 6385 de3f
0.5279499811790146 0.5223033876931928 0.47689140238848604

weight f8 [112, 3]
00000000: 38ee 3c2e e491 ca3f a2b6 c4cb d0d9 b43f
00000010: b8e0 acc8 140a a6bf d053 4972 db92 d9bf
00000020: 6ac6 97e5 6d65 cebf e79e 8fcb f7a8 b0bf
00000030: 7ae9 8ceb b971 be3f bc77 dcf5 7760 913f
00000040: f539 4379 f8ab 643f adf0 633c 4f50 e6bf
00000050: c144 4ea0 ef0c e6bf c158 b7dc 97aa d8bf
00000060: 92c7 7909 ccc0 913f 1819 c0ae a0b3 babf
00000070: 4805 3711 e1de b9bf b22e a973 404a e4bf
00000080: 168e 110f 4aef e3bf 2694 b902 6eb9 d2bf
00000090: 1f9c dac7 eb4e acbf b52d b8f9 201a 88bf
000000a0: ad35 70e5 5320 ba3f 84bf afca c0ec d6bf
000000b0: 8f82 2956 3ea7 c2bf 281b d594 edbd a1bf
000000c0: f778 b006 8223 e0bf c700 ddc5 a91c dfbf
000000d0: 4d78 9019 3987 d0bf b004 71a3 059a d43f
000000e0: 2218 1411 c6f6 d73f bbed f5a8 7b5a c03f
000000f0: 727a 2512 5238 d3bf 9bc8 7cfb 5e4f c7bf
00000100: f0bf 8617 5c89 983f c84e 3088 41e4 e0bf
00000110: aefe 90ac 7976 e0bf 2c55 de9f dd3e c7bf
00000120: d6fd c412 6e1d 8cbf f4fe 2cd2 6c97 afbf
00000130: 38fd 7a96 56de c13f 16fb 71e9 b8dd c7bf
00000140: b91d 9340 f313 d6bf 542d 05b9 62b0 d3bf
00000150: aeac 3044 376d e2bf d74d cf7d 129d dd3f
00000160: 5303 2e5b a3b4 c2bf d8b8 aa58 ebdb e2bf
00000170: 59b9 b49d 7dc6 e4bf f013 898b 4cbd d3bf
00000180: ca81 a568 580d c83f 9bdc cb8b 57dc d1bf
00000190: b781 b259 8a8c d0bf 9547 cb4c 81bf c4bf
000001a0: a7b0 3117 d880 cebf 4b95 8361 22e8 e6bf
000001b0: 0841 3396 80e1 bd3f c258 6442 591e d2bf
000001c0: 4e21 5ee0 23f9 c5bf 5319 af16 0314 973f
000001d0: 27c9 ef94 1ced 7bbf cb8c 8d55 1bcb d0bf
000001e0: 31ae c7e4 3d3a c43f b620 57b1 4f1b d6bf
000001f0: 14ac fc7e 1493 d9bf b66c 7c99 a2c6 a83f
00000200: c2bc 7337 afc9 c5bf 0216 6022 6cad e2bf
00000210: b01c e91a 5397 9f3f 331c c4ab 777a e1bf
00000220: 2f29 2759 5b29 ddbf f894 2555 8913 ccbf
00000230: be0a 5746 8f5f bcbf 9759 d928 110e e1bf
00000240: d4dc 7d64 f0eb c13f 340c 174a 3d52 80bf
00000250: f1d9 fe9b 4042 d7bf adcd 5546 81f3 ba3f
00000260: 3a3d f3f8 e72f c2bf 38f9 0461 713b d0bf
00000270: b395 833f 3448 c2bf c047 3e88 1bef dbbf
00000280: d6df 40f0 5f65 e5bf 38f8 ad40 f95d c83f
00000290: a0a9 4723 0852 dfbf d00f f0bc 5a10 eabf
000002a0: 097f f6f2 2981 b63f f53e 6704 3b13 e6bf
000002b0: 77f0 a6e9 ae95 d1bf cdf8 87c9 24ec bc3f
000002c0: f6a3 bdc3 dd40 c4bf c2e9 3c00 e389 d4bf
000002d0: 6d8f 0660 a9df e2bf 41dc 14af 21fe c93f
000002e0: 3426 f339 dcce cfbf daf5 8b08 6317 cc3f
000002f0: 14dc fe55 e753 d5bf bb6a 8cbf 1470 e3bf
00000300: 53bc 9076 f9fb b53f 0a41 32a0 b933 b83f
00000310: 8935 f811 f460 db3f 7b8f 6c9b dcb3 ab3f
00000320: e8c0 7c47 622c c03f ebf9 4ff9 bf2c dc3f
00000330: ed76 0fa3 105b b23f 1a79 921e 2a43 bc3f
00000340: 4e9a 0e4f 42fc db3f 9f07 9173 9fdb b03f
00000350: f964 885d 378f b03f f6e1 a4f4 13e7 d83f
00000360: 81df 8e1a 2479 b63f 955b 1a0f 6658 b83f
00000370: 91c6 353e 8805 d83f e8fa 5143 eff5 a93f
00000380: 2218 e917 6a60 aa3f d0f2 4cfd a51b d93f
00000390: 066a d301 e44c b43f 0b2a fc6e be1d bb3f
000003a0: a653 adf2 8337 dc3f 4b09 b1fb 4333 b13f
000003b0: 4484 fd2a 7917 b43f 03ba ae3d b173 da3f
000003c0: d11a a65f 8b16 b33f 6e9e 7a08 708a b73f
000003d0: 9b78 3af1 368e db3f f97a be50 a2c6 b33f
000003e0: 1d5b 7ac2 a873 c03f 709e 8e6f 6199 db3f
000003f0: 415a a4fe 12f8 af3f 18d7 2611 c15e bc3f
00000400: 3641 e060 2f3e db3f 509f 02bf 9b64 b23f
00000410: f886 e255 7a07 b33f 9045 f152 176e da3f
00000420: 17d2 1c3f f3de b13f c473 2727 7dd8 b23f
00000430: a23f ccb6 d009 da3f 7031 7348 300d b43f
00000440: 309b 8280 8c70 b93f cf2d 5352 66a5 d93f
00000450: b820 afea c67d b33f e582 df19 94d4 b93f
00000460: 5114 72b1 47d4 db3f 4228 bedb d27c ae3f
00000470: 3f43 2021 1379 b53f cc41 6f3d 22a1 d93f
00000480: 3b09 1a0c d79b b33f a39a 8475 7efd ad3f
00000490: 452d 201c 0111 a23f b902 fb55 2260 a93f
000004a0: 0907 9fbb 6a3a b13f 654e a119 a751 a63f
000004b0: 66d2 a1af 99cc b23f 46bc a642 7e96 a73f
000004c0: 005b 7f89 061e a63f afeb 4b20 e3fb ae3f
000004d0: 2f77 84d2 243a a73f ec9e 63ab b223 9c3f
000004e0: 3a44 8ea6 a40c b43f 42bd ff21 3d74 a53f
000004f0: 2666 2e3d 9397 a03f 7990 3350 04a3 a63f
00000500: 2ade 3afe d1b3 b33f 4419 9bf7 6782 9bbf
00000510: 50be fa2a 30a0 ac3f 966a 6faf 8915 b43f
00000520: 7472 8126 3140 a63f 1e31 9734 3fda a93f
00000530: 2991 272b 42e4 b93f 26bb 9693 c5e5 b03f
00000540: 8d68 ca07 b706 b23f e832 6766 c09c b43f
00000550: 7b12 5ffb bdec ab3f 89c0 742d 1f5f b33f
00000560: ef0d 0ceb eb64 b63f 1188 8561 84e3 ac3f
00000570: b4de d9bc 3056 a93f 8577 b3dd 2e49 b33f
00000580: 8ae7 44a3 468a 913f 430e 2ec5 2220 a73f
00000590: 82d1 7dfe 0119 b03f ffce e0ca a5a9 99bf
000005a0: 36b7 381b 09c2 b13f 476c 59e0 12df b03f
000005b0: f969 0504 3684 ad3f 7e9e 878d 64ea b43f
000005c0: 5e79 bf90 7544 b03f 27bd 2075 173f a23f
000005d0: 2ce3 290a 4829 b53f 22a0 cef1 fd6e b03f
000005e0: 6103 e28f 57c8 a93f 1966 6805 e859 b03f
000005f0: c7fa ae67 0617 b13f 9b0e c487 7c34 aabf
00000600: 4e30 85f0 f817 b13f 8f6b f16f 4ae1 bc3f
00000610: 9334 cb51 baa9 db3f 3cce 892b a7c2 b33f
00000620: de5a 6c70 9904 bc3f 4a7a 763b 0d1b dd3f
00000630: c98a 6480 315e b63f f8ac 4b6c ce14 b53f
00000640: 7ec5 ba2d c5df db3f 5158 bca3 c683 b33f
00000650: ba83 3064 eef5 b73f 2262 682e a7fe d83f
00000660: 3b76 3593 4344 b13f 3bc3 35e8 30a6 b63f
00000670: e39a 934d 408c da3f 5627 198c e80c ac3f
00000680: e306 6e52 62a2 ba3f 4e7b 85ad 3568 da3f
00000690: bd28 04e9 d57b b63f 1369 fc3f 3866 bc3f
000006a0: 7b21 093d a08f db3f b5fd 40bf b125 ad3f
000006b0: 603a f7c5 c562 bc3f 7819 0130 ef61 da3f
000006c0: b0c2 1224 b71a b13f 20cf 22c4 ddea be3f
000006d0: 6448 a461 1181 db3f d2b7 ff60 4ab2 b33f
000006e0: 1700 009e 605b bc3f f12f 1d0d 0096 dc3f
000006f0: 546a 9391 d5fa b13f f55f 5dd5 99e2 bd3f
00000700: 5f78 96f8 a492 db3f eec0 a6c1 5a38 ad3f
00000710: 7098 4c96 0571 ac3f 7847 cc19 9010 da3f
00000720: e95d a1c6 b75e b23f 4d33 a7dc 7359 ba3f
00000730: 1dca 1911 6ca0 da3f 1bb3 e81c 8b53 b43f
00000740: a610 7559 dddb b83f 676c 32a7 bf52 d93f
00000750: 831b 3eb3 b9cc af3f 4168 e06b 5b9f be3f
00000760: 16ad cadd 7dc0 db3f 7bc8 4031 b39a b23f
00000770: 6f9d 9134 3a2b b33f 6001 2b7b 30bd d93f
00000780: 9897 df15 4299 c93f 235c 1b05 33be c93f
00000790: 3bc8 9825 6f5b d13f 35d0 5e89 4f36 cb3f
000007a0: 6ab6 a38f 88f5 c93f c5d4 385b 3f58 d03f
000007b0: bb67 db80 c68d cc3f d78d 277e baf7 c93f
000007c0: 320b c845 8382 d13f dbfa 3924 435f ca3f
000007d0: 0efa dc1d 10c2 c93f 6066 12ce 4960 d13f
000007e0: c612 0c51 8a41 ca3f 40a8 8a91 a2b6 ca3f
000007f0: 6894 3abe e360 cf3f c21c 3dc9 9902 c93f
0.2075772500773938 0.08144860243620625 -0.043045663353440344 -0.39958845291886025 -0.23747037611569805 -0.06507824630500246 0.11892282486670594 0.016969560986687546
0.002523408222351304 -0.6973034076213672 -0.6890791064235132 -0.38541218332592214 0.017337024763441962 -0.10430340067259569 -0.10105711622511138 -0.6340639361382812
-0.6229601187046139 -0.2925677324877277 -0.0552896195852599 -0.011768586750824686 0.10205578185578786 -0.35820026200871546 -0.1457288666452041 -0.03465216104318919
-0.5043344622279439 -0.4861244613894197 -0.2582533597614017 0.3219007583721334 0.3744368712217484 0.1277613234523026 -0.30031253597363794 -0.18210971145305596
0.023961485801635207 -0.5278632793365086 -0.5144623156010846 -0.18160600954130623 -0.013728008220481518 -0.061702156692715976 0.1395977244155604 -0.18645392798131216
-0.3449676638233217 -0.3076407248342623 -0.5758320171202251 0.46271192823516344 -0.14613763763557105 -0.5893456203246172 -0.6492298202700041 -0.308428894295786
0.1879072676629348 -0.2790736069868644 -0.25857790717602874 -0.16209427118024836 -0.23830701000713825 -0.715836706597352 0.11672214190480557 -0.28310233577338917
-0.17166565375760928 0.022537277469177507 -0.006817924163430334 -0.2623966536977604 0.1580273978319027 -0.34541694944756374 -0.39960205460619247 0.04839046596154033
-0.17021742065069217 -0.5836697265046384 0.030850695149891194 -0.5461996416860359 -0.4556492205271238 -0.21934620530661397 -0.11083312480244964 -0.5329671666939245
0.14001278788393867 -0.007969359229610708 -0.3634187243837053 0.10527809111754634 -0.14208697944420995 -0.25362810587457174 -0.14282849408406903 -0.4364689665318302
-0.6686248485993882 0.1903678479974944 -0.48938182301812994 -0.8144963922682056 0.08790838414870107 -0.6898474775316276 -0.27476094071949525 0.11297826690858699
-0.15822956140189576 -0.3209159376453067 -0.5898024440289028 0.20306798027897524 -0.24850037412243042 0.21946370999641723 -0.3332460727501154 -0.6074317685300551
0.08587607521688882 0.09453926240007973 0.4277925658687641 0.05410661122576151 0.12635448923675274 0.44023131701388135 0.07170204144446375 0.11039984938040384
0.4372716686288286 0.06585117885063461 0.06468530686870001 0.38910387888930076 0.08778596542731344 0.09509885662769897 0.3753376586456421 0.050704457252313706
0.0515168337047245 0.3923125241888501 0.07929825825286949 0.10592260560603266 0.4408883924382344 0.06718850035489259 0.07848317431991442 0.4133113005035797
0.07456275067498132 0.0919561405850062 0.43055509145222864 0.07724966498652099 0.12852963920587337 0.43123660940407316 0.06243953092978361 0.11082083386176256
0.4256704755835189 0.0718476620992281 0.07433285328673012 0.4129694280610119 0.06980819979509821 0.0736158581343736 0.40684907771446366 0.07832624214933559
0.09937360894637659 0.4007201961473727 0.07613795499412646 0.1008999407927252 0.4348315461032302 0.059546078991005405 0.08387870367756721 0.4004598236033672
0.07659668012096159 0.058574630589921094 0.03528598278361498 0.04956157016340996 0.0672976215419362 0.04359171092860662 0.0734344533719394 0.04607004703154209
0.04319782665668548 0.060515496914340765 0.045365477273874404 0.02747992678715054 0.07831791940977065 0.041902456665293034 0.0324064266380442 0.0442124698545578
0.07696258980546902 -0.026864647376691822 0.05590963863994303 0.07845364125334195 0.043458496046444944 0.05049321667647376 0.10113919786050886 0.06600603917352696
0.07041496219827277 0.08051683902813134 0.05454057401178588 0.07567019328848991 0.08747744072393691 0.05642331781815824 0.04948570542631839 0.07533543503401859
0.017129043307455606 0.045167051858723294 0.06288158858462192 -0.025061216838550667 0.06936699785793796 0.06590383507993734 0.057649314871657205 0.08170155005756816
0.06354460510144608 0.03563760094436424 0.08266115425238912 0.06419360307211311 0.050356613458467654 0.06387186176325378 0.06675758391700547 -0.051181689808825946
0.06677204010083068 0.11281266434654767 0.43223436343834826 0.07718891919085363 0.10944518084248098 0.45477610403932955 0.08737477669323392 0.08234872955260986
0.43553285089281946 0.07622949120954671 0.09359636255295714 0.39054278881079274 0.06744787544217783 0.08847337407293036 0.4148102529128847 0.05478598318275256
0.10404028427549465 0.41261045403910124 0.08782708109734734 0.11093474924237894 0.4306412311603009 0.056928209873599846 0.11088214953563513 0.41222743690413877
0.06681389456458464 0.1207712749335852 0.4297526792080417 0.07693924778115438 0.11076930863782795 0.44665528565087614 0.07023367694947896 0.11673890551662665
0.43082546497487856 0.05707057584675278 0.055549788090773045 0.4072609188016183 0.07175778006909862 0.10292743813552115 0.4160413901328484 0.07939977126870838
0.09710486825958017 0.3956755764754178 0.06210880578060254 0.11961909660058813 0.4336237588820081 0.07267303421466124 0.07487834723871399 0.4021722033321762
0.19998956745183416 0.2011169218955909 0.27120569869578376 0.21259493072068528 0.2028055859913594 0.25538619907758814 0.22307664195869656 0.20287257347000207
0.2735908681353748 0.20603217381354608 0.20123483141101456 0.27150197147566324 0.20512513120060855 0.2086985788967599 0.2451443365909285 0.1953918678866327

bias f8 [112]
00000000: c06c 1651 88b0 c63f 8378 1258 1fb8 d1bf
00000010: 45dc 148e 902b aa3f d72e 584b ae39 e9bf
00000020: 0275 f11b fc0c bebf 6a84 d09a 111d e5bf
00000030: 0897 afb6 ad27 793f 1dac b47e 67ae cebf
00000040: e988 016f bf6a e4bf e676 2840 6561 e03f
00000050: 00f4 cfab 5a6b c6bf 1e41 7011 1feb e0bf
00000060: b21d 2b20 1262 8bbf 2fac dbbd c22f dbbf
00000070: c515 1ca1 a8c0 b9bf efcc 4100 416e e5bf
00000080: 0183 8cf3 e7b8 c0bf 07b2 0810 32cb d4bf
00000090: ae5c 50c0 5f91 c6bf 050e 9f57 70b0 96bf
000000a0: 8fca 9b82 330d cebf 289c 9795 9579 c2bf
000000b0: dfb4 e3fa 839f dbbf 1086 b87d 9acb d0bf
000000c0: 80ea 3bc9 688d 9f3f db57 a598 4529 b6bf
000000d0: 60f6 9500 2435 dbbf 86a9 47e8 d640 d0bf
000000e0: f1e3 3e16 f02b e0bf 2800 2cff 868c b4bf
000000f0: 193a b83e 4122 d6bf 95ea 41ee c323 c4bf
00000100: f118 1f9b d483 c13f b412 3887 1281 c03f
00000110: 2e0d 7a1f 14c9 be3f d79f 9a4b ad24 bc3f
00000120: 0ddd 654d ee16 c03f a9ae 1e70 5c9c bb3f
00000130: ec15 0faf 7acb c23f 1093 4066 118d bd3f
00000140: 9e58 1791 b6fa c13f 17c7 787b 8c77 c33f
00000150: e999 a19e 30ce c03f 4557 2274 4b2b bb3f
00000160: 614e ad80 8ef4 b93f c937 e943 1640 c13f
00000170: 8571 08b7 35bb c23f 470c 4e30 8786 b73f
00000180: 59fd 59cf 180e b53f 1cbd 0551 97e8 aa3f
00000190: 0449 37cd 557d b23f faad 911b 02d5 a43f
000001a0: bf35 641a c19a ab3f e282 e183 11b8 ac3f
000001b0: f0ca 9483 83e7 ac3f 95e0 d14b 9b76 b33f
000001c0: fa1d 1b8d 84ad af3f dd84 eaff b350 b33f
000001d0: 7aa8 3894 4bda af3f 1df5 dda1 aa5e b03f
000001e0: c4f4 aa45 c28c b23f 7c4a 81cb ba91 a63f
000001f0: 935c f4c1 add5 b03f dc56 dfd2 5af5 a43f
00000200: 899c f87a 48ef c23f cfa2 354a ba22 c13f
00000210: 809f 4d94 ee01 c03f 868c 1b2c 38ad bd3f
00000220: 3c0b 0274 f64d be3f 6f05 9924 0174 bd3f
00000230: 9977 d913 6d18 c13f 6851 6de9 5dc1 bd3f
00000240: a714 fbb5 911a bf3f b45b 6249 7ac0 c33f
00000250: 0778 ba8a 9e14 c13f 1f7f 6400 fbd4 bc3f
00000260: 6ecc 4204 b9f1 bc3f 67b2 3472 311c c03f
00000270: bcf4 a7c2 7511 c23f 2d65 78e0 f69f bd3f
00000280: 5235 6bf3 bc07 ca3f 20c3 2ae3 ff7e cb3f
00000290: 3574 33a2 57de cb3f 31f7 109a aac3 cb3f
000002a0: ff20 bb18 ce87 c83f d7a1 26ed 3f8a cc3f
000002b0: 526b 5faf 80f8 c93f d121 a422 f12c cd3f
000002c0: 652d eba4 7a76 cc3f b2cd d24b 325e cb3f
000002d0: 6670 fea3 1adf c93f 6399 f646 67b9 c93f
000002e0: 73b4 dfec d6b7 cb3f 0686 dab5 4b89 ca3f
000002f0: de70 b9c5 e69e cb3f 20a6 171c 1937 ca3f
00000300: 7d26 db6a 15c3 edbf 709a 7226 39ba f3bf
00000310: 3c20 e1d3 be20 e9bf 0019 8dd5 8d57 edbf
00000320: 3953 6d11 b209 f7bf 35fd 0fed 1801 f1bf
00000330: cd09 74ff c301 f4bf c5c3 aa91 7e15 f4bf
00000340: afd9 a86f 4185 efbf b18d 7c55 3611 f2bf
00000350: 5c03 938e 35f2 f3bf 0bac fe93 e066 f3bf
00000360: 6796 b099 7d79 f4bf 6f76 9168 9b5a eabf
00000370: 166d f3dc afba f5bf 3d9b bcb0 a5f4 efbf
0.17726234397273366 -0.2768629417495349 0.0511136220397295 -0.7882911178180291 -0.1173856323452647 -0.659798433658705 0.006141356056991183 -0.23969739615253696
-0.6380307357869955 0.5118891003691857 -0.17515118970177923 -0.5287013378711298 -0.013370648962690666 -0.42479008236722654 -0.10059598859159909 -0.669708729269045
-0.1306428851321684 -0.3249020725805 -0.17631146326377717 -0.022157435749035077 -0.23477786900874206 -0.14433545879657683 -0.4316110563366475 -0.2624269702665467
0.030812871248580453 -0.08656725861268859 -0.4251184468956577 -0.2539574879034706 -0.5053635057912499 -0.08026927690298236 -0.34584075093235495 -0.1573414719931249
0.1368356473378252 0.128938976311607 0.12025571602321314 0.10993464561272447 0.1256997945708708 0.10785463082600678 0.14683469341086608 0.11543377634422947
0.14046365818530132 0.1520858385934438 0.13129241700808272 0.10612937531763318 0.10138788835075153 0.13476827922789728 0.1463381904330953 0.09189648560827478
0.08224635183613795 0.05255577911418127 0.07222496280818197 0.040687623849262125 0.0539150566784019 0.0560918305861884 0.056453809559021795 0.07602854348249573
0.06187071058735323 0.07545018194152271 0.062212335437224334 0.06394449664908959 0.07246030999063452 0.04408057913010041 0.06576047883241846 0.04093440841795168
0.14792734150362133 0.13387230514060497 0.1250589584481041 0.11592436863752384 0.11837711651064081 0.11505133765696994 0.133557924930696 0.11623179386999072
0.12149916355982048 0.15431145270551172 0.13344175123069155 0.11262482413848972 0.11306339601542145 0.12586038662392982 0.14115783695880235 0.11572211246711524
0.2033611477440141 0.21481321899548167 0.21772284908266362 0.2169087650562971 0.19164444167677883 0.22296904639848833 0.20289619982835433 0.22793401900732005
0.22236569454831137 0.21381214811627341 0.2021210957290151 0.2009705635548001 0.21654783788781948 0.2073149335820263 0.2157867875529353 0.20480646011064696
-0.9300639235527367 -1.2329646589147636 -0.7852472437161917 -0.916937748996844 -1.4398670845741448 -1.0627679119350664 -1.2504310587543046 -1.2552476587409143
-0.9850165539599426 -1.129202207500253 -1.2466331071193144 -1.2126165181205149 -1.279660797453653 -0.8235604326579969 -1.358077872361553 -0.998614163578942

weight f8 [112, 16]
00000000: 7f05 5289 d1cd d1bf 9160 73ae 0e59 dfbf
00000010: 99c4 83c9 0a4d cfbf 8af5 b7f8 8433 bf3f
00000020: 21b3 64bf 8b80 cdbf 0ec9 3419 4c22 b8bf
00000030: 7bad 2338 e0b9 e1bf 1603 76be 95a8 e1bf
00000040: b6df 5ba5 c59f 9e3f 1123 aa1e d315 d3bf
00000050: 3dc2 8678 2889 e1bf f85a 8498 a303 c9bf
00000060: e668 f3cb c0c2 e0bf e159 bdea 6841 b4bf
00000070: fff7 5123 adda d2bf 3997 4273 7c5a 91bf
00000080: e50a 7a61 fe18 f4bf f329 ad75 02df e0bf
00000090: a89a b9da 188d f3bf db92 e072 5559 efbf
000000a0: 6aef 2b15 f1d6 f1bf 9010 2664 831c e9bf
000000b0: 1fbe 8862 927b e0bf 5193 0e59 174c e0bf
000000c0: 5937 e502 e2e0 e6bf b485 bcc5 462b f5bf
000000d0: bca8 a263 47ab ddbf b356 1749 3b64 e5bf
000000e0: b90f 5ad7 d22e e2bf e433 b548 2e92 eebf
000000f0: 451f 1fe6 8c61 f1bf c266 5526 23ef e9bf
00000100: e09f 07af d8c1 d2bf 907f ab58 74da debf
00000110: f29e ba06 33c3 d1bf c0dc 46a6 fc1c ae3f
00000120: e750 e71d d5e1 d0bf 0373 a136 faaa b8bf
00000130: 0019 a6fd 4edb e2bf 8df2 6f39 66dc e0bf
00000140: dd34 f600 add1 7d3f 4078 0a10 5c12 d6bf
00000150: 65e8 0e4d 9a4f e1bf d6bd d92b a9f2 cdbf
00000160: 17bf e387 3ca3 e2bf c143 18eb dcd2 b7bf
00000170: 9c0e 22a7 1aa9 d4bf 95be 9056 915d a8bf
00000180: 041c c911 255f f2bf 6d1c cfb5 8953 dbbf
00000190: e23f 0ee1 4699 f1bf e081 7a39 9b1c e2bf
000001a0: 4f43 72e8 ea87 f0bf 68df c6f9 5d5e dfbf
000001b0: d657 4c38 6db9 dfbf 2e9e 7ace 6650 ddbf
000001c0: f89c 1488 6515 e1bf b2f3 67ba 1e7e f3bf
000001d0: 2fa6 bc35 e4db dabf 13bf 97e0 84bd dcbf
000001e0: 69e0 8954 9d75 e1bf 34fc a15c 1407 ebbf
000001f0: 93cf 463c fb5d f0bf d482 7ab8 30c9 e1bf
00000200: 5f1a b4c2 cd06 debf 1064 f561 b949 e9bf
00000210: cbb5 a988 b293 ddbf 12b8 3168 9e66 bc3f
00000220: 23f0 d53e d7fc d7bf e67b e29d a495 a8bf
00000230: 58ce e40d f26e eabf 9ad7 171c 3278 edbf
00000240: 8e4a d834 5dfd 8e3f bcf2 817c 7203 e2bf
00000250: ef62 82af 324a e8bf 04d1 90f7 dfc0 d1bf
00000260: c1b6 cf6f 8f48 e8bf 55c8 c53c 555d c6bf
00000270: 3739 1142 5d03 e0bf 1853 6592 f120 913f
00000280: 9130 70c2 b50e f2bf 0f52 2fa6 5d3f dcbf
00000290: 0fa6 3bdc a9e6 f1bf 52f6 9edd cfd2 e5bf
000002a0: 42f3 c4eb 689c f0bf 0e16 f8e9 e43d e1bf
000002b0: 6254 4855 1556 e0bf eefb 2548 ade7 debf
000002c0: 6a6e 1750 9e31 e1bf ccff 7a43 7141 f3bf
000002d0: 7fe5 9ea5 8d88 d9bf 89f5 11c4 3a8d e0bf
000002e0: df43 747b e3e2 e1bf 8b1e 7841 f2bb eabf
000002f0: 9d12 c703 8911 f0bf 1704 4c99 112d e4bf
00000300: c824 b493 89ba f3bf 79fa b002 d69e e1bf
00000310: 26c5 6fe8 4f54 f3bf 8927 8c5c 3139 eebf
00000320: f64e 6483 dcf1 f1bf e864 fd13 2419 e8bf
00000330: ff6c 3dac e88e e1bf add1 459a bdcd e3bf
00000340: 9b37 688f a9ae eebf fff4 0c67 e272 f4bf
00000350: 2faf cb89 d2d4 e0bf 2a59 fd3a 8300 e4bf
00000360: 48d0 ee18 26d6 e1bf b992 2647 3fb3 f0bf
00000370: 4d64 7d28 e953 f1bf 8ba7 0fbd c6f5 e8bf
00000380: be4e 19af 8d0c f4bf b5a5 f854 6a9c e1bf
00000390: f3dc 51bc 94fb f3bf c631 3bcb d9ac ebbf
000003a0: 231e e82f 2734 f2bf 9e33 8838 793f e6bf
000003b0: 20c8 8f25 10e1 e0bf f383 3830 e09b e1bf
000003c0: 0bfa aec9 2fc6 eabf 972c 8d8f 277a f5bf
000003d0: dbba f1a5 1e3b e0bf 685f 136c 0cd4 e2bf
000003e0: eb83 a8f1 d9cf e1bf 11cf 5757 39e1 efbf
000003f0: d776 b8b7 4e62 f1bf 8a92 b4b2 d807 e7bf
00000400: 1d66 7c69 ac3d f3bf d318 f989 adf7 e2bf
00000410: 702c fb69 aaf9 f2bf 3e81 1c19 6ae8 ddbf
00000420: 1294 bab8 a982 f1bf 971c 8a82 0e5f ddbf
00000430: eee7 9233 6360 e3bf f111 5e3d a64e e4bf
00000440: 9a2c c430 f9dd e3bf 6b3c 9738 3231 f4bf
00000450: 9227 f446 450a e3bf 088d e54e 5ef0 ddbf
00000460: 864b daca 8309 e4bf e0ea a279 23ef ebbf
00000470: 9575 853b 1977 f1bf 30d6 3a9a d6eb dabf
00000480: 7c2c 22c5 6c90 c3bf 00ed 5f13 20d1 c4bf
00000490: b92e 57f2 2343 c6bf 3464 37ae 8cf5 c53f
000004a0: 7039 68a3 c0ba bfbf 71e3 6a67 b9a5 a73f
000004b0: 987b 668f 86c8 cfbf b6d9 8316 293e c8bf
000004c0: 38bd b00c 3093 c23f 53f8 6454 fee5 c2bf
000004d0: 657a 1caf 8946 c8bf f172 39dd b5c7 b4bf
000004e0: ea9c c7c0 01b0 d0bf c660 754f e19b 823f
000004f0: af31 c48e 2c0e c4bf 161a a438 8527 a53f
00000500: 802c e929 f095 f4bf 0c2a 1a90 96c7 e1bf
00000510: 0ec2 dc6f f1ea f3bf f1dd 3ac8 2866 f1bf
00000520: 2bb6 eb6e d9e7 f1bf f9ca 7174 82fa ebbf
00000530: 5cf9 960d 658d e0bf fc9a b4de 8265 e0bf
00000540: 9b31 161d ebb8 e7bf 6776 3190 c8ba f5bf
00000550: f506 80d0 096c dfbf b5ad 5932 9dcc e7bf
00000560: 16d1 62f5 953a e2bf 47f2 9043 fe51 efbf
00000570: fcae 02e6 eb76 f1bf bef9 e246 7016 edbf
00000580: 9e4b 993a 61cf f2bf 2ac6 8772 8446 dbbf
00000590: d591 f603 675a f2bf 235f e872 a86c e7bf
000005a0: a856 bf05 a691 f0bf 9603 5bbb 24bd e0bf
000005b0: 9586 36a3 1f92 e0bf f7b7 1328 a8a5 debf
000005c0: 6ddd c02a a662 e3bf 872f 6dd6 42db f3bf
000005d0: 9544 1b36 0c0a dabf eb04 f459 8945 e0bf
000005e0: 880a bc71 7ecd e1bf 28d7 527f 06fc ebbf
000005f0: 8553 7b2e 2d37 f0bf 62d1 500f acc9 e4bf
00000600: 5c3a 4d57 1db2 f2bf 67e0 17b6 b18c e2bf
00000610: f8d7 c2a0 f019 f2bf bdf7 07bf 31ad ecbf
00000620: eb13 57b8 6461 f0bf 2e1e 0d62 5dbd e6bf
00000630: a4bc be04 a315 e2bf 6529 80aa 6a06 e4bf
00000640: 80fc 2339 28b2 eebf fd9c 1cb9 4828 f3bf
00000650: 55c5 a1be a8fb e0bf 348e b5ae 563f e3bf
00000660: f82d 1dda 877a e1bf c0ec 9191 88d2 eebf
00000670: 71f5 3cda e749 f0bf bd67 333f fd9a e7bf
00000680: a77f 0b0b a625 e6bf 28ad ee35 a5a4 debf
00000690: 51f3 f995 4bf2 e5bf 3961 deca 26ce ba3f
000006a0: 2bc3 e280 443d e4bf 2ac3 70c8 3548 a6bf
000006b0: a577 bb5a e0e2 e3bf 8f7c b49b 67c6 e1bf
000006c0: 0efa ca06 6ec4 b4bf c782 4700 2b10 e8bf
000006d0: 38a0 57a1 d551 dfbf 59c0 9717 2f00 c9bf
000006e0: 24ea 4332 a1b1 e2bf acdd 52d9 dd7c d7bf
000006f0: 434e 8ffd d828 e5bf 2823 62a2 dace 993f
00000700: 625a 3adb 6906 debf e8ed 5e04 b17b c1bf
00000710: 0516 2d2f b5f0 debf d818 9ca5 8f4e b03f
00000720: 7b2f f87e 89d2 dabf cba0 61d3 f0d2 aa3f
00000730: 97ab 3a3a 37be ddbf 2dc9 38e1 25b2 babf
00000740: 5976 c2f2 168d 72bf a185 f9e9 597c e0bf
00000750: 9a1e ecbd 96c5 dabf e9f3 6123 fbba 973f
00000760: a39e c4ed 2b1f dfbf 19c5 268f 089a d2bf
00000770: 68ed b57c 0ff5 dbbf 6cea 27bb bbf1 953f
00000780: 9291 daea 54b5 f1bf 6692 01e2 d164 dabf
00000790: 89a2 a99e 51c1 f1bf 31d6 7389 9604 e2bf
000007a0: 79b7 505c b52a f0bf fca2 e43f 665e ddbf
000007b0: 1916 ea91 ec7f dfbf de98 9b4f 0a36 debf
000007c0: e0a5 d99e a17b e1bf 95b9 6efb 6f02 f3bf
000007d0: 97fc 7c31 3ba6 d9bf 571a e3ce bad0 dabf
000007e0: 4010 77ab b10a e1bf c804 79be bb26 eabf
000007f0: eff9 2b37 14c9 efbf b4c4 918e 0ba0 e0bf
-0.2781871644038673 -0.48981062923622526 -0.24453863944612378 0.12187987396460734 -0.23048540921572516 -0.09427333464990204 -0.553939923903655 -0.5518292159978013
0.029906357019143313 -0.2982070731600724 -0.5479929307967449 -0.19542355486984042 -0.5237735732473794 -0.07912307482670357 -0.2945969433711752 -0.016946739706916267
-1.256101971405479 -0.5272228525512318 -1.2219475311227743 -0.9796550029464827 -1.1149760081306916 -0.7847306209591967 -0.5150844501967561 -0.5092884768861073
-0.7149515205908116 -1.3230655407026974 -0.4635790322305515 -0.668485300785241 -0.5682157713022128 -0.9553443355631512 -1.0863160122989524 -0.8104415653899297
-0.2930814465785243 -0.4820834031979695 -0.27753902108314243 0.05881490258928457 -0.2637837211634761 -0.09635890802151086 -0.5892710641935821 -0.5269042131254352
0.007280040546345759 -0.3448705822610272 -0.5409671311420082 -0.233967920695689 -0.5824263242811608 -0.09306126346224543 -0.3228212959440755 -0.0475888651056923
-1.1482287115811696 -0.4269737506369385 -1.0999211112248237 -0.5659919855716531 -1.0331830100951327 -0.4901347102381721 -0.49569254396317086 -0.4580323234936
-0.5338618905851993 -1.2182910233961874 -0.41967110870118324 -0.44906732495199825 -0.5456072474617147 -0.844614201472615 -1.0229446749262692 -0.5558093646141864
-0.46916526807800624 -0.7902495301488006 -0.4621397337531021 0.11094083827785564 -0.3748071778898085 -0.04801668574622635 -0.8260431548464551 -0.9209223316854491
0.015131691146085726 -0.5629208022870311 -0.7590573718944976 -0.2773971479066548 -0.758857458478552 -0.1747232958546784 -0.5004106798531102 0.016727232513704754
-1.1285913081401626 -0.44136754254330496 -1.1188143351413407 -0.6819838837179282 -1.0381859979381294 -0.5388054437359544 -0.5105082193064272 -0.4828904347013453
-0.5373069347655932 -1.203477157207078 -0.3989595525159401 -0.5172399358267948 -0.5589463626112056 -0.8354426649757029 -1.0042810580791077 -0.6305015558319863
-1.233041359870457 -0.5506391575398332 -1.2080840186648145 -0.9444815452163634 -1.1215481884473184 -0.7530689611841384 -0.5486949314176001 -0.6188648236407538
-0.9588210869712727 -1.278047945538958 -0.5259792987176065 -0.6250625755444947 -0.5573912131280929 -1.0437615184138578 -1.0829860288270254 -0.7800019924736586
-1.2530648078726894 -0.5503436717601092 -1.2489211422196689 -0.8648499459609915 -1.1377326842647413 -0.6952482322827682 -0.5274735196710516 -0.5502777997791085
-0.8366927088862338 -1.3423228843192072 -0.5072167626475123 -0.5883848296025294 -0.5566224784744213 -0.996243162719539 -1.086500852259112 -0.7197078218783457
-1.2025570030731452 -0.5927341170106736 -1.185953535069327 -0.4673104520061492 -1.0944001403779606 -0.4589267992782395 -0.6055160529424464 -0.6346007536490658
-0.6208463623492151 -1.2620107851578506 -0.5950037370505348 -0.4677959223246977 -0.62616147632285 -0.8729417205534808 -1.0915767979671263 -0.4206444269324008
-0.1528449976507068 -0.16263199754744306 -0.17392396290812487 0.1715560770669825 -0.1239433669036083 0.04618625056668336 -0.248307056445779 -0.18939698790900444
0.1451168119396955 -0.14764384384938242 -0.1896526436839451 -0.08117233897196365 -0.2607426054587011 0.009086380231267187 -0.15668255778326798 0.04131714168947924
-1.2866059910909655 -0.5556137861725019 -1.2448591584799291 -1.087441236637343 -1.1191038449136481 -0.8743297838503558 -0.5172600999283463 -0.5123915052143668
-0.741323048410368 -1.3581014282748585 -0.4909691368230676 -0.7437273009685926 -0.5696515839286203 -0.9787589378025324 -1.0915335640701747 -0.9089890846733437
-1.17562983408127 -0.42617903885465813 -1.1470708994685215 -0.7320139164248513 -1.0355587219723166 -0.5230888041770523 -0.5178373515847904 -0.47886089242717794
-0.6057921252276351 -1.241030538180867 -0.4068632629760683 -0.5084883458040655 -0.5563347073915148 -0.8745148169316268 -1.0134708228772251 -0.6496181773314158
-1.1684850130292466 -0.579674583102144 -1.1313329963427332 -0.8961418849064483 -1.0237776947772044 -0.7106158175528827 -0.5651412098576611 -0.625783284195944
-0.9592476955439366 -1.1973349791458638 -0.5307201121596942 -0.6014817631043514 -0.5462073574103092 -0.963199886623805 -1.0180433773924416 -0.737669585646692
-0.692095777103522 -0.47879915491894787 -0.6858270577646214 0.10470812275741971 -0.6324789540577503 -0.0435196692636793 -0.6214448711505055 -0.5554693261255056
-0.08112228074876546 -0.7519736295181126 -0.48936978107531415 -0.1953181138228526 -0.584183309721372 -0.36699625227944455 -0.6612362816180809 0.025203148041813922
-0.4691414490602367 -0.13658726418894607 -0.48344163519900035 0.06369874757010352 -0.4191001644073748 0.05239060001696457 -0.4647348469395011 -0.10428082226352293
-0.004529084817617234 -0.5151795930689113 -0.4183098654470797 0.02317421344240592 -0.48627756328139976 -0.2906514547313051 -0.4368323057057837 0.021429951952067247
-1.1067704366661002 -0.4124035555926525 -1.1096969793090088 -0.5630600628489387 -1.0104268652025594 -0.4588866828876659 -0.49218286752179236 -0.4720483567638335
-0.5463417151015015 -1.1880950757582458 -0.40077094872317204 -0.41898985103435876 -0.5325554226806233 -0.8172281952066891 -0.993295772321117 -0.5195367607649559

bias f8 [112]
00000000: bc6c 16c1 7a38 c63f 7d78 127b 2803 d1bf
00000010: 35dc 148e 7cd4 ad3f d52e 38ae b09e e8bf
00000020: 0175 71df 2927 bbbf 6e84 100d 4f33 e5bf
00000030: 5ee6 ab65 5f51 923f 1aac 542d 3a3a cfbf
00000040: e588 014f b4d1 e3bf e676 d0c6 df00 e03f
00000050: 04f4 cfa1 015c c6bf 2141 3076 d6b3 e0bf
00000060: bf8e 15c1 aa31 9bbf 2fac db72 4f0c dbbf
00000070: c515 1c31 727b b9bf e1cc 01ef adf5 e4bf
00000080: 0e83 8cd3 94e0 c2bf 08b2 88d2 2ba3 d4bf
00000090: b25c d002 3c33 c8bf 23e0 f079 fb5e 5ebf
000000a0: 7dca 1b19 8b13 cdbf 289c b72d 6b77 c1bf
000000b0: ddb4 e3c6 317a dbbf 0c86 d8ef e8ec d0bf
000000c0: 7dea 3b89 61b4 9a3f d957 a550 78f7 b5bf
000000d0: 60f6 edab eec6 dabf 8ba9 4713 17d6 d0bf
000000e0: efe3 3e50 934a e1bf 1e00 2c9d ab36 b8bf
000000f0: 173a f896 012d d6bf 8fea 4158 6ac0 c2bf
00000100: e818 1fe7 2a38 c23f 5c25 7024 509d be3f
00000110: 9306 bd5f 5881 c13f d39f 9ade 159e b83f
00000120: 0dba cbc2 ab2d bb3f adae 1ebd 8b52 b73f
00000130: ea15 0fb0 6ef8 c03f 1893 40b9 6fac bc3f
00000140: 9858 176f ec3e c13f 0bc7 787b 236f c03f
00000150: e599 619c d75b c13f 4957 22e0 ada4 ba3f
00000160: 4b4e ad66 ad12 bd3f d037 e905 6b00 c03f
00000170: 8c71 08c6 9f12 c23f 460c 4ec8 111a b73f
00000180: 5dfd d9a6 68d1 b03f 07bd 05e9 97b9 ad3f
00000190: 0b92 6e42 8774 ae3f fcd6 c885 3cc5 b53f
000001a0: be35 640a 57da a83f 0783 e159 059a a33f
000001b0: 6b65 8a03 ceb9 b13f 96e0 d10b a49b b13f
000001c0: 0a1e 1bb8 e58c ac3f dd84 ea4b b5c5 b33f
000001d0: 6fa8 383a 44b9 af3f 3cea bb83 8d36 a43f
000001e0: c4f4 aa7d 45ad b43f 1fa5 7085 939b b03f
000001f0: f3b8 e82f f360 af3f e056 9f77 dc03 ab3f
00000200: 3239 f18d dea3 bf3f 8c45 6b04 e3ff bd3f
00000210: 809f cd4d 2ae0 c03f 868c 1bb3 d798 ba3f
00000220: 9e05 01da c631 c03f 7105 8371 82da ba3f
00000230: 9277 d940 0042 c13f 6451 edcd bb51 bb3f
00000240: 5e8a dd56 6692 c03f b55b 6248 d0f1 c13f
00000250: 0378 8aca c791 c13f 1c7f 6425 377a bf3f
00000260: 74cc 425e 5414 be3f f264 699c c011 b93f
00000270: baf4 a79e a9b7 c13f 3165 7810 1d0f bb3f
00000280: 5235 9b35 7468 cb3f 1fc3 aa46 bed8 cb3f
00000290: 3574 b332 daa6 ca3f 31f7 1097 06ec c93f
000002a0: 0621 bbf4 ebf6 cb3f d7a1 26d3 e492 cc3f
000002b0: 4e6b 5fd7 8575 cd3f d321 a478 b588 cd3f
000002c0: 632d eba7 2524 cb3f b3cd 9259 0219 cb3f
000002d0: 6770 fee2 38da cb3f 6499 f6c6 e415 cc3f
000002e0: 75b4 5f2f e30a cb3f 0586 da5a 5a5a cc3f
000002f0: de70 d93c f657 ca3f 1fa6 5712 e725 cb3f
00000300: 8026 a3ec 8bab edbf 729a 12a9 2dd8 f3bf
00000310: 3820 21e5 e5b7 e8bf 0219 cd35 8fd2 edbf
00000320: 3753 0df5 3cd6 f6bf 377d fb6a fe1c f1bf
00000330: cf09 1441 e614 f4bf c4c3 12ea 9807 f4bf
00000340: aed9 e8cd 6137 efbf b08d fc7e 5c9f f2bf
00000350: 5f03 33c3 bde5 f3bf 0aac 3ec4 ed13 f3bf
00000360: 6736 76f0 42ad f4bf 6f76 b384 a749 eabf
00000370: 156d 730b a9ef f5bf 3c9b 9cbc 09ad efbf
0.17359861782174402 -0.2658177568317866 0.05826176866906289 -0.7693713572238844 -0.10606633858829541 -0.6625132804075642 0.0178885370068883 -0.24396445477881984
-0.6193486731611101 0.5001067050067973 -0.17468281174652145 -0.5219528492325801 -0.026556652102398767 -0.42262636391268676 -0.09953988741843663 -0.6549901645761588
-0.14747867898497485 -0.32245917854268713 -0.18906355035207906 -0.0018537002395202582 -0.22715891576770622 -0.13645686847959948 -0.42933315680313716 -0.26445983335915524
0.026078723908521163 -0.08580734223264076 -0.4183918646811886 -0.2630670250206541 -0.5403534476564554 -0.09458420359806083 -0.34649696105125954 -0.14649705228278662
0.14233909878948414 0.11958790673829384 0.13675980257726347 0.09616219219844817 0.10616563325650237 0.09110329978164584 0.1325815543806777 0.11200617096671939
0.13473277496695313 0.12839168099304063 0.1356153024273247 0.10407530519509324 0.11356624371301753 0.12501275814650947 0.14119336289958218 0.0902415384316991
0.06569532464526646 0.058056590266341294 0.05948279081284021 0.08504083887313735 0.04854080201958365 0.038284461232938986 0.06924140535774874 0.06878114021845003
0.05576246139895254 0.0772355375616089 0.06196034632405733 0.03947870476800516 0.08076891248761614 0.06487390525639512 0.06128654441669026 0.05276383362040149
0.12359419789683981 0.1171857724941871 0.1318409805201064 0.10389469263786752 0.1265190662834756 0.10489669104847167 0.1348266903541427 0.10671590592875685
0.1294677662036347 0.14019206556687683 0.1372613657921989 0.12295860922722252 0.11749770451824465 0.09792712992329536 0.1384174370468026 0.10569936420542515
0.21412518136495834 0.21755197954691938 0.20821692920336124 0.20251543403895192 0.2184729523635342 0.22323284444907074 0.23014901176687846 0.23073452368431777
0.21204062174943336 0.2117007195825927 0.21759711345373775 0.21941814150813876 0.21126975835014475 0.22150735317431738 0.2058093831173044 0.21209419627784684
-0.9271907445738208 -1.2402779201890124 -0.77244848968349 -0.931953053551098 -1.4273042270990126 -1.0695785693167872 -1.2551024000282387 -1.251854814862086
-0.9755105039283103 -1.1639065704738236 -1.2435891747447483 -1.1923654237568848 -1.2923001664197729 -0.8214910117928421 -1.3710108229923368 -0.9898728069136733

weight f8 [3, 16]
00000000: 553a 3804 75d4 d2bf 062b 6144 175e d4bf
00000010: 51f4 af7f ff95 d3bf 3617 557d 58c1 d3bf
00000020: fb5b 00d3 cfc2 d3bf 5bbc 2815 a762 d3bf
00000030: 074f e6d9 3cfc d3bf 7b0f f364 93f3 d4bf
00000040: 66a6 9c99 f4ea d2bf 6e49 3501 b5e0 d2bf
00000050: 9eaf 76e1 2baf d4bf 1131 054f acb8 d3bf
00000060: 6596 5dde 142d d4bf 9cb8 2376 57a4 d3bf
00000070: 2b53 b32a 3007 d5bf 4a51 4abc c38f d2bf
00000080: b6eb edcd 4b30 d3bf c794 ccba 65b2 d3bf
00000090: c8df 0d51 acf1 d3bf 876b 4455 8ab6 d3bf
000000a0: 2418 2b12 6da2 d3bf 41a8 c675 c666 d4bf
000000b0: dc67 2acf d170 d4bf 013f 0ca2 7811 d4bf
000000c0: 69ca 9f1e e70f d3bf ad3d fb05 4d06 d3bf
000000d0: 3cd8 998d 5999 d4bf 85ae 0e6e 4e1d d5bf
000000e0: 4088 fd5c 184a d5bf d37c 684c 2c49 d4bf
000000f0: 4aa8 e7c6 a2c6 d1bf f542 d8f3 85e9 d4bf
00000100: e86c aa4c c415 d5bf 0221 b85a a8a5 d3bf
00000110: d584 4e5a 175b d5bf 01bb 6fab dd74 d5bf
00000120: f74d 8584 4551 d5bf cefe 142d afa6 d4bf
00000130: ddaf 0f32 227d d3bf 0965 904a ba08 d5bf
00000140: 569c 46b6 1283 d5bf 47d1 03ad 1cc2 d5bf
00000150: b4cf ede3 dc89 d2bf 880d f2b5 c1cd d3bf
00000160: aee0 cab9 9795 d3bf 8dad dfa1 43b6 d6bf
00000170: 6c25 25b1 6d02 d5bf a8e8 7b6b 7b85 d4bf
-0.29421735202860094 -0.31824285199824975 -0.3060301539370061 -0.3086758827160908 -0.3087653694687444 -0.3028962809211799 -0.31227036742460296 -0.32736668451638423
-0.29559054375804406 -0.29496502988799633 -0.3231916143220078 -0.30814655033897603 -0.31525155749691286 -0.30690561806739836 -0.3285637299534751 -0.29002469432568445
-0.29982276068011104 -0.30776351205925007 -0.31162555613945786 -0.3080163796127455 -0.30678869985820456 -0.3187729025036142 -0.3193859599210762 -0.31356635880455036
-0.29784563055651475 -0.29725957473871284 -0.3218597300359567 -0.3299137186793149 -0.33264741021242017 -0.3169661279843698 -0.27774876999194886 -0.3267531281754111
-0.3294535397232736 -0.30698593959142795 -0.33368476695075105 -0.33525792829361484 -0.333085421957747 -0.3226736011747392 -0.30451254738613703 -0.32865769654888816
-0.3361250667607626 -0.3399726571654082 -0.2896644807690294 -0.30943339126698577 -0.30600541251943525 -0.3548745232389699 -0.3282732229168548 -0.3206471013687726
