Retweet/RetweetNetsV3/TrainNet_ep7V2.pt (torch, 23465 bytes, 6 tensors)

scale f8 [3]
0.5683867440924469 0.5656541968374205 0.5504625637332508
00000000: 636c ab65 3930 e23f 3861 88d4 d619 e23f
00000010: 1803 9daa 639d e13f

weight f8 [112, 3]
0.15610477515865362 0.08969926584018918 0.03847705274327047 -0.45400186084215705 -0.3142178022961912 -0.14102777927707877 0.10707495281191506 0.044302955593097736
0.0800954572420953 -0.5828286982307048 -0.5334505378509536 -0.3228153808501975 0.04780687606202095 0.04332482926244637 0.023132306939920577 -0.5719652584763542
-0.5231184500535482 -0.282867184008993 -0.16922143897845085 -0.13598785880262956 0.006370630157826846 -0.4109854450495485 -0.23271796662694696 -0.10404688382609385
-0.41270611887623204 -0.3496628010363845 -0.20037167319819674 0.212473271828771 0.23604993521959 0.13264033407233067 -0.3963043066003462 -0.2855436775307676
-0.08530940843071913 -0.507532134220521 -0.4572011516853885 -0.2209247945280291 -0.11897606361381952 -0.1497227445879084 0.05339550544694429 -0.09476925937350092
-0.2099918435917611 -0.18030421554011924 -0.24677479564261906 0.28982963641447534 -0.046258320507604186 -0.5361842886834002 -0.5395383126449494 -0.30649057128758417
0.11781616896392225 -0.1886759644401526 -0.12360299605564253 -0.05498433017843812 -0.2036152452652219 -0.5413744788909987 0.08733805676898317 -0.1876679729984651
-0.06811359844266299 0.036767614851724445 -0.04521382673613108 -0.16898237330892787 0.036219970651368935 -0.17239924324992564 -0.15473122832872313 0.06666582462482754
-0.16334911858166323 -0.22706801696990378 0.09651666815357593 -0.46125216297549504 -0.4658397535615725 -0.05154319701361727 -0.16717193949991332 -0.5540044944660493
0.10862506511822399 -0.031342682805032794 -0.25311458625186095 0.07747795615894693 -0.10836963331977811 -0.1232814536929691 -0.04152865307647415 -0.3685227379558353
-0.5293259756926076 0.11950271432197043 -0.3572789874278524 -0.5233387633679685 0.1315788453478503 -0.4957864361802818 -0.28992465703652287 0.0597616229532709
-0.14459780651123955 -0.16696592831066173 -0.31006515524438144 0.11339424506030643 -0.16605046243017973 0.15927062736379904 -0.2811347563199572 -0.3276797772459471
0.07543050845979249 0.07639333385066666 0.30970307046495943 0.05479797293590873 0.10552112183416527 0.3230982297628642 0.062327046463129115 0.09594101519327722
0.3199185136933689 0.06923220321031148 0.05696202232729105 0.2780336291773407 0.08230423755183834 0.08320571761953907 0.2631436473740061 0.05994344405742673
0.04273600655118914 0.28833656948162256 0.0738471310079605 0.0823221100514556 0.32054791768308893 0.06778472242975711 0.05902463386617522 0.2932999117009608
0.07027240958469264 0.07793297267640534 0.3151532987324471 0.06868020966394352 0.10654136483393718 0.31219568331412334 0.05907040665557856 0.08834778545313433
0.30724509306229203 0.07887229317185664 0.06527047705617608 0.3049524886897485 0.06492323471977286 0.056173439235706446 0.2893524288623634 0.07040602863141579
0.08427235674041084 0.28585806972390454 0.07007933072466063 0.07852019255814832 0.31483870842242134 0.06592822356502501 0.07852206453821373 0.29715092530461307
0.07438324183884235 0.06735906294225598 0.05689311653506086 0.061632143342391546 0.0628358763376889 0.05946401438904305 0.07130459022940729 0.05709537633070168
0.06641666616960254 0.07211463325100927 0.04762290598744918 0.052634089834307715 0.07730330286771787 0.04936666816031239 0.05099702113623738 0.06009754775816545
0.07973393810198715 0.029603269936247664 0.06096213050818775 0.07433810495167371 0.05169979444534341 0.06016479861412157 0.09597359923375533 0.0662002682924972
0.07453320299311772 0.08132521108526096 0.07103691674481158 0.0758896811790603 0.08884392682265704 0.057434746714362286 0.056866874699000834 0.06973697930906855
0.03508768944772962 0.05801380072885784 0.06938947189235757 0.03249160648418568 0.07162906468917468 0.06324719859482984 0.059613077243246416 0.08049285908025
0.06822445355878132 0.05888150549169938 0.08380036664628969 0.06540990792380155 0.05443800046777239 0.07484063259146898 0.07545547751474836 0.034129787868397383
0.053919476742590774 0.09318578148399016 0.31634076198354455 0.07633516835878115 0.08587609131315554 0.3356612986376264 0.07766599066920964 0.0683039727004716
0.3205579066358191 0.08001115562110352 0.08701820676910667 0.27890641065763516 0.061994547216878734 0.08032071240150383 0.3054234716586702 0.06411891198334396
0.09574357544735895 0.3077730975759088 0.07894259730541774 0.08170404635413898 0.3074369336886987 0.056205882688290514 0.08890736213166867 0.2904353798128225
0.0627832568652884 0.10791115884386081 0.31429148448578537 0.06477044372844863 0.08199794008098656 0.32739610396685725 0.06465725704259323 0.09039265918479393
0.30966259030539217 0.06339537183982731 0.04632459446174343 0.29901554083151627 0.06419271124425724 0.0812994215880736 0.29578517440236934 0.07241604874029785
0.08417158604600367 0.28172202535538043 0.0662893564211069 0.0821046290646571 0.31631886813248716 0.0787129845488205 0.07003695481531104 0.2992983212466504
0.19373535837595424 0.19498611758081866 0.22708576158563065 0.20780803942139256 0.1950623592722665 0.21027978947393075 0.21706443748994697 0.19696914070577742
0.2273961492113392 0.2020158779601827 0.19462584268340255 0.22808489874077992 0.20022191428623223 0.20197102515673065 0.20549995866149065 0.19082742335681446
00000000: 1c26 07c4 3dfb c33f 3142 42f5 87f6 b63f
00000010: 7a8d 5ba6 43b3 a33f 29f9 28d2 5d0e ddbf
00000020: 7bb8 2bfc 241c d4bf a449 e9c1 320d c2bf
00000030: 6244 8c9c 4369 bb3f d3e8 c682 e0ae a63f
00000040: 1eb8 69c9 2281 b43f b346 c25e 88a6 e2bf
00000050: 834f c3dc 0612 e1bf b96e d9d7 01a9 d4bf
00000060: 21ad 6b92 247a a83f 7bf0 9209 ac2e a63f
00000070: 90e7 26d7 feaf 973f 0455 f315 8a4d e2bf
00000080: 1e41 5de7 62bd e0bf 0a89 1bf6 7e1a d2bf
00000090: 93e5 1851 0ca9 c5bf 11ed 1ad7 0c68 c1bf
000000a0: 3aa8 ec02 1718 7a3f 10ab 67e5 954d dabf
000000b0: 8f5b edcb b3c9 cdbf 19a6 480b d1a2 babf
000000c0: 29ae dbec c669 dabf c40e c515 e060 d6bf
000000d0: cd2c b76b c7a5 c9bf 19ac e3fc 5232 cb3f
000000e0: fada fe5f e236 ce3f 744f 7cc4 5bfa c03f
000000f0: 4832 07bd 0c5d d9bf f8bf 24fd 5846 d2bf
00000100: 8244 405f d6d6 b5bf d6ad c407 b43d e0bf
00000110: 75aa 8b9e c842 ddbf bacb af7f 4347 ccbf
00000120: 6069 3a1e 3775 bebf 8278 bc69 1d2a c3bf
00000130: b3c8 4bdb a756 ab3f 4ae2 ac55 cc42 b8bf
00000140: 56a1 5342 03e1 cabf 15b2 8962 3514 c7bf
00000150: 8c8d 6106 5196 cfbf 96f3 739a 918c d23f
00000160: e6ff 7eab 2baf a7bf 77c6 10f4 6b28 e1bf
00000170: 79f8 f7d9 e543 e1bf 1a9a 0da1 8a9d d3bf
00000180: bada a350 3329 be3f 42e6 67b4 8826 c8bf
00000190: 4921 bf29 72a4 bfbf c855 d1f7 e726 acbf
000001a0: 6cc9 b079 1010 cabf 6c3a 3792 f052 e1bf
000001b0: 7ddb 8471 c95b b63f 7e7b 440f 8105 c8bf
000001c0: 8a5f b98d e46f b1bf 041f ae6e 34d3 a23f
000001d0: 4340 5146 4426 a7bf ed2c 7be3 36a1 c5bf
000001e0: 6ec5 d18a 6c8b a23f c589 ceab 2d11 c6bf
000001f0: 45bf ab9e 3bce c3bf 0246 86f0 0211 b13f
00000200: ecbf 11b9 9fe8 c4bf 4139 6d95 9010 cdbf
00000210: e60d 3dfd 50b5 b83f cb18 ccca 2785 ddbf
00000220: 5650 ae8a 51d0 ddbf 5a71 02b3 de63 aabf
00000230: a602 7bde e365 c5bf bf32 32a2 67ba e1bf
00000240: 9769 352e dace bb3f 2ba8 3beb 250c a0bf
00000250: 79e8 8585 0733 d0bf d014 dd67 98d5 b33f
00000260: e0ea fcbe 1cbe bbbf 4b8c d093 5f8f bfbf
00000270: f3ea 9e5d 3e43 a5bf 7b92 d664 e095 d7bf
00000280: c0bc 5007 3df0 e0bf cecc cbd9 ba97 be3f
00000290: 613d a3af a8dd d6bf ce9f 2cef 30bf e0bf
000002a0: 96a6 ce5a 93d7 c03f fd75 4c08 f7ba dfbf
000002b0: 0da8 1126 208e d2bf ddc5 4750 1399 ae3f
000002c0: 8c01 0551 2e82 c2bf 49fe d1b8 235f c5bf
000002d0: 8dd7 5985 1bd8 d3bf 2cb0 16be 6707 bd3f
000002e0: 40c8 cf3c 2441 c5bf 74d6 dedb fa62 c43f
000002f0: fa70 0aa2 1cfe d1bf fa3d b599 b4f8 d4bf
00000300: 0899 f4ee 694f b33f c461 8576 838e b33f
00000310: c789 c7d3 2cd2 d33f 232c 4bdb 7a0e ac3f
00000320: f7a1 50a7 6e03 bb3f 1887 8e32 a4ad d43f
00000330: 7c4a 6ea4 54e9 af3f 66a4 9922 978f b83f
00000340: 2cab 6c80 8b79 d43f d449 9ea0 33b9 b13f
00000350: 3bfc 044e 202a ad3f c94f 2090 4dcb d13f
00000360: ff7b 9bf8 e311 b53f 2e21 044c f84c b53f
00000370: dcc6 e773 58d7 d03f 6629 ac37 e8b0 ae3f
00000380: d07c ff6c 7ee1 a53f 8a85 0a3a 1b74 d23f
00000390: 7226 9544 a5e7 b23f 86a1 68d2 0f13 b53f
000003a0: 2ffc cf69 db83 d43f 2a16 01ee 565a b13f
000003b0: 5629 3a10 7a38 ae3f 5a38 2bfe 6cc5 d23f
000003c0: 0a35 fa64 5ffd b13f 62db ec50 6af3 b33f
000003d0: 7d12 d2bd 782b d43f 7999 63b6 0695 b13f
000003e0: f909 a27d 4b46 bb3f 8d56 729a 03fb d33f
000003f0: e987 7ef1 793e ae3f 05fb 31e1 f59d b63f
00000400: ffc6 a352 e7a9 d33f 61d0 bb7f f930 b43f
00000410: 92c0 59e4 90b5 b03f e366 7071 5784 d33f
00000420: 8538 df21 cf9e b03f d8a7 d7d8 c3c2 ac3f
00000430: 5fd9 be0c c084 d23f 8ac5 6926 2106 b23f
00000440: 3c2b 2888 df92 b53f 47c2 30a5 7f4b d23f
00000450: 3686 9611 b8f0 b13f 06e5 1c3b e619 b43f
00000460: 841b 0c41 5126 d43f 565c 180c ace0 b03f
00000470: 56be 34a3 051a b43f 7634 8a50 8504 d33f
00000480: 3e7b 11b7 c70a b33f 1d1b 6d8c 713e b13f
00000490: c96d c535 1821 ad3f f26e 1390 3f8e af3f
000004a0: a5c8 e211 0316 b03f 03fc 2d3a 1172 ae3f
000004b0: 4909 1783 0441 b23f cab4 2fec 9a3b ad3f
000004c0: 4a98 1bc1 ae00 b13f 5549 60c7 1a76 b23f
000004d0: 095e 838f 0762 a83f ae74 fcfc daf2 aa3f
000004e0: ad8b b035 26ca b33f 3aa5 8582 9646 a93f
000004f0: 7f76 f213 481c aa3f 50da 6114 1bc5 ae3f
00000500: b881 8780 7169 b43f 4c62 ecd0 5150 9e3f
00000510: 3d80 a7a9 6d36 af3f a932 9d71 d207 b33f
00000520: 7a91 b43c 6578 aa3f 5b0e d6a4 ebcd ae3f
00000530: 1d07 fdcd b991 b83f d47d 4d33 80f2 b03f
00000540: 6852 52a5 9b14 b33f 0395 f3a1 bad1 b43f
00000550: a646 3ab2 792f b23f 1b97 c492 816d b33f
00000560: 9eca 26c0 79be b63f 1a9f 954d 1668 ad3f
00000570: 1baa 1dae a71d ad3f 924b 745d 48da b13f
00000580: da24 577d 03f7 a13f ccb7 b121 fcb3 ad3f
00000590: 11e2 7628 82c3 b13f edf7 7c66 bda2 a03f
000005a0: 8477 484a 4856 b23f f745 87e9 f730 b03f
000005b0: a5ea 58f2 9a85 ae3f 7cab 4f15 2e9b b43f
000005c0: 348b d264 2877 b13f e528 da78 b725 ae3f
000005d0: d37c 23da f073 b53f 32fa 5d27 b4be b03f
000005e0: d461 562f 4cdf ab3f 7e6e 6475 c128 b33f
000005f0: 39db 3ad8 0c51 b33f 91a9 6da5 7579 a13f
00000600: fe26 746a 559b ab3f 690a edfb 05db b73f
00000610: 581b c752 ed3e d43f eeb7 a29b b38a b33f
00000620: a0c4 b2bb f9fb b53f 9c9d 0b87 797b d53f
00000630: cf89 ef19 ebe1 b33f 8776 ef80 5e7c b13f
00000640: 7567 5e4f 0584 d43f c932 b570 9c7b b43f
00000650: 59d9 3a40 d346 b63f a1d5 1a46 9ad9 d13f
00000660: 3655 a7d1 bfbd af3f 97b4 f4f0 e58f b43f
00000670: f91a 8de3 0e8c d33f 5808 06d6 186a b03f
00000680: 4c38 59a5 a682 b83f 5956 2bef 8db2 d33f
00000690: 2725 b001 9535 b43f a1b9 0a6f 8eea b43f
000006a0: 7da1 f1f5 0bad d33f df60 fa77 04c7 ac3f
000006b0: 4ca9 ba04 a2c2 b63f 306f 7946 7e96 d23f
000006c0: 3008 f942 9012 b03f 9f9b 1bd2 10a0 bb3f
000006d0: 7cc6 d107 5a1d d43f efa3 8fb9 cb94 b03f
000006e0: 75b9 fc26 d1fd b43f aa07 d8c9 0ef4 d43f
000006f0: d46e 72c4 608d b03f 2346 ff2a f923 b73f
00000700: eb00 8a0a 83d1 d33f c512 c5d8 ad3a b03f
00000710: a263 6d74 dbb7 a73f d07e 3714 1223 d33f
00000720: 2c87 6ffb ee6e b03f d28c e7f4 09d0 b43f
00000730: 0fca acf0 24ee d23f 118d 0bb1 db89 b23f
00000740: dced 51e1 448c b53f 23b6 5dd1 bb07 d23f
00000750: 70cb e6d9 56f8 b03f 68d3 ae18 cf04 b53f
00000760: 3927 6f7e 913e d43f 7a61 68be 8826 b43f
00000770: f174 711e f1ed b13f d721 6025 b427 d33f
00000780: 28db 26fa 51cc c83f 1581 171b 4ef5 c83f
00000790: 7ce2 b26f 2511 cd3f c793 942e 7499 ca3f
000007a0: 6aa3 e0aa cdf7 c83f 2770 66b9 72ea ca3f
000007b0: 3c6d 127a c4c8 cb3f 5086 d3e8 4836 c93f
000007c0: 47ad 0c28 511b cd3f 934c 8e02 a8db c93f
000007d0: 440d a4e6 7fe9 c83f aecc 66ce e231 cd3f
000007e0: 17a4 e626 dfa0 c93f 0ad5 e4c1 2fda c93f
000007f0: ede5 e398 d24d ca3f ecac 3f73 086d c83f

bias f8 [112]
0.17278223551325764 -0.3933184649638209 0.08432075185652374 -0.6198708406851059 0.06046180177842277 -0.563312227413308 -0.20074488953323544 -0.36234845491818474
-0.48853390168294497 0.324453379968104 -0.34639113850827674 -0.49378762855812736 -0.18676084955570102 -0.2595885126382513 0.015442934633254626 -0.572513238457977
-0.06659439865390189 -0.21911517648023604 -0.09369742129499083 -0.029400308699137463 -0.12008235524252972 -0.08928886895302164 -0.3415821436110888 -0.20425056832463645
0.01161121389013831 -0.04882902515382693 -0.3079305539210508 -0.18058670552859732 -0.3443986059331993 -0.07871019977646528 -0.1571206196038937 -0.1253932593491236
0.1057703412780873 0.10407542801460455 0.09339753780148613 0.09414577054632066 0.10390080142249063 0.09543241938470934 0.1161437682868997 0.0923673926630687
0.11457080544611196 0.12115380132532202 0.10275287680863472 0.09091478775673559 0.07722721598520768 0.11009556824821803 0.11624526301962039 0.0783072614821372
0.08619079056359001 0.05806845342777235 0.07719040449965764 0.04937800802396411 0.05779633490507397 0.0692697196668244 0.0578814358134146 0.07912847329192019
0.06541854097529652 0.07621461816588315 0.06488258009588779 0.07712937660972546 0.07260938909953918 0.04684420527386275 0.06714276645006798 0.05591616984247835
0.11568838057186033 0.1066141480588193 0.09885017554097197 0.100284829329881 0.09884650080740988 0.10266912216740835 0.09818661751775018 0.09133501829717444
0.09628998931513641 0.11900797182090961 0.1014505761714824 0.0972522355886524 0.08533088629828409 0.10262556406322991 0.1101924839519958 0.10236578728146413
0.19400129286161405 0.20546843396475706 0.20843289182554875 0.20862299455639732 0.18306770689558988 0.2150733535091393 0.19268487876177043 0.21788558830381827
0.2136200566540607 0.20381302177439573 0.19256489499965374 0.19258582997506998 0.20723906514146453 0.1973283030373131 0.20553104219120863 0.19663936163327458
-0.6955125700021612 -1.0296698801073845 -0.5809271335961256 -0.8009870412103811 -0.8639761202148472 -0.8599639162440826 -1.122542306852721 -1.0475878712168596
-0.8863061362511756 -0.6988584914472037 -1.0754297375508128 -0.936757850412037 -1.1479923575570476 -0.6798764055567524 -0.9887179806169152 -0.8355400130729533
00000000: a3fa 6d71 ba1d c63f 9dae fb35 212c d9bf
00000010: 0610 9977 0b96 b53f de91 8f5f fbd5 e3bf
00000020: b353 976a d9f4 ae3f 94aa 455d a706 e2bf
00000030: 5433 b12f 02b2 c9bf 8f4d e892 b730 d7bf
00000040: 36cb adb2 2344 dfbf ed89 021c d8c3 d43f
00000050: b41a e1bc 452b d6bf 3de6 f46c 379a dfbf
00000060: a3e8 818e c7e7 c7bf 67b5 0c23 199d d0bf
00000070: 3bfc a199 8ba0 8f3f aa87 7648 0752 e2bf
00000080: 2db7 509c 540c b1bf dc1a 8552 f70b ccbf
00000090: 1178 2ee0 8dfc b7bf 429f 6b51 1d1b 9ebf
000000a0: c6e3 979c b7bd bebf 95d0 0ca4 a2db b6bf
000000b0: cb42 ed59 7bdc d5bf a665 92f3 e124 cabf
000000c0: 0369 66bf 9ec7 873f f132 4334 1e00 a9bf
000000d0: cbec a15a 22b5 d3bf 033a 2b15 771d c7bf
000000e0: 6b59 5173 a00a d6bf a5cb e605 5a26 b4bf
000000f0: e9ec 5c49 871c c4bf e88b 05e6 e20c c0bf
00000100: c217 addc c313 bb3f 5fd2 a3ef afa4 ba3f
00000110: ec61 62aa e6e8 b73f 5f9c 8ded ef19 b83f
00000120: 0b46 2330 3e99 ba3f 9e48 3c50 426e b83f
00000130: ec2a 6d16 99bb bd3f 4865 b4b2 63a5 b73f
00000140: 77a9 7726 8354 bd3f 7674 7a7e ef03 bf3f
00000150: 5d87 7635 034e ba3f 6251 2308 3146 b73f
00000160: 2281 04af 29c5 b33f 9c85 0f21 392f bc3f
00000170: bbf3 fbe2 3fc2 bd3f d1e7 1ad7 f10b b43f
00000180: 87df af82 9910 b63f 129c cdf8 25bb ad3f
00000190: 401b e416 c0c2 b33f c487 3503 1348 a93f
000001a0: f1ed 7d30 7b97 ad3f 1175 920c a9bb b13f
000001b0: 6970 bab3 a2a2 ad3f 00a1 f87c c341 b43f
000001c0: af7a 0afe 44bf b03f 80e5 7f1c cd82 b33f
000001d0: 4a89 970f 259c b03f e481 1936 c0be b33f
000001e0: c0a7 9067 8796 b23f 6a13 51b3 f6fb a73f
000001f0: e6e5 10b2 4430 b13f 5c01 9551 0ba1 ac3f
00000200: e555 15f3 c09d bd3f 981a 3497 104b bb3f
00000210: 58ff 26bf 3e4e b93f 5ebc 413e 44ac b93f
00000220: 89b7 4a18 014e b93f c39e 040a 8648 ba3f
00000230: d2c2 2417 c222 b93f 84e0 9054 bb61 b73f
00000240: 566b 0af3 75a6 b83f f020 ef72 4e77 be3f
00000250: a41e d13a aaf8 b93f 2aef 50c3 85e5 b83f
00000260: 2665 fdb5 3ed8 b53f 9397 6241 ab45 ba3f
00000270: 5abd d61a 9335 bc3f 156a 9aec a434 ba3f
00000280: fc75 1ccc 08d5 c83f 7a96 1e26 ca4c ca3f
00000290: 8295 e6d2 edad ca3f a01a 6885 28b4 ca3f
000002a0: aefe 083b c36e c73f d609 c80d 8687 cb3f
000002b0: 7496 5bea e5a9 c83f 6a6e 04ca ace3 cb3f
000002c0: 60a7 8cea e657 cb3f 3b8e 828b 8b16 ca3f
000002d0: baca 306b f7a5 c83f 973d b508 a7a6 c83f
000002e0: ed3b 9e47 cf86 ca3f 7d6a 0fc8 0d42 c93f
000002f0: a713 4358 d74e ca3f 1d1e a985 7a2b c93f
00000300: dab7 c393 a341 e6bf a0cc cb1f 8779 f0bf
00000310: b3f0 0480 f496 e2bf a996 5093 afa1 e9bf
00000320: a120 9b3f b1a5 ebbf f644 000c d384 ebbf
00000330: fbf0 04ec eef5 f1bf b400 e97f ebc2 f0bf
00000340: 652c aeaf 9e5c ecbf 3b86 a97b 0c5d e6bf
00000350: 5fd3 fecf f534 f1bf 894f 7999 ebf9 edbf
00000360: 513f fc3b 2d5e f2bf 6d06 e629 8cc1 e5bf
00000370: 21f0 f6e3 93a3 efbf 58ba d468 bebc eabf

weight f8 [112, 16]
-0.20698162708964538 -0.42140861229337645 -0.185945251066083 0.012721157220985314 -0.17474350541998096 -0.07497184442333904 -0.42836134735189174 -0.45001292254983616
-0.0996880225886016 -0.20553477175844928 -0.4367622942906192 -0.1580156502069756 -0.3656402524649427 -0.13320450406702655 -0.21076551563629606 -0.04724072712597724
-0.8721347508889281 -0.43452690403718264 -0.8615494012055014 -0.6581321528227758 -0.841716498068033 -0.5957592811313474 -0.45445221140882813 -0.43027430058032595
-0.5115892542790489 -0.8960708643105236 -0.38947734711725734 -0.5249207715029359 -0.5119995777644706 -0.7420401174507426 -0.8459854433589427 -0.5904605891166129
-0.19897686946862678 -0.3880609633954518 -0.19566938291386973 -0.034697624333928784 -0.19092192595042656 -0.06839184399723408 -0.42130053395014266 -0.40716637974370035
-0.10485381932308781 -0.23105945586485696 -0.39479544688956686 -0.17252500355837747 -0.38291607790231436 -0.129550551223844 -0.22106013499641855 -0.05854469574322156
-0.859771717161464 -0.3803460626197034 -0.8315921130644389 -0.4558515051132777 -0.8238365073695131 -0.4242070980936877 -0.4430806708919309 -0.40543961850226196
-0.45116313117339835 -0.8923224381827789 -0.3793936528383745 -0.38829123543522326 -0.4943138627188152 -0.7236944165560171 -0.8280236800709154 -0.474016360205099
-0.23367329214802066 -0.444537741037892 -0.23997720967198352 0.09891451038147547 -0.22182297258195333 0.004355587475303408 -0.480224431389961 -0.49303304671392306
-0.026591792849439667 -0.2907795719882272 -0.4559401925503584 -0.12930814125640525 -0.4082278074957314 -0.12875243982496878 -0.2530307706349645 0.02607128700018895
-0.8351678059209681 -0.39284660463352233 -0.8456785932187592 -0.5297797794713447 -0.8288727329301557 -0.45451361944684093 -0.4614102161995096 -0.42712718946042194
-0.43477019670638 -0.87091336027032 -0.36004919041007094 -0.4426659044117728 -0.5117991779024084 -0.7021210602758551 -0.8120486513489135 -0.5242023748812831
-0.8340281712370322 -0.40174191174510326 -0.8280947799974216 -0.5519080936750439 -0.82964337727512 -0.5159208272448891 -0.44483607014751864 -0.4694445542269891
-0.6080431769807902 -0.8505112203848515 -0.39684251659665803 -0.45508121945567526 -0.47440676551608296 -0.769130147633515 -0.8303687303925141 -0.5045290398717335
-0.8416660054129421 -0.4216746066431961 -0.8607200143703438 -0.5257188858906024 -0.838812828634917 -0.4930170440083596 -0.4462579218829367 -0.4341403282176021
-0.5575818600886098 -0.8915149803835645 -0.3958223336470864 -0.4345446961059349 -0.4848371551035185 -0.7477574363925427 -0.8266805043777755 -0.482269073179747
-0.8825307247230831 -0.4404691957068243 -0.8865555247247345 -0.3510633455207338 -0.8518842917813593 -0.35448351608617273 -0.4811242541617546 -0.4864248502869075
-0.5000205036142398 -0.9074008511064332 -0.44528834922336213 -0.3506178561784708 -0.5189374314435873 -0.7288332273701452 -0.8594776714988758 -0.31459289238840094
-0.10783296775017412 -0.14652038702364242 -0.13334045394567282 0.05848193985296315 -0.09433333585451939 0.0313173571268854 -0.19605638919152296 -0.17666420620089593
0.013759510409273475 -0.097116453252755 -0.15050195659252905 -0.060925060472570874 -0.1960194776308478 -0.03596013189719477 -0.11682604481676995 0.027452388661679636
-0.8865320136418573 -0.4595054536057697 -0.8695437894244425 -0.7235942000274441 -0.8380930938304891 -0.6670320293992925 -0.4585605158959568 -0.43295632904174824
-0.5320178064649289 -0.9119991964211281 -0.41486182371198155 -0.5911502144462529 -0.5153877441870602 -0.7572998195744053 -0.8434873736730225 -0.6681724207830105
-0.844178308343965 -0.3761373605174177 -0.8375514655856672 -0.5340527422471848 -0.8007775710453746 -0.4248021368502097 -0.46864696526355304 -0.42168541060402465
-0.47542314956622084 -0.8667433609960933 -0.3674178262546095 -0.4300423849587236 -0.5091862616763595 -0.7115636723579322 -0.8023633508522865 -0.5161097165375786
-0.7893292264440315 -0.4292716362906476 -0.7697305634040322 -0.5285653755026856 -0.747519490367642 -0.4850138341897456 -0.44710597191297535 -0.4684402640382724
-0.6095876957750908 -0.7910090119760538 -0.3987110827754344 -0.43766440628315073 -0.454349365844369 -0.7038617583723673 -0.7794103731261887 -0.47697363587142155
-0.46773963812311126 -0.268966199947268 -0.4779417497875875 0.07763791579576101 -0.45609016653273754 0.0024257374852038136 -0.37253943956161817 -0.31168426872468347
-0.11146535168807135 -0.49844205535732217 -0.2829313920203668 -0.08676022342396841 -0.3603696389023356 -0.32285114022378314 -0.467768934630847 0.038535198311312725
-0.2523025478390472 -0.20597337114211553 -0.26802448617048275 0.17115964749889528 -0.26935933078060603 0.11944944468389125 -0.3115230892748448 -0.2207819598328757
0.06843074012398713 -0.2800495476733718 -0.24629586888469274 -0.006970839589927143 -0.3164394615199068 -0.15235482388216642 -0.2783867098464873 0.1306901000565628
-0.8165147895456194 -0.36484026030651284 -0.8399487603452932 -0.4401406852506855 -0.8038400147697307 -0.3915571526147532 -0.4435509510976369 -0.416211636872896
-0.45306644868191315 -0.8575686062142751 -0.362915800280072 -0.3624129135625953 -0.48588716603775045 -0.6903290564479705 -0.8015314413901673 -0.4366061898479
00000000: cf87 9cbb 5f7e cabf 0061 03d4 5bf8 dabf
00000010: 6671 16d2 0dcd c7bf 7aeb d9d1 8c0d 8a3f
00000020: c4cd 7bc4 fe5d c6bf 4846 ebd3 5a31 b3bf
00000030: bdcc 6fb6 456a dbbf 5840 4800 03cd dcbf
00000040: fc29 d27c 2785 b9bf c159 72a1 f64e cabf
00000050: 2eaa 86d6 e9f3 dbbf d093 f258 db39 c4bf
00000060: 080a 9c5f a666 d7bf 64ea 525e d80c c1bf
00000070: eb27 644a 5dfa cabf cc35 17c4 ef2f a8bf
00000080: dabc 1823 87e8 ebbf dc98 84ee 49cf dbbf
00000090: c41c c20c d091 ebbf 973c 1a29 6b0f e5bf
000000a0: 5096 f66f 57ef eabf 65ec 97c4 7510 e3bf
000000b0: 8121 66ba be15 ddbf 4350 5338 9d89 dbbf
000000c0: 25a2 836d f05e e0bf c196 23ce 9cac ecbf
000000d0: 86b1 1965 32ed d8bf 0f14 53a5 26cc e0bf
000000e0: 020e 42f0 4c62 e0bf 87ab 98ea cabe e7bf
000000f0: 8ccc 8310 5012 ebbf dba5 fa9a 0de5 e2bf
00000100: 7b9c 83f5 1278 c9bf 62d0 a8a6 fdd5 d8bf
00000110: f5c6 38c0 b10b c9bf 64b7 8613 e3c3 a1bf
00000120: f4f0 0532 2170 c8bf 4800 48bd 2082 b1bf
00000130: d69a c683 96f6 dabf 0bea 4193 030f dabf
00000140: 7975 da2c b3d7 babf bb80 2f33 5b93 cdbf
00000150: 7706 401f 5444 d9bf 1244 03a0 4c15 c6bf
00000160: 6bfe ec6f b281 d8bf 12b4 57ca 1c95 c0bf
00000170: b125 21d1 b24b ccbf 768f 2403 92f9 adbf
00000180: fa7e e7f9 3f83 ebbf ae4b 0703 9757 d8bf
00000190: 4525 2710 679c eabf 55cf 92ca ab2c ddbf
000001a0: bce4 0c61 de5c eabf edc7 4287 3526 dbbf
000001b0: 051e be07 6f5b dcbf 5c13 7e03 b9f2 d9bf
000001c0: bc3e 6353 dbdf dcbf af6c 2fc9 e78d ecbf
000001d0: 0b0d d050 fc47 d8bf 5422 617b c3d9 d8bf
000001e0: 3b8d 959c d6a2 dfbf 16fd 6c31 8128 e7bf
000001f0: 13fb 4684 2b7f eabf 0b64 36b7 4856 debf
00000200: 37b9 dca5 01e9 cdbf 121c e66c 4e73 dcbf
00000210: e3ca a9bd 92b7 cebf c033 301b 7652 b93f
00000220: e6d8 5ef6 b164 ccbf 0744 2e1c 2ad7 713f
00000230: 53d8 e340 ffbb debf 51f2 de7a da8d dfbf
00000240: 7a7a 8502 e13a 9bbf 3132 02ec 219c d2bf
00000250: 09e3 fbc5 1f2e ddbf 71c2 e64e 2b8d c0bf
00000260: cac3 a086 6720 dabf 9d0a 2abf f57a c0bf
00000270: fe90 30f9 a731 d0bf 0e2c 1f74 6eb2 9a3f
00000280: c548 a3d5 b1b9 eabf 3fb8 cf15 6624 d9bf
00000290: d2a8 998d cc0f ebbf 272b 5db9 f4f3 e0bf
000002a0: ac65 0f1c 2086 eabf e116 c74a c016 ddbf
000002b0: ee7f 27b7 be87 ddbf 0ec1 7d47 0d56 dbbf
000002c0: e947 0860 46d3 dbbf ef55 00b2 85de ebbf
000002d0: 51cd 70c2 0b0b d7bf 4e2e a05f a354 dcbf
000002e0: a9bc 66ab a860 e0bf edf6 f695 c677 e6bf
000002f0: 61be 0974 4dfc e9bf 7738 130f 44c6 e0bf
00000300: d5fb ecd8 5bb0 eabf d72c 18b5 23b6 d9bf
00000310: c278 c29f c07f eabf b16c 9729 3ba9 e1bf
00000320: 0dab 9744 708c eabf 31f2 0a65 6c82 e0bf
00000330: 2358 57b5 3178 dcbf 832c ec2b 610b debf
00000340: a707 f6f6 1675 e3bf 36e3 8d4e 6337 ebbf
00000350: 9c7a 9c27 de65 d9bf c87f a5fa 0c20 ddbf
00000360: 4622 b931 ae5c debf e183 ced3 b69c e8bf
00000370: 3d05 9571 6192 eabf 3a34 c415 1a25 e0bf
00000380: d8e9 ec8b edee eabf 2a84 457d b7fc dabf
00000390: 0177 17b3 048b ebbf 2b45 b969 b0d2 e0bf
000003a0: 9878 4e00 8ed7 eabf 5fbc 185c 978d dfbf
000003b0: 575c 0463 7d8f dcbf 876f e483 f4c8 dbbf
000003c0: b68c bde9 b5d7 e1bf 1887 946c 4a87 ecbf
000003d0: ca99 8232 2755 d9bf 4737 9b8e 94cf dbbf
000003e0: e589 436b 9207 dfbf 59b2 d400 a1ed e7bf
000003f0: f762 51ac 2a74 eabf bc78 4b1a 7fdd debf
00000400: 86d3 0c13 b13d ecbf f032 9db5 a530 dcbf
00000410: c2fc 18b1 a95e ecbf 627f f564 d277 d6bf
00000420: 79aa a5d8 a242 ebbf bbea 23a1 dbaf d6bf
00000430: e7f9 3b62 bdca debf e869 fcb1 9521 dfbf
00000440: 9448 cbff 2a00 e0bf 97ab 7b82 6d09 edbf
00000450: 1411 4db4 9a7f dcbf cd87 6be0 8570 d6bf
00000460: ec0d 17ac 229b e0bf 7c5f 790f 9a52 e7bf
00000470: 5d5b 5751 d780 ebbf c42e 173a 4a22 d4bf
00000480: 2ee9 eafd f09a bbbf 075e 3b17 2ec1 c2bf
00000490: 4719 77cc 4c11 c1bf 9375 2646 58f1 ad3f
000004a0: 56f1 6ac0 3a26 b8bf bb72 5021 d408 a03f
000004b0: 9eed df31 6018 c9bf dbd9 00c6 ee9c c6bf
000004c0: 3e02 bc39 f22d 8c3f bac4 9fb6 9fdc b8bf
000004d0: 2343 c6ea a543 c3bf 6418 79cc 9131 afbf
000004e0: ebd8 e68e 2a17 c9bf 08a6 eacc 5d69 a2bf
000004f0: 601e cfc9 4fe8 bdbf 9cf8 fe9d 7a1c 9c3f
00000500: 985c ae62 785e ecbf dd81 e48f 8968 ddbf
00000510: 9192 407f 4dd3 ebbf 532e 1606 af27 e7bf
00000520: 522c a09b a8d1 eabf 6ff1 f48d 5358 e5bf
00000530: 36a4 c034 0e59 ddbf 4d27 7576 8eb5 dbbf
00000540: 4502 f534 4a06 e1bf c16c 53f0 182f edbf
00000550: 92eb 4c9b 188d dabf cb3d c2da b3ea e2bf
00000560: 4a5d 4170 0e7e e0bf 37d7 cad4 cc3b e8bf
00000570: 4d77 903b d9fd eabf 1145 eb20 ab61 e5bf
00000580: d18e 4a3a 8203 ebbf f177 8e6f a212 d8bf
00000590: af08 2dbb 38cd eabf 0a4e c9c6 f516 e1bf
000005a0: 9053 e048 f89f e9bf 6bb9 424d f52f dbbf
000005b0: 8d4d 4bd7 4ffe ddbf d0a7 efcd e4fc dabf
000005c0: af7c c937 556d debf 621b b092 5cbc ebbf
000005d0: 04c8 ee0e c683 d7bf eca8 d27e d085 dbbf
000005e0: 691e affc 404b e0bf 3a91 b92d 21c5 e6bf
000005f0: e86c ede7 f5ac e9bf c7a7 3586 f883 e0bf
00000600: bc54 ab5d 2f42 e9bf ceff bdbd 2f79 dbbf
00000610: c3a9 91fd a1a1 e8bf b29f 32ef 01ea e0bf
00000620: 2f0d 88fe adeb e7bf 27f6 fc76 770a dfbf
00000630: fd99 cd5d 629d dcbf 9122 8bdf ecfa ddbf
00000640: 84bc 2c0e be81 e3bf d8e8 a821 f24f e9bf
00000650: f5af 447d 7b84 d9bf 3c00 e791 b102 dcbf
00000660: 46a2 d05c 0f14 ddbf efa8 2318 0986 e6bf
00000670: 35af d705 eef0 e8bf 53ce c76d bc86 debf
00000680: 5a06 323c 72ef ddbf ba2f 2002 be36 d1bf
00000690: d8c3 2efe 9896 debf b4bb 4515 14e0 b33f
000006a0: 6142 52cf 9430 ddbf 143d 5de5 23df 633f
000006b0: d4c9 58a9 afd7 d7bf 8869 3693 a2f2 d3bf
000006c0: f72c 2348 fe88 bcbf 717c ad81 79e6 dfbf
000006d0: 8f4f ef44 8c1b d2bf d218 3302 eb35 b6bf
000006e0: 9ba3 63d1 4b10 d7bf 8632 2fd4 97a9 d4bf
000006f0: 82c0 141d edef ddbf 85e2 fbb0 e2ba a33f
00000700: bfa2 ea95 b925 d0bf 237d 73de 555d cabf
00000710: 8b48 a82c 5027 d1bf d289 3330 8fe8 c53f
00000720: 3ecf 24eb 2e3d d1bf 1553 7122 3d94 be3f
00000730: 2399 188a feef d3bf d7b5 8350 9542 ccbf
00000740: 3ba4 df4e ad84 b13f 0512 21f0 54ec d1bf
00000750: d6f4 ff7e 9f86 cfbf 62c7 0781 748d 7cbf
00000760: 1314 994c 8b40 d4bf 721a fbe4 5c80 c3bf
00000770: 0aa1 9b7d 16d1 d1bf 29b3 d304 74ba c03f
00000780: 6d8f b99f e320 eabf 58f5 91f6 8a59 d7bf
00000790: f9f5 ff38 dce0 eabf 389b 32d6 432b dcbf
000007a0: 6ade d4b1 0eb9 e9bf 1cb2 3fbb 450f d9bf
000007b0: 2bbd 4487 2363 dcbf 9a5b 2522 36a3 dabf
000007c0: 483c 006b 0aff dcbf 1a88 b8b7 3371 ebbf
000007d0: 96e4 5931 033a d7bf 2090 d9ee c531 d7bf
000007e0: 9d68 eb7b c618 dfbf b485 1df6 2c17 e6bf
000007f0: 7c91 ef43 25a6 e9bf 7a2f a816 5bf1 dbbf

bias f8 [112]
0.169118509362268 -0.3822732800460726 0.0914688984858571 -0.6009510800909612 0.07178109553539219 -0.5660270741621672 -0.1889977085833384 -0.3666155135444676
-0.46985183905705985 0.31267098460571546 -0.34592276055301896 -0.48703913991957737 -0.19994685269540932 -0.25742479418371156 0.0164990358064171 -0.5577946737650907
-0.08343019250670816 -0.2166722824424231 -0.10644950838329266 -0.009096573189622651 -0.1124634020014943 -0.08141027863604437 -0.3393042440775785 -0.2062834314172452
0.006877066550078938 -0.04806910877377913 -0.3012039717065817 -0.18969624264578092 -0.3793885477984052 -0.0930251264715438 -0.15777682972279836 -0.1145488396387856
0.11127379272974633 0.0947243584412914 0.10990162435553633 0.08037331713204436 0.08436664010812232 0.0786810883403484 0.10189062925671151 0.08893978728555862
0.10883992222776394 0.09745964372491925 0.10707576222787685 0.08886071763419563 0.08940557134747368 0.10034004716683002 0.11110043548610707 0.07665231430556152
0.06963976337271853 0.06356926457993246 0.06444823250431586 0.09373122304783958 0.05242208024625572 0.05146235031357475 0.07066903161214139 0.07188107002787449
0.05931029178689583 0.07799997378596935 0.06463059098272086 0.05266358472864082 0.0809179915965208 0.06763753140015775 0.06266883203434015 0.0677455950449282
0.09135523696507869 0.08992761541240171 0.1056321976129743 0.08825515333022468 0.1069884505802446 0.09251447555891008 0.09945538294119707 0.08181913035594057
0.10425859195895053 0.10488858468227463 0.10527019073298982 0.1075860206773852 0.08976519480110728 0.0746923073625955 0.10745208403999612 0.09234303901977405
0.2047653264825583 0.20820719451619477 0.19892697194624637 0.19422966353905213 0.20989621758234525 0.21533715155972172 0.21993769070029456 0.22068609298081598
0.2032949838551827 0.20170159324071502 0.2080409127243764 0.21103340792840863 0.2019609856037898 0.2115207226296042 0.19555363775557774 0.20392709780047447
-0.6926393910232452 -1.0369831413816333 -0.5681283795634239 -0.8160023457646352 -0.8514132627397152 -0.8667745736258031 -1.127213648126655 -1.0441950273380314
-0.8768000862195433 -0.7335628544207742 -1.0723858051762467 -0.9165067560484076 -1.1606317265231676 -0.6778069846915976 -1.0016509312476993 -0.8267986564076846
00000000: 9ffa 6de1 aca5 c53f 97ae fb58 2a77 d8bf
00000010: fc0f 9977 816a b73f dc91 6fc2 fd3a e3bf
00000020: e4a9 cbf1 3e60 b23f 99aa 85cf e41c e2bf
00000030: 4333 b1b0 1331 c8bf 8d4d 38ea a076 d7bf
00000040: 34cb ad72 0d12 debf e989 5229 cd02 d43f
00000050: b61a e137 9923 d6bf 3ee6 7436 a62b dfbf
00000060: a7e8 a1c4 db97 c9bf 68b5 0cd8 a579 d0bf
00000070: 21fe d08c 1fe5 903f 9c87 3637 74d9 e1bf
00000080: 3ab7 505c ae5b b5bf dc1a 85d7 eabb cbbf
00000090: 1578 2e65 4640 bbbf 823e d762 39a1 82bf
000000a0: c0e3 97c9 66ca bcbf 9bd0 4cd4 4dd7 b4bf
000000b0: c942 ed25 29b7 d5bf a665 d2d7 7e67 cabf
000000c0: 9cd1 cc7e 202b 7c3f f132 43a4 839c a8bf
000000d0: cbec f905 ed46 d3bf 113a 2b6b f747 c8bf
000000e0: 6d59 51e7 e647 d8bf 9fcb e6a3 7ed0 b7bf
000000f0: e7ec dcf9 0732 c4bf d817 0ba0 1253 bdbf
00000100: b617 ad74 707c bc3f 54d2 a305 db3f b83f
00000110: da61 624a 8322 bc3f 5b9c 8d80 5893 b43f
00000120: 0746 2358 0d99 b53f a248 3c9d 7124 b43f
00000130: f52a 6d18 8115 ba3f 5065 b405 c2c4 b63f
00000140: 77a9 77e2 eedc bb3f 7a74 7a7e 1df3 b83f
00000150: 6087 f630 5169 bb3f 6551 2374 93bf b63f
00000160: 0c81 0495 48e3 b63f 9b85 0fa5 e2af b93f
00000170: baf3 fb00 1471 bc3f d0e7 1a6f 7c9f b33f
00000180: 8bdf 2f5a e9d3 b13f 05ce 6648 1346 b03f
00000190: 401b e4ea ad7f b03f f3c3 9af9 c4fe b73f
000001a0: f0ed 7d20 11d7 aa3f 26ea 24ef 4559 aa3f
000001b0: 1c38 9d9b 5d17 b23f 01a1 f83c cc66 b23f
000001c0: 6ef5 1427 eb5d ae3f 80e5 7f68 cef7 b33f
000001d0: 4a89 9762 a18b b03f ab03 33ac b8f6 aa3f
000001e0: c0a7 909f 0ab7 b43f ab89 5879 b150 b13f
000001f0: e8e5 1088 100b b03f b380 2a7b c657 b13f
00000200: fc55 158b 0e63 b73f 9a1a 3407 7f05 b73f
00000210: 5aff 2632 b60a bb3f 5ebc 41c5 e397 b63f
00000220: 85b7 4a58 9863 bb3f c59e ee56 07af b73f
00000230: d2c2 2471 e875 b93f 80e0 1039 19f2 b43f
00000240: 636b caea b0b0 ba3f ec20 ef70 fad9 ba3f
00000250: a01e 71ba fcf2 ba3f 27ef 50e8 c18a bb3f
00000260: 2c65 fd0f dafa b63f ba97 62f9 081f b33f
00000270: 5cbd d6d2 fa81 bb3f 196a 9a1c cba3 b73f
00000280: fc75 4c0e c035 ca3f 7996 9e89 88a6 ca3f
00000290: 8295 6663 7076 c93f a01a 6882 84dc c83f
000002a0: b5fe 0817 e1dd ca3f d609 c8f3 2a90 cb3f
000002b0: 7096 5b12 eb26 cc3f 6c6e 0420 713f cc3f
000002c0: 5ea7 8ced 9105 ca3f 3c8e 4299 5bd1 c93f
000002d0: bbca 30aa 15a1 ca3f 983d b588 2403 cb3f
000002e0: ef3b 1e8a dbd9 c93f 7c6a 0f6d 1c13 cb3f
000002f0: a713 63cf e607 c93f 1c1e e97b 481a ca3f
00000300: ddb7 8b15 1a2a e6bf a2cc 6ba2 7b97 f0bf
00000310: aff0 4491 1b2e e2bf ab96 90f3 b01c eabf
00000320: 9f20 db06 c73e ebbf f744 d707 9ebc ebbf
00000330: fdf0 a42d 1109 f2bf b300 51d8 05b5 f0bf
00000340: 642c ee0d bf0e ecbf 3886 a9ce 5879 e7bf
00000350: 62d3 9e04 7e28 f1bf 8d4f f9f9 0554 edbf
00000360: 51df c192 f291 f2bf 6d06 0846 98b0 e5bf
00000370: 1178 7b20 c306 f0bf 56ba b474 2275 eabf

weight f8 [3, 16]
-0.2865075822168039 -0.3002977928865781 -0.29799227408150564 -0.29784568894404456 -0.29968811866320666 -0.2905541605829479 -0.29270438284311934 -0.3088219826488917
-0.2853058587378234 -0.2867970149391016 -0.30378430745674984 -0.2948677531226566 -0.2963816498189641 -0.296844526997846 -0.30909670725813687 -0.2795100208635776
-0.28975885919260597 -0.29114831537801655 -0.29995639678033775 -0.29430572732435695 -0.2930495509385887 -0.30257645928554133 -0.3016435063536059 -0.2957745683661524
-0.28503877662912824 -0.28956957602688155 -0.3047120023329017 -0.3113203189141508 -0.3144369756569472 -0.3026354267393226 -0.2686933113111129 -0.3094529982911547
-0.30260625069764263 -0.2923306257531433 -0.3057301944995777 -0.310271585138244 -0.3095567168090082 -0.3028951319449977 -0.2918907984787423 -0.31147995847766674
-0.3121263030161776 -0.3117757067239588 -0.2772385162451458 -0.29221601266988084 -0.2938353231290757 -0.32735973392013484 -0.30883605949647464 -0.2997916155854214
00000000: 4f57 ebe5 2356 d2bf be90 e03b 1438 d3bf
00000010: ce01 e92f 4e12 d3bf 8f3b 515d e70f d3bf
00000020: 9a20 2a13 172e d3bf 5ee9 5a7a 7098 d2bf
00000030: 7d40 ed29 abbb d2bf dad2 f046 bdc3 d3bf
00000040: a3b6 2881 7342 d2bf 523f f0dd e15a d2bf
00000050: db24 64bc 3371 d3bf cfa2 13ff 1cdf d2bf
00000060: aed8 46bd eaf7 d2bf 1af3 dc2f 80ff d2bf
00000070: 2266 3e8e 3dc8 d3bf 9fda a0ff 7de3 d1bf
00000080: 4158 fdbd 688b d2bf 7c61 358b 2ca2 d2bf
00000090: 7771 9950 7c32 d3bf 038d 78b0 e7d5 d2bf
000000a0: dde0 58e7 52c1 d2bf a0ef 4aa7 695d d3bf
000000b0: 75ba b590 204e d3bf c5c0 8774 f8ed d2bf
000000c0: 70b1 ed47 133e d2bf 41ee bcd4 4e88 d2bf
000000d0: b7fb 2dc5 6680 d3bf a642 140f acec d3bf
000000e0: 1562 c643 bc1f d4bf 9135 1dfb 605e d3bf
000000f0: 230d 2f6e 4532 d1bf 5cd1 d3f2 13ce d3bf
00000100: 79f0 939b e65d d3bf 60a7 4e83 8bb5 d2bf
00000110: 3ea0 b160 1591 d3bf 63ff c259 7ddb d3bf
00000120: aeea bcf9 c6cf d3bf 5391 7443 a262 d3bf
00000130: b10c 5ebe 56ae d2bf 5658 c1a2 49ef d3bf
00000140: 7041 eb99 e0f9 d3bf a844 0418 22f4 d3bf
00000150: cfb9 1d9e 46be d1bf de37 72ca aab3 d2bf
00000160: 2aef cfab 32ce d2bf 20b6 cd3d 76f3 d4bf
00000170: 3e39 d751 f8c3 d3bf 1b7b 232c c92f d3bf
