Retweet/RetweetNetsV3/TrainNet_ep3V2.pt (torch, 23465 bytes, 6 tensors)

scale f8 [3]
000000 09 75 19 7d 5a 52 e4 3f 3a 32 53 cd 32 51 e4 3f
       0.6350529139851072 0.6349119196179978
000010 40 0b 42 b9 0a 3b e4 3f
       0.6322072618789676

weight f8 [112, 3]
000000 90 87 4a 77 fa 11 b2 3f 2b a8 13 55 c3 f9 c0 3f
       0.07058682834988717 0.13262216238155253
000010 ee 59 39 36 a6 a7 b2 3f 7b 7f 15 74 0f f8 d4 bf
       0.07287062476948566 -0.32764040314031434
000020 f0 e2 78 a2 16 f5 d0 bf a4 6f 80 59 cb 79 c3 bf
       -0.26495900980402975 -0.15215436811638228
000030 9b f3 cf 42 b2 bc a9 3f ce 62 a7 92 b2 d5 ba 3f
       0.05026776376323668 0.10482326584259313
000040 05 df 3d df fc ee b7 3f 4f 6f 5d d2 5e 0e d6 bf
       0.09349041414486343 -0.34462709945159004
000050 76 02 a7 f1 df d2 d4 bf a7 cd d2 82 18 d2 cd bf
       -0.32537077521195756 -0.2329741133486156
000060 bc 0a 57 dd d7 5a 97 3f b6 85 36 38 38 da be 3f
       0.022807476887247033 0.12051726696383622
000070 5c 86 96 d9 f2 f4 b6 3f 89 d9 0c 6a eb bb d6 bf
       0.08967511951643686 -0.3552197013517789
000080 d0 bf 54 49 0a 42 d5 bf 7b 84 1e 4c c0 91 ca bf
       -0.332155772793155 -0.2075729724574876
000090 8b 61 80 b2 b6 10 c4 bf 6d cf 17 bb 41 56 c2 bf
       -0.1567600604619311 -0.14325734744454213
0000a0 60 b1 2a a2 e1 b3 a6 bf bc bb 56 d6 93 10 d3 bf
       -0.04434113602232759 -0.29788680964969294
0000b0 3a 25 c6 d4 d2 54 ca bf ed 4e e3 b1 58 47 bd bf
       -0.20571360959392299 -0.11436991064993736
0000c0 ee 66 01 cc 96 77 c9 bf 59 60 87 ad d4 1c c5 bf
       -0.19896206818776058 -0.16494234536253563
0000d0 26 7c aa 20 4a c6 be bf b7 ee 9f eb 2f 9b b8 3f
       -0.12021315858372414 0.09611796858365095
0000e0 e5 2a 67 98 1b f3 c1 3f 23 8e a1 77 9c 53 be 3f
       0.14023156110336923 0.11846330567055267
0000f0 7a 87 a6 06 ae ca d3 bf 99 b3 dc f1 89 e4 d0 bf
       -0.30924559258902884 -0.26394890422198497
000100 fe bf cd c8 0e 0e c1 bf b1 40 23 58 bf 68 d5 bf
       -0.1332415085303182 -0.33451827628324354
000110 fd 9a 6e 7c 20 84 d4 bf d3 c7 56 37 4f b2 c8 bf
       -0.3205643859059107 -0.19294157220934824
000120 16 21 b9 33 12 a0 b9 bf 02 26 cb 9d 5b 33 b9 bf
       -0.10009874117634285 -0.09843990900403557
000130 d1 34 1f b5 af 46 94 3f 33 03 54 e2 09 68 a0 bf
       0.019800897054484793 -0.03204375160021868
000140 25 84 51 fb 70 93 9b bf b2 c1 7e 39 9e ee ad bf
       -0.02692963155675811 -0.05846113635869034
000150 ed fd c6 88 a3 f6 b4 bf cf f2 41 69 cf c4 c7 3f
       -0.081888409512423 0.18569367064983175
000160 ea 5a b5 20 8c 10 ac 3f a0 71 09 a7 38 13 d6 bf
       0.05481374644539534 -0.34492317497440617
000170 f4 00 34 a8 0e a9 d6 bf 54 43 1c 3e da bc ce bf
       -0.3540684359177384 -0.24013832123503198
000180 ee 1f bd 0f 68 c4 9c bf e9 b2 06 cd 72 0f aa bf
       -0.028092981300943558 -0.050899112250908214
000190 d0 63 df 2a 34 f4 6a bf 56 93 36 3d 09 af a1 bf
       -0.003290273561088665 -0.03453854439002295
0001a0 43 ba 95 3a 3e 84 bf bf c4 42 40 15 11 dd c1 bf
       -0.12311161928457985 -0.13955892121932412
0001b0 c0 dc 3e 5a b2 3e a2 bf 96 30 f5 63 c0 b6 a9 bf
       -0.03563458778028794 -0.050222408487202205
0001c0 bc 40 1e 81 ff c5 88 3f f6 47 fd 10 6b 04 af 3f
       0.01209640133654976 0.06058058340444454
0001d0 f0 57 37 0f a8 7c b4 bf c0 64 01 1b a5 18 b1 bf
       -0.08002710696686655 -0.06678230199158275
0001e0 76 8e 17 54 3a 88 b0 bf 97 e8 d1 43 2a 29 9f bf
       -0.06457867196109554 -0.030430469884301727
0001f0 84 c0 33 22 56 df 7e bf c2 9f de 6e 38 47 bb 3f
       -0.007537208995231141 0.10655548769739112
000200 b8 9b a2 2d 69 6d c2 bf 6f 07 18 fa e7 cd b1 bf
       -0.1439639542415685 -0.06954812866027081
000210 96 a7 40 b6 0b 71 85 3f 04 9d 3a ae 65 15 cd bf
       0.010469523906141903 -0.22721549041055067
000220 ab 8b 1a 2c 87 03 c3 bf 41 3c 67 9a 22 83 b2 bf
       -0.14854516652584712 -0.072313463874921
000230 1a 3c 99 a1 3f f9 b4 bf 2b 0e 3f 88 9c af c3 bf
       -0.08192823119428319 -0.153796736265677
000240 26 af c3 2a b9 60 a9 3f 93 5b 06 19 92 12 b5 bf
       0.0495660652830721 -0.0823146163078106
000250 f3 0c f3 7b ea 70 c1 bf 7c a5 56 54 44 d2 91 bf
       -0.13625842144219966 -0.017403667113887064
000260 a8 cd c2 43 60 1b a3 bf 30 66 30 4a 2d 89 8b bf
       -0.037318237563705836 -0.013445237948007976
000270 e9 9a 41 57 4f 39 8e bf a2 6a b1 4b f3 01 ca bf
       -0.014757747507429158 -0.20318452068280118
000280 04 69 f1 85 80 6b c1 bf 82 7b da b1 e0 d0 ad 3f
       -0.13609320202051134 0.058234235487581124
000290 e7 d5 fd 61 3a 0f c7 bf 60 48 84 d7 4f 44 b9 bf
       -0.180152223441538 -0.09869860660208607
0002a0 b3 e4 9f 84 20 e1 94 3f 49 42 3c 65 db db cc bf
       0.02039004144169061 -0.225459503585187
0002b0 68 ef 0b 30 b4 a7 b1 bf 36 c3 99 cf 77 53 97 bf
       -0.06896520779622295 -0.022779342695176306
0002c0 c3 57 d5 c6 b4 76 ad bf 13 64 14 36 df db a8 bf
       -0.05754628111996809 -0.0485524896159363
0002d0 35 25 18 05 cc e7 c3 bf 4e 82 74 cd 39 65 b3 3f
       -0.1555113816141699 0.07576333299631097
0002e0 5a 01 b5 ef 54 11 6d bf 55 9d f6 b0 6e 8e c2 3f
       -0.0035483035004803378 0.14497169152057646
0002f0 7e b2 fc a6 15 9f c6 bf 09 ec b0 1f 2a c0 ad bf
       -0.17672987607638285 -0.058106724136870076
000300 41 92 21 4f cd 83 b1 3f 74 64 81 b0 22 91 af 3f
       0.06841738874352023 0.06165417103392992
000310 c4 3f af 66 8d 94 c7 3f 02 fb 8d b3 b8 9f ab 3f
       0.1842209578885542 0.05395295326069595
000320 68 7c e0 4d ca 06 b8 3f 46 59 ef a8 a2 dc c9 3f
       0.09385361100474798 0.2020457577588763
000330 b9 d9 9c 7b df be ac 3f e5 a3 42 86 bf 3d b5 3f
       0.05614374526924188 0.08297345187987977
000340 00 23 e1 91 2a 2e c9 3f ca 14 05 5a 17 c6 b1 3f
       0.1967213833143191 0.0694288821005841
000350 a9 0e b2 12 4f 2c a9 3f 74 15 ba 6e 62 ac c4 3f
       0.04916617491929049 0.16151075750910204
000360 fb f8 0a b2 03 ce b3 3f dc 16 87 ca a1 8f b2 3f
       0.0773622808146434 0.07250415033839935
000370 0b aa 47 df 07 da c2 3f 70 28 2b 4b 8d 28 af 3f
       0.1472787704691004 0.06085626165948177
000380 52 9c 99 51 7f 6d a2 3f bf d5 d2 41 11 41 c6 3f
       0.03599164839834458 0.17386069978753757
000390 2d b5 b6 f6 20 db b1 3f 55 3f ff 79 09 5d b1 3f
       0.06974988959583035 0.06782588222926951
0003a0 15 20 36 13 30 1c c9 3f 15 c4 0b 89 ae e1 b0 3f
       0.19617272317941628 0.06594363065575266
0003b0 7a e5 83 a0 92 84 a8 3f b3 f8 fb ea 3c 33 c6 3f
       0.04788644990362463 0.17343865846482273
0003c0 17 e3 22 0e 41 48 b1 3f a5 8e 98 7d 4f c5 b0 3f
       0.06750876040576902 0.06551071945483018
0003d0 98 17 f3 2b 9c 8a c8 3f 02 25 26 ec ca db af 3f
       0.19173004289603734 0.062223759962828154
0003e0 63 43 a6 eb f8 63 b7 3f e6 d7 1c eb 3f 12 c8 3f
       0.09136920693550858 0.18805693607435997
0003f0 a5 72 bb 2b be 7b ad 3f f0 b4 df ff 83 61 b3 3f
       0.057584708059697655 0.07570672032280235
000400 26 3a b0 66 0e b4 c7 3f 8b f6 d3 c7 86 37 b4 3f
       0.18518238081056032 0.07897226694691477
000410 a5 48 eb 33 20 d1 ad 3f ee a5 0e 29 4f 2c c8 3f
       0.05823612817552374 0.18885221009013214
000420 19 07 3f 09 a0 64 af 3f 5c d4 34 70 37 44 a7 3f
       0.06131458390110662 0.045442326018396456
000430 60 30 40 b6 c5 39 c6 3f d2 43 34 a8 39 c9 b0 3f
       0.17363807105027984 0.0655704532293975
000440 be 16 81 a5 2d c4 b2 3f c3 34 f7 a6 51 50 c5 3f
       0.07330594339972671 0.16651363995189258
000450 79 bf bd 51 b3 96 b0 3f b2 87 3d 8d 30 31 b0 3f
       0.06479950662264668 0.06325057457209374
000460 71 85 3f 0c 76 52 c8 3f 70 3a a8 62 71 d0 b0 3f
       0.19001651380589693 0.06568058642026542
000470 67 5e f1 89 f4 5f b2 3f 38 37 e4 e3 94 fc c6 3f
       0.07177666061158448 0.17958317878258767
000480 c5 c8 69 87 a2 b7 b2 3f e2 89 57 db 93 c2 b1 3f
       0.07311454587923823 0.06937526803043384
000490 8c 88 d2 f7 42 b7 af 3f 6d 90 78 ea b7 f7 b0 3f
       0.06194505000282033 0.06627988314045448
0004a0 4c 55 53 20 28 f9 af 3f 9e 3d 6d d0 34 db b0 3f
       0.062447790094362604 0.06584482277434353
0004b0 71 24 a2 ed ad f0 b1 3f 00 0e 61 b0 de 78 ae 3f
       0.0700787263068763 0.05951591399255207
0004c0 c0 95 76 42 e0 4d b2 3f 1c fa a5 6d 4a 5a b3 3f
       0.07150079367291706 0.07559647728883373
0004d0 7b 62 be db 65 38 a9 3f ca a9 4c 29 c1 9e ad 3f
       0.04925840670984357 0.057851825992048925
0004e0 fe ff 76 11 1c 91 b3 3f 24 ac e8 6a 75 1a aa 3f
       0.076432947410467 0.05098311357536314
0004f0 2e 25 15 3b a6 46 ac 3f 78 ea 8d 80 a5 a8 b0 3f
       0.055226511680823584 0.06507334126028208
000500 a7 6d 6f 64 79 59 b5 3f 39 a7 c5 c2 ed c8 a3 3f
       0.08339651777298816 0.03864233973111059
000510 ad 82 0d 6b a3 e1 af 3f 3a bf e9 12 8c 6e b2 3f
       0.06226835901066372 0.07199931585068678
000520 5d dd d3 cd 9d 2d ac 3f 27 8e 92 b8 56 07 b0 3f
       0.055035525680007004 0.06261198049701787
000530 63 02 c8 e9 66 6b b8 3f 72 5c ca 1a dc 36 b2 3f
       0.09538882453490198 0.07114959386886868
000540 04 bb 14 bc 3c 8f b3 3f 3a e0 f2 cc f7 26 b5 3f
       0.07640437690563934 0.08262585404998016
000550 b7 94 bd 01 30 16 b3 3f 96 c7 4b d1 bb 53 b3 3f
       0.0745573047875777 0.0754964242912862
000560 1a eb b3 e1 29 ec b6 3f 15 cd 2c e5 f5 9e ad 3f
       0.08954107055971541 0.057853397584404366
000570 34 c3 70 c1 c5 4a af 3f be cf 43 10 0e 5a b1 3f
       0.06111734377225844 0.06778037926761635
000580 2a d4 56 52 85 d1 a4 3f 1a 0b c2 5c 9d 68 af 3f
       0.040661016751450355 0.06134502179431518
000590 4f 6d 33 cd 02 d0 b2 3f 53 c5 d6 ea ca 30 aa 3f
       0.07348649511134407 0.05115350834547407
0005a0 9d 8e 8c 49 85 5c b2 3f d4 4c 79 f4 8e 72 af 3f
       0.07172425313597804 0.06142088636684098
0005b0 a1 50 d7 eb 5c b8 af 3f aa 93 91 79 f5 69 b4 3f
       0.0619534528629242 0.07974180429444169
0005c0 0d 8d 0d 1b 00 dc b1 3f 07 1b 7a b5 c6 9e af 3f
       0.06976318989250192 0.0617582413224707
0005d0 fc 65 1c 1c 42 86 b5 3f 44 87 c0 d2 b7 eb b0 3f
       0.08407986818601637 0.0660967721492201
0005e0 12 95 b3 fb f9 77 ac 3f 13 c0 58 2a 14 fb b3 3f
       0.05560284802940364 0.07804990800718796
0005f0 80 55 1a 09 04 8c b4 3f b6 03 33 a0 56 76 aa 3f
       0.08026147100675551 0.05168410020406304
000600 e5 1f 7e 81 0e 72 a7 3f 27 e2 1a b7 39 1b b4 3f
       0.045792058284007266 0.0785404274018978
000610 24 fd a4 6b 64 7c c8 3f 3b 4e a2 f7 cb 53 b3 3f
       0.19129615074232575 0.07549738689186196
000620 3b 90 1e 56 1a d8 b2 3f eb 1a 9f 50 d8 5e cb 3f
       0.07360996820949677 0.21383193909260653
000630 c6 20 54 26 12 23 b2 3f 7f db bc 56 3d a7 ac 3f
       0.0708476394248719 0.05596343692598448
000640 7a a4 b1 24 74 5a c9 3f c2 19 cb b5 d9 ac b4 3f
       0.19807292739577403 0.0807624882537317
000650 f5 99 d2 00 8b 6b b4 3f 1c 92 14 11 4a a8 c4 3f
       0.07976597566685213 0.1613857825660866
000660 e2 70 c2 a8 86 c8 ac 3f 43 74 90 84 39 e8 b1 3f
       0.056217392063645524 0.06994971739227744
000670 88 51 e4 6d 65 43 c8 3f c8 de 29 e5 72 c4 b0 3f
       0.18955676904500884 0.06549757094205255
000680 d4 6a 3e 5f b3 e8 b6 3f b9 44 f9 7d 4e ad c8 3f
       0.08948823046959414 0.19278889800128754
000690 d5 c9 d6 de f4 07 b3 3f 33 38 93 9a 97 d7 b0 3f
       0.0743401569405145 0.06578967593961309
0006a0 ca b5 93 5f d2 4c c7 3f 51 84 c4 c3 bf d8 ab 3f
       0.1820319143948111 0.05438803925267933
0006b0 d7 cd f7 f8 9e c7 b3 3f 16 30 c4 93 db cc c5 3f
       0.07726472452468812 0.17031426158098445
0006c0 84 50 df 1b 7c 07 af 3f 09 e5 92 46 05 9c b8 3f
       0.0606039794944602 0.09613068554871886
0006d0 1a e9 a0 29 be 70 c8 3f 8e 15 bf f6 08 67 ad 3f
       0.19094063789982202 0.057426719780362054
0006e0 59 4e aa d8 f2 cb b0 3f c4 64 4b 02 dc 08 ca 3f
       0.06561200895003462 0.20339536773716393
0006f0 be 65 2d 30 87 22 b0 3f 77 e4 f8 0c da a6 b3 3f
       0.0630268566723293 0.07676470581727012
000700 1e 57 c3 b0 bc d9 c7 3f 99 82 ff 05 a1 52 b0 3f
       0.18633230811126905 0.06376081844747218
000710 e0 af ca 37 40 43 a4 3f 4c fe 7c 4f 78 79 c7 3f
       0.039575583277240645 0.18339446908247437
000720 89 f1 00 41 6b d3 ae 3f 70 20 a3 76 01 d2 b1 3f
       0.060206748662014205 0.0696106829301486
000730 e4 d8 d3 18 09 e8 c6 3f e1 d4 a5 8f 03 55 b1 3f
       0.17895616256982472 0.06770345932985179
000740 f7 0d ba 39 bb 1d b3 3f 65 17 6b 60 cb d6 c4 3f
       0.07467241439194781 0.16280500610281048
000750 28 26 1e 8b 26 df af 3f 8e 67 a4 05 07 b7 b0 3f
       0.062249378664159416 0.06529277694462918
000760 64 f6 0d 30 51 a6 c8 3f d3 17 02 cb 65 31 b4 3f
       0.19257559629834298 0.0788787479997091
000770 31 ac 60 e2 c3 60 b0 3f db 06 d0 14 a6 54 c7 3f
       0.0639765193633799 0.18227077499618968
000780 6b 75 fa 9a 66 d2 c7 3f 49 62 b0 6a 6f dc c7 3f
       0.18610842292120408 0.18641464909957708
000790 c6 49 b2 08 ee 69 c8 3f f2 af 14 d7 ec af c9 3f
       0.1907327215636327 0.2006813097190157
0007a0 b7 4e af a2 01 d1 c7 3f 6d ed 0f f3 54 47 c6 3f
       0.18606586879342554 0.17405187481186193
0007b0 9e 14 eb e3 a6 c4 ca 3f 1c da fc 10 42 0f c8 3f
       0.20912634018728665 0.18796563939550104
0007c0 4d 24 11 f8 1a 41 c8 3f 6c 51 d8 7c 7f ea c8 3f
       0.18948685753483333 0.19465631099650282
0007d0 79 b3 bd c2 16 c0 c7 3f cf 3c 10 1d 73 69 c8 3f
       0.18554958828772408 0.19071806830513657
0007e0 1c 26 12 d7 ff b6 c8 3f 05 69 b4 9b 10 c6 c8 3f
       0.1930846977377748 0.19354446032304665
0007f0 a2 44 13 ea 22 22 c6 3f 7e 27 6a fc 1c 88 c7 3f
       0.17291675977188442 0.1838413460248453

bias f8 [112]
000000 a7 3c a0 12 e5 67 c4 3f 66 41 92 72 9c cb d3 bf
       0.15942061814755457 -0.3093024367199376
000010 6e 0a 5d 2b 7d d7 b8 3f 62 98 5b a4 52 a8 d7 bf
       0.09703810032537216 -0.3696486096436101
000020 cf 26 6b e3 34 d9 bd 3f af 03 fc ba 56 82 d5 bf
       0.11659555961810074 -0.3360802484531246
000030 d1 22 b5 c0 85 a7 cb bf 70 ae 24 25 fc 00 d3 bf
       -0.21604988011883688 -0.296935116074315
000040 bf 05 71 63 f0 12 cf bf 48 a9 ca 4c 31 c6 c5 3f
       -0.24276547294179626 0.1701108574828345
000050 af 1e 57 73 6d c3 d3 bf 96 ad a5 41 f7 08 d5 bf
       -0.30880295051290835 -0.32867223177773874
000060 26 c7 f3 18 73 f0 c1 bf e7 6b cb 85 8a 03 b1 bf
       -0.1401504394375987 -0.06646028295965288
000070 c0 cc 65 eb 20 ac b7 3f 49 62 29 4d cd 35 d7 bf
       0.09247022387517045 -0.3626588109523579
000080 5f 7b 9f 9d ac c3 a0 bf 2a b8 fc 59 6c 2c bc bf
       -0.03274287628277394 -0.11005284497215997
000090 eb 90 86 81 e9 f8 ab bf 44 c2 d8 4a 15 dd 9f bf
       -0.05463342386363642 -0.03111680287674036
0000a0 bb 16 12 9d 6c 6c ab bf 85 df 24 a4 d2 83 a6 bf
       -0.05356158654562423 -0.0439744782801759
0000b0 eb 52 6e 3a 1e ed c4 bf d0 6e 76 b4 e3 00 bb bf
       -0.1634862695033442 -0.10548232227159393
0000c0 73 ae 2d 90 b8 ad a2 bf d2 c1 80 71 f6 a2 a3 bf
       -0.036481635665805444 -0.038352681498853194
0000d0 73 56 a6 cc 61 bb c2 bf 04 50 83 cf 79 55 af bf
       -0.14634344570793054 -0.06119900377385082
0000e0 27 ca 00 b7 f7 08 c3 bf 38 8f 71 01 96 36 a6 bf
       -0.148711170536971 -0.043385207821101834
0000f0 3d fd ae 63 e2 12 99 bf b9 cd d3 49 e6 11 a5 bf
       -0.02448610051555743 -0.04115218783581604
000100 bb dc ec 83 cb 72 b4 3f 7c 02 ea 68 b3 a0 b5 3f
       0.07987663241225366 0.08448334990863232
000110 c9 13 24 c2 3b 18 b2 3f 88 ef 2f ef ca 0a b4 3f
       0.07068227281349872 0.0782896837189907
000120 19 38 df db 8c a2 b5 3f 08 4b 9f a5 84 99 b4 3f
       0.08451156967132113 0.08046750110160528
000130 5c 98 cb f9 67 ab b7 3f 06 fb d6 13 22 ef b2 3f
       0.09245920036809835 0.07396138176316577
000140 9e 22 63 7e 0d 8c b7 3f 6c d6 1d 60 69 a6 b8 3f
       0.09198078475595614 0.09628923985095533
000150 8d 1d 24 f2 51 ed b4 3f 25 7b 0b 35 a7 0c b3 3f
       0.08174621736190187 0.07441182179489354
000160 c1 ba dd 69 b6 29 ae 3f 39 77 66 d3 51 2c b7 3f
       0.05891199152289551 0.09052001391543464
000170 65 de a7 2b db 80 b7 3f 80 e5 73 c2 3d 61 af 3f
       0.09180993858159921 0.06128876684847295
000180 21 f5 18 d6 ba 31 b6 3f a5 43 6d 7b 43 1e af 3f
       0.08669631697644721 0.06077776796030968
000190 68 36 04 84 5d ef b3 3f 81 f2 32 cf f8 c1 aa 3f
       0.07787117455537784 0.05226113824162316
0001a0 0b fe 9c bb 69 da ad 3f 53 ab 77 66 b9 f5 b2 3f
       0.05830698409272025 0.07406195403716014
0001b0 8d 8d 6a d9 8d 94 ad 3f 9e 9a 44 02 53 9c b4 3f
       0.057774002828661165 0.0805103188073226
0001c0 85 b6 5d 2d 93 33 b1 3f 87 4c 2b c3 2d 8a b3 3f
       0.0671932206875799 0.07632719054099556
0001d0 a4 27 c5 2f 18 11 b1 3f 7f fe c8 28 bc f2 b4 3f
       0.06666709104788865 0.08182884212237161
0001e0 6f 04 f6 b6 a9 6e b2 3f 46 65 d8 90 26 34 a8 3f
       0.07200108258077063 0.0472728778660874
0001f0 a8 b3 31 b1 32 52 b1 3f 44 b1 6c bb ce 20 af 3f
       0.0676604921915912 0.06079717672250465
000200 40 3d 44 e6 5c f5 b6 3f 6f 2a 8a 8e 53 2d b6 3f
       0.08968144056074312 0.08662912588094128
000210 67 f3 fa d4 6d 90 b3 3f 9f 6d 91 43 2a 9e b5 3f
       0.07642256211961539 0.08444465779887488
000220 28 ac e3 9e 71 55 b4 3f df 9b f6 89 d4 84 b6 3f
       0.07942876938948074 0.08796432846303003
000230 5a b0 96 d7 e2 cf b2 3f 81 a3 a4 c5 c2 a2 b2 3f
       0.07348459018129586 0.07279603314658624
000240 cc 7b ef 5e 97 08 b3 3f 02 1d 24 1e 70 f6 b7 3f
       0.07434984271775064 0.09360409484735402
000250 24 64 37 8b d2 61 b4 3f b5 52 0b 97 2e d2 b4 3f
       0.07961765192830278 0.08133212268451014
000260 fa 14 6c 79 f0 f6 b0 3f b3 29 7d 75 aa 6e b5 3f
       0.06626799549492893 0.08371987694150711
000270 25 d6 32 6f eb 01 b6 3f 03 a4 4e 3a fc 06 b6 3f
       0.08596679177102169 0.086044086680559
000280 a5 4f b9 78 3d 7d c7 3f 6f 03 11 26 19 f8 c8 3f
       0.18350952524872102 0.1950713573333149
000290 ba 6a 96 ed eb 46 c9 3f e5 ad 6f ab 66 58 c9 3f
       0.19747685528712627 0.19801028605375773
0002a0 42 b7 00 df fd 29 c6 3f bb a8 44 67 a0 47 ca 3f
       0.17315648449715054 0.2053108696212059
0002b0 52 5e 46 37 72 46 c7 3f d2 09 36 68 1b 70 ca 3f
       0.18183734606712904 0.20654623592788696
0002c0 91 19 11 71 7e 05 ca 3f 8c 17 ee 87 1a be c8 3f
       0.20329266091193834 0.1933015025826389
0002d0 f7 e0 2e d8 bf 52 c7 3f ca d9 53 df fe 5f c7 3f
       0.18221281104866424 0.18261705307641157
0002e0 33 29 37 1c a1 3b c9 3f ea 21 c0 c1 ad c7 c7 3f
       0.19713224294384588 0.18578121147608267
0002f0 74 c7 19 a6 c1 e8 c8 3f fc 99 64 84 8d dd c7 3f
       0.19460316286454893 0.18644875492573465
000300 a4 c7 de 6c e2 61 da bf 0e d5 b6 00 14 a5 e8 bf
       -0.41222439414843337 -0.7701511396359437
000310 cb 23 b6 0f da 72 d5 bf e1 08 05 5c 26 30 e4 bf
       -0.33513499769520355 -0.6308776662119976
000320 20 87 ce de 68 4b de bf 8c 5a 83 e7 b8 26 e5 bf
       -0.473352639755932 -0.6609768411388628
000330 41 13 37 a2 bd ea eb bf b0 0d af 31 bc 25 e9 bf
       -0.8724048774971395 -0.7858563394915361
000340 4f fb 95 72 5b af e6 bf 70 36 46 8c 73 7e d6 bf
       -0.7089059103017038 -0.35146797846468925
000350 cd c8 8e c7 62 d8 e9 bf 95 f2 43 88 11 ad e6 bf
       -0.8076642892467817 -0.7086265241083135
000360 70 3f 2b 02 4e 63 eb bf a5 83 0e 75 c3 bc dc bf
       -0.8558721582757993 -0.4490212100154685
000370 0d 21 dd 79 54 0f e0 bf 87 99 74 ae cd e4 e4 bf
       -0.5018713359977781 -0.6529301078160622

weight f8 [112, 16]
000000 2f 3d 9e 83 ed fc bf bf ca f2 c6 dc 1f 65 b4 bf
       -0.12495312178929362 -0.07966803684298465
000010 bc ad f4 39 80 54 bc bf 63 62 3f ae 30 6c 8b bf
       -0.11066438116966187 -0.013389950101484865
000020 90 ba 33 d4 2e 36 b8 bf 98 be 59 23 03 bc 9f bf
       -0.09457676583017816 -0.030990647347094752
000030 ea 78 b9 bb 65 99 ba bf ae f4 2f d3 91 54 ba bf
       -0.10390315850370127 -0.10285293012562377
000040 cd 04 28 bb 8d 47 b4 bf 4f 9c 88 6c e9 d2 b9 bf
       -0.07921682185407804 -0.10087450885531378
000050 c6 f9 e5 c5 f5 20 b7 bf 8c f9 2f 72 b8 fa 91 bf
       -0.09034668046476843 -0.017557985276647467
000060 ee 6d 48 6e 09 07 b5 bf 6d 1c d5 af 1d 71 bb bf
       -0.08213862364248545 -0.10719476263794699
000070 2e 37 46 8d 92 f3 ba bf 27 cc 41 10 80 7b 99 bf
       -0.10527912091330613 -0.024885178558587875
000080 37 fb 7f a4 83 8e e1 bf b4 95 00 c4 e2 fa d5 bf
       -0.5486467564477157 -0.343437854202729
000090 3c 2c 08 ae 61 92 e1 bf 99 10 d9 7b df 6f d8 bf
       -0.5491188429890665 -0.3818281850292436
0000a0 34 66 c8 d1 47 47 e1 bf f6 31 bf 84 e3 08 d7 bf
       -0.5399512383766649 -0.35991752589759984
0000b0 d1 ab 1b 9e 4c c7 d9 bf 44 b0 d1 f7 a5 19 d7 bf
       -0.4027892631553956 -0.36094044877132014
0000c0 76 40 f2 36 8d ed d7 bf 7b 3f c5 16 10 9d e1 bf
       -0.37387400022362927 -0.5504227108703924
0000d0 62 f9 89 eb c3 3b d4 bf e7 ea 84 2a 46 cf d5 bf
       -0.3161477852044269 -0.3407760062433866
0000e0 c4 41 e9 15 e6 14 dd bf 84 96 a3 42 8a 19 e0 bf
       -0.4544005598045511 -0.5031176854651709
0000f0 2d 56 65 ae dc 47 e1 bf e2 74 ad 4d 4b bb d6 bf
       -0.5400222211998816 -0.3551815279550522
000100 01 68 89 7c d5 3d bb bf a2 da f5 70 39 36 ae bf
       -0.10641226091811974 -0.059007449187381114
000110 35 54 4a dc c0 e6 bb bf f8 9f eb fc 7a 59 ab bf
       -0.10898976686651525 -0.05341705644042344
000120 54 fe 35 63 5e ed b9 bf 86 f9 fc a0 1f 96 9a bf
       -0.10127820894376188 -0.025963300896586293
000130 90 af 62 c9 32 02 b6 bf 39 a1 2a c6 d8 fc b0 bf
       -0.08597104469907735 -0.06635813558626048
000140 55 04 f8 54 93 6e b4 bf b3 43 73 dd f9 32 be bf
       -0.07981224846300113 -0.11796533257007873
000150 36 31 93 20 a1 4c af bf b3 ed d8 6f 75 79 a2 bf
       -0.061131510950504994 -0.036082906630749
000160 c9 da a1 db cc e3 b3 bf 23 62 68 08 7a 5e b8 bf
       -0.07769470560183857 -0.09519159989611885
000170 c2 10 16 65 68 f2 bb bf 71 d1 a3 03 a9 88 a2 bf
       -0.10916759937214507 -0.03619888467247535
000180 2b d8 ba 07 00 53 e1 bf d4 9d cb 41 c2 18 d5 bf
       -0.541381850335488 -0.3296361582310656
000190 dd 0e 09 20 01 c7 e0 bf f0 86 91 00 01 7d d4 bf
       -0.524292528695209 -0.3201296334792536
0001a0 3e df 81 83 e9 e8 e0 bf c7 55 aa e3 63 a9 d4 bf
       -0.5284316605093193 -0.32283875687548086
0001b0 7e cf 0a 0f 82 2a d9 bf 07 88 ef e9 15 9b d6 bf
       -0.39321948498695025 -0.353215673878481
0001c0 26 17 e7 bb 9c 69 d7 bf ef 08 93 d6 54 92 e1 bf
       -0.36582105970261336 -0.5491127196221707
0001d0 e3 5c 2e 0b dc 85 d5 bf 1c f4 c7 97 60 0a d3 bf
       -0.3362951382818677 -0.2975083811032293
0001e0 bd b8 99 ef 8e e9 db bf 41 2f 42 53 c1 7a e0 bf
       -0.4361302699898138 -0.5149847627776368
0001f0 90 b6 c6 cb 16 ed e0 bf 1e f7 3b 05 57 5d d6 bf
       -0.5289415340427741 -0.3494470168223972
000200 e4 a5 cb 0a f9 5d bb bf 93 41 d6 1c 08 13 aa bf
       -0.1069026614528848 -0.05092645027173428
000210 33 43 bf b0 e5 38 bf bf 35 f4 c3 13 0b 12 9f 3f
       -0.12196193280329908 0.030342267114054706
000220 8d 47 84 b5 a7 00 ba bf d6 a2 c3 62 c1 0a 9a 3f
       -0.10157249623833149 0.025431653645599926
000230 b2 cf 68 f2 ef f2 be bf fc 12 21 88 11 a2 b6 bf
       -0.12089442890356741 -0.08841046880213449
000240 0a 02 55 83 42 3a a8 bf ea c3 24 98 50 48 c1 bf
       -0.047319487125154394 -0.1350193732155554
000250 a0 de 35 2c ce b0 b3 bf 2b 5c 39 01 67 82 65 3f
       -0.0769165857253662 0.002625657254423005
000260 65 52 f2 e0 d2 10 b7 bf c5 ca c2 3d e7 cb b6 bf
       -0.09010045997485745 -0.08904881723246223
000270 9e 6a 72 c4 d6 36 ba bf 2d 6a 2a f8 cb 79 92 3f
       -0.10239927574222427 0.01804274275000688
000280 c5 f0 24 eb 38 c7 e0 bf 66 a3 9c 7c b3 df d5 bf
       -0.524319133058747 -0.34177863282325516
000290 c3 63 26 5c 67 75 e1 bf 7b ca ec 8a de be d7 bf
       -0.5455815124324704 -0.37102473799601626
0002a0 1d e0 12 8f 5b 4b e1 bf 16 b0 1e 16 81 75 d5 bf
       -0.5404489321144897 -0.33529688987869244
0002b0 0a d1 ee bf b6 71 da bf 75 72 b0 e0 e7 04 d8 bf
       -0.4131905435890678 -0.37529942457494
0002c0 dc 21 2a 9b 55 56 d6 bf 56 25 aa d2 ac 25 e1 bf
       -0.349019433524999 -0.5358490099471662
0002d0 61 28 67 45 93 4c d4 bf 17 19 33 af 1b 67 d5 bf
       -0.3171737840426712 -0.33441822156272977
0002e0 15 0e 98 18 a4 28 dd bf 5a 05 d9 2f fd bd df bf
       -0.45560552980188734 -0.49597100899344115
0002f0 15 d6 d5 91 32 a3 e0 bf de 0b 07 61 a8 52 d8 bf
       -0.5199215744348203 -0.3800450274977133
000300 f4 4e 78 7c d1 f0 de bf 37 9b 38 6c 83 7b cd bf
       -0.4834483829047109 -0.23033182892069146
000310 5f 84 5f c4 2a 66 df bf 54 db 8e 32 83 fc c9 bf
       -0.490610782404536 -0.20301856964735043
000320 7e e7 02 e3 8e c9 df bf 03 57 46 22 21 a3 ca bf
       -0.4966771332652725 -0.20810331510136146
000330 9a 3d bf 0e f8 59 d6 bf 7d 6f 79 16 9e 26 d4 bf
       -0.3492412704481126 -0.31485702700387447
000340 79 a4 40 72 52 89 d4 bf 89 9f 4d 64 13 ed de bf
       -0.3208814731356778 -0.4832199553989019
000350 29 13 0c 14 27 e8 cf bf a0 cc 1d 3a 9b 25 cc bf
       -0.24927223662248224 -0.21989765489306468
000360 54 b2 80 ad a4 a7 d8 bf 58 84 52 eb 37 ed dd bf
       -0.38523213332772355 -0.4676036642141006
000370 8f dc c4 1b c3 33 df bf 4b 71 47 42 2f 1a ca bf
       -0.4875343104535625 -0.2039240907314571
000380 e1 0b 07 71 9c c8 df bf 1e 33 42 6f a5 90 d2 bf
       -0.49661932981342544 -0.29007850518319056
000390 bc 80 63 ca e5 e1 e0 bf 57 9b 4a 00 5e 09 d0 bf
       -0.5275753930000273 -0.2505717280241035
0003a0 ca 67 53 51 30 7b e0 bf 85 0c b1 08 10 38 d0 bf
       -0.5150376881022052 -0.2534217915419464
0003b0 77 28 31 5a 9a 1b d8 bf 7e bb 00 39 57 ee d4 bf
       -0.37668474967779936 -0.327047162691933
0003c0 a4 0e 2f 2e 72 7d d7 bf 34 8c 24 06 9a cd e0 bf
       -0.36703161726129907 -0.5250978584266535
0003d0 94 24 b7 4e 6a 1c d2 bf c4 0d 63 b7 b7 40 cf bf
       -0.2829843300538155 -0.24416252569618113
0003e0 d5 22 a9 f9 09 5d da bf 95 6d d3 cb 38 c0 de bf
       -0.4119286478130964 -0.4804822912680831
0003f0 0c b9 c8 f0 44 d2 df bf 1f 24 37 c6 3c 99 cf bf
       -0.49720881952352225 -0.246863934311734
000400 bd 8d 0c db f9 22 e0 bf 08 34 85 05 09 69 d1 bf
       -0.5042695310880202 -0.2720358423146654
000410 89 6b aa 39 f6 b4 e0 bf 0e 5c 40 7d 2d d5 c8 bf
       -0.5220900656016606 -0.1940056668833851
000420 36 86 d5 a0 fd c2 df bf 45 72 5a c6 67 60 c9 bf
       -0.49627629000142137 -0.1982545584222796
000430 45 a2 da 7b 20 a0 d7 bf 69 af 8c 63 87 a9 d5 bf
       -0.3691483697425933 -0.33847222062717336
000440 7c 29 98 4e 6a 69 d6 bf bc f6 aa 36 2a 28 e0 bf
       -0.3501840369723579 -0.504902941487408
000450 6a 1d 10 69 32 37 d2 bf c9 68 6c 45 18 e3 c6 bf
       -0.2846189523702011 -0.17880538358514844
000460 73 fe 00 8c 56 f6 d9 bf 6d 57 9d 37 83 c5 dd bf
       -0.4056602828240791 -0.465180210410259
000470 0c bc 4e 74 4b c1 df bf 45 8a 5b 3b aa 5f c4 bf
       -0.4961727748695359 -0.15916946314162508
000480 99 be e0 46 e8 40 b4 bf c2 a4 5d 65 00 11 a3 bf
       -0.0791154072801369 -0.03723908650756293
000490 91 8c 39 7a 60 af bb bf 8a ce 85 8d 84 87 a7 bf
       -0.10814478858951505 -0.04595579364368259
0004a0 46 43 e7 fc af 7a b1 bf d9 fd 40 67 5b 50 96 bf
       -0.06827831196211517 -0.02179091279708509
0004b0 cd bb d3 2e 9f ec b1 bf f5 94 41 f4 aa 3a ae bf
       -0.07001681226004948 -0.05904134971278011
0004c0 5f 49 13 33 05 94 ac bf 1d 29 17 01 ca 2a ae bf
       -0.055816805348188885 -0.05892020476638236
0004d0 97 cc 53 ec 76 40 a2 bf f5 77 71 a0 15 b8 9c bf
       -0.035648075436165154 -0.028045976560285586
0004e0 f2 3d c3 3c 78 ce b2 bf 96 e0 2a a9 c2 c1 b0 bf
       -0.0734629772516582 -0.06545654897752437
0004f0 3b 98 71 0a 6e 01 b4 bf fd 9d 65 3b 0b 05 9c bf
       -0.07814681773160796 -0.027362990856458314
000500 8b 0f 9e 41 95 31 e2 bf 9b 8d 66 f8 68 9b d7 bf
       -0.56855261627105 -0.36886047609206124
000510 cc 1d 48 a4 cf ff e1 bf c0 e9 61 59 25 ee da bf
       -0.5624769409777683 -0.42078527191884163
000520 21 78 a3 15 c8 55 e1 bf bf 13 fd a1 08 5f da bf
       -0.5417213842990841 -0.4120503980560066
000530 cd 25 37 f2 fa 4e da bf c1 5a ef 3a c5 70 d7 bf
       -0.41107057241296446 -0.36625796084755896
000540 31 1f bd 9e 4c 2c d9 bf 1f ec 2b 18 52 4e e2 bf
       -0.39332881452399976 -0.5720606300450334
000550 4e 08 98 75 8b ef d5 bf fa e6 6e da 9a 78 d9 bf
       -0.34274565204407714 -0.39798613864296295
000560 75 95 1e ca 78 97 dd bf 2d c4 f1 34 18 aa e0 bf
       -0.46237010706166554 -0.5207634958334261
000570 89 3a 3f 6d d5 5a e1 bf 1f f0 8f 23 5f 69 da bf
       -0.5423380979280675 -0.41268137429119806
000580 e2 bf 4a 1c 03 a4 e1 bf 25 b8 8e 4a 8c f9 d4 bf
       -0.5512710144594133 -0.3277312019444046
000590 99 fa 7a b0 b2 bf e1 bf df 42 60 43 f7 bd d7 bf
       -0.5546506354219957 -0.37096959666909685
0005a0 f9 a7 bb aa a7 f0 e0 bf 89 8c 30 a8 8b a8 d3 bf
       -0.5293768248204734 -0.30716220307130776
0005b0 68 12 c0 fa 91 39 db bf 3b eb 21 ab 66 db d7 bf
       -0.4253888081296169 -0.37276617729337475
0005c0 0d 9e a2 d3 f9 b6 d8 bf 43 0b 71 78 8f 9e e1 bf
       -0.38616796176435814 -0.5506055214285442
0005d0 e9 b3 ee e2 2e fb d4 bf 6e 15 8f 36 81 35 d5 bf
       -0.32783100282068617 -0.33139067008990863
0005e0 e2 b5 d0 80 c9 62 dd bf 8d a0 31 3c d8 64 e0 bf
       -0.45915448741547327 -0.5123101401959659
0005f0 88 0a b5 ee 43 e3 e0 bf f6 75 4a bd ec c4 d7 bf
       -0.5277423536538928 -0.37139433370052133
000600 d1 ed b3 86 29 2d db bf 42 d6 18 87 5c 1e cd bf
       -0.42463148264479594 -0.2274890575078406
000610 4f 08 86 77 84 b9 da bf 25 e4 45 bb af 7d c5 bf
       -0.417573086473685 -0.16789814609708845
000620 51 e9 08 61 d8 8d d9 bf 61 bc 8d 8f 41 4c c4 bf
       -0.39928254581504513 -0.1585771513887009
000630 1f 2d 21 86 c7 90 d4 bf fc 4b 31 ad dd e1 d1 bf
       -0.3213366327151607 -0.2794107619603776
000640 cc 84 fe c4 89 04 d2 bf af 97 65 1a 74 43 da bf
       -0.2815269874354953 -0.41036703660790413
000650 4d 05 1f ac 3e 6a cc bf ff 80 22 99 04 20 c7 bf
       -0.2219923344073699 -0.18066461064609737
000660 53 0b 06 80 29 d9 d5 bf 0e 9f 81 d8 f0 c3 d8 bf
       -0.3413795232992715 -0.38695927756497006
000670 42 73 2e 03 3c 09 db bf af fa 5c b9 8c 86 c4 bf
       -0.42243862448394875 -0.1603561310857535
000680 26 12 7f 00 b8 ff cd bf 92 9f 31 95 60 07 b0 bf
       -0.23436641716229295 -0.06261256830623399
000690 4a b0 33 4c b4 44 d0 bf c2 c8 cb d8 d4 14 a7 3f
       -0.2541933769377961 0.045080806221351036
0006a0 d5 61 90 bc 86 27 ce bf 76 2f d0 1f a1 16 95 3f
       -0.23558124739862643 0.020594136778569326
0006b0 f0 78 c0 1d 15 48 c6 bf 76 11 5c aa 0a 32 b9 bf
       -0.17407478287436318 -0.09841982516451772
0006c0 74 1c 19 e0 bb 3c b8 bf 7f 85 2b 0e f8 5b cf bf
       -0.09467672558922563 -0.2449941701116067
0006d0 af 82 56 ce b0 53 b4 bf 3a c1 16 04 8d 0a 90 3f
       -0.07940201795146139 0.015665248274389067
0006e0 dc b8 4e 09 e2 d2 c6 bf b1 c4 68 f1 c1 af c9 bf
       -0.17831063703983474 -0.20067619597970102
0006f0 5f af 1f 42 7f 00 ce bf 71 f6 4b 7b a3 fe a8 3f
       -0.23439017037105267 0.0488177383431151
000700 c3 99 e0 d5 ca 24 ba bf 9d 6c 6d 58 ce 2a 74 bf
       -0.10212390634169481 -0.004923635517879135
000710 5d 05 59 29 b9 cf bf bf 78 31 ba 9b 6b bb b2 3f
       -0.12426335582224142 0.07317230750977
000720 ba c8 40 24 54 b5 c0 bf 53 a0 6d b3 a0 0b b2 3f
       -0.13053371210259518 0.07048992519924129
000730 44 92 36 be 89 58 b8 bf 92 c5 fe 2f fd 42 a0 bf
       -0.09510098356128888 -0.031761085614003495
000740 1b a2 c8 89 96 1c 88 bf b8 d6 5c 82 28 a0 bb bf
       -0.011773277358842418 -0.10791257078821104
000750 35 2a 71 37 cb e9 91 bf ed 57 99 10 84 fd a6 3f
       -0.01749341512576504 0.04490292265533911
000760 be 47 ba d4 c0 1b bd bf 28 96 57 bd b4 b2 b7 bf
       -0.11370473092600172 -0.09257058737383572
000770 b1 fe c5 4c e6 17 c0 bf 0e bf 1c 66 b6 42 b3 3f
       -0.12572935818388012 0.07523670189834439
000780 db 88 21 cf ea cc e0 bf e9 30 f5 f2 e8 42 d4 bf
       -0.5250143094565617 -0.3165838596949145
000790 ad 0f 5e 62 a5 df e1 bf 8d f1 5f d1 0c 6c d4 bf
       -0.5585505410422137 -0.31909485289340794
0007a0 37 ec f6 5c 25 12 e1 bf 39 64 ba 70 83 28 d3 bf
       -0.5334650817598064 -0.29934774407007897
0007b0 aa a9 18 80 4e 7b d9 bf bd 79 36 b0 d5 76 d7 bf
       -0.39815104016693204 -0.3666280957058026
0007c0 3d 27 5d b9 3d d5 d7 bf e8 64 83 54 bc 5c e1 bf
       -0.37239020444814114 -0.5425702715539531
0007d0 0e 36 cf 79 48 aa d4 bf 4d a1 a6 65 fe 34 d2 bf
       -0.3228932561440566 -0.28448448111386854
0007e0 75 2e 3a e2 73 b8 db bf 05 ad 99 12 45 cd df bf
       -0.4331330975771615 -0.49690367523608386
0007f0 8f 97 a6 d5 40 dd e0 bf 5f 9a f9 ba 04 f0 d4 bf
       -0.5270084545961583 -0.32714956530836575

bias f8 [112]
000000 a4 3c a0 82 d7 ef c3 3f 5f 41 92 95 a5 16 d3 bf
       0.15575689199656495 -0.29825725180218926
000010 6a 0a 5d 2b f3 ab ba 3f 62 98 1b 6a 57 72 d6 bf
       0.1041862469547056 -0.35072884904946566
000020 6b 93 f5 8f 83 5f c0 3f ad 03 7c 9f d1 ae d5 bf
       0.1279148533750701 -0.3387950952019832
000030 d2 22 b5 41 97 26 ca bf 6e ae 74 7c e5 46 d3 bf
       -0.20430269916894034 -0.30120217470059785
000040 b9 05 71 e3 c3 ae cc bf 44 a9 6a 67 1b 44 c4 3f
       -0.22408341031591109 0.15832846212044605
000050 b0 1e 57 ee c0 bb d3 bf 97 ad 25 0b 66 9a d4 bf
       -0.3083345725576505 -0.32192374313918876
000060 2a c7 13 4f 87 a0 c3 bf e6 6b cb 59 bd 75 b0 bf
       -0.153336442577307 -0.06429656450511309
000070 c2 cc 65 5b 57 f1 b7 3f 48 62 a9 2a a7 44 d6 bf
       0.09352632504833294 -0.3479402462594732
000080 76 7b 9f 1d 60 62 a9 bf 28 b8 fc 63 53 8c bb bf
       -0.04957867013558019 -0.107609950934347
000090 79 48 c3 45 2d 40 b1 bf 7d 84 b1 55 29 25 86 bf
       -0.06738551095193825 -0.010813067367225532
0000a0 bf 16 12 f7 ca 85 a7 bf 81 df a4 04 29 7b a2 bf
       -0.04594263330458891 -0.03609588796319852
0000b0 e7 52 6e d2 79 a2 c4 bf d0 6e f6 7c 1d 86 bb bf
       -0.16120836996983387 -0.10751518536420268
0000c0 83 ae 2d 30 3c 1a a5 bf d0 c1 80 e1 5b 3f a3 bf
       -0.041215783005864835 -0.03759276511880538
0000d0 6c 56 56 23 f7 de c1 bf 13 a8 c1 93 bd ff b1 bf
       -0.13961686349346125 -0.07030854089103426
0000e0 25 ca 00 9f 84 83 c7 bf 34 8f 71 3d df 8a ad bf
       -0.1837011124021767 -0.05770013451618042
0000f0 2d fd ae e7 e7 be 99 bf 63 9b a7 e3 ff 08 9f bf
       -0.025142310634462085 -0.030307768125477873
000100 b0 dc ec 1b 78 db b5 3f 71 02 ea 7e de 3b b3 3f
       0.08538008386391271 0.07513228033531917
000110 b7 13 24 62 d8 51 b6 3f 85 ef 2f 82 33 84 b0 3f
       0.08718635936754891 0.06451723030471442
000120 15 38 df 03 5c a2 b0 3f 0b 4b 9f f2 b3 4f b0 3f
       0.06497740835695283 0.06371617005724432
000130 65 98 cb fb 4f 05 b4 3f 0e fb d6 66 80 0e b2 3f
       0.07820606133791015 0.0705337763856557
000140 9e 22 63 3a 79 14 b6 3f 70 d6 1d 60 97 95 b2 3f
       0.08624990153760811 0.07259508225055256
000150 90 1d a4 ed 9f 08 b6 3f 28 7b 0b a1 09 86 b2 3f
       0.08606910278114399 0.07235775167235359
000160 53 dd ee 1a fa 32 b2 3f 38 77 66 57 fb ac b4 3f
       0.07109034688516162 0.08076449283404663
000170 64 de a7 49 af 2f b6 3f 7f e5 73 f2 52 88 ae 3f
       0.08666511104808589 0.059633819671897285
000180 25 f5 98 ad 0a f5 b1 3f ce a1 b6 09 a2 f7 b0 3f
       0.07014528978557573 0.06627857911246979
000190 68 36 04 58 4b ac b0 3f 3e 79 99 df b7 bb b8 3f
       0.06512900256003606 0.09661435326549836
0001a0 0a fe 9c ab ff 19 ab 3f 99 56 ef a2 66 cd ac 3f
       0.052932729433901995 0.056254584683910376
0001b0 c9 46 75 2e 53 10 b2 3f 9f 9a 44 c2 5b c1 b2 3f
       0.07056159862738833 0.0732629155432769
0001c0 1d 6d bb 85 87 46 af 3f 87 4c 2b 0f 2f ff b3 3f
       0.06108497149917922 0.07811254616108175
0001d0 a4 27 c5 82 94 00 b1 3f ca fc 91 91 b0 5e ad 3f
       0.06641510193472172 0.05736305024128681
0001e0 6f 04 f6 ee 2c 8f b4 3f 8f 32 1c 68 c9 6c b1 3f
       0.08030968507775225 0.06806620399238227
0001f0 aa b3 31 87 fe 2c b0 3f af 58 16 30 a8 97 b2 3f
       0.06318655777586338 0.07262660192495461
000200 57 3d 44 7e aa ba b0 3f 71 2a 8a fe c1 e7 b1 3f
       0.06534829695396148 0.06994259323452369
000210 69 f3 fa 47 e5 4c b5 3f 9e 6d 91 ca c9 89 b2 3f
       0.0832045841916177 0.07241498179921854
000220 24 ac e3 de 08 6b b6 3f e1 9b e0 d6 55 eb b3 3f
       0.08757071916231546 0.07780968185453176
000230 5a b0 96 31 09 23 b3 3f 7d a3 24 aa 20 33 b0 3f
       0.07475335560474275 0.06328014520535237
000240 d9 7b af 56 d2 12 b5 3f fe 1c 24 1c 1c 59 b4 3f
       0.08231844536156475 0.07948470770871904
000250 20 64 d7 0a 25 5c b5 3f b2 52 0b bc 6a 77 b7 3f
       0.0834372664898102 0.09166590777324293
000260 00 15 6c d3 8b 19 b2 3f b7 53 fa 5a 10 90 ac 3f
       0.07070230399775213 0.05578662024087271
000270 27 d6 32 27 53 4e b5 3f 07 a4 4e 6a 22 76 b3 3f
       0.08322639185902202 0.07602133841886892
000280 a5 4f e9 ba f4 dd c8 3f 6e 03 91 89 d7 51 c9 3f
       0.19427355886966527 0.1978101178847526
000290 ba 6a 16 7e 6e 0f c8 3f e5 ad 6f a8 c2 80 c7 3f
       0.1879709354078239 0.18361695503641254
0002a0 49 b7 00 bb 1b 99 c9 3f bb a8 44 4d 45 50 ca 3f
       0.19998499518390592 0.2055746676717883
0002b0 4e 5e 46 5f 77 c3 ca 3f d4 09 36 be df cb ca 3f
       0.20909015800565317 0.20934674060488467
0002c0 8f 19 11 74 29 b3 c8 3f 8d 17 ae 95 ea 78 c8 3f
       0.19296758811306033 0.1911900740489582
0002d0 f8 e0 2e 17 de 4d c9 3f cb d9 53 5f 7c bc c9 3f
       0.1976888287733869 0.20106463102975022
0002e0 35 29 b7 5e ad 8e c8 3f e9 21 c0 66 bc 98 c9 3f
       0.19185416340617115 0.19997363106837376
0002f0 74 c7 39 1d d1 a1 c7 3f fb 99 a4 7a 5b cc c8 3f
       0.18462575842891804 0.19373649109293453
000300 a5 c7 6e 70 cf 32 da bf 0e d5 f6 05 fd e0 e8 bf
       -0.40935121516951717 -0.7774644009101921
000310 c9 23 36 32 28 a1 d4 bf e3 08 45 bc 27 ab e4 bf
       -0.3223362436625022 -0.6458929707662516
000320 22 87 4e 6d 94 7d dd bf 8d 5a 5a e3 83 5e e5 bf
       -0.46078978228080036 -0.6677874985205833
000330 41 13 77 25 02 11 ec bf b2 0d 7f e2 f0 09 e9 bf
       -0.8770762187710731 -0.7824634956127083
000340 4e fb d5 d0 7b 61 e6 bf 6f 36 46 32 0c b7 d8 bf
       -0.6993998602700715 -0.38617234143826
000350 cd c8 ce 30 73 bf e9 bf 99 f2 c3 e8 2b 07 e6 bf
       -0.8046203568722149 -0.6883754297446841
000360 6f 7f b6 af d8 ca eb bf a5 83 52 ad db 9a dc bf
       -0.8685115272419192 -0.4469517891503137
000370 0e 21 dd d6 46 79 e0 bf 85 99 54 ba 31 9d e4 bf
       -0.5148042866285623 -0.6441887511507934

weight f8 [3, 16]
000000 a0 79 8c 96 ef e3 d0 bf ea 7a 6c e8 50 90 d1 bf
       -0.2639121027185869 -0.27443335244781386
000010 af 7a 27 19 56 89 d1 bf 51 47 ff bd 01 79 d1 bf
       -0.2740073438307417 -0.27301066927349377
000020 06 44 4b 51 1a b7 d1 bf 15 c8 58 20 51 10 d1 bf
       -0.27680070818775027 -0.2666209045302151
000030 fc 91 c2 39 d2 05 d1 bf 2b cb 8d 3d 20 f7 d1 bf
       -0.26598029747609053 -0.2807083703148005
000040 bb 79 c6 cf bd be d0 bf 96 6e 6e 99 49 e6 d0 bf
       -0.26164193430477284 -0.2640556333878775
000050 41 2c 7c 15 0b c5 d1 bf fc f2 57 fa 9b 4c d1 bf
       -0.27765156839513244 -0.27030085990536157
000060 a4 d4 b5 28 b6 49 d1 bf 7d 8d 21 bc cf 5b d1 bf
       -0.27012399650204544 -0.271228727075332
000070 42 58 e6 d8 d9 3d d2 bf f6 33 0c dc c1 58 d0 bf
       -0.2850250833665805 -0.25541731347112717
000080 1d 77 e5 2c 88 0a d1 bf 3b 77 11 40 0f f3 d0 bf
       -0.26626781830224094 -0.2648351789156213
000090 e0 f0 4e 16 7b 98 d1 bf f4 fc 9c 4e 58 25 d1 bf
       -0.2749316900115115 -0.26790435483049113
0000a0 f4 12 d6 73 ba 3b d1 bf 49 36 e4 4d 06 ba d1 bf
       -0.2692705279553558 -0.27697904211604346
0000b0 04 08 58 6f 00 93 d1 bf 13 c8 0d 39 8e 19 d1 bf
       -0.2745972716658118 -0.2671847874800061
0000c0 92 9c f8 b1 03 a3 d0 bf 81 c3 46 b0 52 09 d1 bf
       -0.25994961147302675 -0.26619403089994625
0000d0 8e 2a 32 c0 62 cf d1 bf 08 7f f5 84 23 3b d2 bf
       -0.27828282136093996 -0.28485954269670843
0000e0 47 d4 81 c1 5a 68 d2 bf c3 0d 49 9a 61 a3 d1 bf
       -0.28761929413969195 -0.27559700076036736
0000f0 82 de 35 57 ae 57 cf bf 43 d5 9b d6 a7 21 d2 bf
       -0.24486331232377628 -0.2833041759289083
000100 cd b5 a0 93 66 6d d1 bf 16 ae 12 ff 29 04 d1 bf
       -0.272302288215397 -0.2658791533419572
000110 c9 2f 42 b4 0f 83 d1 bf 46 22 3e 32 d3 e2 d1 bf
       -0.2736243496262856 -0.2794692984248609
000120 9a 2e 53 b2 1f e1 d1 bf b1 02 d0 87 f5 8a d1 bf
       -0.2793654672102349 -0.2741063905996653
000130 5b 2c 25 37 6e 05 d1 bf a8 0a 47 10 0d 16 d2 bf
       -0.2659564531829283 -0.28259588803863744
000140 d8 29 2c 41 59 1e d2 bf f9 12 a0 a2 7e fb d1 bf
       -0.2831023346376731 -0.2809750164163201
000150 61 77 19 73 64 1a d0 bf d3 4f b3 0f 0a ee d0 bf
       -0.2516108631151522 -0.2645287659954622
000160 e7 14 32 6e ae 2a d1 bf 30 2d 13 28 92 d0 d2 bf
       -0.26823006402294286 -0.29398015893521556
000170 51 2d ce 26 ba ce d1 bf 65 8a 01 a3 7b 55 d1 bf
       -0.27824262418353835 -0.27084246557766384
