Retweet/RetweetNetsV3/TrainNet_ep10V2.pt (torch, 23477 bytes, 6 tensors)

scale f8 [3]
0.5413432186342387 0.5365392754633538 0.5048516879304266
00000000: fd40 7e03 af52 e13f f84e 246a 542b e13f
00000010: 06bb 1fba be27 e03f

weight f8 [112, 3]
0.1918799458861592 0.08633154755852944 -0.02827979428675824 -0.4646716757338787 -0.2815368508023974 -0.09875070243156389 0.12895938894741313 0.029687980822805438
0.017592866528189397 -0.6856161896432166 -0.6616675430035243 -0.37848335166001373 0.022269326262730045 -0.0472126371735718 -0.07538913901451005 -0.6444541914816717
-0.6089117208414311 -0.30767508176935526 -0.130472337920172 -0.05010979531600058 0.0645171266258184 -0.4238628573220322 -0.19138341116840277 -0.06591435505769744
-0.503070653203896 -0.46540432265947007 -0.25235074236608124 0.262312068024661 0.3302926788207984 0.12066919505351649 -0.3772137665834487 -0.22730462924675365
-0.018855801977503184 -0.5619765446991486 -0.5109317828554766 -0.2121768534923167 -0.08807809265324136 -0.08733262392215863 0.0997824675986916 -0.1682808919070251
-0.3119219347519555 -0.2893961561289652 -0.45655377011801723 0.3668656986326558 -0.13219457726699257 -0.6025380463558153 -0.6293391144771123 -0.32503581346960825
0.1882953257571463 -0.263420864691801 -0.2320506692822916 -0.1373169372731379 -0.20679599501464893 -0.6520098699257143 0.1427317711439012 -0.2654203764172993
-0.15245005487383245 0.043951981040969666 -0.015032748529451918 -0.26861732313504194 0.12764396932023034 -0.2849087777140696 -0.3300421042360471 0.055461942085950386
-0.17421931157630524 -0.4489045130317889 0.05022086819946908 -0.5274717052171876 -0.48644310362418564 -0.1593709327425471 -0.12710510212204262 -0.5472359165031901
0.13774255087350873 -0.013402219870063027 -0.36104760091577714 0.09326805535984675 -0.12826551224882585 -0.22517470967268607 -0.1075984709852913 -0.41802266208539524
-0.6232112332204192 0.16685508706949834 -0.44975207467951683 -0.7081707803251373 0.12728016275464557 -0.6332413576859828 -0.29281616376172537 0.11534983085188101
-0.15099556913445034 -0.3050974588137916 -0.4719533552464979 0.1301741229725251 -0.2592689799440925 0.21552672192779856 -0.31629159286825276 -0.5329192448247534
0.08041139597772819 0.08693805662806593 0.38397630654482173 0.05376315675913676 0.11746407799376371 0.39714325864548583 0.06676138841971065 0.10482156549586506
0.3935074963651025 0.0686914440802248 0.06157636082557883 0.3456316390071234 0.08524340564174351 0.09001305715747762 0.33321622752526375 0.05544290315036334
0.04763062915455995 0.35390174851145745 0.07675017927268328 0.0957478132673477 0.3969065323962504 0.06729019029944336 0.06996505541608872 0.3682354750628643
0.07302727672411136 0.0866348038615121 0.38654201522003573 0.07317289020110225 0.11902994366402829 0.3873923168504203 0.06032016059690405 0.1011488710516698
0.3823345296555297 0.07457966381023486 0.07053909415404319 0.3729542800367533 0.067486615657226 0.0659819439066008 0.3630576303641518 0.0743827457696118
0.09275835481918025 0.35698404429377634 0.07359944032236643 0.09109439723710805 0.39008525368702296 0.06313822614437516 0.08222359204671728 0.36229624115789016
0.07500995608427273 0.06208230410955809 0.04369899114586025 0.0540634334828245 0.0659825797271948 0.05410763779247493 0.0720011946450959 0.05096307921546136
0.05228548952007031 0.06814978073183686 0.046987691956604405 0.03422512599002009 0.0777107924300334 0.044860099578227765 0.039879767781542584 0.051938490934067466
0.0775417536793358 0.002653659791180446 0.057739180404586726 0.0771006018069127 0.04951547469013749 0.054716202546148514 0.09903060118401182 0.06655918689195069
0.07331315946018771 0.08153316978406422 0.05801249630425264 0.07558908593417965 0.0877650326518124 0.0564860119720915 0.05173337191701095 0.07343992633248632
0.02871690970561909 0.050464122986199865 0.06614309771407977 0.003380951064602379 0.07004708854081976 0.06499810933308343 0.0589080797752574 0.08131604221961583
0.06534976955128777 0.04601478803911771 0.08349669749145056 0.06436963142294821 0.05182442185556294 0.06988245502114648 0.07123588116364964 -0.008973062608175703
0.06019629470398103 0.10472953267948974 0.38902702406610146 0.07567479348489965 0.09898999971890884 0.41075002293404633 0.0827819563779701 0.07717060085286162
0.392464798331497 0.07908905631834191 0.09072000538559168 0.3467398412714031 0.06479575375674107 0.08544951723574751 0.3733911415305059 0.05937929608320019
0.10017387940218503 0.37363193016350527 0.08301931690901587 0.09804298601648571 0.38550526450126965 0.05599841734092448 0.1009292798615571 0.36625441275576515
0.06514033821888505 0.11558689197190224 0.3855172034144036 0.07050187714215504 0.0981648651475418 0.40254493254772666 0.0665459686013014 0.10501702912290219
0.38633802211427976 0.05919657658941818 0.051524095649726064 0.3669165178457142 0.06763678688352655 0.09332680844216919 0.3710262352328422 0.07566057751425873
0.0910667573024565 0.35183718527434044 0.06406961172633634 0.09994072398809892 0.3892573893777385 0.07589120088152686 0.07324983793878376 0.3640401596227594
0.19716394009427424 0.19904883232100842 0.25348445323525887 0.2107946847257621 0.19979747380215251 0.23710596202915835 0.22040276589864208 0.20098569455081886
0.2549351105409145 0.20484342135408867 0.19873521398744703 0.25418891021407564 0.20311985080454914 0.20616863874024707 0.22917443448403854 0.19368555354077072
00000000: 4c6e 2ba6 858f c83f f77f 6005 d319 b63f
00000010: ac9d 65de 60f5 9cbf c0e3 a944 2ebd ddbf
00000020: 0f2b b423 b304 d2bf 5e8d 66dd b947 b9bf
00000030: c548 05c3 bd81 c03f 4076 dfaa 8666 9e3f
00000040: 299f 8649 dd03 923f 2306 045d 91f0 e5bf
00000050: 3fcb 4069 612c e5bf 5974 5d3c 1239 d8bf
00000060: c26f 0230 c5cd 963f 8c9f 3c39 412c a8bf
00000070: a079 8ade b34c b3bf 86e2 8565 5e9f e4bf
00000080: e947 e56e 347c e3bf 9d95 7fd3 f2b0 d3bf
00000090: a02c 334c 51b3 c0bf 01d6 2eb8 fda7 a9bf
000000a0: aec8 e3c4 3184 b03f c8fb 8bad 9120 dbbf
000000b0: 098c fb69 407f c8bf 4c4b 4f5f c3df b0bf
000000c0: a4d1 62a0 2719 e0bf 3e53 4f36 2fc9 ddbf
000000d0: 5e5a 65ba 8326 d0bf 5ec5 608e b8c9 d03f
000000e0: 1a30 69e7 8323 d53f 29b6 6326 2de4 be3f
000000f0: c3eb c435 4524 d8bf 240f 6c6e 5118 cdbf
00000100: cd39 5573 ef4e 93bf f942 133c b6fb e1bf
00000110: 673d 3b9c 8d59 e0bf 0fdd 5b73 9c28 cbbf
00000120: 1d92 702f 498c b6bf 149a 9e4b 6e5b b6bf
00000130: 81f1 0c03 588b b93f 2825 a46f 3a8a c5bf
00000140: 5c8a 2a6b 87f6 d3bf 765e 8a74 7785 d2bf
00000150: c66e e14d 2d38 ddbf 55b1 6944 ba7a d73f
00000160: e0fe 087d c0eb c0bf e934 76de fd47 e3bf
00000170: c2ba 58c8 8b23 e4bf c75d 3803 63cd d4bf
00000180: 12ed 0ead 0f1a c83f 63dc bb2f e3db d0bf
00000190: 958a ca19 d6b3 cdbf 8d33 63f5 9993 c1bf
000001a0: 9f0e c489 4a78 cabf 4901 80cd 43dd e4bf
000001b0: 23e4 94e0 0845 c23f 38e0 19bf a5fc d0bf
000001c0: 1c6f fabf 7b83 c3bf 43ac 54c2 df80 a63f
000001d0: 0485 6c5a 7dc9 8ebf ac42 80b6 0631 d1bf
000001e0: c389 e138 a356 c03f 4d04 a806 f23b d2bf
000001f0: 50cc ffea 681f d5bf 4615 ddf6 8165 ac3f
00000200: 85a3 c682 d14c c6bf cae4 9ffe d9ba dcbf
00000210: f8a4 fcb4 8cb6 a93f 3c24 6f57 0ce1 e0bf
00000220: 388f 5b41 e221 dfbf fcf7 0748 4466 c4bf
00000230: c06b 62e0 fa44 c0bf 3e7d 92e5 f482 e1bf
00000240: 9c79 a243 8ca1 c13f a728 4980 9f72 8bbf
00000250: a6e1 8e65 671b d7bf 0a35 884f 6ae0 b73f
00000260: 4f1d 281a 016b c0bf 051a f75e 86d2 ccbf
00000270: 103f fbc9 928b bbbf 4331 a91f e2c0 dabf
00000280: 16cf 25af 58f1 e3bf c33e 11eb 815b c53f
00000290: 8ea0 03ed bcc8 dcbf 2356 afc4 55a9 e6bf
000002a0: 2ffa 3a64 b74a c03f c68c 3761 8343 e4bf
000002b0: d231 c601 80bd d2bf 51a3 1b07 9187 bd3f
000002c0: d4fd a2a3 d253 c3bf 14ab ec7d b786 d3bf
000002d0: fd5a 81d8 7b34 debf c9ea 79b0 8ba9 c03f
000002e0: be89 6eeb dc97 d0bf 9107 0c2f 6196 cb3f
000002f0: ef9b d717 1f3e d4bf 7bcd fda8 ac0d e1bf
00000300: 6136 f35b d795 b43f 8dce fe8d 9241 b63f
00000310: da20 c35b 1193 d83f bc3a 0530 d886 ab3f
00000320: 5221 7035 2012 be3f 0a64 ed8e cb6a d93f
00000330: 1df1 e53b 4617 b13f 1f63 b80b 96d5 ba3f
00000340: f29c e710 3a2f d93f 9bee d631 c395 b13f
00000350: 81b5 e7cf ef86 af3f fbe6 7f2a d41e d63f
00000360: c252 6e07 83d2 b53f f64f b480 180b b73f
00000370: 91eb ed27 6a53 d53f 5bf7 a61f 0363 ac3f
00000380: 4f73 03b5 0a63 a83f bba6 f684 53a6 d63f
00000390: 3335 f055 e6a5 b33f ef92 a5be ed82 b83f
000003a0: 747b 0da8 ea66 d93f 6e7f ad0e ee39 b13f
000003b0: 54fb dfd8 3ae9 b13f 45cf a786 2b91 d73f
000003c0: e0f9 3e65 eab1 b23f 5ed3 47d1 b22d b63f
000003d0: 6699 79b8 1abd d83f a516 5e62 75bb b23f
000003e0: 0f1f 4813 bf78 be3f c807 e624 09cb d83f
000003f0: 3239 1bba 48e2 ae3f e7b9 3175 e4e4 b93f
00000400: 7621 403f 2b78 d83f 69fa 0221 a717 b33f
00000410: 1428 7b9e d90e b23f 274f eaa0 7bde d73f
00000420: ae5e 2a87 cd46 b13f 4592 3453 31e4 b03f
00000430: e58b 3e12 563c d73f 2198 7764 bf0a b33f
00000440: 870f 61f4 02bf b73f 9fe0 db9a d3d8 d63f
00000450: 683f 30b5 69d7 b23f 3c72 fb60 f651 b73f
00000460: 4835 cf23 28f7 d83f 21e4 6aa8 d329 b03f
00000470: 3ae0 ccf6 9a0c b53f d628 cf92 dc2f d73f
00000480: ff9f 413c da33 b33f 742b 9f73 40c9 af3f
00000490: 5ae8 add3 b65f a63f 40b8 6fcd 33ae ab3f
000004a0: 29b5 08fe 3be4 b03f fca2 900d ffb3 ab3f
000004b0: c70b 4698 ab6e b23f 9b56 112d d517 aa3f
000004c0: 148e 16e7 29c5 aa3f 180a 7997 4372 b13f
000004d0: 6849 8950 c50e a83f 5840 a8a9 f485 a13f
000004e0: 4682 08c0 dae4 b33f bde6 2a29 e7f7 a63f
000004f0: 23a0 c9f4 1e6b a43f 844a ee8f ae97 aa3f
00000500: 7892 20c0 c6d9 b33f a610 92c0 20bd 653f
00000510: d432 1267 fd8f ad3f 503a 4373 ddbc b33f
00000520: 0e4f e1a0 175a a93f 6179 fe18 c303 ac3f
00000530: fd77 63c9 115a b93f 0504 f3da 050a b13f
00000540: f278 3fb6 a6c4 b23f 7003 c399 5bdf b43f
00000550: 0fad c55c d0b3 ad3f fe96 056c ce59 b33f
00000560: dcce f8e8 c477 b63f 9504 340c bceb ac3f
00000570: b9a0 fde8 cb7c aa3f e194 d181 f5cc b23f
00000580: 947c 1c30 f767 9d3f 93b0 b1fb 6ed6 a93f
00000590: 3fc1 8909 c1ee b03f 501a 0f48 5eb2 6b3f
000005a0: 807c 7622 9bee b13f 552e e351 b7a3 b03f
000005b0: 16b4 3528 3329 ae3f 1631 f9cd 20d1 b43f
000005c0: 761f 0633 c3ba b03f dc50 8513 408f a73f
000005d0: bcbe 0c21 0a60 b53f dc2f d135 877a b03f
000005e0: 95eb 010a bb88 aa3f ac48 e10a d1e3 b13f
000005f0: 574d e6c3 833c b23f 1d9c 9313 7860 82bf
00000600: b11d 307a 0cd2 ae3f 43a5 c8fd 8dcf ba3f
00000610: 6ef1 679a d1e5 d83f d531 265b 6c5f b33f
00000620: b67b 6c9b 6857 b93f 874f d576 ba49 da3f
00000630: ad9f 57c3 3231 b53f 8e2e e0d6 73c1 b33f
00000640: 9b8f 6aac 241e d93f 0dd9 5b2e 2e3f b43f
00000650: 015c 3920 6d39 b73f 30c7 9e4d fc30 d63f
00000660: 180c 4e5b 7496 b03f d48c fc01 05e0 b53f
00000670: 1a56 5ff5 a3e5 d73f d743 798d f666 ae3f
00000680: 1822 f2cf fea4 b93f 86ca 32e6 95e9 d73f
00000690: d07b 0f03 c140 b53f 7d01 8b5a 5819 b93f
000006a0: 8a00 de45 1eac d83f a0cc 3616 d3ab ac3f
000006b0: 11d7 3654 80d6 b93f ff4e 3359 b670 d73f
000006c0: edec 4c86 09ad b03f 4b98 dd40 1a97 bd3f
000006d0: 9f74 2d59 50ac d83f 9fd5 a138 690c b23f
000006e0: 04c9 6c25 5521 b93f fda1 1dd2 4bc3 d93f
000006f0: 5bbf d216 2809 b13f 2d1f 9b61 65e2 ba3f
00000700: 73a8 8b1c c3b9 d83f 1832 f980 034f ae3f
00000710: 8308 8bc3 5d61 aa3f 5a9c 206b 8f7b d73f
00000720: 3dd8 abfb a450 b13f 6d63 1906 44e4 b73f
00000730: a91d 92d2 e4be d73f c22c 05da 7d5e b33f
00000740: e8e7 5da8 2650 b73f 6f47 111d 8084 d63f
00000750: 4b33 08b7 dd66 b03f 3e44 111d b795 b93f
00000760: 6da3 46d3 97e9 d83f 7d1f d711 9b6d b33f
00000770: 7c66 625a 80c0 b23f eca9 0019 6f4c d73f
00000780: 82e4 5301 ab3c c93f 8f17 90a0 6e7a c93f
00000790: f726 2cdb 1639 d03f fbac 88fa 51fb ca3f
000007a0: 64de e6af f692 c93f 8409 4df8 7c59 ce3f
000007b0: 39c6 bd67 2836 cc3f 61a1 8734 e6b9 c93f
000007c0: 1b06 985a db50 d03f 9a1e c229 4f38 ca3f
000007d0: f2df 51ce 2770 c93f 7e05 1890 a144 d03f
000007e0: 32dd 2fce d4ff c93f 59d3 6ce4 bb63 ca3f
000007f0: 4118 987e 9655 cd3f 7a27 152f b0ca c83f

bias f8 [112]
0.1759320140248944 -0.3582589247566074 0.07239086522449864 -0.763413283063159 -0.057746276182903435 -0.6597052822016954 -0.08650288067984838 -0.322435465708906
-0.6226339952827948 0.43282009594548276 -0.26812392260753226 -0.5528779526393571 -0.09767602916446479 -0.390362211340871 -0.11507271284058551 -0.6673558398773358
-0.11005929356795073 -0.2834118230882641 -0.14011131727606063 -0.016977746711988165 -0.18956698637217578 -0.12571230828833652 -0.4146795022800343 -0.2400197906406123
0.026102007355166327 -0.07576034136239844 -0.3866999618140491 -0.23054123794639894 -0.4464269567037036 -0.07268705089751978 -0.3099470809506556 -0.14091349981417106
0.12379505433735757 0.1186540944141841 0.1091174441365912 0.10425939949723009 0.11676442344636345 0.1034418958237193 0.13433254708972034 0.10591084400244143
0.13034801057938888 0.13931519922233587 0.11944638633043897 0.10010304603982659 0.09138443842422857 0.12426265270339348 0.13402827900542316 0.08740778436427907
0.08343424516666692 0.05503590085545762 0.0740948007507105 0.045857585764846616 0.05535183148058289 0.06230378322819846 0.05721905258732795 0.07747217930610804
0.06406099258755699 0.07553348579640583 0.06332350518320787 0.06993090507241527 0.0724985974024368 0.04527654208384069 0.06637061280528984 0.04875189177583208
0.13433526699122447 0.12210541191301058 0.11450838892923593 0.11011684357232193 0.11048079792175435 0.11046103424257474 0.11850476415708049 0.10549655611992245
0.11135424804817537 0.13910191964994942 0.11962181034553042 0.10625536918208463 0.10110265948569981 0.11565486840434892 0.12690233945512372 0.11110180283544865
0.1995956136733645 0.21114857919214008 0.21404597144547124 0.21387492292825064 0.18824525591104244 0.21997974177633442 0.19883606989274416 0.22401139702605366
0.21905572723799066 0.20967710569930584 0.19833922778726187 0.19772911378777072 0.21286050419516842 0.20338566400042468 0.21165157238141472 0.20174283011939945
-0.8725861855119285 -1.1663783702245267 -0.7198257742986282 -0.8810300131533968 -1.2641536374843092 -0.9925925275265474 -1.2187184338074013 -1.191744262419871
-0.9557265779186679 -0.9994853833381515 -1.1954038217906298 -1.1192520438046973 -1.2460939466465515 -0.8076705175874672 -1.2717059061127542 -0.9433277951892258
00000000: fa35 47b3 f084 c63f af1a 55d7 b6ed d6bf
00000010: fe19 ab2e 3588 b23f 04d3 82b1 e16d e8bf
00000020: b5bb 577f eb90 adbf 5fc0 8140 4e1c e5bf
00000030: fa9c 8783 0d25 b6bf f693 125d c8a2 d4bf
00000040: ecc1 e320 9eec e3bf aacb 480f 53b3 db3f
00000050: 38f9 b73d f128 d1bf c77e a81a 2db1 e1bf
00000060: 1551 ddd6 4b01 b9bf f668 d3c8 b1fb d8bf
00000070: d0f3 4fc2 6775 bdbf 2c2b 62a2 fa5a e5bf
00000080: 2fc6 7e8a d82c bcbf 6daf dd57 6b23 d2bf
00000090: 4005 c0ea 2aef c1bf 2411 8d4b 9d62 91bf
000000a0: b654 6f23 bb43 c8bf 2acb 6646 5717 c0bf
000000b0: c550 27e5 1b8a dabf 70db 98ef f7b8 cebf
000000c0: 4133 cd0f 7cba 9a3f 733c 7c9c 0765 b3bf
000000d0: 42c5 5632 b1bf d8bf 39f8 ad12 6082 cdbf
000000e0: 0018 c65e 4292 dcbf a691 725a 9e9b b2bf
000000f0: 661e 0b48 2cd6 d3bf 6a25 a21c 7409 c2bf
00000100: 1e16 c95d 08b1 bf3f 73a0 0b5f 1d60 be3f
00000110: 5161 fded 1eef bb3f d225 2477 beb0 ba3f
00000120: 54d6 09f4 45e4 bd3f 7e5f 9907 2b7b ba3f
00000130: 11f5 4414 cf31 c13f 1f41 481b f91c bb3f
00000140: eac0 445d 3eaf c03f b271 3f98 14d5 c13f
00000150: 5424 ead2 0994 be3f ea95 f86c 5aa0 b93f
00000160: 1d38 6576 f864 b73f 04ac 795d adcf bf3f
00000170: 65a2 88b1 d627 c13f 7ea9 4247 5b60 b63f
00000180: bc76 5b5a f25b b53f d067 8f64 aa2d ac3f
00000190: ef26 077a e0f7 b23f 395e 443e a57a a73f
000001a0: 7332 f743 1357 ac3f d8ad c30e 48e6 af3f
000001b0: df2f 24cf d04b ad3f 8736 787c 37d5 b33f
000001c0: 1ce4 1c1c 4d66 b03f ff99 3f9b 2956 b33f
000001d0: 8a78 d41f f835 b03f 2f05 44e6 fde6 b13f
000001e0: 206e d9a0 448f b23f 3058 0da7 7c2e a73f
000001f0: ed08 6a1b aafd b03f 8335 9709 02f6 a83f
00000200: 559f 36e5 e531 c13f b6bb d4de 4c42 bf3f
00000210: 6c97 91f9 6b50 bd3f 44c2 e111 9e30 bc3f
00000220: 7ff0 e835 7848 bc3f b3df 8da1 2c47 bc3f
00000230: 0390 7906 5456 be3f 962d 6082 d201 bb3f
00000240: c638 a345 b681 bc3f 878a da79 17ce c13f
00000250: af86 52f3 889f be3f 6d55 a947 8d33 bb3f
00000260: bd9a 0728 dde1 b93f 197c 6bb5 8e9b bd3f
00000270: 5b71 dffa 553e c03f ce73 b4f1 2a71 bc3f
00000280: af79 935c 598c c93f de11 1da9 ea06 cb3f
00000290: e173 99bf db65 cb3f 59a7 b4e3 4060 cb3f
000002a0: 13ee e1a8 6b18 c83f ed1e 5bd2 4b28 cc3f
000002b0: 442d bad8 7573 c93f fc3e 14cc 67ac cc3f
000002c0: 9e8c 3ea0 040a cc3f ef66 d90b b3d6 ca3f
000002d0: 841a 6e08 2e63 c93f b5bf 9706 304f c93f
000002e0: c36c 1054 033f cb3f 6cb4 ad9b 8a08 ca3f
000002f0: 3738 c312 6617 cb3f e55b c884 b5d2 c93f
00000300: 47e2 36dd 39ec ebbf 9904 ae5d 7ca9 f2bf
00000310: 89c6 ed0f d008 e7bf aa39 a9da 6531 ecbf
00000320: 30d5 212a f939 f4bf 4360 7f67 51c3 efbf
00000330: 17c3 83e6 de7f f3bf b29f 846e 6211 f3bf
00000340: 8084 82e7 4f95 eebf 698e 48c5 c8fb efbf
00000350: abaa 01c2 5f20 f3bf 15f5 c1d4 74e8 f1bf
00000360: b872 c934 00f0 f3bf fa68 5fd7 6fd8 e9bf
00000370: 3326 ce4a e858 f4bf 3adb b7c5 bd2f eebf

weight f8 [112, 16]
-0.2500475563695295 -0.49067860483334436 -0.22233952706009633 0.09495539082758604 -0.20783224518646834 -0.08815600176025266 -0.5357142355588168 -0.5434397801892725
-0.004608163484073763 -0.2636156996076994 -0.532245929896805 -0.20034069967362061 -0.4884520464185286 -0.09233439276174686 -0.269918554868937 -0.03109025380420533
-1.1169714913403759 -0.49235774809090754 -1.0940343948512519 -0.8685629711490822 -1.0283948071525353 -0.7216004888268248 -0.48996095033549686 -0.47826813000324114
-0.6364258528364817 -1.167496164582923 -0.4347929931166365 -0.6223950497717778 -0.5458808721398892 -0.8796508181846265 -1.003054756939807 -0.7331928692078258
-0.24659707759917876 -0.4705638394320461 -0.2370931472529248 0.04443120198099325 -0.2275089626005811 -0.08361301769873504 -0.5503413462846354 -0.5086693822546755
-0.013092636353386075 -0.292582003550926 -0.5088417086549581 -0.22531093096761826 -0.5266057044363044 -0.09255135715078988 -0.28351231522630166 -0.04860784967874211
-1.0606569804724555 -0.4111375893818754 -1.0210526032456082 -0.5366174507431547 -0.9780394762163654 -0.4720998371883625 -0.47619917657563515 -0.43917983294574114
-0.5086219446173673 -1.1179800189849114 -0.40569017027505117 -0.43190603659753224 -0.5274596022072597 -0.8125976057485772 -0.9643983796594727 -0.534012861275612
-0.37908326405534043 -0.680649778312717 -0.3781693920476164 0.14870291336054767 -0.323590139022604 -0.02862710096712528 -0.7078997337339008 -0.7735923905768649
0.04354468720064063 -0.46329567759517626 -0.6567919085326304 -0.22687414972019043 -0.6369440705312068 -0.1332145010023918 -0.4112749795458334 0.0368632705539743
-1.02983473814281 -0.42385075771106845 -1.0293903671721003 -0.6300044984241071 -0.9767749743883603 -0.5119928596176551 -0.49150767435313414 -0.4613137311351846
-0.4978833373206445 -1.090412406834088 -0.38484650389316205 -0.494083917471119 -0.5416101171783337 -0.792168069938487 -0.9416503441056258 -0.5954069093544518
-1.0895525623891558 -0.49405406071105806 -1.0726173562946333 -0.8113836303609364 -1.028857656240298 -0.6725704998977365 -0.5038681098930747 -0.5611612086485827
-0.8335256171123343 -1.1249641225760902 -0.4739248521277784 -0.5695911324849767 -0.5226057354991923 -0.9447076238504212 -0.9964660831389882 -0.6819131787096248
-1.1069149762625816 -0.5039722625294099 -1.1136372541696422 -0.7487791863335174 -1.0443719764990202 -0.6287444686838245 -0.4945980652198486 -0.5069243725504818
-0.7327627090609453 -1.1815543101714858 -0.46530925099256887 -0.5402762912762864 -0.5286165507801935 -0.9088661985228091 -0.9983405045053125 -0.6368395409221785
-1.1083090878506954 -0.5424225987746606 -1.1005468459431837 -0.44039231183664 -1.0312613166792088 -0.43165269184927224 -0.5590177959272973 -0.5831776541155149
-0.5901979319155045 -1.1560836862440693 -0.5436840099136853 -0.43521853371102664 -0.5875018931296243 -0.8369083194473379 -1.0216694967200968 -0.39439983031985637
-0.1409753623819987 -0.15795414085930945 -0.16369704948720842 0.14361037176687083 -0.1162579270389066 0.049461174640059474 -0.23346712142935425 -0.18802746034417372
0.11041919447241866 -0.135210372040191 -0.1770218037579341 -0.07156599396934743 -0.24079085933962804 -0.0023309230879108665 -0.14735605426996867 0.044500659628946046
-1.1372322352627913 -0.5179555952807453 -1.1072909168565093 -0.9574350789021141 -1.0275860259593226 -0.8026203016921312 -0.4920170750726578 -0.48012342169912414
-0.6581121684598507 -1.1908163636009357 -0.46006159733107244 -0.6928712722488147 -0.5472778193629713 -0.8976313453586897 -1.0031854483039333 -0.8219187724857038
-1.0601292026621127 -0.4078447446195645 -1.0418546743269277 -0.6614117119635246 -0.9641210802315453 -0.49045316935775113 -0.4983314833021955 -0.45659207966480586
-0.5541679042709869 -1.1096720332507377 -0.39220179722081805 -0.48356663104207936 -0.5385394406118149 -0.8184272843438054 -0.9428235979537573 -0.6029310461715396
-1.0331084963477513 -0.5237055018257688 -1.0035344415396896 -0.7720179757355462 -0.9376466625992302 -0.6351449742203096 -0.5152096263123412 -0.566296725717019
-0.8364394540951453 -1.0525189066069593 -0.47843633000616664 -0.548913617969588 -0.5083537496920902 -0.8709649952543563 -0.9377866196189154 -0.6458001756455304
-0.6283813281105671 -0.4165131008728992 -0.6293834819905308 0.10639049203979802 -0.5852404065500936 -0.028353814818227872 -0.5424967897463924 -0.47382423568171594
-0.08075981543371247 -0.6786426298993911 -0.42983320702602873 -0.16435454529257168 -0.5127321322061705 -0.35737080478411604 -0.6018942800974622 0.02713508129994627
-0.43734598890957976 -0.19701736335832395 -0.4521425942620841 0.0869741658773522 -0.4089876828066301 0.05980843126296112 -0.43051986584657514 -0.18488553403069613
0.006889577883932542 -0.4810062877707048 -0.3744352287420627 -0.013118625630776025 -0.4380276419719619 -0.26764573180273027 -0.4322135950571206 0.051865454786565124
-1.0104625292839595 -0.39523217844847686 -1.0227513261009862 -0.5210944268927115 -0.9504597941082091 -0.4376924377271096 -0.4732982046306728 -0.4502939705274422
-0.5113260733569213 -1.0772966852575134 -0.3870127660474014 -0.40140429793405114 -0.515339754336483 -0.7772754635159778 -0.930914887649348 -0.4927728621128133
00000000: 7151 4377 c700 d0bf b2ca 263c 4767 dfbf
00000010: 7165 aa22 9f75 ccbf 05f2 2e1a ff4e b83f
00000020: 43a8 103c 3f9a cabf aba3 8148 6491 b6bf
00000030: 9b41 372e 9224 e1bf 7044 68d2 db63 e1bf
00000040: ede8 5677 02e0 72bf 1fbe 2162 14df d0bf
00000050: 94bf ca9d 2808 e1bf 72f6 9398 c3a4 c9bf
00000060: e609 425f cc42 dfbf 432d 350d 3aa3 b7bf
00000070: feb8 6f79 5846 d1bf 51ec 409d 1fd6 9fbf
00000080: b0f0 9d7f 1ddf f1bf cfe3 7e12 ca82 dfbf
00000090: 4c5d a935 2a81 f1bf c342 7392 44cb ebbf
000000a0: b78a 011d 4e74 f0bf 103e 89e8 5917 e7bf
000000b0: b783 802c 855b dfbf d34f 45ee f19b debf
000000c0: 025f 08c0 995d e4bf e76c 5175 10ae f2bf
000000d0: 6bd1 7dfd a5d3 dbbf 58c9 fe05 a9ea e3bf
000000e0: fd49 ab29 db77 e1bf 6815 0079 1926 ecbf
000000f0: 8e75 1225 830c f0bf 7a0e 5de4 5076 e7bf
00000100: 56f0 c937 7e90 cfbf 039d 42cb b71d debf
00000110: 924c c778 1159 cebf 0e55 dcbe afbf a63f
00000120: 094c f580 031f cdbf 1d33 89a8 a967 b5bf
00000130: 5abb 7d74 659c e1bf d254 2803 0547 e0bf
00000140: 7853 a6e7 4fd0 8abf 7e8f 29de a9b9 d2bf
00000150: 1871 3068 6e48 e0bf 49f7 f713 fdd6 ccbf
00000160: 6c1c ce34 f4d9 e0bf 30be 291c 72b1 b7bf
00000170: db40 7ad6 1025 d2bf 02ee 65c9 20e3 a8bf
00000180: f273 3674 73f8 f0bf a84a 2309 1450 dabf
00000190: 04f8 2641 3b56 f0bf a2f3 2c5c f82b e1bf
000001a0: f57a 9171 194c efbf b5f0 4a3c e236 debf
000001b0: 1e91 711c 0c7a debf 1224 e4ba 851b dcbf
000001c0: c11a 4587 a146 e0bf 4bf2 3104 3fe3 f1bf
000001d0: 06f6 68e7 d3f6 d9bf 8868 8837 59a4 dbbf
000001e0: 8a1f aef5 f2e0 e0bf f3ef afb1 cc00 eabf
000001f0: 8f7d 9efd 59dc eebf f54e da23 a216 e1bf
00000200: 1a08 6573 e642 d8bf a63f 3c0b e2c7 e5bf
00000210: 7155 cc64 ed33 d8bf 6d0b da72 b208 c33f
00000220: 5940 1a6a b3b5 d4bf bf7c bb39 6c50 9dbf
00000230: aa7e a757 1da7 e6bf 78c9 3ed4 44c1 e8bf
00000240: 3ef2 e13e 7d4b a63f 7590 e9e9 a2a6 ddbf
00000250: 2e9a ed76 7004 e5bf 3e92 ad4e 360a cdbf
00000260: 3c01 0a88 d861 e4bf f240 943a 2c0d c1bf
00000270: bffe b34a 5452 dabf 0ee5 e71a bedf a23f
00000280: bfba 89fd 337a f0bf 393f b0ed 5e20 dbbf
00000290: 4925 9d08 6278 f0bf c20f a231 ff28 e4bf
000002a0: 6a93 5197 bd41 efbf b4fc 7ad9 3e62 e0bf
000002b0: 481a c59a dc74 dfbf 7af7 1a07 2a86 ddbf
000002c0: 06fe c012 52dd dfbf b414 a847 5472 f1bf
000002d0: 4bde 0c3b 53a1 d8bf 3a27 c126 129f dfbf
000002e0: 65d6 8ebd de54 e1bf 9e47 2ada 7059 e9bf
000002f0: 076d 06e7 ff21 eebf 80ac 6fca 920d e3bf
00000300: 33c0 ebaa ce6e f1bf 8670 4dec 949e dfbf
00000310: d584 26d1 7029 f1bf 831e 9dcd daf6 e9bf
00000320: 20a9 1c72 3376 f0bf b515 aa91 b285 e5bf
00000330: 6f9e af03 b01f e0bf 6cbe dd59 08f5 e1bf
00000340: af05 3cea 3dac eabf c933 3a61 daff f1bf
00000350: e1a0 29e7 c854 debf a0aa c32e 173a e2bf
00000360: 4d79 d5a9 2fb9 e0bf 8f05 977b 0b3b eebf
00000370: 2af7 d4d6 0ce3 efbf a19d 2896 3bd2 e5bf
00000380: a801 687a ecb5 f1bf 48f5 3470 8a20 e0bf
00000390: ef40 244c 75d1 f1bf 584b a7c4 fff5 e7bf
000003a0: 38c1 be63 bfb5 f0bf a936 51b8 ac1e e4bf
000003b0: 1a2f b2a4 7ea7 dfbf d9c9 3476 b938 e0bf
000003c0: d9a4 e4c7 ca72 e7bf 6326 0a7e a5e7 f2bf
000003d0: 8784 e273 a0c7 ddbf 0abf 3a81 f149 e1bf
000003e0: 4935 b741 6dea e0bf c50c e390 6e15 edbf
000003f0: 2deb 23c9 67f2 efbf e2ee 2151 fd60 e4bf
00000400: 6eda 624f a2bb f1bf e326 4ba3 865b e1bf
00000410: b9ab 7002 d79b f1bf 8de2 2f3c 632f dcbf
00000420: 0c46 ccdd 0b80 f0bf 7845 ae9c 32a0 dbbf
00000430: c878 ec49 79e3 e1bf 72e4 052f 64a9 e2bf
00000440: 3fce f7c5 e6e2 e2bf ecb7 7d9b 517f f2bf
00000450: 54ff 3d02 dc65 e1bf 45b9 39d6 9eda dbbf
00000460: ea8d 2ac5 d0cc e2bf 36da b8f4 f3c7 eabf
00000470: cebc 3b1d c258 f0bf 1064 31c9 d83d d9bf
00000480: b078 7c0d 7b0b c2bf e716 a15e d737 c4bf
00000490: 8ce7 ff60 06f4 c4bf 4f74 0d1d d361 c23f
000004a0: 6169 885a 14c3 bdbf dc68 009f f952 a93f
000004b0: b17b 9d29 40e2 cdbf 0cce 76a8 4811 c8bf
000004c0: 7015 1cad 6e44 bc3f f30d ffce 924e c1bf
000004d0: 69dd e884 a6a8 c6bf 04a5 9a23 2652 b2bf
000004e0: 530c 0521 3cd2 cebf 5481 d3cd 4c18 63bf
000004f0: cc82 fa2c 90dc c2bf d674 835b cac8 a63f
00000500: 1792 a66d 1a32 f2bf 385a d09c 1793 e0bf
00000510: aee7 30ae 76b7 f1bf 35b0 fde3 4ea3 eebf
00000520: 7e26 750b fe70 f0bf 8af2 5bc5 10af e9bf
00000530: 5cae a02f 357d dfbf 5c72 8f96 57ba debf
00000540: 794f 1440 410f e5bf 9752 9375 950d f3bf
00000550: b4ad ab32 a671 ddbf b7b0 d45f 002c e6bf
00000560: 5eaf ffc5 4c83 e1bf 00c3 055f 65b9 ecbf
00000570: aa9d 442f 0c0d f0bf 0e6d f998 284d eabf
00000580: 487e ef09 4af6 f0bf d722 ffd7 201a dabf
00000590: c1b3 96ce 6fab f0bf 0664 02e5 482a e5bf
000005a0: 5751 9f73 14da eebf 1b1c a7b0 9563 dfbf
000005b0: 0968 d6bb a9e4 dfbf 4e78 71fc cd38 ddbf
000005c0: a3c6 2a54 bebb e1bf 5b90 4176 37c1 f1bf
000005d0: ccbb 1f91 d519 d9bf ebce 7074 c1f2 debf
000005e0: 8a15 a110 b73b e1bf c224 8d6a 8e30 eabf
000005f0: 5778 e364 9c2b eebf 3298 a10c 364b e3bf
00000600: 8288 50c6 9c87 f0bf 5676 620a 32c2 e0bf
00000610: 5529 6d21 7a0e f0bf 55aa b60a 5fb4 e8bf
00000620: d526 e292 3301 eebf fbd6 8f8d 1b53 e4bf
00000630: 8111 f3e5 987c e0bf d52a 994f 1a1f e2bf
00000640: 1b87 8dac 1cc4 eabf f0c6 a410 1ed7 f0bf
00000650: 5f10 a669 b39e debf f744 b04a b390 e1bf
00000660: 783f 3715 6f44 e0bf 1281 52fb f1de ebbf
00000670: e177 bc15 5902 eebf 67c1 4421 65aa e4bf
00000680: 9fdc b428 b31b e4bf 9bb2 a690 26a8 dabf
00000690: 8857 f9d3 e823 e4bf 6191 ea43 683c bb3f
000006a0: cec5 cd16 4aba e2bf c6cb 714d c808 9dbf
000006b0: eea9 443a 225c e1bf d887 13e3 2253 debf
000006c0: 1869 1ede acac b4bf aedb a2bf 70b7 e5bf
000006d0: 8157 ba23 6382 dbbf 8982 7dda 9109 c5bf
000006e0: 1be2 6d37 4d68 e0bf 5df3 c5cb 29df d6bf
000006f0: c760 15cb b742 e3bf 89c0 077b 4cc9 9b3f
00000700: b2d1 d907 7afd dbbf 8b1f 2f6e dd37 c9bf
00000710: edfd de7d e7ef dcbf 7144 0a5e f043 b63f
00000720: 58c3 87ac da2c dabf b455 99f0 359f ae3f
00000730: dfb7 0532 a38d dbbf b229 1545 54aa c7bf
00000740: 9ba2 1dfb 3e38 7c3f 8f50 c998 cec8 debf
00000750: 50b7 7a2d bff6 d7bf f9d3 6b20 f0dd 8abf
00000760: 63de 4017 a508 dcbf ff6d 4090 1b21 d1bf
00000770: fb0a ea35 63a9 dbbf 0070 33e0 1b8e aa3f
00000780: 91ba d1c1 da2a f0bf b7d5 30e8 7b4b d9bf
00000790: bab5 987e 305d f0bf d339 3438 ceac e0bf
000007a0: e271 7ba8 2a6a eebf 1ba5 6f24 2703 dcbf
000007b0: 7b3b 898d 844a debf 2716 40cd 9dd1 dcbf
000007c0: 531f 557f c85c e0bf d852 f472 9b3c f1bf
000007d0: b8b7 5331 d1c4 d8bf 1170 06a7 9bb0 d9bf
000007e0: 1886 e6cb a97d e0bf 8619 f9ca 70df e8bf
000007f0: e607 ba04 0eca edbf db5f c82f 9789 dfbf

bias f8 [112]
0.17226828787390475 -0.3472137398388591 0.079539011853832 -0.7444935224690143 -0.04642698242593408 -0.6624201289505546 -0.07475569972995134 -0.32670252433518887
-0.6039519326569094 0.4210377005830942 -0.2676555446522745 -0.5461294640008074 -0.11086203230417294 -0.38819849288633124 -0.11401661166742305 -0.6526372751844496
-0.12689508742075703 -0.28096892905045123 -0.15286340436436252 0.003325988797526636 -0.18194803313113994 -0.11783371797135922 -0.412401602746524 -0.24205265373322082
0.021367860015107033 -0.07500042498235067 -0.37997337959958 -0.23965077506358254 -0.48141689856890946 -0.08700197759259828 -0.31060329106956025 -0.13006908010383278
0.12929850578901653 0.10930302484087095 0.12562153069064141 0.0904869460829538 0.09723026213199515 0.08669056477935835 0.12007940805953218 0.10248323862493135
0.12461712736104073 0.11562104162193296 0.1237692717496811 0.09804897591728665 0.10356279378649456 0.11450713162200547 0.12888345147191005 0.08575283718770339
0.06688321797579544 0.06053671200761764 0.06135262875536876 0.09021080078872212 0.04997757682176464 0.04449641387494905 0.07000664838605496 0.07022477604206234
0.05795274339915635 0.07731884141649202 0.06307151607004094 0.04546511319133079 0.08080719989941842 0.0660698682101355 0.06189667838956191 0.06058131697828189
0.11000212338444261 0.10541887926659299 0.12129041100123825 0.09808716757266561 0.11862274769458907 0.10030638763407647 0.11977352958052738 0.09598066817868858
0.11932285069198949 0.12498253251131453 0.12344142490703784 0.11658915427081742 0.10553696798852301 0.08772161170371451 0.12416193954312402 0.10107905457375857
0.21035964729430875 0.2138873397435778 0.20454005156616886 0.19948159191090545 0.2150737665977978 0.22024353982691683 0.2260888818312683 0.22681190170305138
0.20873065443911265 0.20756567716562513 0.21381524551198453 0.21617669174110937 0.20758242465749369 0.21757808359271577 0.20167416794578383 0.20903056628659933
-0.8697130065330125 -1.1736916314987755 -0.7070270202659265 -0.8960453177076508 -1.251590780009177 -0.9994031849082678 -1.2233897750813354 -1.1883514185410429
-0.9462205278870356 -1.0341897463117224 -1.1923598894160636 -1.0990009494410673 -1.2587333156126714 -0.8056010967223124 -1.284638856743538 -0.9345864385239571
00000000: f635 4723 e30c c63f a91a 55fa bf38 d6bf
00000010: f419 ab2e ab5c b43f 02d3 6214 e4d2 e7bf
00000020: a9bb 5706 47c5 a7bf 63c0 c1b2 8b32 e5bf
00000030: d99c 8785 3023 b3bf f493 62b4 b1e8 d4bf
00000040: e8c1 e300 9353 e3bf a6cb 981c 48f2 da3f
00000050: 3af9 b7b8 4421 d1bf ca7e 687f e479 e1bf
00000060: 1251 1d43 7461 bcbf f668 d37d 3ed8 d8bf
00000070: d0f3 4f52 3130 bdbf 1e2b 2291 67e2 e4bf
00000080: 1f63 3f25 193e c0bf 6eaf 5d1a 65fb d1bf
00000090: 4405 402d 0791 c3bf ce76 97a3 1a3f 6b3f
000000a0: a454 efb9 124a c7bf 5896 0dbd 592a bebf
000000b0: c350 27b1 c964 dabf 68db d8d3 94fb cebf
000000c0: 3d33 cdcf 74e1 953f 753c 7c54 3a33 b3bf
000000d0: 42c5 aedd 7b51 d8bf 47f8 ad68 e0ac cebf
000000e0: 0218 c6d2 88cf debf 9e91 72f8 c245 b6bf
000000f0: 651e 4ba0 ece0 d3bf 6425 a286 1aa6 c0bf
00000100: 068b e47a da8c c03f 68a0 0b75 48fb bb3f
00000110: a0b0 fec6 5d14 c03f ce25 240a 272a b73f
00000120: 50d6 091c 15e4 b83f 825f 9954 5a31 b63f
00000130: 2eea 892a 86bd be3f 2741 486e 573c ba3f
00000140: cb81 8976 e8e6 bf3f 5ee3 7e30 5799 bd3f
00000150: 5724 6ace 57af bf3f ee95 f8d8 bc19 b93f
00000160: 0738 655c 1783 ba3f 03ac 79e1 5650 bd3f
00000170: 6ca2 88c0 407f c03f 7da9 42df e5f3 b53f
00000180: c076 db31 421f b13f bb67 8ffc aafe ae3f
00000190: e44d 0e9c 9c69 af3f 302f 2217 0e18 b73f
000001a0: 7232 f733 a996 a93f fdad c3e4 3bc8 a63f
000001b0: e717 52a9 f4eb b13f 8836 783c 40fa b13f
000001c0: 50c8 3963 fbab ad3f ff99 3fe7 2acb b33f
000001d0: 8a78 d472 7425 b03f 590a 880c 3447 a73f
000001e0: 206e d9d8 c7af b43f 00ac 3673 f4e9 b03f
000001f0: ce11 d4e2 ebb0 af3f 8735 57ae 8304 af3f
00000200: b13e 6d62 1929 bc3f b8bb d44e bbfc ba3f
00000210: 6e97 916c e30c bf3f 44c2 e198 3d1c b93f
00000220: 7bf0 e875 0f5e be3f b5df 77ee adad b93f
00000230: 0390 7960 7aa9 be3f 922d e066 3092 b83f
00000240: d338 633d f18b be3f 1015 b5f1 dafe bf3f
00000250: ab86 f272 db99 bf3f 6a55 a96c c9d8 bd3f
00000260: c39a 0782 7804 bb3f 407c 6b6d ec74 b63f
00000270: b6e2 bead 13c9 bf3f d273 b421 51e0 b93f
00000280: af79 c39e 10ed ca3f dd11 9d0c a960 cb3f
00000290: e173 1950 5e2e ca3f 59a7 b4e0 9c88 c93f
000002a0: 1aee e184 8987 cb3f ed1e 5bb8 f030 cc3f
000002b0: 402d ba00 7bf0 cc3f fe3e 1422 2c08 cd3f
000002c0: 9c8c 3ea3 afb7 ca3f f066 9919 8391 ca3f
000002d0: 851a 6e47 4c5e cb3f b6bf 9786 adab cb3f
000002e0: c56c 9096 0f92 ca3f 6bb4 ad40 99d9 cb3f
000002f0: 3738 e389 75d0 c93f e45b 087b 83c1 ca3f
00000300: 4ae2 fe5e b0d4 ebbf 9b04 4ee0 70c7 f2bf
00000310: 85c6 2d21 f79f e6bf ac39 e93a 67ac ecbf
00000320: 2ed5 c10d 8406 f4bf 4460 5663 1cfb efbf
00000330: 19c3 2328 0193 f3bf b19f ecc6 7c03 f3bf
00000340: 7f84 c245 7047 eebf 3547 248c 0a8c f0bf
00000350: aeaa a1f6 e713 f3bf 14f5 0105 8295 f1bf
00000360: b812 8f8b c523 f4bf fa68 81f3 7bc7 e9bf
00000370: 3226 4e79 e18d f4bf 38db 97d1 21e8 edbf

weight f8 [3, 16]
-0.29266132939019013 -0.3116079024205699 -0.3045031489095079 -0.30569777446140184 -0.3064731329954243 -0.29905507869482906 -0.3050597497292999 -0.32062152431327634
-0.2928097146478042 -0.2930888465327382 -0.3159633754918808 -0.3038901960601555 -0.30835779267128227 -0.3044875026254955 -0.32040841533448644 -0.2872947475129245
-0.29717266688862937 -0.30209073910705186 -0.30814167394999314 -0.3038002791891606 -0.30178208471956647 -0.3130967974917821 -0.31320906217651917 -0.30755817830391674
-0.29402143556542265 -0.2959963486094773 -0.31593690688684334 -0.323038431356801 -0.32614557802860483 -0.3124507088114197 -0.27598360391944665 -0.32051579302050753
-0.31900214473353306 -0.3025679919547464 -0.3229517985227749 -0.32600663231089977 -0.32477061745428853 -0.3158880760684977 -0.30094255474013093 -0.32326042828766066
-0.32710609392675516 -0.3288101085991569 -0.28617798644271714 -0.3038934735843715 -0.30268420144456415 -0.34452771340343047 -0.32201547361725147 -0.3132433112701199
00000000: 5939 a295 f6ba d2bf 9293 8445 62f1 d3bf
00000010: 4a1a 86c6 fa7c d3bf 9d63 f165 8d90 d3bf
00000020: 355a d47c 419d d3bf 9a9b ace9 b723 d3bf
00000030: 4f73 1a54 1986 d3bf 9f6d 5424 1085 d4bf
00000040: 2142 17f5 64bd d2bf e18c abb8 f7c1 d2bf
00000050: 5a2b 1e73 be38 d4bf 3dd1 69dd ef72 d3bf
00000060: 9e5a bf52 22bc d3bf 4a4d 7426 b97c d3bf
00000070: 3163 4e4c 9281 d4bf 8e5b 3882 0963 d2bf
00000080: 1f50 6381 e004 d3bf 92e9 3865 7455 d3bf
00000090: 3898 09db 97b8 d3bf f184 e8b9 7671 d3bf
000000a0: 4ce9 18ce 6550 d3bf 1669 6d26 c709 d4bf
000000b0: 89f9 b605 9e0b d4bf b0b0 5b7f 08af d3bf
000000c0: bfe4 8448 3fd1 d2bf f6d6 40ab 9af1 d2bf
000000d0: bb6a ab6e 4f38 d4bf 9ad4 8162 a9ac d4bf
000000e0: 3f8b d7b3 91df d4bf 9440 fd41 31ff d3bf
000000f0: 4a3d 4422 b7a9 d1bf 33f9 37ac 5483 d4bf
00000100: 2200 bff8 876a d4bf 0cc5 9023 465d d3bf
00000110: a2bd 3505 3eab d4bf 7a7b 03ec 4add d4bf
00000120: cfbe 2ab3 0ac9 d4bf 9546 fa9e 8237 d4bf
00000130: eb58 a58f a442 d3bf 7e88 e581 4cb0 d4bf
00000140: c436 ef65 4eef d4bf fdc3 c18d 390b d5bf
00000150: 8fd2 2679 bd50 d2bf 55d0 a09c fd72 d3bf
00000160: 0d19 8e8e 2d5f d3bf 8a89 68f7 bd0c d6bf
00000170: ae7d ffc9 e69b d4bf 7123 66ac 2d0c d4bf
