Retweet/RetweetNetsV3/TrainNet_ep13V2.pt (torch, 23477 bytes, 6 tensors)

scale f8 [3]
0	0x3fe0b49d3787d08c	0.5220476231175026
1	0x3fe084263c7324fb	0.5161315136585068
2	0x3fddaae1fb4323aa	0.4635548547490155

weight f8 [112, 3]
0	0x3fcf7361fc46300c	0.24570870225977648
1	0x3fb30f50a738e1f9	0.07445243914197154
2	0xbfb7151f8bc287a2	-0.09016606485468384
3	0xbfd9289dec0aad1d	-0.39310405779788643
4	0xbfcca5773551a097	-0.22379961112460897
5	0xbfb71df6476fe3ab	-0.0903009342581657
6	0x3fc348e99048ab28	0.15066260857687408
7	0x3f60e382f98a8581	0.002061610994431973
8	0xbfa35a6ac6339756	-0.03779920262768026
9	0xbfe6cc226f1019d6	-0.7124187630841401
10	0xbfe68d9cd95009e6	-0.704786705435535
11	0xbfda01f1cdaaff99	-0.40636868557702993
12	0x3f9ac94e8874fa81	0.026158549383803468
13	0xbfc1854dd474cd26	-0.13688061593857376
14	0xbfc2fd7eb565bab2	-0.14836105210584588
15	0xbfe49fcb2025ef70	-0.6445060375112757
16	0xbfe441b0058460d6	-0.6330185039287481
17	0xbfd43b16afce48f0	-0.31610648315940093
18	0xbf9c67e245b12ee8	-0.02774003553740459
19	0xbf8a50ef972be153	-0.012849685479054662
20	0x3fb6e011b80098e2	0.08935652487034276
21	0xbfd67e843a119a94	-0.35147195502069306
22	0xbfc0aa669a33cb6d	-0.1302002194348363
23	0xbfaf54b1c6d7db10	-0.06119304230008116
24	0xbfe07ff187e01360	-0.5156181005300873
25	0xbfdff002112ed0e9	-0.4990239303399578
26	0xbfd1d12efc619bbf	-0.2783925499592747
27	0x3fd692dffff5c873	0.35271453853704954
28	0x3fd9272b52a7a44f	0.3930157000709799
29	0x3fb64247fa27fc56	0.08694887025193174
30	0xbfd23c68fed0d6f9	-0.28493714222291505
31	0xbfc5efcc87e96e2f	-0.17138058315582458
32	0x3f86d974d9fbe512	0.011156952764837889
33	0xbfe0fc18f437c61b	-0.5307736177330215
34	0xbfe0a499c365e2bf	-0.5200928512923254
35	0xbfca224e12588d80	-0.20417190452381462
36	0x3f97e4f7623cb709	0.02333437478153314
37	0xbfb09ce20faf418d	-0.06489384539532335
38	0x3fc0f2941741f12a	0.132402907711261
39	0xbfc7af0558c5e27e	-0.18502871355646627
40	0xbfd6ec80da2ed675	-0.3581850176518409
41	0xbfd685b9d8a9b269	-0.3519119850014137
42	0xbfe47aa7812b949f	-0.6399724505287344
43	0x3fe07a4728f1bb2d	0.514926509827864
44	0xbfc82a224a0d11a4	-0.1887858258798022
45	0xbfe30523994eb64d	-0.5943773264204509
46	0xbfe534f8a1145969	-0.6627162118991637
47	0xbfd5431b2ab0b10a	-0.332220832528734
48	0x3fcc4b67f056f309	0.22105120883306764
49	0xbfd2dad2deb4ae87	-0.29460593937503926
50	0xbfd4214651e2db34	-0.3145309257192139
51	0xbfc6fbff4171770e	-0.17956534095258586
52	0xbfce70e7fafa281b	-0.23782062296624037
53	0xbfe7d990249c485b	-0.7453079905556125
54	0x3fc20c515e783ce0	0.1410009108808259
55	0xbfd33431045bcdd8	-0.30006051469464756
56	0xbfcc1ea121b61d62	-0.219684735737455
57	0x3f942910e6adeb5e	0.01968790443377643
58	0xbf6f42e608aaa803	-0.003816079411383734
59	0xbfd1fcfa65c00851	-0.28106555878196554
60	0x3fc883638a3a903c	0.1915096688218244
61	0xbfd80265a8ac0e96	-0.3751463076771214
62	0xbfddb72073087456	-0.4643021701211344
63	0x3fa55df24837312a	0.04173237926042568
64	0xbfc39e334be5df75	-0.15326539236024997
65	0xbfe419cfd9451e70	-0.6281508678011516
66	0x3fa00ca324385e0c	0.03134641472950869
67	0xbfe1fcf35aa4a159	-0.5621277590153496
68	0xbfdcb5a291ae05e4	-0.4485861227659298
69	0xbfd0783ca5244e85	-0.25733867766505397
70	0xbfb7b8dc5209c08b	-0.09266449931033287
71	0xbfe0a8083c5374b1	-0.5205117395631956
72	0x3fc30730ea58588e	0.14865695421821495
73	0xbf3ef28ca51256ff	-0.000472220742332538
74	0xbfd9110777ae9f58	-0.3916643780489628
75	0x3fc11e45a0636911	0.13373632747136147
76	0xbfc2aeaaaa088944	-0.14595540335091972
77	0xbfd3a76467fefa4b	-0.30709180980548884
78	0xbfc561a508c1e10c	-0.1670423786888552
79	0xbfdcded110c3039e	-0.4510996497811507
80	0xbfe63129f3a8fa75	-0.6935014494882369
81	0x3fc94b188a1aaee0	0.19760424369211815
82	0xbfdf937b19beafe5	-0.49337651743075944
83	0xbfeb03b6e250fd7d	-0.8442034168473779
84	0x3fab5ac6f6cadf95	0.05342695009807056
85	0xbfe73052f1968788	-0.7246489256396993
86	0xbfd37e63a09438ab	-0.30458918267766916
87	0x3fc047848651bc77	0.12718254622038547
88	0xbfc419757bcfed25	-0.1570269445945566
89	0xbfd8155f953e2414	-0.37630452703939565
90	0xbfe51bd03b9aa961	-0.6596451915877816
91	0x3fd08a8f52e278d5	0.258457022611663
92	0xbfd06aa8f97f4b93	-0.2565100132462074
93	0x3fcca35255d5eab8	0.2237341803664401
94	0xbfd4ddc7a8d4c153	-0.32603637206468256
95	0xbfe422a95a7c1beb	-0.629231144645812
96	0x3fb6bf0dd2787264	0.08885275257530051
97	0x3fb9298936bfc62c	0.09829003893516902
98	0x3fdc9da98f8c710e	0.44712294596116997
99	0x3fabd6f480bb8f6e	0.05437435218280383
100	0x3fc0d11ad46b6533	0.13138137218519716
101	0x3fdd7831d8a77d22	0.4604611030353728
102	0x3fb317fd30d0435d	0.07458479348885079
103	0x3fbd000c55d731a0	0.11328198524205968
104	0x3fdd2b9982480fab	0.45578611109544437
105	0x3fb0a9559a4c9db7	0.06508383767196944
106	0x3fb1699fbe0f1a01	0.06801794424163889
107	0x3fda1d4199601e00	0.4080356595809178
108	0x3fb6d2c2b29c8402	0.08915345059041616
109	0x3fb915b9c0608477	0.09798775622086163
110	0x3fd952869411d27b	0.3956619688026774
111	0x3fa7e89691c76c20	0.04669638185051661
112	0x3faca1315dd3291e	0.05591730375597791
113	0x3fda3f74d51ab326	0.4101230698677675
114	0x3fb4a899e0b95204	0.08069764839576271
115	0x3fbc341bfc10b725	0.11017012504518371
116	0x3fdd8859529aceca	0.46144707743517854
117	0x3fb11fc712f9e0df	0.06689113820346247
118	0x3fb5647e8799bf0e	0.08356467066346004
119	0x3fdbd95aafb51a8d	0.43514125021867117
120	0x3fb3a93d9c04e3e9	0.07680115756092189
121	0x3fb8f32544c7d709	0.09746010712828136
122	0x3fdcd6f40f6466cd	0.45061971190589817
123	0x3fb45c2c3197d398	0.07953144274490709
124	0x3fc10a808eac9c51	0.13313300100819217
125	0x3fdcf0e66c39b10c	0.4522033745659122
126	0x3fb054497b86b081	0.06378611818098713
127	0x3fbd894029cd16ef	0.1153755285314124
128	0x3fdc89820b668fa0	0.4458928214391964
129	0x3fb1e6afee4313be	0.06992625777191017
130	0x3fb40d566df3f43a	0.07832851585767822
131	0x3fdba2dedeb9f3ce	0.43181583166716286
132	0x3fb230c3ba9668cd	0.07105658822402745
133	0x3fb3b77742016c30	0.0770182167192821
134	0x3fdb6888138605d1	0.42825509935945855
135	0x3fb493f03796eed2	0.08038236004989166
136	0x3fba6186c0cda523	0.10305063445197908
137	0x3fdad6dd534879b7	0.4193642915069193
138	0x3fb3df2666602545	0.07762374877360852
139	0x3fbb318609c65afc	0.10622441996234139
140	0x3fdd3570069551c8	0.45638657229326585
141	0x3facea45af14204a	0.056474855062390875
142	0x3fb625973106860d	0.08651108691130834
143	0x3fdac01f0b5aaaed	0.41797615155034756
144	0x3fb3df89b4e9c0cc	0.0776296679193848
145	0x3faccad780b47464	0.05623506017784832
146	0x3f98fffb7ec0e4f9	0.02441399537221842
147	0x3fa8295159e0556a	0.04719022962687343
148	0x3fb197f0f58d00e5	0.06872468943493322
149	0x3fa3337ceeec04a7	0.03750219742324506
150	0x3fb328ec2aa0b98f	0.07484317818373241
151	0x3fa5f456c0022cf0	0.04287978261808145
152	0x3f9ebfa17d8dbedd	0.030027888572873408
153	0x3faca50257acd834	0.05594641990903462
154	0x3fa5ff1c20c8c576	0.042961958887086135
155	0x3f9326ff7aa1a123	0.018703452930283092
156	0x3fb4260611d23016	0.07870519576152932
157	0x3fa4fad62ae101e7	0.04097623132156852
158	0x3f9d3963249144c5	0.02853922758760487
159	0x3fa350ea06b32fad	0.03772670108591512
160	0x3fb41c571d54b859	0.07855743852698661
161	0xbfa5547661b99410	-0.04166002219134424
162	0x3fac6d5397014881	0.055521595175961565
163	0x3fb42dd4ed737fee	0.07882433697841382
164	0x3fa36e1a01f8124b	0.03794938348804474
165	0x3fa86af0274304a1	0.04769087294835939
166	0x3fba865000a76b5f	0.1036119462582241
167	0x3fb194e889ce7c3b	0.06867841114443334
168	0x3fb1b6e2a8335b81	0.06919685942135169
169	0x3fb464294c8a4bb0	0.07965334051759387
170	0x3fa8ce9891b74161	0.048451202189996996
171	0x3fb35d5cbdc6c94c	0.07564334519591859
172	0x3fb65fe15d6dadd5	0.08740051775901432
173	0x3fac967ae78f382d	0.0558355720200868
174	0x3fa91ec12b155146	0.04906276369971123
175	0x3fb3848e4502134a	0.07624139008301004
176	0x3f816e42aae0a051	0.008511086311116996
177	0x3fa55c15b1bc8ac3	0.0417181758368961
178	0x3fb044b5776af176	0.06354841390106522
179	0xbfa3c0eb77e5feef	-0.0385812362537744
180	0x3fb1b8c013181d46	0.06922531572501098
181	0x3fb0f303b4e78000	0.06620810667618571
182	0x3fadccadc5769550	0.05820220027389189
183	0x3fb4dc208b6bc8cd	0.0814838734038716
184	0x3faf49908c603985	0.061108128677108055
185	0x3f97f4b48f16a096	0.023394414170667753
186	0x3fb4f2de17bee031	0.08183086471297042
187	0x3fb08ae88c1aab1e	0.0646195737887578
188	0x3fa9cd464de5de54	0.05039424610998525
189	0x3fae40698119421d	0.05908517552291335
190	0x3fb0b765cf1f695e	0.06529842669207173
191	0xbfb22d55903f75ae	-0.07100424548794734
192	0x3fb2943e3d0f8cfb	0.07257451048603862
193	0x3fbdc2834e09625f	0.11624928145591572
194	0x3fdcae61922c62e9	0.4481433799242454
195	0x3fb3e4966f5ab05f	0.07770672052964887
196	0x3fbd8031fc9cdb5f	0.11523735444357673
197	0x3fde5a8ca0ebbd29	0.4742766925327993
198	0x3fb7a7f3699c529e	0.09240647629151019
199	0x3fb5818577f8b73f	0.08400758913986993
200	0x3fdce3f66d2e8b81	0.4514137331226991
201	0x3fb34b212936098a	0.07536513572816808
202	0x3fb8c7e3ad2cf441	0.0968000695983884
203	0x3fda33631375ea2d	0.40938641453218133
204	0x3fb1d5216cbc750a	0.06965836434070041
205	0x3fb6ebdc1957baa4	0.0895364343520933
206	0x3fdba596a8d7bca0	0.43198172081515374
207	0x3fa9f3cbd20f6d0d	0.05068814219677096
208	0x3fbbbe285eaea595	0.10837032615258686
209	0x3fdb87748a8d9faa	0.43014253168666505
210	0x3fb7116855bc4127	0.09010936825894032
211	0x3fbdbb8ebc45c1cf	0.1161431512498503
212	0x3fdcd7594a91ab2d	0.45064384729510004
213	0x3fad19b9dde2e215	0.0568368991238836
214	0x3fbddf1f3fdca077	0.11668582257391501
215	0x3fdbbb2ed97e9ce9	0.4332997440310025
216	0x3fb1a6631a0073b3	0.06894511589821554
217	0x3fc02470e68c31c6	0.12611209161003795
218	0x3fdcc558c866d22e	0.44954509325478653
219	0x3fb4a5676a5d0cc0	0.0806488642384009
220	0x3fbe01c4e1aa34b2	0.11721449384113461
221	0x3fddd0d047fd18e6	0.4658699706091184
222	0x3fb27153dfd28106	0.07204174246226466
223	0x3fbf4a75fccc9ec9	0.12222993299348696
224	0x3fdcd670df052972	0.4505884340220724
225	0x3fac4a547c1dd59a	0.05525459303946008
226	0x3fae83f7a4b68be5	0.05960058103234881
227	0x3fdb3ab36bf6d10b	0.42545781653758813
228	0x3fb2eae220eb907d	0.07389653495516942
229	0x3fbb6b7e9cf636cf	0.10710898716044003
230	0x3fdbfb260a1e32c5	0.43720389354784245
231	0x3fb4e3b36551f400	0.08159943793903324
232	0x3fb9b9e9fb976536	0.10049307243698
233	0x3fda742474dd6301	0.41333877003266656
234	0x3faef59859027b8f	0.0604674919752518
235	0x3fc0e3f08ea426ba	0.13195616688635942
236	0x3fdce74830429876	0.4516163321772021
237	0x3fb1d70a7e250ce9	0.06968751506524352
238	0x3fb3d15a039d8456	0.07741320217384504
239	0x3fdad2bd20875a62	0.41911247421868414
240	0x3fc9de7d071aba74	0.2021023068131914
241	0x3fc9cfc11bdc97fb	0.2016526590388706
242	0x3fd1d10f4f020b6f	0.27838499751685836
243	0x3fcb50ae941d35e9	0.2133997176373861
244	0x3fca2788ef519c08	0.20433150945174838
245	0x3fd0eeb17fca2468	0.26456868628935704
246	0x3fcccc71182ae8d9	0.22498906784114217
247	0x3fca068fd753e380	0.20332525266692514
248	0x3fd200af9d428435	0.28129186971097236
249	0x3fca70793c839d12	0.20655742125311655
250	0x3fc9e9b1c725e31e	0.20244428848288804
251	0x3fd1e4e82d360de5	0.27959637084151573
252	0x3fca671c3486c90b	0.20627167286654244
253	0x3fcadc6a18baf2c4	0.20985151488812026
254	0x3fd02d98d5838c18	0.2527830205055479
255	0x3fc91d3ff9178e03	0.19620513594337305

bias f8 [112]
0	0x3fc73331f590ea34	0.18124985209017697
1	0xbfd14e9aa05aa624	-0.27042260799007267
2	0x3fa8db44c7272acc	0.048547887144726326
3	0xbfe9eecc76435abd	-0.8104002294374691
4	0xbfc33cbb659e1928	-0.15029089414401509
5	0xbfe5b1544811cbd7	-0.6778966338737246
6	0x3f952a9e43057219	0.020670388069776367
7	0xbfcda621144f8048	-0.23163236133314258
8	0xbfe500decee85ed6	-0.6563562432447394
9	0x3fe12a80c2e75c07	0.5364383513177707
10	0xbfc4a9bbcdec2cf1	-0.16142985873043572
11	0xbfe14ea5ac516425	-0.540850483473268
12	0x3f814772746341cb	0.008437055756446285
13	0xbfdc1910300f5452	-0.43902973836276715
14	0xbfb911f3a68ba3d7	-0.0979301721196316
15	0xbfe5ff6e7dde3d7c	-0.6874306162225561
16	0xbfc1ad8ce8136ca7	-0.13810883838491358
17	0xbfd5c00b1e8a5049	-0.33984640104722935
18	0xbfc7c304c4735df3	-0.18563899605099685
19	0xbf98093897e02197	-0.023472675580735815
20	0xbfd00abf80974e5e	-0.2506560092708464
21	0xbfc27bf436d37e13	-0.14440777470643748
22	0xbfdc247eae9fdd65	-0.4397274689976796
23	0xbfd16b3558ef8bc2	-0.27216848073129196
24	0x3fa2bf464e77f287	0.03661555965297674
25	0xbfb58a25dc061d64	-0.08413921949078468
26	0xbfdceac9fd663b6c	-0.45183038469342907
27	0xbfd0691ecd9f89ff	-0.2564160354651505
28	0xbfe1d7938b3cf2f3	-0.5575654716008941
29	0xbfb465aed62fe0b9	-0.07967655877280579
30	0xbfd6e32c86fcab9b	-0.3576155966026648
31	0xbfc3ae2f35048bd0	-0.1537531861186765
32	0x3fc2534a90bcd4be	0.14316684787050876
33	0x3fc131211bc32d9e	0.134311808162562
34	0x3fc01739a8ae79ed	0.12570877777484615
35	0x3fbd16febd501b54	0.11363212701699626
36	0x3fc0aff764910f6f	0.1303700676963859
37	0x3fbc36aee3ba7e37	0.11020939883973645
38	0x3fc38b4b963d81b1	0.15268845401716427
39	0x3fbed545ddb193e7	0.12044178640788027
40	0x3fc2dcf94067cac0	0.14736858029171707
41	0x3fc449ec50f0b566	0.15850595428620834
42	0x3fc18e0b849da99e	0.13714736915001152
43	0x3fbc1752ee955141	0.10973089527880565
44	0x3fbb35d35cb8dfed	0.10629006398892189
45	0x3fc1e863e24cdaa8	0.1399044852239133
46	0x3fc38eaa51cc0f98	0.15279129976272254
47	0x3fb8197082ed5845	0.09413817593062486
48	0x3fb4c4143b183bbb	0.08111692850819356
49	0x3faa625d39a8d860	0.051531708992499814
50	0x3fb221d9734ea36b	0.07082900109402394
51	0x3fa2c52d653a40ab	0.03666059361160142
52	0x3fab6110e08bfdf7	0.053474929247382556
53	0x3faad375133a3478	0.052394541356172775
54	0x3facb4d2f54a6f3b	0.05606707805892915
55	0x3fb361793d110564	0.07570607891923015
56	0x3faef632a0ad7c72	0.06047208987615073
57	0x3fb34b3eeb0449e4	0.07536690938676532
58	0x3fafa9494ef2808d	0.061838427435987865
59	0x3faf86b448986a72	0.06157458673643114
60	0x3fb292c725bb1173	0.07255215331230662
61	0x3fa59781a137cbb1	0.04217152684204651
62	0x3fb0c5021761a63c	0.06550610609851842
63	0x3fa2ad5913b896f4	0.03647878995643153
64	0x3fc3d70043070163	0.15499881050892403
65	0x3fc1df5a11f119ef	0.13962865711273717
66	0x3fc0ba27c80185c3	0.13068101182856937
67	0x3fbe9d60bb93c69c	0.11958889560244262
68	0x3fbf49efd2ce0750	0.12222193619348087
69	0x3fbe05e3c4ede130	0.11727737005083294
70	0x3fc1f24be0273926	0.14020679898244132
71	0x3fbf1b7a9f5d618d	0.12151304617635202
72	0x3fc0697426795033	0.12821819189650938
73	0x3fc4ba221e87ddf2	0.16193033686407393
74	0x3fc1e8b45d60358d	0.13991407927862234
75	0x3fbdbc1dfc6f69f7	0.11615168965310106
76	0x3fbe65f25be03715	0.11874308341085922
77	0x3fc0bf504b666191	0.13083842927586578
78	0x3fc3040faf60143d	0.14856144011733532
79	0x3fbe2c4d8950fd5f	0.11786350824785562
80	0x3fca467ed161751c	0.20527634833971653
81	0x3fcbb9ec91d71de2	0.2166114532576407
82	0x3fcc19a5fcaa047c	0.21953272664180534
83	0x3fcbf24dea039bcf	0.2183320419928507
84	0x3fc8bfa16d80c4dc	0.1933481011088024
85	0x3fccba9943085f53	0.22444453976708675
86	0x3fca395ed826bd2f	0.20487580827964666
87	0x3fcd6bfc895e859c	0.2298579855678725
88	0x3fccaab2dd730919	0.22395931065518296
89	0x3fcba5b9c11dfa78	0.21599504403635073
90	0x3fca1c188a3c4781	0.2039824175813543
91	0x3fc9eda40d9ae6e4	0.202564722674473
92	0x3fcbf36115c99338	0.21836484493101138
93	0x3fcac734565dca9c	0.209204237147408
94	0x3fcbe48af4538b80	0.21791207246777944
95	0x3fca67b599e062ea	0.2062899590826171
96	0xbfee99f67cbb477b	-0.9562942920840521
97	0xbff422253fe2746b	-1.2583363051883463
98	0xbfe9b5000933f09f	-0.803344743704219
99	0xbfedc63ceeb46945	-0.930448976726702
100	0xbff83e0af8332a45	-1.5151471801097085
101	0xbff18f649b93ec1d	-1.09750805637919
102	0xbff44344a970792d	-1.2664229029392786
103	0xbff46287d33ff3b9	-1.2740553142495925
104	0xbfefcaa52e10c57e	-0.9934869670598088
105	0xbff2addc6187428d	-1.1674464997960599
106	0xbff4581efcd10cb1	-1.271513927044719
107	0xbff3fef9b0ead5d3	-1.2497498427231803
108	0xbff4bbaee74121b6	-1.2958210976959044
109	0xbfeacc484f2c91e5	-0.8374368234986461
110	0xbff66b89812f2f76	-1.401254181505434
111	0xbff060313987db62	-1.02348444436003

weight f8 [112, 16]
0	0xbfd23f3f98323609	-0.28511037695793157
1	0xbfddca1bb4a836de	-0.4654607071141593
2	0xbfd02050dd1da27d	-0.2519724044164276
3	0x3fc306602c59a924	0.1486320702127354
4	0xbfcdfb92a29254ab	-0.234239892368952
5	0xbfb809cf79b4bc6d	-0.09389969559991736
6	0xbfe1a3feb0ce8cee	-0.5512689069040826
7	0xbfe11089ea4aeebf	-0.5332688880948452
8	0x3fb00c05cbcfe06a	0.06268345094565722
9	0xbfd33c52e8d12529	-0.3005568765261893
10	0xbfe1d3e52d7dda73	-0.5571161163814636
11	0xbfc8d00a74391c95	-0.19384890246349032
12	0xbfe1e6c5eda51c6d	-0.5594205514434073
13	0xbfb19f701415bf98	-0.06883907785754528
14	0xbfd239d99046fa12	-0.284780875106578
15	0xbf8378e116e266ec	-0.00950790263259501
16	0xbff52e7e976ed495	-1.3238511958454968
17	0xbfe1776eac192b8d	-0.5458291398330047
18	0xbff48e4a35f5ff79	-1.284738741669541
19	0xbff08c258ac18b7f	-1.0342154903562173
20	0xbff27154d7e820da	-1.152668803582904
21	0xbfea2129904a1e40	-0.8165481393961684
22	0xbfe0fef81af804a7	-0.531124165223578
23	0xbfe0cd75a8c1b69a	-0.5250805183438445
24	0xbfe82fa4b2439191	-0.7558158380239083
25	0xbff655811fd30149	-1.3958750956663428
26	0xbfdecadef81b73db	-0.4811322615549309
27	0xbfe63163578a5256	-0.6935288152477124
28	0xbfe2a6d906a31d35	-0.5828671579010122
29	0xbfefe8c4f5cff96c	-0.9971642304442816
30	0xbff20427388a2e0e	-1.1260139664253788
31	0xbfeb44758cec16dc	-0.8521068336856064
32	0xbfd36bd1cb6376c7	-0.3034557806221127
33	0xbfde0e14c1aeb2b0	-0.46960944093988655
34	0xbfd26a999684e8a9	-0.28775634478700823
35	0x3fb5199f92cd07c8	0.08242223104482982
36	0xbfd1525ebbf79df3	-0.27065246921708236
37	0xbfb83ca67d925545	-0.09467545095170234
38	0xbfe331cba72c161e	-0.5998285546381259
39	0xbfe0b2d88439f1c0	-0.5218317587419321
40	0x3fa2790b6e49fe36	0.03607974740316104
41	0xbfd69ab0a63e779d	-0.35319153055922375
42	0xbfe1e29afe0d6939	-0.5589117967568092
43	0xbfce6cae738587db	-0.23769169464782078
44	0xbfe4056b3ea66201	-0.6256614898330214
45	0xbfb52967e27f7cef	-0.08266305236564951
46	0xbfd484e813857173	-0.32061197191594387
47	0xbfa3aee814f35abc	-0.038443806226202665
48	0xbff2fd41b2107c59	-1.1868302302971385
49	0xbfdbbe3484ac5456	-0.43348420101512397
50	0xbff225738e6e2052	-1.134143406265157
51	0xbfe2822192464dc2	-0.5783851487089395
52	0xbff0df3a53dc9243	-1.0544989848941817
53	0xbfdfc965713750d5	-0.4966672521234277
54	0xbfe02d341221b482	-0.5055179933675762
55	0xbfddd6bb546f7f4c	-0.4662311863485129
56	0xbfe1763d12211cc3	-0.5456834177101871
57	0xbff4337fe3af8a9a	-1.262573136708545
58	0xbfdb428aa6c7b961	-0.4259363774025556
59	0xbfdd275e8c570a2b	-0.45552791314199464
60	0xbfe1c0ccc650580c	-0.554785144168592
61	0xbfeb7bba579be742	-0.8588535033333999
62	0xbff0d5e24fee53f2	-1.052217781286569
63	0xbfe20b5e4c9db92d	-0.5638877388389908
64	0xbfe064ffc0cf3b14	-0.5123289838610128
65	0xbfeac76094c3dec3	-0.8368380456513126
66	0xbfe01e088116d7df	-0.5036661645196964
67	0x3fb41159453bab60	0.07838972034703096
68	0xbfd9041707735496	-0.39087463119114696
69	0xbfaa8d985e14f339	-0.05186153553447643
70	0xbfec5c75b4873949	-0.886286594957519
71	0xbfefc9ff22827a32	-0.9934077905671244
72	0xbf902da2ffd2d107	-0.015799090255954187
73	0xbfe370e4ef4181ac	-0.6075310395208837
74	0xbfe9f2dafcc59afb	-0.8108954369498343
75	0xbfd2c62075aaac8b	-0.29334269991768086
76	0xbfea7f7d2af3af12	-0.8280626143364052
77	0xbfca9177fc75bd24	-0.20756435229439163
78	0xbfe1321b879de951	-0.5373666428343232
79	0x3f7c3c503bd01526	0.0068934568525993774
80	0xbff2ce8cf36064a7	-1.1754273898025447
81	0xbfdcc7d78ef0a47c	-0.4496973892115148
82	0xbff2927abeea156c	-1.1607615907281241
83	0xbfe6a7d5d3a25750	-0.7079877027015105
84	0xbff104c5b8f6de6e	-1.0636651253861618
85	0xbfe19e0468fcb210	-0.5505392122773305
86	0xbfe0ac83d7458b5d	-0.5210589603924337
87	0xbfdf9fe2e6ba33a4	-0.49413368732421703
88	0xbfe1e1ee76f592a3	-0.5588295291350572
89	0xbff41b33fb78fbfc	-1.2566413710735551
90	0xbfd9fbcc94e6cb6b	-0.40599360028425363
91	0xbfe0e2f5c73fb09f	-0.5277050868585497
92	0xbfe230e0bdc6235e	-0.5684665400050155
93	0xbfeb70809f3c228f	-0.8574832067543684
94	0xbff096c19dba9426	-1.0368057404787208
95	0xbfe4b1b9791c51b9	-0.6466948857728801
96	0xbff4bc9d45285893	-1.2960484219998178
97	0xbfe2c06a0d27217f	-0.5859880692378708
98	0xbff455623e4b3b49	-1.27084564527077
99	0xbff01fb381f415c5	-1.00773955119199
100	0xbff292dcd14be73f	-1.1608551192898202
101	0xbfe99dc94ca12bb6	-0.8005110260650017
102	0xbfe29dfde506182a	-0.5817861054536071
103	0xbfe4c21b0a52e09d	-0.6486945344577354
104	0xbff03fe53f907893	-1.0155994875890755
105	0xbff56b35fd0bdc3d	-1.3386745342848052
106	0xbfe21729f0884e10	-0.565327615537571
107	0xbfe530a70786e63a	-0.6621890208254577
108	0xbfe2b61ec7043b80	-0.5847314726869257
109	0xbff198c12c9f399a	-1.0997936003728683
110	0xbff1c627a91dae48	-1.1108776670543126
111	0xbfeaf055a7c90a7a	-0.8418377186829524
112	0xbff52758ad860b69	-1.3221060541406706
113	0xbfe25ead976e8568	-0.5740573842669336
114	0xbff503da7c40c9bd	-1.3134407857547636
115	0xbfed6cd47eeaba84	-0.919534919628703
116	0xbff2d5d0200b6453	-1.177200436757876
117	0xbfe7485bfec2c809	-0.7275829292104855
118	0xbfe187f2b69d2237	-0.5478452269245001
119	0xbfe245d2ab98f4dc	-0.571023306990948
120	0xbfec60c7a7f57375	-0.8868139534421134
121	0xbff6a510b46e6718	-1.415299134072887
122	0xbfe105a3a9ef897b	-0.5319383925491786
123	0xbfe3a35048963e81	-0.6136857431137771
124	0xbfe263c4fd5713a0	-0.5746788929032967
125	0xbff0aef8b1d53ed9	-1.042717642459982
126	0xbff2063a919ccef1	-1.1265206993093069
127	0xbfe8686a525c8fe5	-0.7627460106491496
128	0xbff3e05ee8523535	-1.242278010849373
129	0xbfe3a017f14424f0	-0.6132926666479346
130	0xbff38b7faa27ef08	-1.2215572973936464
131	0xbfde804794663377	-0.47657956592666245
132	0xbff1e4d7ed196ef9	-1.118369985741934
133	0xbfddfe4af5831709	-0.46864580131328687
134	0xbfe4226b9ef6b94c	-0.6292017082940133
135	0xbfe4fbeaec989091	-0.6557516690268291
136	0xbfe4384e2f62881e	-0.6318732190595744
137	0xbff4e8af3610973a	-1.306807719412474
138	0xbfe3c96b7509151d	-0.6183373723839939
139	0xbfdebe832217190c	-0.4803779442703593
140	0xbfe4acd755830836	-0.6460987730172352
141	0xbfec6990d8957e4f	-0.8878864507823411
142	0xbff20104d8ea40f6	-1.1252487633938109
143	0xbfdb892fa1e779a7	-0.4302481728645042
144	0xbfc45fd3d655e3d4	-0.15917442288971861
145	0xbfc622b9422bd8e4	-0.1729346821882195
146	0xbfc768932ea360a8	-0.18287887360816524
147	0x3fc7523e15fae7fb	0.18219734261748485
148	0xbfc0e944fa493935	-0.132118818483329
149	0x3fa17c5d48a70df1	0.0341519499957278
150	0xbfd14416a9df1341	-0.26978079403879823
151	0xbfc8f68ef6a5ca80	-0.195024366792115
152	0x3fc4a5a131a9ee55	0.16130461621274841
153	0xbfc3120ae0ce9314	-0.14898811318303073
154	0xbfcb373d319f9e4a	-0.2126232616712847
155	0xbfb92d8c62dc4fd4	-0.09835126317585657
156	0xbfd2d45dca26ddf6	-0.29421181432141397
157	0x3f7b32ee7b43c272	0.006640369003648604
158	0xbfc3d4d8ae5449cd	-0.15493305694742646
159	0x3f99077172f9e348	0.024442455904565535
160	0xbff5bfe9b1aec7e1	-1.3593537274105005
161	0xbfe27c7c3ab425e1	-0.5776959559017848
162	0xbff501fa7cc300b0	-1.3129830239777611
163	0xbff27556f51ed6fe	-1.1536473822611124
164	0xbff28c9dda4f469f	-1.1593302276345765
165	0xbfed3df38e262962	-0.9138124252652171
166	0xbfe11b09723455f7	-0.5345504026942639
167	0xbfe0f41040e83b02	-0.5297929065435201
168	0xbfe925da0efaadeb	-0.7858705799639528
169	0xbff6f72ccbab9066	-1.435345454775438
170	0xbfe0616bf095c7f4	-0.5118922900130642
171	0xbfe8c6234fcd37eb	-0.7741867598176645
172	0xbfe2bad004fc87d8	-0.5853042695418891
173	0xbff0682bedceddbe	-1.0254325188997053
174	0xbff21d8c0ad085e4	-1.132213632816609
175	0xbfeeba6fc3d3ec9a	-0.9602583718073163
176	0xbff3af96acc5caf0	-1.2303683041506552
177	0xbfdbd8fd1c49c585	-0.43511893999592416
178	0xbff325789755d201	-1.196648207810654
179	0xbfe88acf39ab12ee	-0.7669445158322483
180	0xbff10b584f725db1	-1.0652697661770214
181	0xbfe138249a9b6c5d	-0.5381033916159016
182	0xbfe0edeee9754802	-0.5290445861558057
183	0xbfdf5fde51beb7a7	-0.4902263448992649
184	0xbfe443f19aa61181	-0.6332939167482864
185	0xbff4d5caaaa90685	-1.302195231095909
186	0xbfda887ab1231482	-0.4145800332883668
187	0xbfe0a6e071a159fb	-0.5203706950513259
188	0xbfe2211513870977	-0.5665383702656034
189	0xbfecea340523a4ab	-0.903589258229791
190	0xbff0c880cb50f931	-1.0489509527247487
191	0xbfe5849d4ff776a8	-0.6724382936333386
192	0xbff3986d838406f4	-1.2247138154347654
193	0xbfe3ba5d9057a551	-0.6164996928393213
194	0xbff300c431ed63b4	-1.1876871061597116
195	0xbfee9151b360b1fc	-0.9552391532393467
196	0xbff0eeae3717927f	-1.0582716133150425
197	0xbfe82f1f31c4392f	-0.7557521793367296
198	0xbfe345ecc75d3b3a	-0.602285756476568
199	0xbfe512287650afd9	-0.6584665594905302
200	0xbff037774b9f5970	-1.0135415033342632
201	0xbff404cb852d3022	-1.2511706545074124
202	0xbfe24adfc9e95dbf	-0.5716399139009168
203	0xbfe464e8613fd619	-0.637317838611753
204	0xbfe26c20f70b8245	-0.5756993126961524
205	0xbff03844d2c5efbf	-1.0137375100448336
206	0xbff0abe4f3e62b7f	-1.0419663932140961
207	0xbfe979355ff62351	-0.7960459589240633
208	0xbfe6df610f96e4c5	-0.7147679619294186
209	0xbfdfb19f0244bba1	-0.4952161333230212
210	0xbfe695d4d68475e6	-0.7057899656098783
211	0x3fbacc4dc818bfed	0.10467992911503617
212	0xbfe4bf233b600490	-0.6483322295827225
213	0xbfa6af23224aac64	-0.04430494111633079
214	0xbfe4d8ff024c0ec3	-0.6514887852540244
215	0xbfe2be6fdddfe7b5	-0.5857467015732626
216	0xbfb4afea871db875	-0.0808092670319825
217	0xbfe8e4c24140ed8a	-0.7779246592030387
218	0xbfe047ddd1b59baa	-0.5087727638136716
219	0xbfc9e79b37cb05c0	-0.20238056396742188
220	0xbfe3b73a36576c76	-0.6161166249616048
221	0xbfd7851acced435b	-0.36749906551727
222	0xbfe5d5cbb0bd829d	-0.6823481037100297
223	0x3f9e2e46aa79d44d	0.02947340407850545
224	0xbfdec411604fff24	-0.480717033438838
225	0xbfb634f695cea801	-0.08674565465358343
226	0xbfdfd4ec0f3055d3	-0.4973707340553492
227	0x3fadfd5f265c5d68	0.05857369750281799
228	0xbfda57ca9b944ce0	-0.4116083640412409
229	0x3faeff8ee6df517d	0.060543504412325234
230	0xbfddd1472f5477ce	-0.46589831945481996
231	0xbfacbb2e0bf8fdf3	-0.05611556907797057
232	0xbf5c294dda63a079	-0.001718832043076572
233	0xbfe0b82d3fbd5f83	-0.5224825138966341
234	0xbfdbd1f4bdca053c	-0.4346896985444635
235	0x3fa92bd19d0223d5	0.04916243592840145
236	0xbfe0e576e748f9e0	-0.5280107991491683
237	0xbfd32c8772631ae3	-0.2995928399144942
238	0xbfdacaac2cd4554e	-0.4186201513087625
239	0x3f900f8a6ff666db	0.015684283336304766
240	0xbff26b724d9e7089	-1.1512320549000228
241	0xbfdae65219fb5fe2	-0.42030766045854595
242	0xbff263ecca178ab3	-1.1493957418648904
243	0xbfe2ac1cd622357e	-0.5835098440453945
244	0xbff08e80e2011e20	-1.0347908809943718
245	0xbfddeec0ce4a5a59	-0.4676973356776322
246	0xbfe01451d5c52d55	-0.5024804282378833
247	0xbfdeead418ea02b2	-0.48308279450433667
248	0xbfe212028d550728	-0.5646984825509422
249	0xbff3d2342ede68a4	-1.2388192969142802
250	0xbfda142867903a9e	-0.4074803363190912
251	0xbfdb4eb72811eae1	-0.42667941010556204
252	0xbfe15751add55b7c	-0.5419090647873044
253	0xbfeac61b9b155938	-0.8366830853436005
254	0xbff06662aa5783f1	-1.0249964384058752
255	0xbfe0fe9e7768a85c	-0.5310814220622535

bias f8 [112]
0	0x3fc6bb246590ea30	0.17758612593918732
1	0xbfd099a3c35aa61e	-0.25937742307232436
2	0x3fac8430c7272abc	0.05569603377405971
3	0xbfe953ced9235abb	-0.7914804688433245
4	0xbfc1c9d2475e1926	-0.13897160038704576
5	0xbfe5c791ba51cbdb	-0.6806114806225837
6	0x3fa099091d82b963	0.03241756901967354
7	0xbfce31f3c2ef8045	-0.23589941995942545
8	0xbfe467d3aee85ed2	-0.637674180618854
9	0x3fe0c9fb498f5c07	0.5246559559553824
10	0xbfc49a62c3ec2cf5	-0.16096148077517794
11	0xbfe1175d11116428	-0.5341019948347183
12	0xbf7373a1db397c1d	-0.00474894738326184
13	0xbfdbf59ce50f5452	-0.4368660199082274
14	0xbfb8ccbd368ba3d7	-0.09687407094646915
15	0xbfe586db6c9e3d6e	-0.6727120515296698
16	0xbfc3d539c8136cb4	-0.15494463223772004
17	0xbfd59804e10a504a	-0.33740350700941646
18	0xbfc964e106f35df7	-0.19839108313929874
19	0xbf69f5bfbf010c6a	-0.003168940071220973
20	0xbfcf1bd697ae9cb7	-0.24303705602981093
21	0xbfc179c9cef37e13	-0.13652918438946013
22	0xbfdbff2c7a9fdd63	-0.4374495694641693
23	0xbfd18c83cb0f8bbe	-0.2742013438239005
24	0x3fa052c2ae77f284	0.03188141231291744
25	0xbfb5585894061d62	-0.08337930311073685
26	0xbfdc7c94a8be3b6c	-0.44510380247896
27	0xbfd0fe5ef89f8a03	-0.26552557258233395
28	0xbfe2f636c53cf2f1	-0.5925554134660996
29	0xbfb80fd3742fe0af	-0.09399148546788426
30	0xbfd6edecdf3cab99	-0.3582718067215694
31	0xbfc24ad59f048bca	-0.14290876640833822
32	0x3fc307a0dcbcd4b5	0.14867029932216771
33	0x3fbffd6d4d865b2e	0.1249607385892488
34	0x3fc23407f8ae79e4	0.14221286432889635
35	0x3fb9906750501b50	0.09985967360271997
36	0x3fbc5fbdf1221ecd	0.11083590638201742
37	0x3fb7ecde30ba7e3b	0.09345806779537551
38	0x3fc1b83f973d81af	0.1384353149869759
39	0x3fbdf4a430b193ef	0.11701418103037019
40	0x3fc2212f1e67caba	0.14163769707336887
41	0x3fc1418350f0b55a	0.13481179668580517
42	0x3fc21bb2825da99a	0.1414702545692535
43	0x3fbb90b55a955145	0.10767682515626571
44	0x3fbe53f242b8dfd7	0.11846841935118789
45	0x3fc0a8b8a44cdaaf	0.1301489641425255
46	0x3fc2e61460cc0f9f	0.14764647222920943
47	0x3fb7acfb1aed5844	0.09248322875404918
48	0x3fb0876412983bbf	0.06456590131732208
49	0x3fad335dd1a8d84b	0.057032520144659836
50	0x3fadbd8e8e9d46eb	0.05808682909868231
51	0x3fb4bd522a9d2056	0.08101380863547666
52	0x3fa8a0a6d08bfdf6	0.048100674588564304
53	0x3fa1b568e93a349e	0.03458717200292337
54	0x3fb1a075bc653797	0.06885467385765619
55	0x3fb18681fd110565	0.06845867565518444
56	0x3fabd593cbad7c84	0.05436384068775005
57	0x3fb3c040370449e4	0.07715226500685152
58	0x3faf8841f4f28082	0.06158643832282086
59	0x3fa2ffec88986a75	0.03710879485534672
60	0x3fb4b34a5dbb1173	0.08086075580928824
61	0x3fb01e76f04be5bd	0.06296485296834127
62	0x3faf3f9bdac34c4c	0.061032171682790265
63	0x3fa8bbdab87896f8	0.04830821515888134
64	0x3fc0b9a70f070177	0.13066566690214262
65	0x3fbf792293e233c3	0.12294212446631918
66	0x3fc19863818185c3	0.13746303390057166
67	0x3fbb89004293c69c	0.1075592196027863
68	0x3fc0afc3896703aa	0.1303638859663157
69	0x3fbb6c6511d7e132	0.10712272344233467
70	0x3fc21bdf0d27391f	0.14147556440588802
71	0x3fbcabd883dd6189	0.11199715823511815
72	0x3fc16e91a2595039	0.13618679454032348
73	0x3fc2eb781d87ddf3	0.14781094972543904
74	0x3fc265dd9d303589	0.1437336938401297
75	0x3fc030ad10b7b501	0.12648547474183405
76	0x3fbf888db5e0371b	0.12317739191368242
77	0x3fba57fe4eccc360	0.10290517257523168
78	0x3fc2aa438b60143b	0.14582104020533557
79	0x3fbb9b73b950fd63	0.10784075998616553
80	0x3fcba7361391751c	0.21604038196066078
81	0x3fcc13aaf5571de1	0.2193502138090784
82	0x3fcae2288d2a047c	0.21002680676250296
83	0x3fca1aa9e7039bcf	0.2039387109755055
84	0x3fcc2ebf4980c4e3	0.22017661179555778
85	0x3fccc33e29085f53	0.22470833781766916
86	0x3fcdb6640026bd2b	0.2321286202181708
87	0x3fcdc7c0df5e859e	0.23265849024487023
88	0x3fcb585de0730917	0.21363423785630495
89	0x3fcb6089ceddfa79	0.21388361550267002
90	0x3fcc1736c93c4782	0.21945843530607695
91	0x3fcc4a218d9ae6e5	0.22101230062781166
92	0x3fcb466d5849933a	0.21308676539333665
93	0x3fcc9842fb5dca9b	0.22339665673969908
94	0x3fca9d9a6b738b80	0.20793466803214855
95	0x3fcb5683902062e9	0.21357769524981698
96	0xbfee826cfe83477e	-0.9534211131051362
97	0xbff44019c282746d	-1.265649566462595
98	0xbfe94c271a73f09b	-0.7905459896715173
99	0xbfee413e4ef46947	-0.945464281280956
100	0xbff80a95dbd32a43	-1.5025843226345763
101	0xbff1ab4a197f6c1f	-1.1043187137609107
102	0xbff45666eb10792f	-1.2710942442132127
103	0xbff454a22ba7f3b8	-1.2706624703707643
104	0xbfef7cc58c50c57d	-0.9839809170281765
105	0xbff33c028b07428c	-1.2021508627696305
106	0xbff44ba731710cb4	-1.268469994670153
107	0xbff3ac06e12ad5d2	-1.2294987483595503
108	0xbff4ef743e06c1b6	-1.3084604666620243
109	0xbfeabb546b4e91e5	-0.8353674026334913
110	0xbff6a082afaf2f75	-1.4141871321362178
111	0xbff03c633f77db63	-1.0147430876947616

weight f8 [3, 16]
0	0xbfd2d74f323d2b83	-0.2943914404501628
1	0xbfd493c1e1d908e0	-0.3215183930916634
2	0xbfd3962df0eda024	-0.3060412266554542
3	0xbfd3d2c499d5ada3	-0.30973925612371483
4	0xbfd3cfccbabbbf71	-0.3095580886429082
5	0xbfd37cc32db53128	-0.3044898935666134
6	0xbfd434ee102e9a3a	-0.3157305868175261
7	0xbfd52a67f97db8b4	-0.3307132660328407
8	0xbfd2fab6ab138908	-0.29655234057112567
9	0xbfd2e83972ed02c1	-0.2954238531420224
10	0xbfd4e8f21b261591	-0.32671787883040176
11	0xbfd3d53ce7dd2160	-0.30989000933597843
12	0xbfd4633f0d85cae7	-0.31855751343316147
13	0xbfd3ae268a536361	-0.30750430591938566
14	0xbfd555d6b95ffd06	-0.3333641825010577
15	0xbfd29cb8dac74091	-0.2908155571467513
16	0xbfd33ed8f517f0c0	-0.3007109063617115
17	0xbfd3dcbf19487436	-0.3103482958702587
18	0xbfd40afb843c53b1	-0.3131703177799024
19	0xbfd3d360385180ca	-0.3097763586029144
20	0xbfd3cff64edb0102	-0.3095680017541015
21	0xbfd49397e9ae02e9	-0.3215083868054039
22	0xbfd49f776260f0c5	-0.3222330532769429
23	0xbfd43da90895e2b3	-0.3162634452669792
24	0xbfd328e97b8c41cc	-0.2993720728418594
25	0xbfd304de6f627083	-0.29717217328448714
26	0xbfd4c5a9207c06f9	-0.324564248774649
27	0xbfd5567103485151	-0.33340096779399625
28	0xbfd57ca29646d744	-0.33573212314091827
29	0xbfd4683a92d81698	-0.3188616212868083
30	0xbfd1bf69a39cfce0	-0.2773079011712536
31	0xbfd51cf3f2df09f6	-0.32989214628119556
32	0xbfd56a2aa53ca6ac	-0.33460489403169436
33	0xbfd3bfe52814d1fe	-0.308587350027011
34	0xbfd5af8883c09de1	-0.3388386999745006
35	0xbfd5bb6c45a8dc61	-0.33956438830086283
36	0xbfd588bee2ccd106	-0.33647129200404924
37	0xbfd4d645311112e1	-0.3255780200163781
38	0xbfd39133383920f9	-0.3057373093656817
39	0xbfd529d26868c781	-0.330677606546594
40	0xbfd5c93e875c0b58	-0.3404079744215571
41	0xbfd61e169057326b	-0.3455864343239116
42	0xbfd29d25e312e7a1	-0.29084155249767646
43	0xbfd3f1c1a5271f52	-0.3116306412525677
44	0xbfd3a64364a0b898	-0.3070229036992571
45	0xbfd70766d52f5d82	-0.3598267633328406
46	0xbfd52e8a8fb21eba	-0.33096565277854106
47	0xbfd4bb19e05a9c1d	-0.32391974362912085
