Retweet/RetweetNetsV3/TrainNet_ep4V2.pt (torch, 23465 bytes, 6 tensors)

scale f8 [3]
0	0x3fe39aab32c9a861	0.6126304618785633
1	0x3fe395b5b83eb0c7	0.6120251272709759
2	0x3fe36dde22390d60	0.6071615856566659

weight f8 [112, 3]
0	0x3fb1ca5bc681140f	0.06949399563116308
1	0x3fc202897a3044c4	0.1407024237273956
2	0x3fa6ad682878a1c4	0.04429173940690448
3	0xbfd9ddedee076df1	-0.40417049641629804
4	0xbfd338a8ebf37dda	-0.3003332428179114
5	0xbfc64a3d338beca6	-0.17414059655115927
6	0x3fa5a60a489d35fc	0.04228241096880578
7	0x3fbb40f41a095231	0.10645986209539939
8	0x3fb224f085bad807	0.0708761526574052
9	0xbfdbff9f8b8e4194	-0.43747700336918993
10	0xbfd946952baf9286	-0.39493302599138536
11	0xbfd26111fedbfb97	-0.28717470062832134
12	0xbf6d9ed5ee2dbbc3	-0.0036157778098906148
13	0x3fc076da343fa80f	0.12862708617404947
14	0x3fadcc3eaf1310b3	0.05819888960971422
15	0xbfdc8220cb70e053	-0.44544238917615536
16	0xbfd9a4e5136fbfa8	-0.4006893815812824
17	0xbfd092d89b3ffbb1	-0.2589627758133544
18	0xbfcb17547e83038e	-0.21164947678883234
19	0xbfc50673482505a3	-0.16425934813200369
20	0xbfa803d013961a9c	-0.046904089346800876
21	0xbfd7f49092f4e7a8	-0.3743020472644454
22	0xbfcdc845dc9a97ce	-0.23267434379266522
23	0xbfc1791c08749fe9	-0.13650846875066172
24	0xbfd26fc588b5f0ce	-0.28807199812559936
25	0xbfcc8a94724bd20a	-0.2229791219794069
26	0xbfc575175700752d	-0.16763583896764925
27	0x3fbb2573f9ef82bf	0.10604023792212568
28	0x3fc61413c4c4e1b5	0.17248770816673945
29	0x3fb88fd40f2d225c	0.09594464655413887
30	0xbfd84dfd2feb9d92	-0.37976007156108793
31	0xbfd2dd9b9cf84cb0	-0.2947758706006409
32	0xbfc20f2ccaa1cefa	-0.14108810323852322
33	0xbfda93c02890be89	-0.4152679821154171
34	0xbfd815673c05c449	-0.3763063512952312
35	0xbfcd86c954f44a2d	-0.2306758560958583
36	0xbfc3ac17e1a22744	-0.1536893703199046
37	0xbfc1b4cbc7e7b5f2	-0.13832995663635433
38	0x3f8dc68ea47dbde8	0.014538874049065023
39	0xbfb1b3c770b85967	-0.06914946081119454
40	0xbfafaac3675bff77	-0.061849695555792054
41	0xbfbb1881ff6e1683	-0.10584270940861455
42	0xbfc2d6891ceba81b	-0.14717210685859147
43	0x3fcec557464d0df7	0.24039736683526744
44	0x3f93437fbf156843	0.01881217578679918
45	0xbfdb8cd164a64152	-0.4304698450951224
46	0xbfdb1feec38bb8ae	-0.42382401558178173
47	0xbfd2ab2f6d966e2d	-0.2916983194533909
48	0xbf976a7e665c9ad6	-0.022867178914703988
49	0xbfb065ef382f4095	-0.06405539628690556
50	0xbf9fe9041ff246ee	-0.031162323427060316
51	0xbfa60cedc282a99f	-0.04306738852877178
52	0xbfc634632a253a2b	-0.1734737354076555
53	0xbfd383bc73b25eca	-0.30491553591262444
54	0xbfa2498ff7a5cb83	-0.035717486362862004
55	0xbfb0cca1675138dc	-0.06562241337198621
56	0xbf634a91f1e69c3f	-0.0023548937308137947
57	0x3fa18e450d3f8380	0.03428855692596411
58	0xbfb2cc6f382e20a9	-0.0734319221647889
59	0xbfbfe07c594b0f26	-0.12451913051614535
60	0xbfb4d1994e5df478	-0.08132322467095487
61	0xbfa46fdd02d93c4c	-0.03991594943783436
62	0xbfa58a1804cff345	-0.04206919726127593
63	0x3fb77b3ccf90056e	0.09172420566030379
64	0xbfc311d4e7c6bf13	-0.1489816791267847
65	0xbfc13a53ed86260e	-0.13459252450802278
66	0x3faabb26d66b0ea5	0.052209104227157334
67	0xbfd5404a1dbd0a13	-0.33204892067092934
68	0xbfd19fee9cfed674	-0.275386479678992
69	0xbfb3329bf410ac68	-0.07499098499890666
70	0xbfc1794eb743983f	-0.1365145106166796
71	0xbfd475f59a8bc430	-0.3196996697652734
72	0x3faff7021c1ba259	0.0624313983260591
73	0xbfb021dcf2ce8458	-0.06301670959375494
74	0xbfca06a3999a9185	-0.20332760811028208
75	0xbf83bde8f68c3bca	-0.00963956835178505
76	0xbfa32afda183d4bc	-0.037437368360693196
77	0xbfa97175f492d678	-0.04969376192586322
78	0xbf848ada11aee7ec	-0.010030463852547876
79	0xbfd1ddc968b4f936	-0.27916178918157486
80	0xbfd2d7e248e4766b	-0.2944265090789943
81	0x3fac9c47d77cd4cc	0.055879826597825394
82	0xbfceee1bfb0a1873	-0.2416415191439146
83	0xbfcf301eede734c6	-0.24365603081097315
84	0x3fad731b62f8f7ef	0.05751882155571752
85	0xbfd4f0a5f6302360	-0.3271880058460308
86	0xbfc348152ad8a88f	-0.15063728897195403
87	0xbf97fce911043199	-0.02342571417197945
88	0xbfb140174ac0b6cc	-0.06738420081156987
89	0xbfb66b26aa60a44e	-0.0875724950752936
90	0xbfcbb40789bd91fe	-0.21643156266794955
91	0x3fbea34751fda2a5	0.11967893363692868
92	0xbfa663e47996943e	-0.04373086914282752
93	0x3fc181f5e89a1bac	0.13677858216780459
94	0xbfc9a2547d1d748b	-0.20026641949781196
95	0xbfc0bedd6406807d	-0.13082473167469635
96	0x3fb1df7e1c122eea	0.0698164766819748
97	0x3fb0d80e889a64ac	0.06579676470791423
98	0x3fcc41d3720eea21	0.2207588488507364
99	0x3fabcd6c1950db3a	0.05430162247687638
100	0x3fb8c0f890b29788	0.09669450314194539
101	0x3fce4fb208a99a14	0.23680711195920934
102	0x3fad613940168ce2	0.057382382462742645
103	0x3fb62fef186fcafa	0.0866689142856493
104	0x3fcdbe9597583c0d	0.2323786725032452
105	0x3fb1cfdc58f6f318	0.06957795307148407
106	0x3faa4a2d5fd7808f	0.051347177457274566
107	0x3fc8fc35be600166	0.1951968364301237
108	0x3fb410ee79c40d2b	0.07838335488127217
109	0x3fb35a7a61b8a95e	0.07559933553480877
110	0x3fc71b18108b5712	0.18051434333636301
111	0x3faf3f96cae14e6c	0.06103202082217937
112	0x3fa37eb1afa33da4	0.038075974168914756
113	0x3fca8181191fe75b	0.20707715727604178
114	0x3fb219c0a946212e	0.07070545323052066
115	0x3fb246714a626beb	0.07138736787821613
116	0x3fcdb0fbeaccd2f6	0.23196362461899128
117	0x3fb1050dbc0b976a	0.06648336258839796
118	0x3fa9f2e873c8c94d	0.05068136609442551
119	0x3fca9239539fa8e7	0.20758740027606068
120	0x3fb181e3525678a3	0.06838818321418443
121	0x3fb1a7c3f660f37f	0.0689661480436836
122	0x3fcd28dff6625951	0.2278099015281421
123	0x3fb044776634997e	0.06354471440554296
124	0x3fb86c938d8417e8	0.09540674405079097
125	0x3fcca9e53097f439	0.22393479225857663
126	0x3fadb0b8e19281ac	0.057988908324890204
127	0x3fb42057748d92ed	0.07861849399121086
128	0x3fcc2e19e80e8ed3	0.2201568968858881
129	0x3fb440dd1d3b68b9	0.07911474193261626
130	0x3faee88b447b2f05	0.06036792002632122
131	0x3fcc7c3d09377376	0.222541455745979
132	0x3fafce407c78aea3	0.06212045211245012
133	0x3fa8a048965569b9	0.048097866393351514
134	0x3fca69d821c98ca7	0.20635511064310672
135	0x3fb10c4da9527d9d	0.06659398444980132
136	0x3fb3930a5f60867f	0.07646241024533572
137	0x3fc9b060a3bce2bf	0.20069511408816784
138	0x3fb0e4bf2d84eaf8	0.06599039899166914
139	0x3fb14144d67c0288	0.0674021743434513
140	0x3fccf3120c8524d2	0.22616792308170958
141	0x3fb0de9567d62464	0.06589635644026398
142	0x3fb2ebd5f7b57739	0.07391106889323575
143	0x3fcb675f34fc6a55	0.21409216010291013
144	0x3fb2c1791d7e2950	0.07326466531791209
145	0x3fb1bd224fc82f78	0.0692922062664233
146	0x3faf9538ffdf0e49	0.06168535350255106
147	0x3fb0d3ba10259196	0.06573069471557455
148	0x3faff0da5b17a661	0.06238443719832954
149	0x3fb041ba1937ed57	0.06350291362462222
150	0x3fb1fd5ba7e03ccd	0.07027218674214737
151	0x3fae6b977d49f1a4	0.05941460995106532
152	0x3fb239b0e2c27c08	0.07119279419065105
153	0x3fb329c781b78c5e	0.07485625187796205
154	0x3fa92f62cfc55214	0.04918965135826539
155	0x3fad136cce502a0f	0.05678882616492242
156	0x3fb396f995408b0d	0.07652244466639165
157	0x3faa19a26edcc5ad	0.05097682574558902
158	0x3fac347c3f5621c3	0.055087931376934594
159	0x3fb07716b506dcea	0.06431714934921087
160	0x3fb5456cd270cb4b	0.08309059274396906
161	0x3fa30e09bb9def14	0.03721647658582419
162	0x3faff40562293698	0.0624086077046801
163	0x3fb2846068eb3a5b	0.07233240663047395
164	0x3fab7a6a90fc8134	0.05366833705761778
165	0x3faff9c3e025e628	0.06245243178541343
166	0x3fb871e53229842d	0.09548790430700711
167	0x3fb1c12eec1b29de	0.06935399307545917
168	0x3fb38072973806b0	0.07617870513788705
169	0x3fb527475eec48b8	0.08263059680419615
170	0x3fb2d96717035ee5	0.07362980186314479
171	0x3fb35aa532c66844	0.0756018876039955
172	0x3fb6ed0e7eb4f3de	0.08955469697407589
173	0x3fada606264c2ceb	0.057907287764544645
174	0x3faf0fd33a2b0680	0.0606676109796469
175	0x3fb15d58fb26e218	0.06783062106740834
176	0x3fa3b248ce10bade	0.03846957698293861
177	0x3faf02daf16650ec	0.060568658797963554
178	0x3fb2a6f27ca3f812	0.07285991232853942
179	0x3fa85f4bd5e2c991	0.04760205255424233
180	0x3fb26c4a34bee8a4	0.07196487224328735
181	0x3faf9a170610298d	0.061722487917069115
182	0x3faf3d92814d2e71	0.06101663425814941
183	0x3fb473fcc5cb77e2	0.07989482716536103
184	0x3fb1e0c765e67ea6	0.06983610379983904
185	0x3faf81538522a5ef	0.0615335559862834
186	0x3fb584b74a206d1c	0.08405633506520299
187	0x3fb0f1eeb1fea658	0.0661915955121456
188	0x3fac79074f807270	0.05561087460975933
189	0x3fb3c86029cc08a0	0.07727623959002239
190	0x3fb468d2a1fcc4f4	0.07972446875352884
191	0x3fa967e90fc6a7cd	0.04962089841440296
192	0x3fa829f2148adc63	0.04719501972925213
193	0x3fb5324deb93996f	0.08279883386021479
194	0x3fcd2090f1a1e149	0.2275563411565236
195	0x3fb3630807c2bd27	0.07572984876127418
196	0x3fb3937c579fedda	0.07646920336986032
197	0x3fcfd55fb44ac4a8	0.24869915297816658
198	0x3fb2727498826c8f	0.07205895160079677
199	0x3fae8ccc738b1465	0.05966795835915021
200	0x3fcdddf76606bcb5	0.23333637696985013
201	0x3fb4aabb176ceb3c	0.08073014566336395
202	0x3fb4f0df033684ce	0.08180040195886137
203	0x3fc902220d8c70eb	0.1953775945811523
204	0x3fad473b35ab6133	0.05718407659668614
205	0x3fb2bf178048686d	0.07322832948594434
206	0x3fcc8447b750a598	0.22278686953476945
207	0x3fb0c44a3c5858f3	0.06549514745015354
208	0x3fb766128b4478dc	0.09140125179371544
209	0x3fccf173bb51dda8	0.22611853262399717
210	0x3fb340ce24d9e85d	0.07520759963691277
211	0x3fb1c8bd7d33073b	0.06946930224060292
212	0x3fcbe3b71da06a23	0.21788681933033258
213	0x3fac10f36abea3bc	0.05481682470355717
214	0x3fb47eea160c1b40	0.08006156004203735
215	0x3fca286f397fb1c4	0.20435896213110827
216	0x3faf5de467380331	0.06126321563716031
217	0x3fb973b57a40b2a7	0.09942182764707273
218	0x3fcd0b3be4426005	0.22690533299896756
219	0x3fae174707ab426f	0.058771342931895336
220	0x3fb1de29d38d115f	0.06979619421787707
221	0x3fce9794cdeeb918	0.23900089316652706
222	0x3fb036b8e668424a	0.06333499550988467
223	0x3fb46af34121deab	0.07975693073410166
224	0x3fcc5b8df494145f	0.22154402200991094
225	0x3fb0513cb6511e47	0.0637395806417028
226	0x3fa54472c0758b4d	0.041537843698071876
227	0x3fcbc10930849bfa	0.21682848805468763
228	0x3faf2f4de813452a	0.060907778338910326
229	0x3fb282232f6f0d4c	0.07229823978473354
230	0x3fcb1c21c8c7e27e	0.21179601958990085
231	0x3fb18fe4af25b56a	0.06860188747460474
232	0x3fb3e3c0c8e1e37b	0.07769398598055759
233	0x3fc93142aa7b4414	0.19681580852787361
234	0x3fb0291016bc51fa	0.06312656931942931
235	0x3fb1e34a06b2698f	0.06987440742014982
236	0x3fcd3e9f32a46672	0.22847356770289512
237	0x3fb432f1a384df26	0.07890234224475687
238	0x3fb0dbd57e684f7d	0.0658544000255556
239	0x3fcbb7c7a888b251	0.21654601792524145
240	0x3fc822d2b6ac17de	0.18856271667044572
241	0x3fc83f02eeff73fc	0.1894229571325069
242	0x3fc9a95ff0826661	0.20048140758153735
243	0x3fc9ffed3048dab7	0.20312275750776163
244	0x3fc831cfe7a94cbf	0.1890201455267739
245	0x3fc784910b52e9f0	0.18373311093257838
246	0x3fcb19a7e7f2aa0d	0.21172045541364107
247	0x3fc877e0900fbd8e	0.19115836176159146
248	0x3fc98f3ebc4355bc	0.19968399231463063
249	0x3fc93e2b63fdc6b8	0.19720976240528443
250	0x3fc825990b8d41e8	0.18864739479114623
251	0x3fc9b2c43528e82f	0.20076801868145952
252	0x3fc904638e24b1a6	0.1954464382228142
253	0x3fc925cc09c4923f	0.196465973634206
254	0x3fc7422c5ff6cb0b	0.18170695005172663
255	0x3fc7d6ebd6280635	0.1862463756261136

bias f8 [112]
0	0x3fc49e8f8c6feaf4	0.16108888966831325
1	0xbfd7b1b9917ee43d	-0.3702224655967859
2	0x3fb735df9a7f44b2	0.09066579362776642
3	0xbfdd61f6a539e9f8	-0.4591042150056235
4	0x3fb9c4588e22aee4	0.10065225095848579
5	0xbfdb173ffce3a650	-0.42329406448570683
6	0xbfd0e910df97e5ee	-0.26422521434105206
7	0xbfd6b946fe2a9971	-0.3550584299176967
8	0xbfd565117d3a0b41	-0.33429372052357925
9	0x3fc988b20e90b12f	0.1994841166609915
10	0xbfd725efd827c047	-0.361690484131945
11	0xbfd9bc9937e74131	-0.4021361394816437
12	0xbfcaeafcd679a3e0	-0.2102962538949944
13	0xbfbf723657e5a3af	-0.12283649106906468
14	0x3fb373ccbcc7d438	0.07598571404362608
15	0xbfdcad7d7ba5954f	-0.4480889995087027
16	0xbfa6b86110e689f9	-0.044375451386503735
17	0xbfc4fb2b08b2d238	-0.1639150421593898
18	0xbfb1985725972ed5	-0.06873078029382935
19	0xbfa6b0b7a56f72ce	-0.04431699652170594
20	0xbfb41eafd56679b2	-0.0785932441708386
21	0xbfae8b7db2c05c04	-0.05965798193954444
22	0xbfcec6706c92ace6	-0.2404308824673997
23	0xbfc4fc59300dd417	-0.16395106169116566
24	0xbf9a7b1d2ce5e711	-0.025860267510757377
25	0xbfa40687858ade35	-0.039112315227097495
26	0xbfca9369a803a3c0	-0.20762367919749458
27	0xbfbd0c3c9166db0f	-0.11346796560142657
28	0xbfcd15cc21c60fd0	-0.2272277035627881
29	0xbfadc5ec5b3bcd24	-0.05815065969172853
30	0xbfa9597d6d41db4b	-0.04951087912279791
31	0xbfb0e21c9bf6281d	-0.06595019157080668
32	0x3fb62ff4008007c0	0.08666920673570555
33	0x3fb6f2f981f723da	0.08964499876959967
34	0x3fb39ef0ddcf8667	0.07664399543093624
35	0x3fb52b6aa3757a25	0.08269373408027343
36	0x3fb6f37083d111da	0.08965209215336448
37	0x3fb5b88650057b89	0.08484687284133775
38	0x3fb93b32dcb08874	0.09855955017022372
39	0x3fb42b9917478f68	0.07879025286052654
40	0x3fb9234cd4511c80	0.09819488700405721
41	0x3fba4bf3e0570f81	0.10272144534161322
42	0x3fb64e2c932596dc	0.087130342411537
43	0x3fb43ca101202abd	0.07905012395364515
44	0x3fb047a6a9a8c42e	0.06359330789634107
45	0x3fb87f7f96f46c4f	0.09569547114772202
46	0x3fb928118a8d9341	0.09826764710085191
47	0x3fb0eda6cbce13c5	0.06612627483089202
48	0x3fb63392f4b39b88	0.08672445749435387
49	0x3faee1c85f485683	0.06031633532635985
50	0x3fb3f22484a489b6	0.07791355360362825
51	0x3faa81e2e42a8589	0.05177220378142084
52	0x3faddf1b8c28de1e	0.05834280095990273
53	0x3fb2cce03b7eadc1	0.0734386582614013
54	0x3fada63665ba01ef	0.05790872566013038
55	0x3fb49258f93c059a	0.08035808644128509
56	0x3fb1281d46992c55	0.06701834653465373
57	0x3fb38e7d8dd7b17e	0.07639298165276462
58	0x3fb0f9d152d8e22c	0.06631191513668772
59	0x3fb4b79b3f1e8cc2	0.08092661181449315
60	0x3fb27bf04009aac6	0.07220365107938695
61	0x3fa84141bfe9a7fa	0.04737287013706744
62	0x3fb1541b997a607b	0.06768963334104854
63	0x3faebb825b5445dc	0.06002433171137131
64	0x3fb8ad26b178d1f4	0.09639207680522316
65	0x3fb77d7409e64adb	0.09175801507653196
66	0x3fb50f822c0f13bb	0.08226789069801914
67	0x3fb6bd371eeaeadb	0.08882469658685059
68	0x3fb5a5049893cb77	0.08454922413856801
69	0x3fb79c0458358d13	0.09222438005013016
70	0x3fb460acb3289136	0.07960013746248226
71	0x3fb3d9300986e4fb	0.0775327704676733
72	0x3fb491c27157b03f	0.08034911410476385
73	0x3fb9979799f93653	0.09996936329954424
74	0x3fb5c628bc6b77f3	0.0850549182900691
75	0x3fb5f16ca12df473	0.08571509299322759
76	0x3fb2281d7618667a	0.07092460759340638
77	0x3fb6b9c3ba1348dc	0.08877204220633267
78	0x3fb7a712bb373584	0.09239308424658615
79	0x3fb7328044e5aa50	0.09061433488901938
80	0x3fc7ea65c1daf5c4	0.18684074369040904
81	0x3fc96418a8b205b7	0.1983671973903662
82	0x3fc9ba2f63669d83	0.20099441865498244
83	0x3fc9c906a369fcb5	0.20144732455444161
84	0x3fc692358eea99af	0.1763369510492345
85	0x3fcaaf65fd2786ff	0.2084777341943251
86	0x3fc7b603959c4adb	0.1852421265144447
87	0x3fcae671516ad7ef	0.2101575515313807
88	0x3fca717ee6ace2fb	0.20658861411518345
89	0x3fc92b0baffde5e7	0.1966261491141232
90	0x3fc7bdd129f5786f	0.18548025654576203
91	0x3fc7c946f681143b	0.1858299926408636
92	0x3fc9a437ee9b7e3d	0.200324050433652
93	0x3fc840f707d0a11e	0.18948257333364266
94	0x3fc95a089a170532	0.19806010745927832
95	0x3fc8492022eeaf97	0.1897316141670415
96	0xbfdfdd0de0492352	-0.4978670778551094
97	0xbfeb798e347c6354	-0.8585883164515544
98	0xbfdab6fc442b0b12	-0.4174185434059591
99	0xbfe614aa06d7957c	-0.6900224813113449
100	0xbfe257c801c84533	-0.5732154879389441
101	0xbfe70a66c75779d7	-0.7200197118179926
102	0xbfef234d7778c453	-0.9730593999321492
103	0xbfec2278cadb1a06	-0.8792079889324789
104	0xbfe8669bd8f64e5c	-0.7625254857579864
105	0xbfdb176a00895fff	-0.42330408146290205
106	0xbfecd6eb22105303	-0.9012351670558875
107	0xbfe8d3c40679f19b	-0.7758503080836364
108	0xbfef8160c11f7189	-0.9845432063989829
109	0xbfe08f9ef678ec95	-0.5175318540490418
110	0xbfe3484fe0b68815	-0.6025771511961034
111	0xbfe6c007e773486e	-0.7109412689699306

weight f8 [112, 16]
0	0xbfc2ec4631c48574	-0.1478355162626418
1	0xbfca4fc29c8a6a4a	-0.20555908816898444
2	0xbfc0ef79e5f1eb23	-0.13230823257239263
3	0xbf8567dde8d55364	-0.010452016513832603
4	0xbfbe335cf6d1efd6	-0.11797123933678164
5	0xbfa767b3ffcd9382	-0.04571306703181845
6	0xbfcdabffc37919d1	-0.23181149525244263
7	0xbfcd2d5366747339	-0.2279457330959305
8	0xbfbc8c6763e2aaad	-0.11151739300354775
9	0xbfc01ef12217e418	-0.12594427265847297
10	0xbfcdb55c06ff916d	-0.232097152154107
11	0xbfb4a892e7d53681	-0.0806972328184319
12	0xbfc76f0b692d9938	-0.18307631145143843
13	0xbfbe66ebdd1c088a	-0.11875795505696565
14	0xbfc0cadb1b5e6a04	-0.13119067036025467
15	0xbfa103d7aaacfb34	-0.033232440552174586
16	0xbfe497f08829119e	-0.643547311724024
17	0xbfd8195383abeb43	-0.37654579027701035
18	0xbfe482059bc62455	-0.6408718149624614
19	0xbfddd93181a85eba	-0.4663814321697647
20	0xbfe441509b466d89	-0.6329730065075846
21	0xbfdbfed181fb684d	-0.43742788022575924
22	0xbfdb0984d0f8279c	-0.42245598227656855
23	0xbfd8b51442b81a03	-0.3860521937898797
24	0xbfda6f6745bcd0af	-0.4130495244055607
25	0xbfe4c7cd87c6aaa6	-0.6493899967075165
26	0xbfd604405d1e57f1	-0.344009486137451
27	0xbfd9fa453c52cef6	-0.40590029612506784
28	0xbfde988a187d22d3	-0.47806026832090004
29	0xbfe2a79e29b26f20	-0.582961160125226
30	0xbfe45a5a1d32e3b1	-0.6360292978562169
31	0xbfdbea2f129302c2	-0.4361684495343462
32	0xbfc12c9bf95bb9a0	-0.1341738669938879
33	0xbfc8718c2d0155c7	-0.1909651965858485
34	0xbfc16434f5fce7a8	-0.13587057124260338
35	0xbfad2cd5a1acd239	-0.05698268507550037
36	0xbfc08fb7b4a93116	-0.1293859130986525
37	0xbfa7da26d0a5a855	-0.0465862397857825
38	0xbfcdb319493f33c3	-0.23202816082485186
39	0xbfc9f1e0db272905	-0.20269404126003834
40	0xbfbe1f0b11368672	-0.11766118211974133
41	0xbfc2eb6d9e10249f	-0.14780969827578347
42	0xbfca5b4d9207a85d	-0.20591134672514758
43	0xbfbb096a7ce8f703	-0.10561242627678884
44	0xbfc9b9cb661b20bf	-0.2009824989857005
45	0xbfbc8ff3fcc9ab79	-0.11157154962135775
46	0xbfc1de49dfd4194a	-0.13959620885015972
47	0xbfa9f60e595d47f9	-0.05070538369058392
48	0xbfe45b88959deb6f	-0.6361735269741596
49	0xbfd636b0142f028d	-0.3470878789048946
50	0xbfe3b63b607270fe	-0.6159951099139389
51	0xbfd767626b3e55e5	-0.36568508599279276
52	0xbfe3dea73d08d46b	-0.620929354866019
53	0xbfd6ea9957a2f697	-0.35806878622302335
54	0xbfda4cf4c8e74ff1	-0.41094703311432484
55	0xbfd7c21e224f89e7	-0.3712230048242006
56	0xbfd92c1c111bb5f5	-0.3933172385285098
57	0xbfe4c384a1369fde	-0.6488669537256972
58	0xbfd67ea9a99b7be7	-0.35148088038653075
59	0xbfd516209404d61c	-0.3294755406853669
60	0xbfdd58908b298069	-0.45853055563021045
61	0xbfe2d61216e5f373	-0.5886316725951545
62	0xbfe3f74daf954ef5	-0.6239384106979445
63	0xbfd943f3fdcbe6f2	-0.3947725275498747
64	0xbfc22ce2601f1f61	-0.1419947594970337
65	0xbfc4b6dc926f8a97	-0.16183049345189168
66	0xbfc3dea2038ec5f4	-0.15523171590534413
67	0x3fa849ba2df2ac0d	0.047437494381789326
68	0xbfc17c44a09aee2a	-0.13660486070681205
69	0x3f99ae629e4148f4	0.025079289349670256
70	0xbfce183cf21c2286	-0.23511468717358158
71	0xbfc97e54d256cef3	-0.19916782637084615
72	0xbfb163d04e3155da	-0.06792928608896123
73	0xbfc6295729b7ba28	-0.17313661133762648
74	0xbfc9cb8f3df9923b	-0.20152464414708668
75	0xbfa6ec9548196bd3	-0.044773736048874156
76	0xbfc75fc3d196785a	-0.18261001333025
77	0xbfbb5a04ef563c1f	-0.10684233515915807
78	0xbfc1f0920c6d4bbe	-0.1401541290930179
79	0x3f98f3a5c5a11a8b	0.024366941630683796
80	0xbfe3cdc2f1cb82d7	-0.6188673708494105
81	0xbfd703608b727a83	-0.3595811235226522
82	0xbfe462c042ebc504	-0.6370545680094044
83	0xbfdb35b8891ba0c9	-0.42515385999150773
84	0xbfe43f16a89a27ec	-0.6327012341509977
85	0xbfd81ff23aba4a52	-0.3769498418343221
86	0xbfdb91efe3ca2933	-0.4307822918423369
87	0xbfd92d75be2e423a	-0.3933996541245822
88	0xbfd81b7643626244	-0.37667614536761485
89	0xbfe45479b811abd6	-0.6353119464014252
90	0xbfd549505d8d24f7	-0.3325997270190579
91	0xbfd7e118f1dfdc02	-0.3731138574652847
92	0xbfde943734588c1f	-0.47779636489775784
93	0xbfe23b5d5802b8e6	-0.5697466582257931
94	0xbfe3ab66dbd54f35	-0.6146730702989546
95	0xbfdbbab94bfd43b2	-0.43327171727019753
96	0xbfe2f777285a4a6e	-0.5927081859720837
97	0xbfd3327fffe2396c	-0.29995727528230165
98	0xbfe31038290b7d6a	-0.5957299043329105
99	0xbfd4036236d897d9	-0.3127065215688823
100	0xbfe35be326900a6b	-0.6049667123009618
101	0xbfd4084a3c1eeaea	-0.3130059802166857
102	0xbfd8ef7012f87dd2	-0.3896141228924225
103	0xbfd82251f5cc51a1	-0.3770947361347457
104	0xbfda37844a902bf7	-0.40963847428855565
105	0xbfe309b73d7e5620	-0.5949360085530238
106	0xbfd40440b666ed7a	-0.31275956928921966
107	0xbfd3c58bf1c905ac	-0.30893229114379994
108	0xbfdb380b5c07f1a9	-0.42529567706494703
109	0xbfe24e3900e51b10	-0.572048665759981
110	0xbfe3369eac182b85	-0.6004174576968216
111	0xbfd3e1aceb2d0d7e	-0.3106491371765613
112	0xbfe31d8d6bcb7d14	-0.5973574738854119
113	0xbfd5a42fc9ba8ae3	-0.33814615917269303
114	0xbfe3fe4e4fdd9193	-0.6247932014344307
115	0xbfd526cadf0c9f6e	-0.33049270422133403
116	0xbfe3a730116c4063	-0.6141586628236947
117	0xbfd50ab61d987597	-0.328778771306895
118	0xbfd9cf3f33fb4d50	-0.40327434612591606
119	0xbfd76ac55c1d469b	-0.3658917808107646
120	0xbfdae1c973f5cd8b	-0.42003094028697124
121	0xbfe4262a56e5747d	-0.6296588608926325
122	0xbfd4e1acbdd14730	-0.3262740949331713
123	0xbfd3d9f00157f69b	-0.3101768506165656
124	0xbfdc47e585e0aea7	-0.4418882186316559
125	0xbfe23106d594d966	-0.5684847041618866
126	0xbfe33399a8ea466f	-0.6000488566516661
127	0xbfd4c05811e87d40	-0.3242397475132357
128	0xbfe3b9efd99dff98	-0.6164473772368977
129	0xbfd5029c13ed15d3	-0.3282842821684799
130	0xbfe42855b69cfa5e	-0.6299236838020297
131	0xbfcf657bb81eea57	-0.24528452387115138
132	0xbfe369098e4d2023	-0.6065719394036971
133	0xbfd006d3ea19f3f3	-0.2504167352815891
134	0xbfda0fa8dc668317	-0.4072057869289422
135	0xbfd8c7301b94f58a	-0.3871574658731666
136	0xbfd98866e0427871	-0.39895030880314325
137	0xbfe3e6bb0f41db42	-0.6219153688424301
138	0xbfd5bfa9bed0fc56	-0.33982318529519284
139	0xbfce432614d615fe	-0.23642421739002367
140	0xbfdc9cf4b78cd330	-0.4470798294526501
141	0xbfe1d74a15fbcb8a	-0.5575304440848055
142	0xbfe38ba28e6764e3	-0.6107952863050311
143	0xbfcb0fcebd454201	-0.21141990892148502
144	0xbfb6a43984fb40ef	-0.08844336983316102
145	0xbfb89477c438e8ed	-0.09601543942054365
146	0xbfbdfd103f2f5d98	-0.11714269201853822
147	0xbf9663c733563ecd	-0.02186499834857507
148	0xbfb3cea9638a81c6	-0.07737215690804708
149	0xbf86144bd20e5a42	-0.010780899379637113
150	0xbfc1eb941f7660f2	-0.140001788485058
151	0xbfbf2615e0032e69	-0.12167488783887283
152	0xbfae84a86eb91df7	-0.05960584975815302
153	0xbfb1bbd9688347a0	-0.06927260209638897
154	0xbfb9f1edaf04da8f	-0.10134778521465136
155	0xbfab40106596711a	-0.05322314491351872
156	0xbfc1554f549e4e2c	-0.13541595107800342
157	0xbfafea33e34bcc99	-0.06233369969950182
158	0xbfb6ba1d274bfcb7	-0.08877737244982851
159	0xbf8862d93c1d6251	-0.011907288691575564
160	0xbfe531766611b8b1	-0.6622879022159137
161	0xbfd9bfd231274bf4	-0.402332828523128
162	0xbfe4e6bd99c0130f	-0.6531665804801338
163	0xbfe07e25f4ef980c	-0.5153989585785452
164	0xbfe44624f98e69a6	-0.6335625528475262
165	0xbfdfdac5ed915af8	-0.49772785377483286
166	0xbfdb7b32943ab66e	-0.4293943831970414
167	0xbfd902877369a031	-0.390779364307039
168	0xbfdbc1d9bf587e96	-0.4337067001924678
169	0xbfe56e5504559dc0	-0.6697182736069678
170	0xbfd7b8361de10295	-0.3706183711802081
171	0xbfddeae40694b570	-0.46746159212746985
172	0xbfdf0142268b8367	-0.48445180668027493
173	0xbfe33644354e73a1	-0.6003743210927618
174	0xbfe4637b484601ba	-0.6371437465277758
175	0xbfe015d20349cc02	-0.5026636184906013
176	0xbfe46c3c9270edc8	-0.6382124767473494
177	0xbfd60bbf685e8871	-0.3444670218688151
178	0xbfe47134ba346aed	-0.6388190876781131
179	0xbfdaf74a029b19c4	-0.42134332899550153
180	0xbfe3a774466a5e01	-0.6141911864569353
181	0xbfd619bc3c5cbfba	-0.3453207578158942
182	0xbfdc3f08d2a926d2	-0.44134731838549357
183	0xbfd8f0c39c51a32b	-0.3896950747062415
184	0xbfda6abcd99e47a9	-0.4127647519281888
185	0xbfe48b3b9567c01b	-0.6419961851188448
186	0xbfd5e6733d266980	-0.34219056102451617
187	0xbfd7679dba2eb60c	-0.3656992262066019
188	0xbfdeaa6d2c43e912	-0.47915200541287206
189	0xbfe296e1c8a969f0	-0.5809182089972733
190	0xbfe3ac34f64dbf64	-0.6147713480586217
191	0xbfdaf8055b9b9373	-0.4213879961592319
192	0xbfe17367736159b0	-0.545337415077304
193	0xbfd42ca44ff71dbc	-0.31522472199545937
194	0xbfe1170053b0d252	-0.5340577730735936
195	0xbfd250a3335c04bf	-0.28617172256060636
196	0xbfe09d0317c62a25	-0.5191665138566505
197	0xbfd18fdfeafdaf1f	-0.27440641353926937
198	0xbfd8362481d8fcb4	-0.37830460243635433
199	0xbfd718d9a5472956	-0.36089173450877376
200	0xbfd8ed1b7d9194da	-0.3894718862778298
201	0xbfe1121a1e13b113	-0.5334597194137437
202	0xbfd36f083841228d	-0.3036518620834066
203	0xbfd221f7353851b0	-0.2833230991102722
204	0xbfd94b59b0568cf2	-0.3952240201999323
205	0xbfe0126bce97429b	-0.5022486720063911
206	0xbfe17d2ffe08c6d4	-0.5465316735846621
207	0xbfd1ba3d822cab1a	-0.27699220383026246
208	0xbfd2c7a585b36a04	-0.29343545967790896
209	0xbfbe1f3f8b4965ed	-0.11766430998377304
210	0xbfd3e16cec59ff9a	-0.310633879482333
211	0x3fabdbfe01670284	0.05441278235548899
212	0xbfd2ce177a799285	-0.29382883987845104
213	0x3f940803328ab9e9	0.019561815223534316
214	0xbfcd4c9eb966b277	-0.22890075733939216
215	0xbfc3a7efae5f49d9	-0.15356250776547034
216	0xbfbd4cd5b83523c3	-0.11445365664725586
217	0xbfd3ae675dcda055	-0.307519761662211
218	0xbfc1d05727f76405	-0.1391705460689822
219	0xbf846fc56f8726f3	-0.009978811708509982
220	0xbfcd5065b5de45cf	-0.2290160310772493
221	0xbfcebb9ed5d2a054	-0.2401007217461052
222	0xbfd2ea9a5fdecfa2	-0.29556903230990816
223	0x3faad246ee69081a	0.0523855367687391
224	0xbfc10a2bb8f09424	-0.1331228878999876
225	0xbfaebcbb1fd47ac2	-0.060033652911660976
226	0xbfc3abe5bcc17904	-0.15368339268292897
227	0x3fbe46f18a061220	0.11827001208991605
228	0xbfc48ae229c2a3de	-0.16048838652684955
229	0x3fba33fa875888e8	0.10235563091604016
230	0xbfc41a755d77aed2	-0.15705744804232907
231	0xbfb64df13a87938e	-0.0871268051046867
232	0x3f7037a03283cfb5	0.003959298868938467
233	0xbfc21faa997e86ea	-0.14159138197742688
234	0xbfb4fc3900644eba	-0.08197361239973136
235	0x3fa0dbd8d6bb0110	0.032927299701898005
236	0xbfc5a00826081117	-0.16894628388411867
237	0xbfba6b85404d39a5	-0.10320313281883971
238	0xbfc4216eba006840	-0.15727027971371577
239	0x3fbc346e8854fd1e	0.11017504528443964
240	0xbfe3b47b2e95452f	-0.6157813939882198
241	0xbfd5554d1f5953d0	-0.3333313757078118
242	0xbfe4af36d05158ec	-0.6463884419161139
243	0xbfd70076e7487d57	-0.3594033487915644
244	0xbfe3e73c378215f1	-0.6219769558089735
245	0xbfd530002068e53d	-0.33105471768392986
246	0xbfda8f227b0f78fd	-0.41498624818440516
247	0xbfd8915abf080418	-0.3838717332401429
248	0xbfd9842aaff4c916	-0.39869181807729726
249	0xbfe46ba1aafe3d91	-0.6381386127194891
250	0xbfd5985fd0b69952	-0.3374251878944011
251	0xbfd3ff6dee9aaa35	-0.31246517468631235
252	0xbfdd13ce995ef978	-0.454333925033914
253	0xbfe22801556cf2fa	-0.5673834484547051
254	0xbfe3c5c5f9be1d0d	-0.6178922536645658
255	0xbfd77dd94fcb73b6	-0.3670562056775525

bias f8 [112]
0	0x3fc42681fc6feaf1	0.15742516351732364
1	0xbfd6fcc2b47ee436	-0.35917728067903754
2	0x3fb90a559a7f44ab	0.09781394025709982
3	0xbfdc2bfb6af9e9f8	-0.440184454411479
4	0x3fbcaa2acaa2aef4	0.11197154471545528
5	0xbfdb43bae163a64e	-0.4260089112345654
6	0xbfd02899a017e5ee	-0.2524780333911555
7	0xbfd6ff30557a996f	-0.35932548854397955
8	0xbfd432fb3d3a0b3e	-0.3156116578976941
9	0x3fc8069c2930b12b	0.18770172129860305
10	0xbfd71e435327c049	-0.3612221061766872
11	0xbfd94e0801674132	-0.3953876508430937
12	0xbfcc9b110c99a3e4	-0.2234822570347027
13	0xbfbee4692be5a3ad	-0.12067277261452487
14	0x3fb3b9032cc7d43a	0.07704181521678857
15	0xbfdbbc575925954e	-0.43337043481581794
16	0xbfaf571490e68a08	-0.06121124523930993
17	0xbfc4ab1e8db2d238	-0.16147214812157684
18	0xbfb4dc0faa972ed9	-0.08148286738213119
19	0xbf9896eeaadee589	-0.024013261012191065
20	0xbfb22b5f026679af	-0.07097429092980322
21	0xbfaa82d413405c00	-0.05177939162256706
22	0xbfce7bcc0492ace2	-0.23815298293388937
23	0xbfc53ef6144dd417	-0.1659839247837744
24	0xbf9f54246ce5e730	-0.030594414850816765
25	0xbfa3a2ecf58ade35	-0.0383523988470497
26	0xbfc9b6fefeb3a3ba	-0.20089709698302533
27	0xbfbf613d3d66db1f	-0.12257750271861
28	0xbfd0c82c84e307ec	-0.2622176454279941
29	0xbfb28d1acb9de68c	-0.07246558638680706
30	0xbfa9af802f41db43	-0.050167089241702566
31	0xbfac36d2dfec5039	-0.05510577186046856
32	0x3fb798a0988007b5	0.0921726581873646
33	0x3fb48e2497f723cf	0.08029392919628651
34	0x3fb7d88d7dcf8655	0.09314808198498643
35	0x3fb1a4d336757a22	0.06892128066599715
36	0x3fb1f33fabd111d6	0.07011793083899617
37	0x3fb16eb59d057b8d	0.06809554179697681
38	0x3fb5951adeb0887d	0.08430641114003552
39	0x3fb34af76a478f70	0.07536264748301646
40	0x3fb7abb890511c80	0.09246400378570918
41	0x3fb43b21e0570f85	0.07902728774121044
42	0x3fb7697a8ea596df	0.09145322783077912
43	0x3fb3b6036d202ac0	0.0769960538311052
44	0x3fb365c58fa8c418	0.07577166325860707
45	0x3fb600291af46c4e	0.08593995006633401
46	0x3fb7d6e5a88d9340	0.09312281956733859
47	0x3fb0813163ce13c4	0.06447132765431635
48	0x3fb1f6e2cc339b8c	0.07017343030348239
49	0x3fb0d9647ba42b43	0.06581714647852004
50	0x3fb0af1258a489b6	0.06517138160828648
51	0x3fb89bacea1542be	0.09612541880529599
52	0x3fab1eb17c28de1d	0.052968546301084475
53	0x3fac7bb44cfd5b74	0.05563128890815153
54	0x3fb21927749d00f9	0.07069632145885753
55	0x3fb2b761b93c059b	0.07311068317723939
56	0x3faf2f9bb83258b9	0.06091009734625303
57	0x3fb4037ed9d7b17e	0.07817833727285081
58	0x3fb0e94da5d8e22c	0.06605992602352079
59	0x3face86ebe3d1949	0.0564608199334083
60	0x3fb49c737809aac6	0.08051225357636857
61	0x3fb17356ffa4d3e5	0.06816619626336225
62	0x3fb02ee76f7a607d	0.06321569892532071
63	0x3fb26502000a2302	0.07185375691382137
64	0x3fb272744978d20b	0.07205893319844152
65	0x3fb337e279e64add	0.07507148243011437
66	0x3fb6cbf99f0f13bd	0.08904991277002146
67	0x3fb3a8d6a5eaeadb	0.07679502058719427
68	0x3fb7ba9bd893cb73	0.09269117391140273
69	0x3fb50285a51f8d15	0.08206973344163189
70	0x3fb4b3d30d289136	0.08086890288592916
71	0x3fb1698dee06e4f7	0.06801688252643943
72	0x3fb69bfd6917b04c	0.08831771674857797
73	0x3fb5fa4397f9364f	0.08584997616090927
74	0x3fb6c07b3c0b77ef	0.08887453285157652
75	0x3fb896a8c62df470	0.09604887808196039
76	0x3fb34ab8d0186680	0.07535891609622958
77	0x3faf2642e4269210	0.06083878550569832
78	0x3fb6f37a73373586	0.08965268433458648
79	0x3fb4a1a674e5aa54	0.08059158662732929
80	0x3fc94b1d040af5c4	0.19760477731135329
81	0x3fc9bdd70c3205b6	0.20110595794180391
82	0x3fc882b1f3e69d83	0.19148849877568005
83	0x3fc7f162a069fcb5	0.18705399353709642
84	0x3fca01536aea99b6	0.20316546173598987
85	0x3fcab80ae32786ff	0.20874153224490752
86	0x3fcb3308bd9c4ad7	0.21249493845296882
87	0x3fcb4235a76ad7f1	0.2129580562083784
88	0x3fc91f29e9ace2f9	0.19626354131630544
89	0x3fc8e5dbbdbde5e8	0.1945147205804425
90	0x3fc9b8ef68f57870	0.20095627427048468
91	0x3fca25c47681143c	0.20427757059420226
92	0x3fc8f744311b7e3f	0.19504597089597728
93	0x3fca1205acd0a11d	0.20367499292593375
94	0x3fc8131811370532	0.18808270302364744
95	0x3fc937ee192eaf96	0.1970193503342414
96	0xbfdfadfae3d92353	-0.4949938988761932
97	0xbfebb57739bc6354	-0.8659015777258028
98	0xbfd9e54a66ab0b10	-0.4046197893732577
99	0xbfe68fab6717957e	-0.705037785865599
100	0xbfe1f0ddc9084532	-0.5606526304638122
101	0xbfe74231c32e79d8	-0.7268303691997131
102	0xbfef4991fab8c453	-0.9777307412060828
103	0xbfec06ad7bab1a08	-0.8758151450536511
104	0xbfe818bc37364e5b	-0.7530194357263541
105	0xbfdd5002a6895ffd	-0.45800844443647276
106	0xbfecbdfb8b505303	-0.8981912346813207
107	0xbfe82dde66f9f19f	-0.755599213720007
108	0xbfefe8eb6eaab188	-0.9971825753651027
109	0xbfe07eab129aec95	-0.515462433183887
110	0xbfe3b2423db68816	-0.6155101018268876
111	0xbfe6786bf353486c	-0.7021999123046618

weight f8 [3, 16]
0	0xbfd16c41220515fa	-0.27223232576611134
1	0xbfd2214606a0c0fc	-0.28328085562954164
2	0xbfd21a070a28fb6a	-0.2828385924548714
3	0xbfd20c12b6c2f252	-0.2819868836193439
4	0xbfd240424fa22a46	-0.2851720597906574
5	0xbfd19cdb09331e2c	-0.2751987066116921
6	0xbfd199900371c84e	-0.27499771438954645
7	0xbfd294fd201cad8e	-0.29034355293216485
8	0xbfd14aae06c0f653	-0.27018309268519153
9	0xbfd16fac6e0deeba	-0.2724410128355249
10	0xbfd255a2582beec3	-0.2864766942072771
11	0xbfd1db1fdbd79596	-0.2789992949386372
12	0xbfd1dafc9fdaa8b3	-0.2789908944201997
13	0xbfd1f4fafa0ce7c8	-0.2805774156473686
14	0xbfd2ca4a8e3debad	-0.293596877010425
15	0xbfd0e67db14c2aa3	-0.2640680533810757
16	0xbfd195011f47d063	-0.27471950583208676
17	0xbfd1867c3ed12f8e	-0.2738333333443216
18	0xbfd22ba8372d9b0f	-0.28391461742869323
19	0xbfd1bd10afe50946	-0.2771646230431951
20	0xbfd1c6ee633667ae	-0.2777667969581853
21	0xbfd24b61828782ae	-0.28585088488584176
22	0xbfd2295b95548503	-0.2837742765714923
23	0xbfd1b9da537232cf	-0.27696855687171945
24	0xbfd1331e0240ceda	-0.2687449476245384
25	0xbfd194b6b7057c3d	-0.27470176575838307
26	0xbfd2629f9a7d35e5	-0.2872694977457669
27	0xbfd2cea26eb8c104	-0.2938619691149287
28	0xbfd2fcf5119e2c0e	-0.29668928833479036
29	0xbfd23ff0134bd787	-0.28515245327377453
30	0xbfd0398f6b28ba65	-0.253513197562745
31	0xbfd2b4c363bd4cd4	-0.2922829126375295
32	0xbfd20bc6e56925e5	-0.281968807252808
33	0xbfd199bcf6295c19	-0.27500843085494037
34	0xbfd22b06cf682ce3	-0.28387613539298523
35	0xbfd286e794b5bfec	-0.28948392412621504
36	0xbfd27ff97b62492e	-0.28906094598018484
37	0xbfd2266bc200146b	-0.2835950274023335
38	0xbfd19aeee4451972	-0.2750813702772553
39	0xbfd2b8e48c394927	-0.29253495877959995
40	0xbfd2b8bc54376931	-0.29252536987555106
41	0xbfd29bb09830a1c1	-0.29075255262662486
42	0xbfd0adccc9aff5e5	-0.2606079072573649
43	0xbfd186e2b84bdb22	-0.27385776517569316
44	0xbfd1be9cfebc3567	-0.2772591102264727
45	0xbfd380eb9f6f552f	-0.3047436768514044
46	0xbfd270fc97cb1f8e	-0.2881461603506005
47	0xbfd1f2b8b1e7e83b	-0.2804395425188237
