Retweet/RetweetNetsV3/TrainNet_ep8V2.pt (torch, 23465 bytes, 6 tensors)

scale f8 [3]
000000 76 f4 4a 47 44 dc e1 3f de 4d bf 87 2b bf e1 3f
       0.5581380264699323 0.5545861865343189
000010 13 31 9e dd b2 1b e1 3f
       0.5346311882472342

weight f8 [112, 3]
000000 f0 d5 e6 63 63 09 c5 3f 14 84 46 f8 f8 64 b8 3f
       0.16434900644314565 0.09529071866428779
000010 73 41 40 a3 ec 79 97 3f f2 b0 02 ae 4e 29 de bf
       0.022926042045641148 -0.4712712001153384
000020 4a a3 de bd f3 df d2 bf 13 aa ed 55 0c 73 c0 bf
       -0.29491895238839005 -0.12851099200936797
000030 0c 4e bb d3 83 0e bd 3f 9f ed 51 c0 33 7c a7 3f
       0.11350273055295917 0.0458694622293152
000040 b0 96 77 fd d6 5d b1 3f 64 5f 71 d6 6c 38 e4 bf
       0.0678381317917125 -0.6318878353440422
000050 bb ff 22 4e 6b 53 e2 bf 39 88 e8 56 6e 1a d6 bf
       -0.5726830030544002 -0.3453632210458895
000060 d3 4f f8 33 03 20 95 3f 3a 04 61 d6 f5 38 9f 3f
       0.020629930541033858 0.03049072380986593
000070 1c c8 f6 62 b9 36 51 bf 03 cd e1 e7 94 8a e3 bf
       -0.00105064491422669 -0.6106667069383608
000080 18 e0 91 8f 83 81 e1 bf 3d 3c 11 98 00 f5 d2 bf
       -0.5470598033998639 -0.296203754904983
000090 db 4e ac 70 30 a0 c5 bf 96 af 14 ec 1e 89 b9 bf
       -0.1689510870133891 -0.09974854720775136
0000a0 15 e8 1f 2f a0 bb 9a 3f f4 16 7d 44 ef 83 db bf
       0.026106360317477668 -0.4299276512941639
0000b0 3e 8c 1d e6 1e fb ca bf c8 83 f9 6d 18 d5 b7 bf
       -0.21078859554390478 -0.09309532818725963
0000c0 fb e6 ee 90 4d 52 dd bf 30 8c 9b c4 0c 89 d8 bf
       -0.45814837602266295 -0.38336486053430274
0000d0 43 8b 4a d0 13 75 cc bf 81 d6 95 b7 81 66 cd 3f
       -0.22232291861026895 0.2296907564556712
0000e0 72 db 34 c6 86 52 d1 3f 1c 2d f6 00 18 15 c0 3f
       0.2706620154962628 0.12564373061136613
0000f0 2e e8 e7 9b 10 c2 d9 bf 59 76 89 7f 1b 66 d0 bf
       -0.40246978020843727 -0.25623214201718764
000100 1a 08 b8 b5 91 46 b0 bf 10 47 9e ab 31 4b e1 bf
       -0.06357680021758974 -0.5404289581221935
000110 54 df 69 82 15 eb dd bf e6 18 17 cd 1c 72 cc bf
       -0.4674733899660073 -0.222232437268935
000120 41 72 7e 5e 32 6e bf bf f8 92 74 94 c1 a7 bf bf
       -0.12277521903019652 -0.12365350603483793
000130 b7 82 5d fc c3 7c b1 3f 0b 80 3c 7f db c6 c1 bf
       0.0683100215078508 -0.13888114655219427
000140 6e d5 60 56 44 d3 ce bf 05 44 1d 85 a2 b4 cb bf
       -0.24082235543907465 -0.21645003795359244
000150 d9 30 d5 21 d1 73 d5 bf 19 d1 d6 80 7a 7c d4 3f
       -0.33519390396101084 0.32009756643243886
000160 ee 00 61 88 b8 6f b1 bf e9 34 f4 7f 25 55 e2 bf
       -0.068110974593768 -0.5728938578701249
000170 fd 8f fc 0e 51 0a e2 bf ea b0 19 fc 5b 48 d4 bf
       -0.5637593548494803 -0.3169164621274506
000180 3c be 66 a8 79 e0 c1 3f 7a 35 cf f0 36 dd ca bf
       0.13966294024202053 -0.20987593420288048
000190 7b e9 b2 4a 75 dc c1 bf 3d e3 4d d4 53 11 b8 bf
       -0.1395403494587518 -0.09401439603051372
0001a0 5d fc 6e a1 bf 4c c9 bf b5 e5 a6 67 e5 ac e2 bf
       -0.19765468008515344 -0.5836054825260165
0001b0 36 ba b0 c2 a6 bb bb 3f 22 6e b7 40 71 62 cb bf
       0.1083320832555977 -0.21394172344194923
0001c0 a0 cb 1d c1 e8 89 b2 bf 4e 73 87 77 d1 d2 93 3f
       -0.07241682734256338 0.01935889522598027
0001d0 eb 3d ac af af 5e 9c bf 4b e2 5b a5 c1 c7 c8 bf
       -0.0277049494716816 -0.19359608244100665
0001e0 7e 25 dd 83 c2 e7 a9 3f 38 95 a7 40 2a 18 c9 bf
       0.050596312138234886 -0.19604995877231501
0001f0 7f 3d c2 dd b2 a2 c8 bf b2 b1 82 4a c6 8e a2 3f
       -0.19246517017425543 0.036245533557436885
000200 85 1e 42 32 28 2b c5 bf a1 bc 15 3e 6c 35 d2 bf
       -0.16537954763429155 -0.28451067030887073
000210 39 3f 00 29 02 22 b6 3f 56 0a e5 60 b2 64 de bf
       0.08645642758369555 -0.47489604437229127
000220 f4 e9 fd 34 9c 37 df bf 8e 56 b9 39 e4 a3 b4 bf
       -0.48776917624459704 -0.080625785916107
000230 1f 25 2c cb c1 5b c2 bf b5 7b f4 92 51 a3 e1 bf
       -0.14342520161179892 -0.5511863584723559
000240 a7 c1 56 b1 b5 a8 b8 3f f0 bf ab 92 bc 1f 92 bf
       0.09632430629313281 -0.017699190570908685
000250 3d 11 c2 d6 da ad d1 bf cf e5 d6 8e 73 d2 b3 3f
       -0.27623625729053797 0.07742998349467388
000260 d9 1a 44 87 03 2f bd bf 4e d1 d9 9f a5 39 c3 bf
       -0.11399862339394974 -0.15019674592225346
000270 f4 4c 4a 59 cc 02 b2 bf 82 de 17 3d 45 fb d7 bf
       -0.07035519771516247 -0.3747113319982206
000280 fd 7e e0 40 3b 32 e2 bf 89 0d b9 01 f4 7a bf 3f
       -0.5686317698600473 0.12296986620008545
000290 31 aa 56 37 14 8b d8 bf 07 c2 7c d2 de db e2 bf
       -0.3834887066283584 -0.5893396483498358
0002a0 e7 81 1e de 78 8a c2 3f c7 6e 37 73 ad 1b e1 bf
       0.14485083432829457 -0.5346286058733875
0002b0 25 3e 28 76 60 58 d3 bf e4 19 ef 6f 35 ca af 3f
       -0.30226909197605983 0.06208960524923038
0002c0 94 9b 6a 3e e3 57 c1 bf 31 13 43 98 b3 28 c9 bf
       -0.13549461887052117 -0.1965546124903539
0002d0 2c df f8 a2 90 c7 d7 bf 91 60 c6 d1 d5 d9 be 3f
       -0.3715554801487879 0.1205114018579272
0002e0 69 36 e2 d1 19 2a c8 bf 8f 60 2f f1 20 eb c4 3f
       -0.18878481624817603 0.16342555786718946
0002f0 17 de e4 ce 23 6c d2 bf 42 24 a8 c0 63 2d da bf
       -0.2878503342103342 -0.4090203648962111
000300 5a 8b 50 2a f3 a0 b3 3f d7 ab 72 3c 3f 82 b4 3f
       0.0766746500308221 0.08011241174487736
000310 5a aa 3f a5 e2 7a d5 3f c7 8d 0a 14 16 b4 ab 3f
       0.33562532556121527 0.054108323999823286
000320 bf 9b ba 01 5b 0d bc 3f 76 d7 85 64 da 53 d6 3f
       0.10957878868303704 0.34886798683816467
000330 eb 23 e6 f8 27 36 b0 3f 71 0f d9 3b ce 67 b9 3f
       0.06332635714183225 0.09924019776468442
000340 26 e3 46 12 5a 1d d6 3f e0 96 30 be 40 78 b1 3f
       0.345541494225062 0.06824116366677968
000350 91 1d 50 48 b9 b9 ae 3f 0e 90 c2 73 bd 46 d3 3f
       0.060010709836258454 0.3011926298588613
000360 c7 77 d9 6b ac 46 b5 3f 62 b4 80 d0 47 ed b5 3f
       0.08310964234394112 0.0856518634834216
000370 64 f3 77 78 1d 66 d2 3f b4 f1 d0 e6 00 97 ad 3f
       0.28748261227138117 0.05779269044475957
000380 4c a7 93 fd d9 2d a7 3f 0a 96 ef 69 5c e9 d3 3f
       0.04527169437808584 0.3111182245760068
000390 7e c5 7f 9e ec 12 b3 3f 6d 66 5d ec e1 32 b6 3f
       0.07450751180274115 0.08671390553117826
0003a0 d9 a1 8a 36 aa 3b d6 3f b9 2b 52 bf 39 49 b1 3f
       0.34739165617295736 0.06752358361170153
0003b0 69 b1 0a b3 15 0c b0 3f bb e8 e8 7c 35 6e d4 3f
       0.06268439885270073 0.31922661970351
0003c0 2a b6 9d d8 4e 03 b2 3f 73 10 1f a7 ca 0c b5 3f
       0.07036297596433685 0.0822264345179649
0003d0 09 07 e6 8a f9 bb d5 3f 6c 53 41 b2 22 e6 b1 3f
       0.3395980698042967 0.06991783954556546
0003e0 b5 72 b3 d6 3b 50 bc 3f 87 0b 5e f7 31 a8 d5 3f
       0.11059926978800656 0.33839081913918573
0003f0 fb d1 cf 01 f9 3a ae 3f fe 6a 7f 9a 16 ba b7 3f
       0.05904367587200806 0.09268323203961512
000400 47 d8 d4 f6 66 58 d5 3f de 48 a7 65 26 b5 b3 3f
       0.3335206423247467 0.07698287946485347
000410 e9 65 3d 9d d7 4e b1 3f 81 f9 cd 77 18 08 d5 3f
       0.067609287155754 0.32861911487261614
000420 9d b5 d4 07 af c7 b0 3f ae b8 a3 e6 24 61 ae 3f
       0.0655469316595458 0.0593349010031131
000430 1c ab 3c ef 33 28 d4 3f 46 d0 fd 65 3e 39 b2 3f
       0.31495378840433985 0.07118597021127568
000440 f8 15 a0 e5 c9 68 b6 3f 24 5a 71 15 3f dd d3 3f
       0.08753644805991445 0.31037880987188005
000450 4d bd 1c 86 82 30 b2 3f 06 19 b3 aa 84 22 b5 3f
       0.07105270170426543 0.08255795638533323
000460 87 37 59 19 71 d2 d5 3f b7 af 93 8d 4b 6e b0 3f
       0.34096934771957205 0.0641829701086739
000470 b2 4a c3 a5 38 c5 b4 3f 2f 43 fe 6f 7d 7c d4 3f
       0.08113435790009296 0.32009826599919483
000480 7a 07 2e 98 79 06 b3 3f 28 67 c9 eb 0a ec b0 3f
       0.07431755032851398 0.06610172516357393
000490 67 ea 39 54 c7 3a ab 3f 9d 5b cf 06 60 27 ae 3f
       0.053182820350191666 0.05889415820245534
0004a0 67 b3 a1 75 e0 5b b0 3f ee 23 eb d6 cf ce ad 3f
       0.06390192863336851 0.058218474373980075
0004b0 db 15 ee 92 d3 34 b2 3f 7b c2 b0 53 47 86 ac 3f
       0.07111856782110897 0.05571196457492974
0004c0 60 b5 45 59 7b 04 b0 3f 10 d4 d0 4a 67 ec b1 3f
       0.06256838731288417 0.07001348091655779
0004d0 f1 a8 07 19 31 7d a8 3f 10 77 24 51 c8 30 a9 3f
       0.047830137544069624 0.04920030584820101
0004e0 19 54 c1 f5 c1 cb b3 3f 8b 56 36 13 55 a9 a8 3f
       0.0773278450954681 0.04816690310978541
0004f0 48 c8 49 5d 28 77 a8 3f 34 ad b2 39 7d d5 ac 3f
       0.047784100902291515 0.056316293042380755
000500 29 db 46 d3 8e 3d b4 3f e7 5d 61 fc c2 d5 97 3f
       0.07906429918407966 0.02327637353331893
000510 90 c0 63 59 39 a3 ae 3f e7 99 2d 4b 78 51 b3 3f
       0.05983905044729554 0.07546188197520785
000520 b3 4a f9 4c 12 6f aa 3f 8c 02 4f 53 3e f2 ad 3f
       0.05162865819570097 0.058488795918951814
000530 22 0c 9b c5 9b cd b8 3f ca 48 bf ff c5 ec b0 3f
       0.09688733648640427 0.06611287587955697
000540 4e 80 d4 eb 73 cd b2 3f 9b 51 f1 fa 25 f1 b4 3f
       0.07344746120043164 0.08180463196305825
000550 65 80 ee bb 36 91 b1 3f c1 31 ac 23 3a 63 b3 3f
       0.06862203682112662 0.07573283549226685
000560 b3 11 98 9b e0 a4 b6 3f 10 b8 5e 6f 39 29 ad 3f
       0.08845332907373553 0.05695514187333128
000570 c5 a6 18 0f 30 1c ac 3f ad 2a df ca 64 41 b2 3f
       0.054902555315789615 0.07131032898829899
000580 f0 e3 38 68 66 85 a1 3f 7e 04 f0 00 62 1f ac 3f
       0.034220886442604015 0.05492693196721009
000590 47 0e 88 21 ae 94 b1 3f bc 84 66 f1 ae 0d 99 3f
       0.06867492979659416 0.02446626041785714
0005a0 a2 bb dc e1 df 30 b2 3f a9 03 8a dc 67 5d b0 3f
       0.07105826629843517 0.06392525800948924
0005b0 c6 7c ff ee 16 7b ae 3f 0f 05 c5 0b b6 8b b4 3f
       0.05953284900146509 0.08025682246536213
0005c0 99 f1 6e e7 17 55 b1 3f 03 1a 94 9d 0d 70 ac 3f
       0.06770467186192376 0.05554239796224538
0005d0 c5 8a 21 7b 59 6d b5 3f 95 98 95 19 50 a0 b0 3f
       0.08369979148987301 0.06494618057840491
0005e0 1b f6 86 c3 f0 58 ab 3f dd 17 81 e3 4a 74 b2 3f
       0.05341293703848412 0.07208698324492908
0005f0 5a aa a6 73 21 2c b3 3f 56 ed e2 1b d9 71 97 3f
       0.07489213059913294 0.022895233466198782
000600 f2 f6 bc 51 3b 4e ac 3f 7d be d7 1f 5f fe b8 3f
       0.05528436062603061 0.09763140227709673
000610 21 e9 fd ba a8 e3 d5 3f fa e8 8c bc 1b 60 b3 3f
       0.34202020893975954 0.0756852469757269
000620 c6 69 a6 fd 87 24 b7 3f 9b 9e bb c8 6d 26 d7 3f
       0.09040117209079943 0.36172051050969295
000630 27 97 5c f6 72 27 b4 3f b5 62 83 b2 90 6d b2 3f
       0.07872694506349075 0.07198433264000921
000640 c5 55 ce 25 75 23 d6 3f 5d 06 d2 57 21 2f b4 3f
       0.34591416065208264 0.07884415048649758
000650 80 91 fe 2f 27 04 b7 3f aa e3 27 eb 35 56 d3 3f
       0.08990712091196507 0.3021368786281139
000660 58 60 e4 05 a9 e1 af 3f c8 6b e1 df 91 3f b5 3f
       0.062268526047944917 0.08300124851068269
000670 a2 87 29 10 15 15 d5 3f 58 6f 6e e4 82 a9 af 3f
       0.3294117601236569 0.06184014357060502
000680 44 29 c3 f2 bb 25 b9 3f f6 59 02 96 dc 28 d5 3f
       0.09823202778639933 0.3306189980443429
000690 d6 35 2a d6 e3 6f b4 3f 67 fe b3 71 94 4a b6 3f
       0.0798323057044493 0.08707549835161786
0006a0 82 e4 c0 37 eb 6c d5 3f da aa f9 e9 5b a7 ac 3f
       0.3347728771655697 0.0559643481363616
0006b0 be de b1 99 27 ce b7 3f 58 f6 c2 b6 ee 42 d4 3f
       0.09298942091288162 0.3165852341443034
0006c0 c7 3f 0e b5 e6 0a b0 3f 26 6a 32 d7 1c ad bc 3f
       0.06266633911422935 0.11201648954230645
0006d0 d8 ef 13 ae 6d ac d5 3f c2 fb 89 07 3a f7 b0 3f
       0.33864919662278004 0.06627237972314418
0006e0 c3 b3 76 0f 49 51 b6 3f 20 ed d8 2e 57 a0 d6 3f
       0.08717781665354978 0.35353641104639344
0006f0 87 85 67 90 59 92 b0 3f 65 da 65 31 77 6c b8 3f
       0.06473312163827503 0.09540505367281467
000700 8a 6b 92 c5 68 87 d5 3f c5 bc 7a 65 d1 78 af 3f
       0.3363897256291969 0.06146864284289103
000710 85 fa 47 de fc f5 a8 3f 3b ab 3b fa 95 a5 d4 3f
       0.04875173772233147 0.32260655819725387
000720 26 84 f0 8a b3 a1 b0 3f b9 d2 87 59 47 d0 b5 3f
       0.06496736661985433 0.08520933090023676
000730 28 6f 58 8f c6 98 d4 3f b8 19 c3 96 eb 9d b2 3f
       0.32182468412951204 0.0727221720763741
000740 0e 5b 29 56 30 4d b6 3f 50 eb c8 0d b8 94 d3 3f
       0.08711530784180985 0.3059520849816879
000750 ed 64 49 18 36 a6 b0 3f 31 05 b3 67 38 7b b6 3f
       0.06503618328987999 0.08781769305916921
000760 1f 98 6a c3 66 e3 d5 3f de e6 90 da c7 af b3 3f
       0.34200448115950793 0.07690095029911556
000770 0d d2 9c 90 e5 94 b2 3f 62 d0 00 b1 45 9d d4 3f
       0.07258448391514367 0.322099135260265
000780 f5 33 fb 60 a9 ef c8 3f 5c a6 21 63 d9 26 c9 3f
       0.19481389270222818 0.19649808254625867
000790 43 84 6c f0 04 35 ce 3f 20 64 f9 fe 47 bc ca 3f
       0.2359930204338828 0.20887088727866487
0007a0 7c 89 1e f4 49 2f c9 3f 41 10 a4 7e 5c 0b cc 3f
       0.19675564212691288 0.21909671958576563
0007b0 da e3 b5 04 c6 eb cb 3f 2a 77 e5 67 5d 68 c9 3f
       0.21813273649220727 0.1984974629694361
0007c0 e3 08 b5 d1 2a 4b ce 3f 92 ac 03 23 8f f9 c9 3f
       0.2366689228020454 0.20292844018635897
0007d0 a0 19 33 24 60 20 c9 3f 42 e5 73 07 5b 51 ce 3f
       0.19630052344855375 0.2368577753439159
0007e0 08 a6 72 85 74 c0 c9 3f c5 a6 c7 f9 cf 0b ca 3f
       0.20118576541908362 0.2034854859951364
0007f0 7c d3 b9 56 ad 51 cb 3f 5f fd cb 90 1d 8d c8 3f
       0.21343008742010372 0.1918065030113025

bias f8 [112]
000000 61 56 6d 02 41 f8 c6 3f 05 d1 7c 9e fd 80 d8 bf
       0.17945110910902698 -0.3828729675035592
000010 72 20 41 dc 24 5d b6 3f 88 35 27 88 97 84 e5 bf
       0.08735876443199844 -0.6724355372659128
000020 62 6d 8e 20 cf ec 99 3f 7e 53 f1 ef 9e 2e e3 bf
       0.02531741749008399 -0.5994410215740655
000030 89 32 ea 87 fe f1 c4 bf 3c 5e 95 78 99 72 d6 bf
       -0.16363507877794728 -0.3507445981572095
000040 cd d0 07 86 f8 36 e1 bf fb 61 56 8e 68 36 d7 3f
       -0.5379603021415506 0.3626958265317907
000050 a1 69 84 ac cb 74 d4 bf 56 33 58 d8 05 80 e0 bf
       -0.31962863776575473 -0.5156277871588866
000060 b0 3d bd 0b 4e a1 c4 bf 93 0e 45 3e ac 03 d4 bf
       -0.16117263386921143 -0.31272417145758274
000070 86 93 1a af d8 d1 a4 bf 9f f2 b8 b2 bb 6f e3 bf
       -0.0406635011434338 -0.6073893061325925
000080 91 0f 12 3f 82 e1 b2 bf 8e 79 5e 97 df 27 cf bf
       -0.07375349082764006 -0.2434043397051479
000090 17 7a 3c 4b 17 51 ba bf f3 4a 5c 9f 3f c0 9e bf
       -0.10279985033819404 -0.030030244924158244
0000a0 14 b5 a8 49 ff a5 c1 bf 48 ad 82 55 63 90 bc bf
       -0.13787833305961128 -0.1115781863942874
0000b0 c5 3d 62 c3 f4 1b d7 bf 87 3f cb 7f 47 6a ca bf
       -0.36108130531735255 -0.20636838664949783
0000c0 84 4d 35 11 ad 43 87 3f b8 ad 0b ab 33 f1 ad bf
       0.01135955055966665 -0.05848084891280386
0000d0 2a e0 13 c1 cc 53 d5 bf 89 4e 0d 2b 20 df c9 bf
       -0.3332397351764508 -0.20212175466678087
0000e0 dd 8e de 32 8a 8f d7 bf 5a 7d 9a ae 5d 5f b3 bf
       -0.36813597648345625 -0.07567391884594113
0000f0 36 7b 1a 36 c6 08 cb bf 52 2b 0a 04 f3 80 c1 bf
       -0.21120526925820976 -0.1367477197385037
000100 64 12 61 93 4e 98 bc 3f 91 bb c4 cc 63 db bb 3f
       0.11169901941418342 0.1088163733408989
000110 23 9a 57 42 5c 3b b9 3f cd c1 f5 63 46 05 b9 3f
       0.09856201762850296 0.09773673954419522
000120 3e 70 2e e4 61 b3 bb 3f f0 5a bc 29 a0 22 b9 3f
       0.10820590802035299 0.09818459528865353
000130 f6 c3 cf b8 9e 40 bf 3f 8c 36 64 d7 e0 ca b8 3f
       0.12207977306367454 0.09684567698078633
000140 a5 e9 f4 bf d1 b7 be 3f 4d 67 ba c1 b6 43 c0 3f
       0.11999236046259527 0.12706646403676772
000150 e2 f0 b1 49 be b0 bb 3f f3 3c 95 38 0e 12 b8 3f
       0.10816563891598066 0.09402550584239915
000160 9a ee d6 ce 44 f1 b4 3f b5 c6 fc e8 29 5e bd 3f
       0.08180646943849937 0.11471807420891873
000170 08 bf 8d 82 43 3d bf 3f 65 4d 8e 1d 2c e2 b4 3f
       0.12202856004091356 0.08157611581400699
000180 4c 78 81 b5 c7 db b5 3f 3d fb 0e 52 b1 2c ad 3f
       0.0853848283890965 0.056981602923306764
000190 18 35 ff 32 54 86 b3 3f 9a 21 b0 05 b9 a5 a8 3f
       0.07626844639817809 0.048139364189469805
0001a0 0c 0b 96 51 5c 3a ad 3f 81 4d 84 e6 e9 0a b1 3f
       0.05708588119434496 0.06657277944423436
0001b0 b9 88 9f c6 0e 93 ad 3f 34 4f b4 31 dd 1e b4 3f
       0.057762586351388596 0.07859594787106233
0001c0 66 27 42 bb 44 9d b0 3f 79 9e 6a 76 67 70 b3 3f
       0.06489972659815421 0.07593390122439726
0001d0 8e 73 78 ae d2 7f b0 3f 74 bd 57 19 2d 1f b3 3f
       0.06445042380842222 0.0746944605705176
0001e0 27 3f e2 09 ed 95 b2 3f d0 07 e2 2e 9f b3 a7 3f
       0.07260018817237023 0.04629228064824498
0001f0 ef 2c 0f 43 7b 1b b1 3f 26 c2 14 90 c8 64 ab 3f
       0.06682558428945005 0.053503291690848706
000200 90 cd 42 f5 f6 32 bf 3f c8 1b 70 7e 92 94 bc 3f
       0.1218714093000044 0.11164203249801041
000210 60 5f 2c 5d 84 a7 ba 3f bc bd f1 73 65 93 ba 3f
       0.10411860728015432 0.10381158905669613
000220 19 be 08 e8 58 56 ba 3f ef f1 4e ec 98 f8 ba 3f
       0.10288005509277588 0.10535579461333787
000230 c3 88 55 a6 30 d0 ba 3f 2f 07 3d 44 20 93 b8 3f
       0.10473922787562899 0.09599496522880878
000240 76 43 ab 52 00 fb b9 3f 21 c0 2f 1b 4e 0e c0 3f
       0.10148622530256354 0.12543655707804738
000250 cd e8 35 ec 13 79 bb 3f 79 f4 1c ce f1 ad b9 3f
       0.10731625096187543 0.10031043321665035
000260 26 7e f5 05 5c 22 b7 3f b4 f0 9c 2d 16 5a bb 3f
       0.09036803384287193 0.10684336293792535
000270 08 cf c8 2e e8 8e bd 3f 42 c5 d1 4c 28 04 bb 3f
       0.11546183721730696 0.10553218722795513
000280 e7 18 c9 58 6b 13 c9 3f 54 2c fd d8 39 8d ca 3f
       0.19590513072234403 0.20743487448848674
000290 8f 8a 4e 4c 48 ed ca 3f c7 62 9e 96 60 f1 ca 3f
       0.21036628461759618 0.21049125055721715
0002a0 3e e1 df d2 ef a8 c7 3f c6 cf 86 34 5a c0 cb 3f
       0.18484304234130805 0.2168076282956674
0002b0 0c 63 53 28 c7 ee c8 3f b1 20 21 22 49 29 cc 3f
       0.194786925020502 0.2200099388740049
0002c0 a9 4a 2e 63 ef 95 cb 3f b8 33 9d 3a f0 56 ca 3f
       0.21551315634549909 0.20577814924254567
0002d0 a5 a1 a1 04 07 e7 c8 3f c0 23 81 f4 95 e1 c8 3f
       0.19455039716855285 0.19438433111852582
0002e0 2d e9 9b 86 f7 c5 ca 3f f8 2e 0f a5 79 86 c9 3f
       0.2091664702673567 0.19941635665451662
0002f0 d6 1e b5 d4 1c 93 ca 3f 0c d8 29 df c6 66 c9 3f
       0.20761452089413152 0.1984490003266618
000300 ce 23 b2 ac 34 7e e8 bf e4 58 95 13 48 4b f1 bf
       -0.7654059765783303 -1.0808792843795851
000310 b6 62 24 b2 e8 3c e4 bf 4f 13 23 d1 f5 75 ea bf
       -0.6324351767862797 -0.8268994412143033
000320 8c cd 5e 92 94 1a f0 bf 80 36 2e f3 53 13 ed bf
       -1.0064893453207757 -0.9086093663806452
000330 6b 79 b6 60 9c 9a f2 bf f0 36 01 c8 41 95 f1 bf
       -1.1627467897265784 -1.0989396870313008
000340 3e 47 6e b4 04 fc ec bf 03 46 f5 8b 4d 20 ea bf
       -0.9057639621771398 -0.8164432271534569
000350 7b 78 65 03 e8 ef f1 bf 77 f5 37 de eb 10 f0 bf
       -1.121070874468869 -1.0041311912931101
000360 ee 61 07 68 19 0d f3 bf a4 58 28 0c b9 8b e7 bf
       -1.1906980575205313 -0.735806010957067
000370 48 92 a9 93 93 df f1 bf 55 ab fa 9e ec 0b ec bf
       -1.1170840995847744 -0.8764556031286285

weight f8 [112, 16]
000000 6a 72 59 a6 59 e4 cb bf a8 bc 4c af 44 fc dc bf
       -0.21790619490174673 -0.4528972350989968
000010 90 a2 5f 6e a6 00 c9 bf 8c 44 22 ad 35 4e ad 3f
       -0.1953323401387661 0.0572373174519579
000020 00 a3 b7 26 3f 44 c7 bf 65 26 b7 6a fb 15 b1 bf
       -0.18177022352690386 -0.06674167018277329
000030 15 31 e8 75 ae e0 dd bf 9c c4 24 fa 5b 26 df bf
       -0.4668384696422135 -0.4867162649926031
000040 84 6e a1 83 46 bc ab bf f3 af fe 5f 4a 74 cc bf
       -0.05417080265825994 -0.22229890525102255
000050 3f ed 21 36 0a fa dd bf a4 5a 3b da 1f e0 c5 bf
       -0.4683862236631348 -0.17090223461010112
000060 26 3d 4e af 7b 21 da bf 30 ff c6 c4 06 46 bc bf
       -0.40829364890756137 -0.11044351867803637
000070 32 2a a1 5d 68 9c cc bf 85 67 f0 71 01 1d a0 bf
       -0.2235231835532701 -0.031471295507983256
000080 a9 dd 81 f0 d1 af ee bf b5 84 42 49 07 0a dd bf
       -0.9589624116332988 -0.45373708872109414
000090 92 bc bb 99 bf 36 ee bf 3c 1e 1b 62 1e 4f e7 bf
       -0.9441831591228882 -0.7284080425387809
0000a0 65 25 55 3c cc 43 ed bf d0 87 12 02 be 83 e4 bf
       -0.9145260980960016 -0.6410818138576762
0000b0 9e c6 63 43 50 d2 dd bf 0b df d0 3a a3 8c dc bf
       -0.46596151906042305 -0.4460838388799721
0000c0 80 1f 31 dc 4b a4 e1 bf f3 b8 36 4d 69 c2 ef bf
       -0.5513057041762153 -0.9924818523484461
0000d0 a1 6f 0a f3 1f de d9 bf 16 8a 49 66 5a f1 e1 bf
       -0.4041824220128039 -0.560712051181613
0000e0 02 02 51 a6 80 c0 e0 bf 29 44 4d dd 15 53 e9 bf
       -0.5234988449447544 -0.7913922617245862
0000f0 a5 f9 8e af 95 12 ed bf 4a 46 a0 4f b4 76 e4 bf
       -0.9085186413647547 -0.6394902758785943
000100 f4 31 b8 8b 07 ea ca bf 96 ea 2d 89 52 cb da bf
       -0.21026701280824478 -0.41865981480047176
000110 ad 43 72 c0 2a 4f ca bf 25 c9 5a 55 90 ab 81 3f
       -0.20554098507684895 0.008628013233963625
000120 63 b0 e6 c0 84 65 c9 bf 67 39 55 1d 63 3f ae bf
       -0.19841060084343373 -0.05907735570018496
000130 ad 31 33 8b 1e a8 dd bf f9 ec 5a 4e 2c 3d dc bf
       -0.4633861884474538 -0.44123370792267697
000140 66 6a b2 48 c9 1b af bf 5d 3e f3 92 78 ac cf bf
       -0.06075886738218088 -0.24745089698125158
000150 ff db 82 39 ae 76 db bf f8 d6 95 b6 00 e5 c7 bf
       -0.429118686831714 -0.18667611041353616
000160 a1 61 b5 70 c9 83 db bf b6 9d 1b 5e 4a 97 bb bf
       -0.4299186325711393 -0.10777725980334804
000170 67 21 da bd c2 d6 cd bf 0c 5a b1 a4 e8 af a6 bf
       -0.23311647672768318 -0.04431082735452571
000180 c1 c9 29 5a 03 f5 ed bf db f4 55 22 bb 0d d9 bf
       -0.9361588250160865 -0.39146307328321733
000190 40 e3 36 3a e0 eb ec bf 4b 07 1d 2d 86 29 df bf
       -0.9037934433937167 -0.4869094315109705
0001a0 81 85 27 17 a3 6c ec bf cd 56 30 be f2 57 dc bf
       -0.8882613613351823 -0.44286793301703825
0001b0 9f 16 42 fa dc 17 dd bf 6a 23 cb 5b ed ba da bf
       -0.45458149375222406 -0.4176591297551143
0001c0 e4 04 c3 ff c4 47 de bf f1 95 b4 c2 17 4e ef bf
       -0.4731304643319858 -0.9782828142967316
0001d0 6b ee cb 7a 8a de d8 bf 50 e2 3e 17 ec ec d9 bf
       -0.38858282081466794 -0.40508558530885797
0001e0 e2 62 2b cc 20 33 e0 bf 5a 8c e3 13 86 51 e8 bf
       -0.5062412250218495 -0.7599516285375885
0001f0 44 34 ca 40 fb 54 ec bf a9 28 37 91 8f ca df bf
       -0.8853737130572275 -0.4967383306617515
000200 24 57 04 5e ec c2 d1 bf 16 5c 1f 0b 3e ef e0 bf
       -0.27752217465728024 -0.5292043893085772
000210 e1 8f 4b c4 5a 05 d2 bf 98 1b 67 6c 79 a0 c2 3f
       -0.2815768162674868 0.14552228730300665
000220 9d 86 41 fb ee 5b d0 bf 13 ac 88 13 c6 38 78 3f
       -0.255611176840924 0.005913518653453148
000230 09 a3 8b ed 86 ed e1 bf 47 c5 15 92 04 d5 e2 bf
       -0.5602450027045914 -0.5885031560157267
000240 6e 5d ba cf 09 20 97 3f 76 73 7a 72 8e 19 d6 bf
       0.02258315401431104 -0.34530984096073014
000250 81 42 23 4d 36 c6 e0 bf 6a a4 39 d4 e0 c9 c3 bf
       -0.5241958147617681 -0.1545983349090279
000260 3e ca 7e c5 b7 53 df bf b9 38 fa f3 5a fa bd bf
       -0.48948473250053215 -0.11710136848907639
000270 ab f5 58 3d 40 e8 d2 bf 28 ab 54 00 c0 3a a8 3f
       -0.29542547217337284 0.04732322696721375
000280 d4 80 9c 50 89 06 ed bf 60 e8 74 24 3b d3 d9 bf
       -0.9070478987159967 -0.40351751861783747
000290 6a c3 d8 84 e7 3c ed bf c1 3b 03 84 89 1d e2 bf
       -0.9136846155798655 -0.5661056116458597
0002a0 64 b8 60 1f 31 74 ec bf 97 f9 9d e1 48 79 de bf
       -0.8891835797164842 -0.47615263016623416
0002b0 50 84 b5 88 a5 2e de bf 51 43 dc e0 f0 14 dc bf
       -0.47159708357327634 -0.43877813300155305
0002c0 4d ff 38 fa df 43 dd bf 12 b5 29 b3 c1 76 ee bf
       -0.45726775584988816 -0.9519966601634755
0002d0 35 74 69 20 85 94 d7 bf 4e c2 0f 06 08 8d dd bf
       -0.36843994298198207 -0.4617328700251492
0002e0 22 7c 45 96 dc b6 e0 bf 04 6a 89 08 45 97 e7 bf
       -0.5223219809521462 -0.7372155348523965
0002f0 80 0b 36 9a cf b0 eb bf 18 55 3c 62 22 99 e1 bf
       -0.8653333675323296 -0.5499431532540795
000300 ba 6a 21 89 23 c2 ed bf ee 0d 7c 02 44 c1 db bf
       -0.9299485853510625 -0.4336709999335814
000310 8d c6 2a 42 a3 70 ed bf 9e a8 6b cf 31 6e e4 bf
       -0.9199997227026003 -0.6384514857466177
000320 0e 9e f7 e9 4f 24 ed bf 12 55 94 31 e8 5a e2 bf
       -0.9106826371834715 -0.573597046694575
000330 1e 70 09 14 6c b6 dd bf 54 a1 e2 00 65 08 e0 bf
       -0.46425916630482955 -0.5010247247019302
000340 b7 ac 2e 65 b5 c6 e5 bf 99 3d e5 36 06 87 ee bf
       -0.6805064178673977 -0.9539824554612323
000350 37 38 b9 48 ac 07 db bf e1 e9 93 ac a0 f3 df bf
       -0.4223433218184058 -0.4992448506669956
000360 f7 0d 3f 0e f0 6d df bf 47 c6 1a f4 fe a8 ea bf
       -0.49108506575814154 -0.8331293838184103
000370 0f 2d 2c b3 9c c4 ec bf 11 ec ed 5c ea 28 e2 bf
       -0.8990005015815842 -0.5674945654894846
000380 e7 47 0c 9e 8b 00 ee bf 14 5b 66 bc 09 c7 dc bf
       -0.9375665747522789 -0.4496483173219741
000390 71 20 1b 5a 30 79 ee bf 31 c4 7b 5c 9d 3a e3 bf
       -0.9522935638315301 -0.6009051138227105
0003a0 8c 10 f2 a4 f1 70 ed bf c8 41 d6 2e 59 5b e1 bf
       -0.9200370999901835 -0.5424009241851815
0003b0 5c 31 18 e7 00 95 dd bf 26 88 e5 d9 f1 5b dd bf
       -0.46221945350477767 -0.4587368610283441
0003c0 80 49 d3 b5 bb a9 e3 bf 7b 22 29 d1 d5 e4 ef bf
       -0.614469390037172 -0.9966839871568277
0003d0 84 97 49 7e 78 ce da bf 43 6a 6f e5 a8 56 de bf
       -0.4188519700313622 -0.47403929143698437
0003e0 e6 6d a8 53 0f ff df bf c0 ed 51 53 d5 ca e9 bf
       -0.4999426190349524 -0.8060099246353545
0003f0 5f 49 9f ae 8d ac ec bf 6e 04 d3 09 e9 25 e1 bf
       -0.8960636530485252 -0.5358777229195206
000400 26 62 d7 05 be 06 ef bf fe 59 ab e7 18 90 de bf
       -0.9695730318154048 -0.4775450003047864
000410 8e cf e0 ff 34 03 ef bf fb 86 1a dc 49 b3 d8 bf
       -0.9691414830799532 -0.38594290251249647
000420 60 a1 c5 7d 74 ac ed bf 6a 30 9d db 9d 99 d8 bf
       -0.9273016411289454 -0.38437601515466346
000430 fd 2f 13 79 ce 42 e0 bf bb 42 ea 42 18 b1 e0 bf
       -0.50815509459926 -0.5216180140433474
000440 25 18 fd b7 50 28 e1 bf ce a2 71 08 33 0e f0 bf
       -0.5361713021782221 -1.00346663759608
000450 04 6a 4c 64 32 b8 de bf 7a 7b 56 88 7a 87 d8 bf
       -0.4799924830892055 -0.3832689601348914
000460 9d d2 b7 42 a8 64 e1 bf a3 64 f4 8b 3e bf e8 bf
       -0.5435372641646442 -0.7733452542771783
000470 66 07 e5 72 59 ae ed bf 68 22 74 5e cb 12 d6 bf
       -0.9275328868900317 -0.3448971197508741
000480 e6 a5 b3 58 8a f0 be bf 12 f1 bd 28 3d 02 c3 bf
       -0.12085785546846459 -0.148505825894866
000490 31 73 5d f3 b7 a8 c2 bf 06 a6 06 aa 31 84 b9 3f
       -0.1457738817506651 0.09967337037110022
0004a0 da 26 e2 71 31 4f ba bf 73 b6 b3 68 2e 3e a8 3f
       -0.10277089147907806 0.047349405556684675
0004b0 bc 8b 04 6c 0c 6b ca bf fe c0 a7 1e a6 03 c7 bf
       -0.20639186167053747 -0.17979885575142157
0004c0 30 e3 ab 47 ef 13 ad 3f 66 24 b7 f8 ad aa bc bf
       0.05679271459479762 -0.11197936365273761
0004d0 ee d9 dd a3 3a f7 c3 bf 2e 50 46 3f c7 38 b0 bf
       -0.15598233224200392 -0.06336636824409034
0004e0 28 e5 b9 dd 28 f3 ca bf d9 51 83 ac 29 3e 94 bf
       -0.21054564310524282 -0.01976838221965402
0004f0 df 3a 73 92 dc fe bf bf 9e c2 bc f2 0a 86 a4 3f
       -0.1249826295418006 0.04008516514875747
000500 87 14 8a 5a 8c 29 ef bf ab 49 f7 77 39 a1 de bf
       -0.9738218086573774 -0.4785903617422728
000510 68 0c df 11 68 7b ee bf 52 e9 82 4c 2e 96 e9 bf
       -0.9525642727898118 -0.7995826238978145
000520 d5 b9 fd 5a 3a 25 ed bf aa 86 30 4f 87 e2 e6 bf
       -0.9107944276018382 -0.7151524111433976
000530 84 e5 f1 99 79 06 de bf d3 62 da ee 01 b0 dc bf
       -0.4691452029579397 -0.4482426483678356
000540 77 25 b1 00 ac 44 e2 bf f5 6c e9 02 9c 25 f0 bf
       -0.5708827985301203 -1.0091819871657297
000550 25 ab 64 51 bb 77 db bf b6 05 d8 bb eb 19 e4 bf
       -0.4291828436714005 -0.6281641644310898
000560 39 0e 3f 12 e6 d4 e0 bf b1 eb 2b 9e fe cf e9 bf
       -0.525988612782789 -0.8066399659431821
000570 da 84 ae 06 3f fd ec bf fc 99 1d 31 61 0d e7 bf
       -0.9059138422491302 -0.7203832587518373
000580 41 04 74 bb 6d 7f ed bf 3e 2d 3b 6b 05 c3 d8 bf
       -0.921805254096519 -0.38690314742844467
000590 14 32 f1 cd 30 28 ed bf 1c b8 ee 73 76 7a e2 bf
       -0.9111560842807784 -0.5774490608507707
0005a0 59 6d 73 bf 7c b2 eb bf b6 2e c5 c5 de b7 dc bf
       -0.8655380000376837 -0.4487225467062034
0005b0 5f 43 0e 75 b4 9f de bf 39 79 e1 55 09 bd db bf
       -0.4784976142046186 -0.43341287028114867
0005c0 c5 51 3e 14 d8 0c e0 bf e6 91 0e c3 14 89 ee bf
       -0.5015678782825083 -0.9542335328774783
0005d0 fe dc 46 5b be 0a d8 bf 49 23 31 19 9d c5 dc bf
       -0.3756557361006826 -0.4495613809599957
0005e0 75 44 6c 21 7d 9e e0 bf 77 bb 85 ba c7 09 e8 bf
       -0.5193467762748144 -0.7511938708320106
0005f0 da 1d de f9 0a 7c eb bf 59 0a 2b fa ce 79 e1 bf
       -0.8588919525363352 -0.5461192022415374
000600 00 31 e6 28 b5 36 ec bf 7a 76 36 a2 93 99 dd bf
       -0.8816781805813036 -0.4624985775097695
000610 9e 04 82 20 e2 78 eb bf 56 e6 ac bb f1 8a e3 bf
       -0.8585062632484044 -0.6107109704527811
000620 b9 90 15 e7 09 6c ea bf a0 e4 7d bc 0d 50 e1 bf
       -0.8256883157123617 -0.5410221749763373
000630 b9 14 2a 92 e7 11 de bf 58 ce 5a 3a f0 15 e0 bf
       -0.46984280847420795 -0.5026780261745882
000640 2d 4e d4 ed 98 e1 e5 bf 33 45 3e 22 90 7d ec bf
       -0.6837887425521721 -0.8903275173962925
000650 50 1c f8 14 6b 3b db bf d8 67 19 fd 2d cd de bf
       -0.42550160453578645 -0.4812731715843461
000660 ff 65 0e 69 4d 4a de bf 64 3c ae e7 9d 80 e8 bf
       -0.4732850576343423 -0.7657002949726004
000670 f1 88 cb 38 08 0d eb bf 9e 56 be 03 96 35 e1 bf
       -0.8453408345488055 -0.5377912591090597
000680 48 0b 11 7b a1 05 e1 bf 66 23 c2 d0 d5 bf d4 bf
       -0.531937351574336 -0.3242086924224651
000690 b0 7c cc 55 f0 3e e1 bf 6f eb e9 d7 30 ff b6 3f
       -0.5389329601056456 0.0898314025052238
0006a0 3c 65 6c f8 cc 61 e0 bf 7d cb 46 33 89 b6 7c bf
       -0.5119385578174511 -0.007010017336528726
0006b0 11 df 72 5d c5 b1 db bf 43 0e b1 f9 72 c4 d7 bf
       -0.432725278147232 -0.3713653028864636
0006c0 77 6f 4b 4e 51 4a ba bf 1b 25 0f 20 f1 3f e2 bf
       -0.10269649659625012 -0.5703054071574657
0006d0 22 23 d4 9f 1f 7d d5 bf 5e 6f bc f0 12 4b bd bf
       -0.3357619343592423 -0.1144267881140286
0006e0 97 38 52 ff c5 91 da bf d9 3b 6b cb 91 cf d5 bf
       -0.415147303902708 -0.3407940374863166
0006f0 41 95 da 73 30 ae e0 bf 6b c0 f2 3a 33 f5 a1 3f
       -0.5212633383531867 0.03507385344107735
000700 68 24 e9 ad 08 bf d4 bf 11 49 15 b3 ac 4d cc bf
       -0.32415978415935465 -0.2211204409055161
000710 c8 41 53 7c 55 bc d5 bf a4 a6 6b 52 06 40 c5 3f
       -0.33961999074110993 0.16601637863577878
000720 79 f3 79 d2 66 03 d5 bf eb 7d c9 df 7b 54 bb 3f
       -0.3283326201852144 0.1067578717570467
000730 1b c0 c9 3e 6c 4e d7 bf c0 b6 66 0f c9 24 cc bf
       -0.3641615498700063 -0.21987260105145445
000740 e3 30 7f 67 db 1c b2 3f 07 82 44 cd a1 03 d7 bf
       0.07075282360819161 -0.3595966820303435
000750 26 bd db 02 0f 14 d3 bf 76 45 19 13 cd f9 86 bf
       -0.298099282065737 -0.011218645234438478
000760 2d 17 a7 e5 07 83 d7 bf 8f 21 b7 b1 cd 9c c7 bf
       -0.3673724882795451 -0.18447276284701927
000770 31 b0 23 0e 6d 69 d5 bf e8 ee 12 f3 1b 10 be 3f
       -0.3345596921997212 0.11743330654547501
000780 61 f2 4d 2e 6e 67 ec bf 25 80 4a d3 0c 06 d8 bf
       -0.8876257805237168 -0.37536926874054394
000790 d7 98 24 68 86 07 ed bf 1f e3 76 9e 90 0c de bf
       -0.9071685823480732 -0.4695169017318665
0007a0 98 73 65 6b 53 9f eb bf a3 62 69 ea 7b 2d da bf
       -0.8631989572128189 -0.40902612582935144
0007b0 6d 05 9f 0d b2 06 dd bf f9 c9 78 e0 55 62 db bf
       -0.4535336621302893 -0.427876919947408
0007c0 53 50 86 7e 6a 59 de bf e6 e6 80 6a d3 05 ee bf
       -0.4742075191109098 -0.9382111625811518
0007d0 83 5b fc 04 1c bf d7 bf 9b 3d 7c d9 eb 1c d8 bf
       -0.37103939520732626 -0.3767652152900724
0007e0 ed 97 65 04 32 c1 df bf f5 a0 f5 38 0b 2e e7 bf
       -0.49616671018009023 -0.7243705856790529
0007f0 f0 7a 49 2c 25 55 eb bf 70 cb 29 ae 80 3e dd bf
       -0.8541437020283791 -0.45693985946780113

bias f8 [112]
000000 5d 56 6d 72 33 80 c6 3f ff d0 7c c1 06 cc d7 bf
       0.17578738295803734 -0.3718277825858109
000010 68 20 41 dc 9a 31 b8 3f 86 35 07 eb 99 e9 e4 bf
       0.0945069110613318 -0.6535157766717681
000020 c3 36 47 09 0c c2 a2 3f 82 53 31 62 dc 44 e3 bf
       0.03663671124705339 -0.6021558683229247
000030 79 32 ea 08 10 71 c3 bf 3a 5e e5 cf 82 b8 d6 bf
       -0.15188789782805026 -0.35501165678349234
000040 c9 d0 07 66 ed 9d e0 bf f7 61 a6 9b 5d 75 d6 3f
       -0.5192782395156651 0.35091343116940216
000050 a3 69 84 27 1f 6d d4 bf 59 33 18 3d bd 48 e0 bf
       -0.31916025981049695 -0.5088792985203369
000060 b4 3d dd 41 62 51 c6 bf 94 0e 45 f3 38 e0 d3 bf
       -0.17435863700891974 -0.310560453003043
000070 83 93 1a cf 6b 47 a4 bf 91 f2 78 a1 28 f7 e2 bf
       -0.039607399970271316 -0.5926707414397062
000080 9d 0f 12 ff db 30 b7 bf 8e 79 5e 1c d3 d7 ce bf
       -0.09058928468044632 -0.24096144566733496
000090 1b 7a 3c d0 cf 94 bd bf e8 95 b8 fe 7d eb 83 bf
       -0.11555193742649587 -0.009726509414643439
0000a0 03 b5 28 e0 56 ac c0 bf 4e ad c2 85 0e 8c ba bf
       -0.13025937981857547 -0.10369959607731014
0000b0 c3 3d 62 8f a2 f6 d6 bf 87 3f 0b 64 e4 ac ca bf
       -0.35880340578384223 -0.20840124974210658
0000c0 b8 9a 6a 22 3d 23 7b 3f b8 ad 0b 1b 99 8d ad bf
       0.0066254032196072996 -0.057720932532756064
0000d0 2a e0 6b 6c 97 e5 d4 bf 97 4e 0d 81 a0 09 cb bf
       -0.3265131529619817 -0.21123129178396446
0000e0 df 8e de a6 d0 cc d9 bf 54 7d 9a 4c 82 09 b7 bf
       -0.4031259183486621 -0.08998884554101966
0000f0 34 7b 9a e6 46 1e cb bf 4d 2b 0a 6e 99 1d c0 bf
       -0.21186147937711441 -0.12590330002816544
000100 58 12 61 2b fb 00 be 3f 86 bb c4 e2 8e 76 b9 3f
       0.11720247086584246 0.09946530376758575
000110 11 9a 57 e2 f8 74 bd 3f c9 c1 f5 f6 ae 7e b5 3f
       0.11506610418255316 0.08396428612991892
000120 3a 70 2e 0c 31 b3 b6 3f f4 5a bc 76 cf d8 b4 3f
       0.08867174670598468 0.08143326424429259
000130 ff c3 cf ba 86 9a bb 3f 94 36 64 2a 3f ea b7 3f
       0.10782663403348634 0.09341807160327625
000140 a5 e9 f4 7b 3d 40 bd 3f ae ce 74 83 9b 76 ba 3f
       0.11426147724424725 0.10337230643636516
000150 e5 f0 31 45 0c cc bc 3f f7 3c 95 a4 70 8b b7 3f
       0.11248852433522279 0.0919714357198592
000160 84 ee d6 b4 63 0f b8 3f b4 c6 fc 6c d3 de ba 3f
       0.09398482480076537 0.10496255312753072
000170 07 bf 8d a0 17 ec bd 3f 64 4d 8e b5 b6 75 b4 3f
       0.11688373250740024 0.07992116863743132
000180 50 78 01 8d 17 9f b1 3f 28 fb 0e ea b1 fd af 3f
       0.06883380119822502 0.062482414075466786
000190 18 35 ff 06 42 43 b0 3f de 10 d8 fa 97 ad b7 3f
       0.06352627440283631 0.09249257921334528
0001a0 0b 0b 96 41 f2 79 aa 3f ff 9a 08 a3 c7 f7 a8 3f
       0.05171162653552671 0.048765410090984666
0001b0 4f c4 0f a5 93 0f b2 3f 35 4f b4 f1 e5 43 b2 3f
       0.07055018215011553 0.07134854460701663
0001c0 dd 4e 84 a1 ea 19 ae 3f 79 9e 6a c2 68 e5 b3 3f
       0.058791477409753524 0.07771925684448346
0001d0 8e 73 78 01 4f 6f b0 3f ce 7a af 72 92 b7 a9 3f
       0.0641984346952553 0.05022866868943297
0001e0 27 3f e2 41 70 b6 b4 3f df 03 21 b7 85 2c b1 3f
       0.08090879066935185 0.06708560677454
0001f0 e0 59 1e 32 8e ec af 3f 13 61 6a 1a a5 b9 b0 3f
       0.062351649873722215 0.06533271689329849
000200 a6 cd 42 8d 44 f8 b8 3f ca 1b 70 ee 00 4f b8 3f
       0.09753826569322274 0.09495549985159282
000210 62 5f 2c d0 fb 63 bc 3f bc bd f1 fa 04 7f b7 3f
       0.11090062935215664 0.09178191305703981
000220 15 be 08 28 f0 6b bc 3f f1 f1 38 39 1a 5f b8 3f
       0.1110220048656106 0.0952011480048396
000230 c3 88 55 00 57 23 bb 3f 2b 07 bd 28 7e 23 b6 3f
       0.10600799329907588 0.08647907728757491
000240 83 43 6b 4a 3b 05 bc 3f 3c 80 5f 34 48 7f bc 3f
       0.10945482794637766 0.11131716993941237
000250 c9 e8 d5 6b 66 73 bc 3f 76 f4 1c f3 2d 53 bc 3f
       0.11113586552338285 0.11064421830538315
000260 2c 7e f5 5f f7 44 b8 3f db f0 9c e5 73 33 b4 3f
       0.09480234234569512 0.07891010623729093
000270 0a cf c8 e6 4f db bc 3f 46 c5 d1 7c 4e 73 b8 3f
       0.11272143730530729 0.09550943896626504
000280 e7 18 f9 9a 22 74 ca 3f 53 2c 7d 3c f8 e6 ca 3f
       0.20666916434328828 0.21017363503992445
000290 8f 8a ce dc ca b5 c9 3f c7 62 9e 93 bc 19 c9 3f
       0.2008603647382938 0.19609791953987196
0002a0 45 e1 df ae 0d 18 cb 3f c6 cf 86 1a ff c8 cb 3f
       0.21167155302806342 0.21707142634624982
0002b0 08 63 53 50 cc 6b cc 3f b3 20 21 78 0d 85 cc 3f
       0.22203973695902612 0.22281044355100263
0002c0 a7 4a 2e 66 9a 43 ca 3f b9 33 5d 48 c0 11 ca 3f
       0.20518808354662108 0.20366672070886496
0002d0 a6 a1 a1 43 25 e2 ca 3f c1 23 81 74 13 3e cb 3f
       0.2100264148932755 0.21283190907186447
0002e0 2f e9 1b c9 03 19 ca 3f f7 2e 0f 4a 88 57 cb 3f
       0.20388839072968198 0.2136087762468077
0002f0 d6 1e d5 4b 2c 4c c9 3f 0b d8 69 d5 94 55 ca 3f
       0.19763711645850063 0.20573673649386168
000300 d1 23 7a 2e ab 66 e8 bf e6 58 35 96 3c 69 f1 bf
       -0.7625327975994144 -1.088192545653834
000310 b2 62 64 c3 0f d4 e3 bf 51 13 63 31 f7 f0 ea bf
       -0.619636422753578 -0.8419147457685573
000320 17 9b fd eb 3e ce ef bf 81 36 05 ef 1e 4b ed bf
       -0.9939264878456439 -0.9154200237623656
000330 6d 79 56 a2 be ad f2 bf ef 36 69 20 5c 87 f1 bf
       -1.1674181310005125 -1.0955468431524726
000340 3d 47 ae 12 25 ae ec bf ff 45 f5 de 99 3c eb bf
       -0.8962579121455075 -0.8511475901270272
000350 7e 78 05 38 70 e3 f1 bf f0 ea ef 1c f2 7b ef bf
       -1.118026942094303 -0.9838800969294805
000360 ee 01 cd be de 40 f3 bf a4 58 4a 28 c5 7a e7 bf
       -1.2033374264866512 -0.7337365900919122
000370 47 92 29 c2 8c 14 f2 bf 53 ab da aa 50 c4 eb bf
       -1.1300170502155582 -0.8677142464633597

weight f8 [3, 16]
000000 28 a9 1d 88 cc 81 d2 bf 12 74 78 eb 70 7b d3 bf
       -0.2891722993141621 -0.3044092463986213
000010 a3 81 c3 48 9f 40 d3 bf 39 9f 21 c6 93 44 d3 bf
       -0.30081922632055064 -0.3010606226803137
000020 50 5f 06 22 0a 5c d3 bf 94 53 68 ba cc ce d2 bf
       -0.3024926502489409 -0.2938720531831731
000030 47 51 21 1e 42 04 d3 bf f1 80 78 ec e3 0a d4 bf
       -0.29713490431210626 -0.3131646928104735
000040 73 d7 64 2f e0 74 d2 bf 08 bc 96 80 0e 87 d2 bf
       -0.28838352802573936 -0.2894932037115159
000050 e6 f2 28 fe 8e b8 d3 bf 80 b8 bf 4b 1e 18 d3 bf
       -0.3081395608931373 -0.298347066854042
000060 72 4f bd a4 86 3e d3 bf 22 ec 13 15 cd 33 d3 bf
       -0.3006912812027088 -0.30003668840771713
000070 26 05 85 6f 4d 06 d4 bf 08 a2 9d 76 b8 17 d2 bf
       -0.31288467302882095 -0.28269778808183377
000080 8c 19 6b ff cb bd d2 bf da 39 d8 ed 30 e5 d2 bf
       -0.2928342813796909 -0.2952387163831226
000090 c2 5c 48 97 02 69 d3 bf 83 33 c9 e4 5b 13 d3 bf
       -0.3032843091363696 -0.298056577132961
0000a0 1d d6 95 ae 57 f7 d2 bf 62 1f 1d a6 94 9d d3 bf
       -0.2963465886053614 -0.3064929601864518
0000b0 03 9b e0 78 6e 94 d3 bf d7 25 06 08 6a 36 d3 bf
       -0.3059345417445202 -0.30019617827983097
0000c0 b0 16 9c 53 8a 78 d2 bf b5 3a 4d 20 12 b7 d2 bf
       -0.2886071983815368 -0.29242375521145486
0000d0 62 95 c4 a1 cb c4 d3 bf 33 b4 95 e4 4d 32 d4 bf
       -0.30888644025465883 -0.31557032892925746
0000e0 1e e2 5f b0 36 66 d4 bf 8f 50 50 15 66 9d d3 bf
       -0.3187386248023659 -0.30648185807627554
0000f0 12 54 c9 0a 33 64 d1 bf 67 72 02 41 2a 11 d4 bf
       -0.2717406850181884 -0.31354767178144133
000100 48 70 51 12 3a ba d3 bf c2 ea d0 10 4a f6 d2 bf
       -0.30824138440016613 -0.2962823070735504
000110 17 73 00 90 71 f2 d3 bf 93 21 42 c6 ee 35 d4 bf
       -0.31167258322402475 -0.31579179154552967
000120 66 a5 b8 50 04 29 d4 bf 63 f2 9c d0 d9 b0 d3 bf
       -0.31500347025811093 -0.3076691186177298
000130 9f 38 81 81 9b e9 d2 bf ec c8 c3 89 81 38 d4 bf
       -0.29550826689672677 -0.31594885305015796
000140 50 e3 1a fb 62 4f d4 bf 6e fa e6 a3 58 53 d4 bf
       -0.31734537622428594 -0.31758705144958455
000150 24 04 72 b3 d1 f8 d1 bf f4 94 3c 90 a5 fb d2 bf
       -0.2808117153545615 -0.296609297615148
000160 ba 33 6a 25 8e 08 d3 bf 8b 1d 9c 5c d6 55 d5 bf
       -0.2973971715335285 -0.3333640961067991
000170 84 49 c6 c6 63 17 d4 bf 9f 78 2e a5 26 7f d3 bf
       -0.31392759715631535 -0.3046356785870418
