Retweet/RetweetNetsV3/TrainNet_ep6V2.pt (torch, 23465 bytes, 6 tensors)

scale f8 [3]
0.5804482127639372 0.5785534000169702 0.5674828520960837
00000000: e4f7 5a21 0893 e23f f1ff 816b 8283 e23f
00000010: 3a64 59cc d128 e23f

weight f8 [112, 3]
0.10686030941330316 0.13970080519272488 0.06421473052424469 -0.45797566433142145 -0.30367659569166067 -0.14637994649900604 0.06708304403869644 0.09886735824426765
0.10300553162776029 -0.5457896626841114 -0.47645764987586614 -0.3005107016390735 -0.0012558315094156457 0.11001407807801691 0.050129118367913963 -0.5456327664863327
-0.47585774064232356 -0.2679018150801818 -0.21345639180470852 -0.14022287392289065 -0.003700983096393157 -0.41990610932948585 -0.22452970125347282 -0.10943859406393261
-0.3845843573604656 -0.2949242460322998 -0.17891905365302097 0.1558978769430337 0.245856840202159 0.1449597434310775 -0.41459204082965256 -0.28486628771516304
-0.09731376845388914 -0.49579508737354067 -0.4231944421067662 -0.21825936303770713 -0.16137656811095685 -0.1429384239154486 0.04710529396484008 -0.11245693847072188
-0.13608839742737203 -0.14486126596062307 -0.23826113078458933 0.3185522352852831 -0.01243813559514922 -0.5202775937066078 -0.4957469743166381 -0.2964084667358954
0.06189390335797615 -0.1255131816012619 -0.09464923995425881 -0.04983124234285921 -0.19882066135360157 -0.4770471373656026 0.04361883756856229 -0.12454458830405829
-0.04707062455619294 0.027436202959010912 -0.04206088368579169 -0.16784933312936284 -0.02633557572712487 -0.10465003844292714 -0.12264356084735462 0.07568765942637488
-0.14833628851718622 -0.1938971691440267 0.09837828957166057 -0.43568709677001566 -0.42960721952886677 -0.06091346370075387 -0.1639535275203593 -0.4998238549419656
0.08231359113584022 -0.02635074176575269 -0.25070931879218833 0.022870188153819044 -0.05874340615197682 -0.089227347498991 -0.026942399606143808 -0.350237153193992
-0.4757318111782806 0.08879888011187587 -0.3264973095215975 -0.4381925422634238 0.12060883115987846 -0.44866208145264697 -0.26246035763761866 0.01752515766096791
-0.0914737486911861 -0.1429872497541879 -0.2973067973092105 0.1537596680158581 -0.12471355287495028 0.13393810158553343 -0.2569945872729824 -0.2440072265682344
0.0734591990170915 0.07314906033115949 0.27985402398844567 0.054883853317916585 0.1026464484981233 0.2939546405460529 0.06058767416843153 0.09317639700608632
0.2903908125230274 0.06972222419410988 0.05576708935144884 0.25005531865722813 0.08096767458720601 0.0809610454154648 0.23519516519628011 0.06078485496202366
0.04177413827423013 0.26092200519564296 0.07286838368557987 0.07857327576128106 0.29069714202908475 0.06751252485213671 0.05635401775462107 0.2642263222154078
0.06990769168512656 0.07541865421405282 0.2858757431697276 0.06688551990040684 0.10291809369877054 0.28253243776809744 0.05880589390724876 0.08494723209363861
0.27779230225282087 0.07922388668644352 0.06412751809829617 0.27716828228723345 0.06402586616693166 0.05343516190294662 0.2611159090980284 0.06906772234008633
0.08205551619406262 0.256948011516905 0.06875152779850248 0.07501473205503648 0.2850694033009229 0.0659478308850661 0.07749152070619086 0.26931028564921067
0.07390683565442403 0.06839177661261978 0.058908408923238315 0.0634012803326985 0.06268425547821195 0.06074974254245544 0.07087325343578511 0.058357250102672384
0.06836324879904886 0.0732349078765598 0.048997219203961204 0.054507881644127607 0.07696147514701988 0.05026121969316921 0.052837995031744765 0.06192916730410723
0.08158492783162558 0.03332530817271826 0.06169121360332338 0.07343320575108013 0.05189800625756194 0.061136575958593745 0.09589322537239138 0.06711391791509035
0.07511516914059867 0.08232050448659103 0.0720934956402472 0.0757295277723762 0.08919085092660481 0.05757876087205102 0.05838374180156794 0.0687537152050536
0.03583872326582531 0.05887272018137476 0.07101923088556412 0.038644622829480155 0.07189300969222809 0.06263822803905145 0.05982367989217683 0.08018799483385232
0.06927723373855885 0.05996145589942625 0.08382158930744267 0.06583131129960616 0.055041252996418516 0.07515854278098574 0.07723687441688556 0.04162650172588693
0.05118123584789283 0.09065069162504717 0.2869523399281054 0.07632572258905893 0.08283672247704721 0.3063476028991431 0.0754149391098743 0.06635008709011155
0.29154963296619235 0.08063138231766506 0.0860871058093313 0.2508200028547077 0.05989790270754104 0.07895523504351872 0.2778178658921333 0.06503483257518838
0.09497464297278523 0.2803125884826571 0.07760993987499169 0.0774880326696767 0.277316388123661 0.055847064591159415 0.08609763405558997 0.2612708175982772
0.06252070432937458 0.10572455453425493 0.2851217126439472 0.06241818466376797 0.0782778005821808 0.29797728494184483 0.06423671221686467 0.08668586431428052
0.2799205994930906 0.06372082959222024 0.045274399739709856 0.27136162671352093 0.06298988280818486 0.07823542564484762 0.26729434326983237 0.07087682326172752
0.08286449601197854 0.2531054830837752 0.0650070859820637 0.07897263281817722 0.2871287342098881 0.07874615704644647 0.06920627349559141 0.27163307379275153
0.19213711710744646 0.19357882722231257 0.21787338693961456 0.20651929188302956 0.19333274548832127 0.20103254727969586 0.2154396800961015 0.19551284836716082
0.21781146785135866 0.2007097597460875 0.19305822958446012 0.21858595104854656 0.19880050588114742 0.20053979261379148 0.19728658137008143 0.18957196260874631
00000000: 00ab 2b7e 325b bb3f 1089 c34a b7e1 c13f
00000010: d3e8 8567 6070 b03f 84b5 2a29 794f ddbf
00000020: 5f9a c3f5 6f6f d3bf 6671 80fd 93bc c2bf
00000030: fe27 43b8 5a2c b13f 5211 4d06 5f4f b93f
00000040: 91f8 a50d 925e ba3f e223 f7e1 1b77 e1bf
00000050: d455 093a 487e debf 47d2 e83c 913b d3bf
00000060: b851 c8d0 5693 54bf 1ad6 71f3 e129 bc3f
00000070: 9a5c ef17 86aa a93f eae9 f5d8 d275 e1bf
00000080: dadc 6606 7474 debf 29bd 93a7 4d25 d1bf
00000090: 7f31 f6fe 8952 cbbf 7331 d3b8 d2f2 c1bf
000000a0: 74f9 952b 8651 6ebf cd7c bddf bddf dabf
000000b0: e8a1 eea5 63bd ccbf 5ec0 6cee 2a04 bcbf
000000c0: eaa5 5ab5 079d d8bf 5765 e0f1 09e0 d2bf
000000d0: 5816 09ce d1e6 c6bf 903a 7e2d 76f4 c33f
000000e0: 1745 15a8 3c78 cf3f 9bf2 a276 0a8e c23f
000000f0: 73e5 220e ad88 dabf 230d 5ecf 3f3b d2bf
00000100: 9ec0 f51c 8ee9 b8bf 415b 7251 1bbb dfbf
00000110: 45a4 2c24 9e15 dbbf 9d78 253d ecef cbbf
00000120: 964a 30c5 fca7 c4bf 6281 0768 ce4b c2bf
00000130: ef4b 1862 2f1e a83f 1ea6 f058 fac9 bcbf
00000140: 0566 2838 586b c1bf 4307 e15f d08a c2bf
00000150: 6c5b 503a 577f cebf 1e8d 27ea 2863 d43f
00000160: ddc4 d54c 2a79 89bf 72f7 3932 1da6 e0bf
00000170: 79fa 7184 51ba dfbf dad7 b837 5bf8 d2bf
00000180: dc13 7dc5 8eb0 af3f c4df 18e1 d010 c0bf
00000190: 4ade 31be ee3a b8bf b4fe 5c08 7b83 a9bf
000001a0: 1d33 2497 f472 c9bf 07af 68b7 f087 debf
000001b0: ea69 b151 3555 a63f 0ce3 a875 27e2 bfbf
000001c0: e16c 2412 a419 a8bf b6d1 bd69 3c18 9c3f
000001d0: a71f be0f 0189 a5bf 4617 3942 167c c5bf
000001e0: c398 e091 b6f7 9abf 2c34 a34c 58ca babf
000001f0: 1085 e782 9165 bfbf ef72 f235 4460 b33f
00000200: 12e4 fef9 aefc c2bf 855a 2158 9fd1 c8bf
00000210: 55c1 58d0 512f b93f 5fa6 fa21 4ce2 dbbf
00000220: 5d20 8047 af7e dbbf 2c2e f6ac 0c30 afbf
00000230: 84c3 61df 6dfc c4bf 0421 af31 1dfd dfbf
00000240: 16db f1e5 8012 b53f ffde 6f58 b0fb 9abf
00000250: e9f3 4019 9f0b d0bf 2532 b258 486b 973f
00000260: 9088 8ea0 9d13 aebf 1ac0 6a7b 9ad7 b6bf
00000270: 1092 bcd4 c996 9bbf 57fd b317 496a d6bf
00000280: 2f5d abd6 6372 debf 987e 00fe 85bb b63f
00000290: e024 a8f8 54e5 d4bf 17d7 97bb 580b dcbf
000002a0: 3bc2 7069 38e0 be3f 90d7 b229 e1b6 dcbf
000002b0: ca33 2387 26cc d0bf 115e 0b6c 1df2 913f
000002c0: 0238 12d7 d26a b7bf 6538 b8fc 674d c2bf
000002d0: 7094 d416 1307 d3bf ee34 c994 65ae c33f
000002e0: cc43 f736 3aed bfbf c0c4 ff3a e224 c13f
000002f0: d888 e56c 9972 d0bf c592 0cf9 a03b cfbf
00000300: 4667 5ed9 38ce b23f 7dff da95 e5b9 b23f
00000310: c7cc 2bda 20e9 d13f 4367 2886 bc19 ac3f
00000320: ce98 59a3 0947 ba3f 60c6 e91f 27d0 d23f
00000330: 2830 30fe 5805 af3f fc76 e689 68da b73f
00000340: e718 b658 c395 d23f 37d4 b7d0 50d9 b13f
00000350: 4548 ea01 818d ac3f bdb6 f405 e800 d03f
00000360: c99d 622a 4cba b43f 5134 4ff2 dcb9 b43f
00000370: eb00 590b e01a ce3f 6dd8 4e48 311f af3f
00000380: 4cad 697b 6b63 a53f 51cf c735 f2b2 d03f
00000390: bd89 d79c 80a7 b23f 8afa bbd1 601d b43f
000003a0: b98e 832f c89a d23f c470 4f36 8048 b13f
000003b0: b933 820e 6fda ac3f 0d15 2a85 15e9 d03f
000003c0: b8c6 8671 78e5 b13f 8991 5b0d a34e b33f
000003d0: 238e e8c5 c94b d23f 2257 8cd0 681f b13f
000003e0: 8d56 9a16 d758 ba3f 067b 11ef 0215 d23f
000003f0: 4e90 495e ce1b ae3f 9e57 ba0f 1abf b53f
00000400: 1169 505d 59c7 d13f 575a 6142 0448 b43f
00000410: 167e 0139 a96a b03f e460 fa08 20bd d13f
00000420: abf8 48c9 ff63 b03f 11c4 a881 da5b ab3f
00000430: 54a5 8280 1fb6 d03f dbed a818 6cae b13f
00000440: a288 821e 9701 b53f 8d30 8f12 d671 d03f
00000450: 81d1 713b b399 b13f 7e03 e55c 2a34 b33f
00000460: f821 11bd 933e d23f 43bc e400 f5e1 b03f
00000470: 6480 26fb 7bd6 b33f ecbe 5535 613c d13f
00000480: 492b 16f2 8eeb b23f 8ad5 dd9b 1f82 b13f
00000490: 9cc4 9133 3e29 ae3f 15b0 8df9 103b b03f
000004a0: 85c6 404b 130c b03f fca7 eb1a 971a af3f
000004b0: 09f6 aae1 bf24 b23f 46d7 5961 00e1 ad3f
000004c0: 0f19 d7fd 4080 b13f b561 41de 85bf b23f
000004d0: c6e3 26dc 2916 a93f 0650 1202 75e8 ab3f
000004e0: 27f1 ce4a bfb3 b33f f0af adad d6bb a93f
000004f0: 3b8c 4be9 940d ab3f ceb3 7a08 2eb5 af3f
00000500: 5c23 e2f4 bfe2 b43f 9d3e 76c9 0310 a13f
00000510: 1bef c0a1 fd95 af3f 172e 24c1 84cc b23f
00000520: 7429 351f 6092 aa3f dac4 a914 4b4d af3f
00000530: 8de3 e15a 758c b83f ef3e 8db2 602e b13f
00000540: ff72 e46a bf3a b33f aa64 8fe2 f412 b53f
00000550: 5c78 0726 b874 b23f 91b6 1fa5 0263 b33f
00000560: ae09 d52b 36d5 b63f fc81 c79d f67a ad3f
00000570: 94ca 4f4b 79e4 ad3f 8ac1 48ee d799 b13f
00000580: a6d7 b600 7459 a23f db72 9caf 9024 ae3f
00000590: dd62 0afa 502e b23f 0610 705e 3ac9 a33f
000005a0: de6a 708d 9467 b23f c438 e814 0f09 b03f
000005b0: 6d98 5399 35a1 ae3f c9dc 574f 3387 b43f
000005c0: 86b3 431d 27bc b13f 1098 3798 44b3 ae3f
000005d0: 9932 c6e8 5475 b53f 97a8 1521 52da b03f
000005e0: 74d8 19fb 5d2e ac3f ce64 421b 973d b33f
000005f0: ba70 aab9 cbc5 b33f 3680 1e9f 1150 a53f
00000600: 7468 454c 6d34 aa3f 03ad e33b e234 b73f
00000610: ee1e e058 6d5d d23f 5a13 5d22 158a b33f
00000620: f05d f295 c934 b53f 663a eaf9 329b d33f
00000630: 6953 1bb9 644e b33f 2587 23be 51fc b03f
00000640: d309 b0ca bfa8 d23f c6ec 151e 42a4 b43f
00000650: 4ef1 0ef8 cd09 b63f e163 5c57 6f0d d03f
00000660: 82ac 741a f0aa ae3f cd22 5c08 6936 b43f
00000670: 1814 1096 c4c7 d13f 90e2 026f 1fa6 b03f
00000680: 9773 8419 4250 b83f e72a 0c36 a4f0 d13f
00000690: b38c 9bb9 3ede b33f cdcb 2576 41d6 b33f
000006a0: aeb3 683c 8dbf d13f 3246 fe87 fc97 ac3f
000006b0: c51f 889a 7e0a b63f 48f6 3e3c a9b8 d03f
000006c0: 85e4 6a5c 5b01 b03f e3d9 1bb0 c310 bb3f
000006d0: 59db cb23 6f3f d23f 08f7 9cbb 46f5 af3f
000006e0: b7d6 8091 030a b43f 92ab 7151 0f12 d33f
000006f0: 188b 2c32 d171 b03f 325d 4178 0b31 b63f
00000700: a32b 1317 38ea d13f df2d 2c1f 0250 b03f
00000710: 86c7 74c4 342e a73f 82ee 0728 fd5d d13f
00000720: c9d8 a3de 1a20 b03f be83 88a2 3c07 b43f
00000730: 8afb afbb 591b d13f 0918 f4c5 fb24 b23f
00000740: e8f7 5e8c 9b36 b53f 3d1e 1257 e132 d03f
00000750: fe1c 4dec 4da4 b03f 9fab 3beb 8c37 b43f
00000760: 1918 cb32 5160 d23f 2e3e 3349 b528 b43f
00000770: e272 5799 80b7 b13f a9ea 1cb0 6f62 d13f
00000780: 8a7f 29f5 f297 c83f 4416 0fe6 30c7 c83f
00000790: e085 c96f 46e3 cb3f 75ba 5062 396f ca3f
000007a0: 3522 8f9d 20bf c83f 1fba ff3b 6fbb c93f
000007b0: ad00 2306 8793 cb3f 4ea6 d7a4 9006 c93f
000007c0: 7dc3 8e05 3fe1 cb3f ac79 0c7f dbb0 c93f
000007d0: 32fb 24cf 21b6 c83f 1e2d 8fdb 9ffa cb3f
000007e0: 4d09 9883 4b72 c93f 5f53 69b5 49ab c93f
000007f0: 4e4a 76cb af40 c93f 1c51 d2e1 e443 c83f

bias f8 [112]
0.1888232963640904 -0.389144497486261 0.10789363466055951 -0.5614132887165736 0.08658716999389234 -0.5168664604374132 -0.23162059613944927 -0.3620775331664155
-0.4321913952087049 0.30169995776160896 -0.3578944168000977 -0.46459659049917706 -0.2080476205566012 -0.2098207427079064 0.05171304327078716 -0.5340652633749294
-0.047689604662304395 -0.20442127988958056 -0.06943260538307007 -0.032092259190928445 -0.1046796177846016 -0.07259796082707298 -0.31594147067249 -0.19894526182405978
0.0018051935769062334 -0.04004524019605484 -0.2817796165165068 -0.16857367080431537 -0.3088023978106607 -0.061329189120746835 -0.10990060275362913 -0.11401391834229191
0.09928923973222292 0.09923756211559467 0.08772432178883355 0.09065686868639597 0.09911136096423274 0.09225670328766027 0.1100746198746053 0.08779356368424024
0.10927312047405828 0.11482507006465578 0.09732329172181921 0.08714527841686717 0.07251487058553871 0.10525107486522889 0.1101803406515548 0.07432103128994365
0.08650708824790963 0.05903015483803553 0.07761550121763557 0.05068608347570307 0.05812183465228487 0.07127521586133402 0.05789221741153857 0.07967859375164069
0.06622362453878573 0.07628580554327044 0.0653206303586632 0.07867496457384232 0.07249475536758124 0.04719622574820179 0.06737370877289572 0.057322774159624536
0.10926681808275163 0.10161962454983235 0.09339658899254244 0.09685721386263425 0.09414969459723858 0.09957127143725401 0.09169129908766646 0.08667084669566133
0.09121477704111293 0.11248974330035484 0.09572284216269167 0.0935958483876034 0.08028395537474647 0.09807722215748926 0.10441288328413015 0.0985291267174633
0.19184438872726722 0.20333588104651154 0.20621423843803885 0.2065387286651982 0.18106412250758447 0.21314788501383586 0.19042469002385906 0.2155738445405444
0.2115359048493093 0.20163751498326285 0.1904250272074873 0.1905928881786453 0.20515277066260554 0.19499036170260323 0.20328343158932555 0.19460560122557272
-0.6514529705627655 -0.969601342088576 -0.5460250592901901 -0.7628335874265233 -0.773888717714755 -0.8121167327680301 -1.0784713861015063 -0.9882108918154314
-0.8474765683639474 -0.6113993975105612 -1.019969064790148 -0.8790194069538585 -1.1042618583489792 -0.633421119056581 -0.859228211839701 -0.7991525771888944
00000000: d2a7 4d9d 5c2b c83f 50cc 8752 bee7 d8bf
00000010: 044d 50d0 ea9e bb3f cb7a 5200 19f7 e1bf
00000020: 7580 60a7 932a b63f 834b ff87 2b8a e0bf
00000030: dfdd bf62 bea5 cdbf 253b e43e 472c d7bf
00000040: 092d 0219 06a9 dbbf b29a f256 0d4f d33f
00000050: 54f4 e4fb bde7 d6bf 83bb 8156 f3bb ddbf
00000060: 5c8e 26ef 4da1 cabf 40f8 f9f5 67db cabf
00000070: ecd3 3fcb 217a aa3f 94ff 0309 1017 e1bf
00000080: 0b7d c498 c56a a8bf 17b9 ddfb 792a cabf
00000090: d177 65d1 55c6 b1bf d70d 5c87 656e a0bf
000000a0: 1b51 f18e 48cc babf 7c31 82ab c795 b2bf
000000b0: 6243 ff92 6238 d4bf 4b3f 9dd0 0977 c9bf
000000c0: 1a7a 0cd8 8793 5d3f 534a 014a cf80 a4bf
000000d0: 558a 675f ad08 d2bf 3b1d 8971 d293 c5bf
000000e0: 9d7b e121 6bc3 d3bf 44ab 201b 8a66 afbf
000000f0: d134 a326 7222 bcbf 40a7 9122 0430 bdbf
00000100: 309e 7e05 056b b93f 4a3d d203 a267 b93f
00000110: 0496 25e5 1975 b63f 4e74 2ade 4935 b73f
00000120: d5e0 00b6 5c5f b93f 1310 75a3 229e b73f
00000130: d726 7bac d92d bc3f 04b7 d294 a379 b63f
00000140: 4398 c4be 52f9 bb3f 6e48 b000 2d65 bd3f
00000150: 7193 15e3 2dea b83f 521f cd28 274f b63f
00000160: be78 a3a5 5590 b23f d03d 6a04 bcf1 ba3f
00000170: 88b4 c25f c734 bc3f d398 cbfe b306 b33f
00000180: 079f e51a 5425 b63f f0ac 0351 3339 ae3f
00000190: dd73 6407 9cde b33f c6eb c7bd 86f3 a93f
000001a0: f7b8 0726 25c2 ad3f f9c7 23b1 173f b23f
000001b0: 1b72 f378 0ca4 ad3f e2c4 5afa d065 b43f
000001c0: f1dd 9d0d 08f4 b03f ae15 f56f 7787 b33f
000001d0: 1802 2553 dab8 b03f f4cd dbdf 0a24 b43f
000001e0: a26e 6f2b 048f b23f ec93 2a8c 1a2a a83f
000001f0: 5831 ca43 673f b13f 05c5 a920 6959 ad3f
00000200: 0012 3402 e9f8 bb3f abc5 1264 be03 ba3f
00000210: 98ea 47bf d6e8 b73f 01f4 eb65 a2cb b83f
00000220: 1b39 39c3 311a b83f 7bb3 71ba 807d b93f
00000230: b6c6 e8ba 1479 b73f 1c12 1384 0f30 b63f
00000240: f1b2 4d04 da59 b73f 0d47 9cb8 20cc bc3f
00000250: 70a5 91cc 4a81 b83f c2ba ddc3 e5f5 b73f
00000260: 1c62 ba42 7d8d b43f 2021 a6bd 961b b93f
00000270: fa84 fc7e cdba ba3f 4277 f470 3439 b93f
00000280: ca9a c05f 5b8e c83f c75b 99ff e806 ca3f
00000290: 53cc 0769 3a65 ca3f 95ba 7c6e dc6f ca3f
000002a0: da12 53f2 1b2d c73f 8449 ac0d 6e48 cb3f
000002b0: cf6f 0014 d65f c83f 285a 167a ec97 cb3f
000002c0: 70f7 a0c8 9b13 cb3f 3bfa 3f12 42cf c93f
000002d0: c318 19e8 d85f c83f 6dea c906 5965 c83f
000002e0: b9ff 562c 7242 ca3f 5121 46b5 71f5 c83f
000002f0: d255 3f05 3105 ca3f a5ed 701a d6e8 c83f
00000300: 435f 6ee6 b3d8 e4bf 57b3 cd64 f906 efbf
00000310: 9a54 8e8b 0979 e1bf 5a31 c9fb 2169 e8bf
00000320: 0381 aa45 b2c3 e8bf eabc f83a dcfc e9bf
00000330: e6a4 4f36 6b41 f1bf a5be bc72 6c9f efbf
00000340: 98fb 272e 871e ebbf 4a43 2378 9590 e3bf
00000350: 4849 0315 cb51 f0bf ff50 ad4e ed20 ecbf
00000360: ca43 7d7b 0eab f1bf 1a33 de5d fc44 e4bf
00000370: cedd b429 cc7e ebbf 194b f16c a892 e9bf

weight f8 [112, 16]
-0.1806904876099816 -0.3516185046521371 -0.16125066648222913 0.011280400034742032 -0.14974403205350395 -0.05694355335056622 -0.3584691071322713 -0.3775953237564709
-0.10001100307670034 -0.173145838052333 -0.3687870960996078 -0.12049449786164802 -0.2969142040045401 -0.12287308014802206 -0.17674327951338215 -0.036055792277281715
-0.7973103041735882 -0.41458115887359603 -0.7896895326929102 -0.5881908550892049 -0.7751961741707775 -0.5445685990559282 -0.44342005060994893 -0.41465376472074555
-0.4748264495511286 -0.8141096928267563 -0.37406012846721787 -0.48649361617447306 -0.5009616827455 -0.6924321094172589 -0.7815962194666501 -0.5418833841676606
-0.16865051538579645 -0.31814640352773643 -0.16675074543426394 -0.03238299857207307 -0.1621161094309144 -0.05033436377678568 -0.34830989391897504 -0.3347226286672592
-0.10125697153931178 -0.1952893775275136 -0.3251056504074535 -0.13365118091954445 -0.31007992011490737 -0.1153375316394054 -0.18457439304102602 -0.04591662658931696
-0.7862263623327338 -0.3693546034453753 -0.7612262627514584 -0.4252172326979878 -0.7588152025509649 -0.4039715485598788 -0.4321933868140342 -0.3938625194861416
-0.4309998381806979 -0.8108762768093435 -0.3702420268369078 -0.37008108089753106 -0.4826872219158501 -0.683432662133256 -0.7648215761690556 -0.45053592469712106
-0.20231207269662113 -0.34504895695401006 -0.210625035634054 0.08761385362493022 -0.1932175138607826 0.023120998532511566 -0.3921167059226702 -0.3867173399194292
-0.03849310620552579 -0.2509045026779728 -0.3693559695830914 -0.08823498023517311 -0.3241277354712246 -0.12051802192789621 -0.21183210784837564 0.030462706340223283
-0.7667938611463043 -0.38196336257241426 -0.7802382777213841 -0.49506271980404243 -0.7686071642915896 -0.4310562213028832 -0.4513643055246766 -0.41580736794017403
-0.4149427838193512 -0.7950654513410605 -0.35126035793221344 -0.42166375884657875 -0.501159729794277 -0.6640033816672646 -0.7535205488471719 -0.49804971155287936
-0.7610491518858892 -0.3657232970549128 -0.7579424380943454 -0.4665110533430217 -0.7631676660386545 -0.45076491465394886 -0.42480668128107046 -0.4359062907060032
-0.5376084832522484 -0.772276183590792 -0.3669196500043356 -0.40711266964996085 -0.45787088321782154 -0.7103405560309549 -0.7642557236893194 -0.44333205482398413
-0.7605811908662226 -0.39198102144636315 -0.7826993316025488 -0.4513658166837613 -0.766025730256755 -0.4373488772140749 -0.4308930311255954 -0.40924700007737436
-0.504658821390362 -0.8035578464805861 -0.37134046284452044 -0.3924168075154465 -0.47038336767752353 -0.6902461794095773 -0.7560881742847595 -0.42991426976933356
-0.7974217482786657 -0.40228240052529324 -0.804934333871528 -0.31645836198539457 -0.7749709756469575 -0.3223461618325668 -0.4550804595337268 -0.4518254352419249
-0.4663508570129719 -0.8147388106760495 -0.40939932616815333 -0.3141503347272224 -0.4946857668422943 -0.6789948570138387 -0.783896933487565 -0.2827873623770255
-0.0950392426944255 -0.10443864750103571 -0.12137274668458925 0.047832623835386424 -0.08165278165758166 0.041389032888318016 -0.15150367524284572 -0.13369659944322984
0.004007139624573558 -0.08213051566506918 -0.10761503425640631 -0.028750541856864802 -0.15160338855841957 -0.0353439452623603 -0.09842144373790594 0.04006465842558906
-0.8137740388278905 -0.4398952934256011 -0.7997501027469148 -0.6492846018338044 -0.773569613268371 -0.6135944054652298 -0.44847252536181414 -0.41807825655666636
-0.49623929669781797 -0.8320549225189362 -0.39986109269888853 -0.5519225202560938 -0.5053216097696761 -0.7090514221469005 -0.7806516970967967 -0.6173143469387181
-0.7772299799600428 -0.3653619833078981 -0.7733926886701532 -0.4935516118049889 -0.7418429225315005 -0.39912136909131646 -0.45941268315469597 -0.41050543534635187
-0.4526981480380714 -0.7924087448351694 -0.3590543060996031 -0.4095704181642439 -0.49954048461265915 -0.6719591641061092 -0.7451899095190949 -0.4870128130579039
-0.7191942264410305 -0.39086999910979425 -0.702069004915091 -0.4459492898001493 -0.6833124157502667 -0.4203377633922022 -0.4232232104493021 -0.4312092092778835
-0.5354556442089513 -0.716074066671645 -0.36653322730377413 -0.38914098967804067 -0.4352885467557409 -0.6466057009285967 -0.7155954987522449 -0.4166012627152622
-0.4118655114772198 -0.20101827302658623 -0.42435299062562243 0.08386765208937778 -0.40397190452513493 0.026352902490626613 -0.3111243768002025 -0.240186591059834
-0.10089471628189851 -0.436907852729756 -0.21996263509048034 -0.04503023399074045 -0.3065822541644505 -0.2949537998636359 -0.41188258091987096 0.05772209278143789
-0.20511928327520715 -0.15715433300667994 -0.22158185589659818 0.19086250720632797 -0.22597268641193827 0.14466922879797042 -0.24940732160393317 -0.18377825186241725
0.07843893628260291 -0.22646126773088474 -0.17695145292063807 0.01695174764084022 -0.2587014139850144 -0.11780826435951873 -0.2283165711266468 0.14649006053768662
-0.7544489419395315 -0.3543813171586612 -0.7805849913869218 -0.4128257912246515 -0.7492602177653308 -0.37285828705086355 -0.43424660794347 -0.4051783988839531
-0.4346441963804267 -0.7883269087706672 -0.3547520657581706 -0.34729981893925926 -0.476132832622452 -0.6555509359169838 -0.7481935427925775 -0.4165309462322032
00000000: 53d8 7dab dd20 c7bf ff8e 89e6 ea80 d6bf
00000010: 9aeb 7fa1 dca3 c4bf 2c4f e1a9 2d1a 873f
00000020: e071 38fc cf2a c3bf 40a9 b796 b427 adbf
00000030: 6e9a f068 28f1 d6bf 5105 aa93 852a d8bf
00000040: 935f 7433 529a b9bf b9c7 ef8f a429 c6bf
00000050: e4d0 3b31 359a d7bf 91e9 a937 bad8 bebf
00000060: 39b6 fa6e a400 d3bf 1467 cb34 9c74 bfbf
00000070: 1a1d a616 869f c6bf 3e18 53a1 e775 a2bf
00000080: 590f 26e6 9083 e9bf 8e97 b969 7f88 dabf
00000090: 371b 9dfb 2245 e9bf d942 cda0 75d2 e2bf
000000a0: a787 0135 68ce e8bf bff5 6b20 1b6d e1bf
000000b0: 52aa f07d fe60 dcbf 6ce3 a8f1 af89 dabf
000000c0: da43 067a 8e63 debf 5185 41c5 2f0d eabf
000000d0: c945 a0e4 99f0 d7bf 28a8 cb1e b622 dfbf
000000e0: 151d 7ecb e007 e0bf abb7 1462 6728 e6bf
000000f0: 042b 2913 d602 e9bf 77de a7d2 1b57 e1bf
00000100: 988c 0410 5796 c5bf 2577 9fbb 825c d4bf
00000110: fca4 1ca3 1658 c5bf f37e a01f 8194 a0bf
00000120: 658c 147e 38c0 c4bf df90 92fc 6cc5 a9bf
00000130: a455 d094 b54a d6bf 96d9 d675 186c d5bf
00000140: 57db 4015 faeb b9bf b351 de08 3eff c8bf
00000150: 29ab 0fee 87ce d4bf 3984 8f5d 7b1b c1bf
00000160: 688c 0273 59d8 d3bf 2f82 64ae c286 bdbf
00000170: 2227 e53a 22a0 c7bf c267 1653 6282 a7bf
00000180: c11b 2f30 c428 e9bf 2632 9b7d 81a3 d7bf
00000190: 4ff6 eb2d f75b e8bf ed8a 0857 c236 dbbf
000001a0: 923f d5d1 3648 e8bf e210 657b abda d9bf
000001b0: f47a 7a73 0ea9 dbbf 800a 1424 0b35 d9bf
000001c0: 1d50 6458 8095 dbbf adf2 3fce b2f2 e9bf
000001d0: 2da2 379d 0bb2 d7bf bdaf d48e 68af d7bf
000001e0: cad7 14f2 58e4 debf 7c2d 9c2c aede e5bf
000001f0: 047b 1d19 6b79 e8bf 01d3 8fa1 94d5 dcbf
00000200: fdb2 e8ab 5ce5 c9bf 88ba 6838 4815 d6bf
00000210: 3830 e2db c2f5 cabf 0fe0 fe8b dc6d b63f
00000220: 51f3 85fb 59bb c8bf 3827 31f2 07ad 973f
00000230: afcc 09ab 7018 d9bf 0b01 f015 fabf d8bf
00000240: 5c62 8c50 5eb5 a3bf 48f2 5ac2 d10e d0bf
00000250: 9b45 7c38 87a3 d7bf 8b28 7952 9196 b6bf
00000260: 27d4 e441 82be d4bf ea48 c2e2 44da bebf
00000270: 5acb b983 501d cbbf 9b67 ea9d 9d31 9f3f
00000280: c0b3 8c47 9389 e8bf 8a32 a175 1672 d8bf
00000290: 9ed2 bc43 b6f7 e8bf 37bd c18b 1baf dfbf
000002a0: 5151 430d 6e98 e8bf 1bed 4ed5 6c96 dbbf
000002b0: f1da b31c 27e3 dcbf ea49 af81 969c dabf
000002c0: a9c7 8d2d 6c8e dabf 070f f619 2d71 e9bf
000002d0: 9ece 6cb9 0c7b d6bf 1be3 89fd 89fc dabf
000002e0: 593c 3121 8009 e0bf c437 1605 843f e5bf
000002f0: ce33 4520 d71c e8bf eab7 b9e5 0be0 dfbf
00000300: 25f3 3fc0 835a e8bf fa1c 0fb0 0268 d7bf
00000310: f6b3 fb7f 1041 e8bf a82b 552d 51db ddbf
00000320: 7f05 e098 de6b e8bf 46de a715 55d9 dcbf
00000330: 185e ce5c 0830 dbbf 2cfd ac7f e3e5 dbbf
00000340: b7db b3b4 1634 e1bf 8f11 008b 7cb6 e8bf
00000350: 1ad1 418e 9c7b d7bf eec3 7b4c 220e dabf
00000360: f483 4dad c14d ddbf ef9c 251e 1cbb e6bf
00000370: 97d8 606b c874 e8bf 0d33 2f69 8d5f dcbf
00000380: 2024 975d ae56 e8bf 8ef2 f090 3716 d9bf
00000390: 2eb0 fa77 df0b e9bf fc19 4c73 2de3 dcbf
000003a0: ec1c 6b64 4883 e8bf d2e9 2425 86fd dbbf
000003b0: 3c8f 305d c093 dbbf 3261 5454 1a31 dabf
000003c0: e84d b041 2a26 e0bf 7c81 e2f1 beb6 e9bf
000003d0: 6751 e6c9 0ac4 d7bf 127e ab62 5b1d d9bf
000003e0: b877 30d7 c21a debf 4219 d827 7f16 e6bf
000003f0: a340 aed3 df31 e8bf 768d 2f24 b783 dbbf
00000400: 813b 3f9d 7a84 e9bf edcc 80ae febe d9bf
00000410: f8fb eca5 05c2 e9bf d278 d192 da40 d4bf
00000420: b717 78ee 8fcc e8bf c6f7 c3cb 51a1 d4bf
00000430: 98be afca 0920 ddbf b55c f73a b5ea dcbf
00000440: 2f44 d543 b1d8 ddbf 9356 5420 5712 eabf
00000450: ce62 393b 9933 dabf 6e93 6b01 0a1b d4bf
00000460: f398 987d eea8 dfbf 2eda 206c 53ba e5bf
00000470: e070 9805 af15 e9bf 4669 482a 3019 d2bf
00000480: cd8b 35e7 7d54 b8bf 7096 74bf 7dbc babf
00000490: 1cd1 a2c9 4812 bfbf ed15 1c86 847d a83f
000004a0: 14c4 d85a 32e7 b4bf c737 567d f130 a53f
000004b0: 6527 32f1 7864 c3bf 83f8 185d f81c c1bf
000004c0: 0673 355a ca69 703f 84fb c866 8106 b5bf
000004d0: 6a6e b0ac a88c bbbf 0bef 1134 c870 9dbf
000004e0: d71c e965 bd67 c3bf 22e3 0602 9a18 a2bf
000004f0: 3754 14d2 2532 b9bf 239e 53db 5a83 a43f
00000500: 1e30 63da 6f0a eabf 9058 bb96 3e27 dcbf
00000510: 13a9 0887 8d97 e9bf b585 5580 f0c6 e4bf
00000520: 3d58 c50f 15c1 e8bf 4c6a 0fbc 90a2 e3bf
00000530: 6e58 651b c6b3 dcbf d517 c54d cbc1 dabf
00000540: a8a8 9377 62c2 dfbf 883a 16a5 31a0 eabf
00000550: 4769 05fb 5297 d9bf 52a0 cd6a 59a9 e1bf
00000560: d987 7d39 982b e0bf 0bb4 a99b 8cb0 e6bf
00000570: de1f 9344 19fb e8bf 3082 6e04 0ac1 e3bf
00000580: 96c5 2c68 11df e8bf 6d95 603a 1762 d7bf
00000590: e0b8 1906 a2bf e8bf ffca e57f 5996 dfbf
000005a0: e356 615e 2dbd e7bf dc71 d85a 348b d9bf
000005b0: 0217 6174 0467 ddbf 0624 e996 b845 dabf
000005c0: 5021 32a7 01f9 dcbf ef34 8495 695b e9bf
000005d0: a2e3 8be9 befa d6bf 8c2a dbd7 6636 dabf
000005e0: 831e 1ca7 78f8 dfbf dfa9 4281 b080 e5bf
000005f0: e332 5682 98d8 e7bf 2444 34ca 372b dfbf
00000600: ea28 419c a303 e7bf de80 ca99 0304 d9bf
00000610: 96a8 f46a 5977 e6bf a76d d7e3 6e8a dcbf
00000620: 0d24 d3ff b1dd e5bf 56c5 c25c d0e6 dabf
00000630: 986c f2cd 1616 dbbf 2948 e582 ee98 dbbf
00000640: fcc0 0ae0 7322 e1bf 40ca 3b29 14ea e6bf
00000650: dab0 0ac8 4775 d7bf 08d1 0c9c afe7 d8bf
00000660: dee9 287e c4db dbbf c5a7 5c70 feb0 e4bf
00000670: 4dc8 0988 28e6 e6bf 1466 b557 98a9 dabf
00000680: 3747 8929 015c dabf 5317 467e f7ba c9bf
00000690: 1399 2c72 9928 dbbf 038b eab6 5978 b53f
000006a0: ed0c 9cf9 acda d9bf 425d 6859 41fc 9a3f
000006b0: 9718 d637 76e9 d3bf 5115 c528 6fbe cebf
000006c0: a11b c572 3cd4 b9bf b3c0 b55a 4cf6 dbbf
000006d0: bd1d 0752 bc27 ccbf 1e96 a4ec 330e a7bf
000006e0: c8e5 ca2c 0b9f d3bf 1ab2 0fe7 85e0 d2bf
000006f0: 64f2 b5c1 485c dabf 1c83 8109 c08d ad3f
00000700: b115 b942 5941 cabf f51c 5818 a21d c4bf
00000710: 743f 3b54 cb5c ccbf 4aeb 3dc1 2e6e c83f
00000720: 59da f648 acec ccbf a560 3673 8584 c23f
00000730: 17ff d540 94ec cfbf 7c89 bbb6 0b86 c7bf
00000740: 491a 11fa 9214 b43f 3580 5bcd aefc ccbf
00000750: ac0c a35f 58a6 c6bf ade9 e886 cc5b 913f
00000760: 6da7 1f60 908e d0bf 5766 9fb2 ae28 bebf
00000770: dfd8 0f37 7a39 cdbf f765 99b1 2fc0 c23f
00000780: 163a 841b 7224 e8bf 71a1 e0f9 2eae d6bf
00000790: 2e2b 3860 8dfa e8bf 3b55 10de bc6b dabf
000007a0: b1de 6f90 f0f9 e7bf 3a44 3b01 e9dc d7bf
000007b0: 6508 e148 b2ca dbbf 6524 1061 71ee d9bf
000007c0: 9968 36e4 35d1 dbbf e041 775a f939 e9bf
000007d0: 8baa 2702 42b4 d6bf c30d 1005 293a d6bf
000007e0: d693 2ad8 f578 debf 3805 d4f4 45fa e4bf
000007f0: 7feb ab95 33f1 e7bf 3ab6 f569 71a8 dabf

bias f8 [112]
0.18515957021310075 -0.3780993125685127 0.11504178128989287 -0.5424935281224289 0.0979064637508618 -0.5195813071862725 -0.21987341518955222 -0.36634459179269835
-0.41350933258281974 0.2899175623992204 -0.3574260388448399 -0.4578481018606271 -0.2212336236963095 -0.20765702425336663 0.05276914444394962 -0.5193466986820432
-0.06452539851511067 -0.2019783858517676 -0.0821846924713719 -0.011788523681413655 -0.09706066454356622 -0.06471937051009574 -0.3136635711389797 -0.20097812491666853
-0.002928953763153141 -0.039285323816007044 -0.2750530343020377 -0.177683207921499 -0.3437923396758666 -0.07564411581582535 -0.11055681287253377 -0.10316949863195386
0.10479269118388196 0.08988649254228152 0.10422840834288374 0.07688441527211967 0.07957719964986444 0.07550537224329933 0.0958214808444171 0.08436595830673016
0.10354223725571025 0.091130912464253 0.10164617714106133 0.08509120829432722 0.0846932259478047 0.09549555378384088 0.10503551311804148 0.07266608411336797
0.06995606105703815 0.06453096599019552 0.06487332922229379 0.09503929849957851 0.05274757999346662 0.053467846508084255 0.07067981321026542 0.07243119048759498
0.060115375350385185 0.07807116116335663 0.06506864124549627 0.05420917269275761 0.08080335786456286 0.06798955187449673 0.0628997743571679 0.06915219936207466
0.08493367447596999 0.08493309190341476 0.10017861106454476 0.08482753786297793 0.1022916443700733 0.08941662482875574 0.09296006451111336 0.07715495875442746
0.09918337968492705 0.09837035616171987 0.09954245672419909 0.1039296334763362 0.08471826387756967 0.07014396545685485 0.10167248337213047 0.08850637845577322
0.20260842234821147 0.20607464159794925 0.19670831855873647 0.19214539764785302 0.20789263319433984 0.21341168306441827 0.2176775019623832 0.21837434921754212
0.20121083205043128 0.19952608644958214 0.20590104493220995 0.20904046613198396 0.1998746911249308 0.20918278129489432 0.19330602715369466 0.2018933373927726
-0.6485797915838496 -0.9769146033628243 -0.5332263052574884 -0.7778488919807773 -0.761325860239623 -0.8189273901497506 -1.0831427273754404 -0.9848180479366037
-0.8379705183323151 -0.6461037604841317 -1.016925132415582 -0.8587683125902291 -1.116901227315099 -0.6313516981914262 -0.8721611624704851 -0.7904112205236257
00000000: cea7 4d0d 4fb3 c73f 4acc 8775 c732 d8bf
00000010: fa4c 50d0 6073 bd3f c97a 3263 1b5c e1bf
00000020: 8380 e0e3 6510 b93f 884b 3ffa 68a0 e0bf
00000030: cedd bfe3 cf24 ccbf 233b 3496 3072 d7bf
00000040: 062d 02d9 ef76 dabf ae9a 4264 028e d23f
00000050: 56f4 e476 11e0 d6bf 84bb 0120 624d ddbf
00000060: 608e 4625 6251 ccbf 40f8 f95f 8194 cabf
00000070: ecd3 3fab 8e04 ab3f 86ff c3f7 7c9e e0bf
00000080: 933e 628c bc84 b0bf 17b9 dd80 6dda c9bf
00000090: d577 6556 0e0a b5bf 6737 70dd 9424 88bf
000000a0: 1951 f1bb f7d8 b8bf 8431 c2db 7291 b0bf
000000b0: 6043 ff5e 1013 d4bf 4b3f ddb4 a6b9 c9bf
000000c0: ccc3 f913 76fe 67bf 534a 01ba 341d a4bf
000000d0: 558a bf0a 789a d1bf 4a1d 89c7 52be c6bf
000000e0: 9f7b e195 b100 d6bf 9b55 90ab 695d b3bf
000000f0: cc34 a387 734d bcbf 45a7 91f6 5069 babf
00000100: 249e 7e9d b1d3 ba3f 3f3d d219 cd02 b73f
00000110: f295 2585 b6ae ba3f 4a74 2a71 b2ae b33f
00000120: d1e0 00de 2b5f b43f 1710 75f0 5154 b33f
00000130: e026 7bae c187 b83f 0cb7 d2e7 0199 b53f
00000140: 4398 c47a be81 ba3f 7248 b000 5b54 b73f
00000150: 7493 95de 7b05 ba3f 551f cd94 89c8 b53f
00000160: a878 a38b 74ae b53f cf3d 6a88 6572 b83f
00000170: 87b4 c27d 9be3 ba3f d298 cb96 3e9a b23f
00000180: 0b9f 65f2 a3e8 b13f 6bd6 81f4 1985 b03f
00000190: dd73 64db 899b b03f f2f5 e3d6 7e54 b83f
000001a0: f6b8 0716 bb01 ab3f e48f 4738 2360 ab3f
000001b0: fab8 397e 1218 b23f e3c4 5aba d98a b23f
000001c0: 07bc 3b46 71c7 ae3f ae15 f5bb 78fc b33f
000001d0: 1802 25a6 56a8 b03f c19b b7ff 4dc1 ab3f
000001e0: a26e 6f63 87af b43f e849 c565 c367 b13f
000001f0: 5a31 ca19 331a b03f 9be2 b462 f5b3 b13f
00000200: 1712 349a 36be b53f adc5 12d4 2cbe b53f
00000210: 9aea 4732 4ea5 b93f 01f4 ebec 41b7 b53f
00000220: 1739 3903 c92f ba3f 7db3 5b07 02e4 b63f
00000230: b6c6 e814 3bcc b73f 1812 9368 6dc0 b33f
00000240: feb2 0dfc 1464 b93f 0947 9cb6 cc2e b93f
00000250: 6ca5 314c 9d7b b93f bfba dde8 219b ba3f
00000260: 2262 ba9c 18b0 b53f 4721 a675 f4f4 b13f
00000270: fc84 fc36 3507 ba3f 4677 f4a0 5aa8 b63f
00000280: ca9a f0a1 12ef c93f c65b 1963 a760 ca3f
00000290: 53cc 87f9 bc2d c93f 95ba 7c6b 3898 c83f
000002a0: e112 53ce 399c ca3f 8449 acf3 1251 cb3f
000002b0: cb6f 003c dbdc cb3f 2a5a 16d0 b0f3 cb3f
000002c0: 6ef7 a0cb 46c1 c93f 3cfa ff1f 128a c93f
000002d0: c418 1927 f75a ca3f 6eea c986 d6c1 ca3f
000002e0: bbff d66e 7e95 c93f 5021 465a 80c6 ca3f
000002f0: d255 5f7c 40be c83f a4ed b010 a4d7 c93f
00000300: 465f 3668 2ac1 e4bf 57b3 0d6a e242 efbf
00000310: 9654 ce9c 3010 e1bf 5c31 095c 23e4 e8bf
00000320: 0181 ea0c c85c e8bf ebbc cf36 a734 eabf
00000330: e8a4 ef77 8d54 f1bf a7be 8c23 a183 efbf
00000340: 97fb 678c a7d0 eabf 4743 23cb e1ac e4bf
00000350: 4b49 a349 5345 f0bf 0351 2daf 077b ebbf
00000360: cae3 42d2 d3de f1bf 1a33 007a 0834 e4bf
00000370: cfdd b486 bee8 ebbf 174b d178 0c4b e9bf

weight f8 [3, 16]
-0.2829798585493108 -0.29561663992948617 -0.2942463359927143 -0.29381537633404947 -0.2960634037241998 -0.28656253863589837 -0.2877431372049095 -0.30378480450862544
-0.28145049881982726 -0.28324644694637247 -0.2989252976116576 -0.29068523579944255 -0.29152721241528745 -0.29276111553301104 -0.3049456714255062 -0.27551932031553045
-0.2858823341561012 -0.28640033828385836 -0.2958020054821095 -0.2897720518113236 -0.2890543600726058 -0.298038394975074 -0.29670492876361754 -0.2906283120762137
-0.28072029919896485 -0.2858236631219718 -0.29989840139051177 -0.30647477556091096 -0.3095149331443993 -0.29801671917720746 -0.26484673202194675 -0.30471657356889403
-0.2965249320178546 -0.2876437915810911 -0.29929944033676953 -0.30422435891714394 -0.30356940743999994 -0.29742855887672404 -0.287462383841426 -0.30629649339106696
-0.3064256545233711 -0.30554859768439874 -0.2728598863653249 -0.28713698187049186 -0.28947043077530127 -0.32076591315053415 -0.3029276131176676 -0.2943516275723772
00000000: ff57 798d 571c d2bf a0a2 290e 62eb d2bf
00000010: 489e 8395 eed4 d2bf cdaa 1a02 dfcd d2bf
00000020: ac6c 22eb b3f2 d2bf 7dcb ec66 0a57 d2bf
00000030: c062 fc30 626a d2bf 22b9 18d2 3571 d3bf
00000040: 59f0 f7f3 4803 d2bf 90f1 95b4 b520 d2bf
00000050: cf1a 4c92 9721 d3bf e912 4c3f 969a d2bf
00000060: e0ee cdc0 61a8 d2bf fd4d 301e 99bc d2bf
00000070: 6e13 75d9 3a84 d3bf 6df7 8ac9 1ba2 d1bf
00000080: 2418 ed6a e54b d2bf 4285 9f15 6254 d2bf
00000090: 87c2 e888 6bee d2bf d4c3 7413 a08b d2bf
000000a0: 93cb d1db dd7f d2bf 90b2 d7a1 0f13 d3bf
000000b0: 0683 66ab 36fd d2bf 612d ea7d a799 d2bf
000000c0: 4181 1846 52f7 d1bf da08 6255 ef4a d2bf
000000d0: 5113 8610 8931 d3bf bc50 8560 489d d3bf
000000e0: 03a5 deb8 17cf d3bf a5bf a1b7 b412 d3bf
000000f0: b426 1fb5 3ff3 d0bf d6c3 81f1 7980 d3bf
00000100: 9fc7 5db5 43fa d2bf 1a3f 6f81 c168 d2bf
00000110: 2548 fdd6 b827 d3bf 5686 0c72 6978 d3bf
00000120: 6856 4161 ae6d d3bf 7867 51cb 1109 d3bf
00000130: c276 5ba0 c865 d2bf 8b9f 7f9b 5c9a d3bf
00000140: 5a54 3559 7a9c d3bf 6f29 99b4 1b8e d3bf
00000150: 0414 1550 8976 d1bf 30c7 a6ca 7360 d2bf
00000160: 5fb1 55fc ae86 d2bf bacc a9c0 6d87 d4bf
00000170: 8653 d97f 2a63 d3bf a4a7 7c35 a8d6 d2bf
