Retweet/RetweetNetsV3/TrainNet_ep5V2.pt (torch, 23465 bytes, 6 tensors)

scale f8 [3]
00000000: a04f 8637 b109 e33f 4987 eedc 0e00 e33f
00000010: 2e1b 7275 50c1 e23f
0.5949331364122266 0.5937570872376706 0.5860979360448704

weight f8 [112, 3]
00000000: 2a13 d991 90ad b63f 39a7 8cae dd06 c13f
00000010: 11d6 9f3c ebbd b13f 5c3a 3e51 e99f dbbf
00000020: 02b8 6e5f 220d d5bf 6820 b9a4 3e97 c2bf
00000030: e1df 071d 035f ac3f 67d8 9add f090 b83f
00000040: 13ce 37f5 b94d b93f 5de1 4b1a 1a98 dfbf
00000050: d889 4f74 3154 ddbf 741e f83e 2dd0 d1bf
00000060: 8a6d 474c 239b 80bf a30c 0f35 d473 bc3f
00000070: 8604 5906 fab3 b23f e7e5 dcb0 4ddd dfbf
00000080: f343 d24a 2a96 ddbf bca6 2f6b c8d0 cfbf
00000090: bf6f 61ca 31d3 cbbf 414d bd5d 7cbf c6bf
000000a0: 1e71 91e5 973f 89bf 3620 5b2e 9081 d9bf
000000b0: ee32 dce5 b058 d0bf 8867 6ab1 e4d2 bbbf
000000c0: d21a 065a d9aa d5bf 3be9 33fc 9528 d2bf
000000d0: 16fa 2432 074f c4bf ca8a 5e62 0105 c13f
000000e0: d4ad 7781 457d c93f f8ca 82e1 27b0 c13f
000000f0: 2ab9 cc91 c07e d9bf d1e0 9a3f ef4e d4bf
00000100: 57b8 a1c6 52b2 babf f96f 105a 9139 ddbf
00000110: f7bb 2957 9d24 dbbf b452 5b39 64ce cabf
00000120: 173d e3a7 4704 c5bf d117 9b40 c21e c5bf
00000130: c123 adec 079a a53f 04e1 77ec 96d4 b8bf
00000140: 5bb2 04d3 1744 bebf e80d b4ff 117f bcbf
00000150: 0cc4 69d3 89ba c9bf a52c aa4c 3e56 d13f
00000160: c826 db0f 1464 9b3f 3b93 0631 a7a9 debf
00000170: 9684 e9b1 b2fd debf 0aa7 af31 c1e6 d1bf
00000180: 0075 f4a8 9df3 933f 07de 223f 5715 b9bf
00000190: 6e9c 8bb0 eae1 aebf a98a e188 a6ab a5bf
000001a0: 7a12 dbb7 01bf c8bf 9a4d 45ee 1565 dabf
000001b0: 80bb 35ce d23b 7c3f 159d d91e 98da b8bf
000001c0: 9a31 a693 0eb1 99bf 5ce8 7de5 70db 9c3f
000001d0: af73 ed9b a6ce b3bf 24ea 8def 3148 c4bf
000001e0: 5729 e671 1cc9 afbf 3c0a ac7b 976c b3bf
000001f0: 3a6f 4dad 2a41 b3bf 3e4a 4b75 af37 b73f
00000200: b9c6 fac9 e246 c4bf 5e6d eb1a 83ab c5bf
00000210: 12aa 2844 7891 b43f 351c dfd6 b35e d9bf
00000220: bda5 27a9 6473 d7bf 18b7 75b5 1d35 b1bf
00000230: 565d 3d93 a46d c4bf c8fe 463b 43d0 dbbf
00000240: 1932 e0d7 4d2e b23f cc9d 8860 4a97 afbf
00000250: ccb0 e285 69ad cebf aaa9 1cf8 8f73 733f
00000260: e88e f757 fa88 abbf 3abc 3951 6304 b2bf
00000270: 4561 929d 8cf7 8abf c596 fdf6 ce9f d4bf
00000280: 6119 7f1e 4bbf d9bf 31f0 57ff 7ee3 b43f
00000290: 608a 6b21 4d70 d2bf 254b 0a5b f5b9 d6bf
000002a0: b49c c9c3 ad8e b73f c4d2 6c3c c992 d9bf
000002b0: 0188 4449 7b04 cbbf 623e c49a 24c6 86bf
000002c0: 9190 c59f b05c b8bf f746 4b3d 076b bdbf
000002d0: 9fdd 0320 333e d1bf db36 a9f6 78e3 c03f
000002e0: 42a8 82ae 61ed b2bf c6c2 0ac2 7717 c23f
000002f0: 3b5a 014f 2840 cdbf 0694 9d35 2ad0 c6bf
00000300: ac6e c913 cb5a b23f 0abc d665 e0c6 b13f
00000310: 6e01 db3a ce29 d03f c0cb 5b16 2701 ac3f
00000320: 103f 4423 c172 b93f 8a59 ab92 fa1f d13f
00000330: 2db1 4663 103c ae3f cda5 4dee 6a03 b73f
00000340: f37e 8ed4 5dde d03f 12ed 8b83 f7ee b13f
00000350: 9436 5be0 2e32 ab3f 5d1b 001a fdc7 cc3f
00000360: fad9 028f 7e67 b43f 4e78 fdc8 f309 b43f
00000370: 37a4 c063 9ada ca3f 8576 d638 6878 af3f
00000380: ebaf cf03 455d a43f 24df 9949 8d3f ce3f
00000390: 4ce0 b2eb c962 b23f 21a0 0424 b526 b33f
000003a0: f144 1319 9adb d03f 6879 7801 7d2a b13f
000003b0: e8e9 fd81 434a ab3f e9a4 aa84 2f75 ce3f
000003c0: c41f 3c4f 4dc8 b13f 790a 89c5 b467 b23f
000003d0: e539 6f15 bb97 d03f bed7 669e 19b6 b03f
000003e0: 8882 54e3 985a b93f 0fab da9d e956 d03f
000003f0: 4c2d 4372 44ee ad3f 35d6 804a fcdd b43f
00000400: cf2c 47fb d811 d03f 7521 06c5 7260 b43f
00000410: 404b 32a4 67d1 af3f 14fe 45ec 9323 d03f
00000420: f051 ba19 7526 b03f 01e0 3111 2ff0 a93f
00000430: eaeb 86ab 8524 ce3f c65d 91f3 5260 b13f
00000440: cb37 d67f 2841 b43f 73c4 7fa9 dc8f cd3f
00000450: 02bd e241 5743 b13f ac82 d0e8 5e33 b23f
00000460: b462 f410 b07e d03f 5bc8 7594 2104 b13f
00000470: 4b26 9679 5259 b33f a1ea 4b07 9144 cf3f
00000480: e707 c3ba 72d3 b23f 1d31 a1bb c5a8 b13f
00000490: 3d05 a2ea 171e af3f 35d5 a0ac 1598 b03f
000004a0: 4113 01ec d0d6 af3f 5d3a cb6e 6294 af3f
000004b0: 2468 2066 4d0f b23f 8dda f219 e93c ae3f
000004c0: 1003 4be9 6afd b13f bc56 45e6 a513 b33f
000004d0: d742 0dc0 13c6 a83f 1e3a f17f 2941 ac3f
000004e0: 6798 8e92 74a0 b33f c900 8909 1ff9 a93f
000004f0: 2e21 e978 a4d9 ab3f 0345 a1fb bd58 b03f
00000500: 1434 fb0a c003 b53f af69 fe0f 6e0e a23f
00000510: 4648 31e9 9cda af3f 1efa 48fc 5ca0 b23f
00000520: 6bb8 86ad 73e0 aa3f 320e 4aa2 30b6 af3f
00000530: 3602 a055 8b6d b83f 9eb6 9dca 9b60 b13f
00000540: af92 a69a e172 b33f 631c d006 befe b43f
00000550: 93ba 8693 de91 b23f 1043 d6d9 d65d b33f
00000560: 643c a4cc 77e2 b63f 49af e03b c598 ad3f
00000570: cd24 080b 059b ae3f 21c5 b755 d665 b13f
00000580: c133 afba ccc7 a23f 9d4d a698 f3de ae3f
00000590: 71a4 cfb0 345b b23f 2ff0 ed4a cc2e a63f
000005a0: bfdc 521b 2d6f b23f 5cfc 9bca 50cd af3f
000005b0: 8e82 19b4 51dc ae3f 5131 0e01 6279 b43f
000005c0: a6ed 95a2 7cc6 b13f 1ead 27a2 6442 af3f
000005d0: eef8 9b2a fe7a b53f e9b1 7872 2fe6 b03f
000005e0: 8de4 c4ec a35f ac3f 2905 39a2 53af b33f
000005f0: d898 ef3f f70a b43f dc72 b718 2bcc a73f
00000600: 3e66 882d c232 a93f 9a62 f7e8 1921 b63f
00000610: ae50 4fb5 e39e d03f 13a7 334b 187e b33f
00000620: 24d0 cb33 a846 b43f 6850 ed2f 1ae9 d13f
00000630: c613 c789 a1e3 b23f 79c7 ddc2 4713 b03f
00000640: adc5 4df3 adf1 d03f 4d8e 809c f5c2 b43f
00000650: ff33 b868 0159 b53f 9ffb ed3f c4dc cc3f
00000660: 83fd 8176 17f8 ad3f 024e e981 176e b33f
00000670: fcdd 9471 2c2a d03f 4b60 d831 6dda b03f
00000680: a672 a663 9cc8 b73f 129b c7c3 d45c d03f
00000690: 94e8 e87f 1691 b33f 7d83 d6a9 9bb2 b23f
000006a0: e53a 1168 8cf9 cf3f 1ecb 68a6 ca5c ac3f
000006b0: 166e dec7 d12a b53f 510a 8896 6613 ce3f
000006c0: c65e 3121 09dc af3f 2a07 0b06 0f23 ba3f
000006d0: d249 1f85 6e8c d03f 5266 f290 0d0c af3f
000006e0: 5fec cf72 8dd9 b23f fd07 249f 5f53 d13f
000006f0: 205c 369d d758 b03f b002 d3ff 852e b53f
00000700: 40ee eff2 db30 d03f 3a2e d7c9 de6c b03f
00000710: 92f6 8122 9117 a63f d6d2 2461 958d cf3f
00000720: 4be5 535c 6eb7 af3f bc1b 3bd7 d82e b33f
00000730: 2330 d4ce a4e7 ce3f c5ed 4ce0 73dc b13f
00000740: 3b64 2f99 5477 b43f 6b58 c778 c218 cd3f
00000750: 72a5 8447 ad6c b03f 9ad4 5fbc 15ee b23f
00000760: 2bc4 ee4b 8ca9 d03f 6097 e30f 3551 b43f
00000770: dd8a e92c 5638 b13f 723f 4566 1896 cf3f
00000780: 441d 5b27 b662 c83f e7d1 aa0d b087 c83f
00000790: 6015 ccc0 54d4 ca3f 6767 dea8 f13d ca3f
000007a0: 2727 2242 207d c83f 1d8d c4ca 68ab c83f
000007b0: 132b 9ea1 845c cb3f 4191 dde9 7cc4 c83f
000007c0: fd20 c84c 04c7 ca3f 516d dca1 0b7f c93f
000007d0: c2b5 db2c a472 c83f b4cb 6c3d 04e4 ca3f
000007e0: 763b 977d 0041 c93f af30 bee7 f36c c93f
000007f0: 448a aedd f74d c83f b844 2145 3714 c83f
0.08858588753453192 0.13302203200265142 0.06930418233954351 -0.43163521703619323 -0.3289266521413766 -0.14524062197802157 0.055412385267061166 0.09596162233614934
0.09884226071135797 -0.4936585671234946 -0.45826374395815384 -0.2783310999807107 -0.008108402028418355 0.11114240928059131 0.07305872588132631 -0.4978822924782364
-0.46229035670063395 -0.24855904802034512 -0.217382644480379 -0.17771868302461694 -0.012328325932849323 -0.3985329106039929 -0.25541326949387055 -0.10868672686993197
-0.33855279723540577 -0.28372716550042626 -0.1586617464872268 0.13296525290669187 0.19913548299460493 0.13818834792399293 -0.39836134184123984 -0.31731778346467104
-0.10428349828154758 -0.45663865847905033 -0.4241097785188112 -0.20942356873151413 -0.16419311235083775 -0.16500118403035782 0.04219078792681997 -0.0969938590350275
-0.11822651769461727 -0.11131393902547126 -0.20100519965083696 0.2708888767890108 0.02674895617273057 -0.47910480296768626 -0.484234498731959 -0.2797091469970928
0.019484008252324436 -0.09798188487445013 -0.06031735806555437 -0.04232521458540834 -0.1933290622456701 -0.4124197794783072 0.006892989596379517 -0.09708548310446859
-0.02508948112658658 0.02818085098940802 -0.07737199122261872 -0.15845321843137683 -0.0620812310254048 -0.0758757283147497 -0.07521311503427067 0.09069344152093436
-0.15841326582226659 -0.16929663481173923 0.08034469284090331 -0.39640518172786027 -0.3664180423644117 -0.06721673660441885 -0.1595960349029421 -0.4345863417511109
0.07101904411701589 -0.06170113018407228 -0.23966712033632687 0.004748880748403664 -0.05377943347755637 -0.07037945492787481 -0.013167475279531113 -0.3222539340989495
-0.4023006246392438 0.0815963147542227 -0.28810432685546594 -0.35510000124593183 0.09202085523576181 -0.39958411122215076 -0.21107426717304636 -0.011120115254498578
-0.09516433621098687 -0.11491437193333441 -0.26942136885141993 0.13194191020959675 -0.07393465528971979 0.14134118056019512 -0.22852043016128384 -0.17822768800684247
0.07169789536549825 0.06944086538599961 0.2525516104469919 0.05469629428798539 0.09940726386070886 0.2675768310849881 0.059052002066297106 0.08989589994384702
0.2635721755741393 0.07005259477221085 0.05311724175190338 0.22485317010451925 0.07970419875605464 0.07827685982690122 0.20979623671272105 0.06146550840206281
0.03977409049534216 0.23631445020486652 0.07181989673961303 0.07480938081118939 0.2634034390330973 0.06705457006362325 0.05330096208395557 0.23795122125492377
0.06946261581845109 0.07189493010177185 0.25926091283045444 0.06527862660627101 0.09903865385104826 0.25530472197958515 0.05845846075825509 0.08151223009993987
0.25108933009023543 0.07959668455271703 0.062144507211221 0.25217149804663674 0.06308681371803693 0.050660582398393224 0.23548956752151123 0.06787603804092787
0.07911923523917534 0.23095281864474124 0.06743378981149209 0.07109635528514485 0.25773240714765255 0.06646928667558553 0.07558169811650221 0.24427998405720522
0.07353894290557116 0.06898151236345425 0.0607764696042161 0.06482062782818761 0.06218579178724904 0.06167895891632178 0.07054599517178467 0.05905846063381146
0.07027309604292165 0.07451855537268676 0.048386208719085104 0.055184647434192366 0.07666710451175761 0.05072876922031495 0.05439485527000652 0.06385409730252793
0.082088473015759 0.03526634164082353 0.06221475931728597 0.07275944861701375 0.052493681843189 0.061936874209120765 0.095421512989568 0.06788037964516966
0.07597169900561583 0.08201205889064193 0.07253829099384239 0.07565062349591423 0.08939312692767626 0.05780617099693914 0.05977645644822758 0.06796016304703702
0.03668060091840842 0.06029473532103256 0.07170419041325872 0.04332579054514018 0.07200891415674258 0.062113308651526394 0.06027465175134693 0.07997715497748926
0.06943491906525043 0.06105341414862607 0.08390797176614104 0.06601234955514425 0.055417177822570364 0.07689402304187766 0.07829232512412732 0.04647955586162819
0.04921538167782245 0.0864425843968867 0.2596978445628889 0.07614280544262568 0.07920314087442698 0.27985243492481127 0.07378587354385421 0.06279419429281842
0.2647509456647537 0.08109984465459626 0.08338936621312597 0.22548726197780142 0.05853341409328563 0.07589861795104727 0.25257407276100685 0.06583292452740001
0.09290482933870212 0.25566596144783305 0.07643261549756836 0.07303784271654297 0.24980311471377728 0.05539544373859527 0.08268462304698007 0.23496706342855814
0.06222561388193308 0.10209745309387289 0.25857127189843 0.060638832038603 0.07363208821327437 0.27071371594513477 0.06385562503997777 0.08274114127835719
0.25298212742174897 0.0641612284445551 0.04314855142818631 0.24650828593589463 0.06194634320304234 0.07493357901249359 0.2414442071825543 0.06977009035192967
0.07994583835478945 0.22731810471913447 0.06415827747391292 0.0739453873537336 0.260348390725144 0.07936412465968834 0.06726587864390461 0.2467680453651116
0.19051243707347443 0.19164086024615232 0.20960482992101515 0.20501538034005337 0.19131854275865942 0.1927309980465929 0.21376092807289435 0.193496336166513
0.20919851063832332 0.19918961909648172 0.19099857511848312 0.21008351325289498 0.1972962010608758 0.1986374742085721 0.18987940143877513 0.18811694026456904

bias f8 [112]
00000000: 402d b9b0 ce34 c63f 7489 e153 584a d9bf
00000010: 7bdc 0a1b 2df0 b83f 00dd 404a 05ba e0bf
00000020: 7069 42d8 1ba6 b63f 0d8c 3dc2 80f8 debf
00000030: f08f 0e38 581a d1bf 9205 ca79 b503 d8bf
00000040: 1f36 0084 8786 d9bf ceb8 eb26 6eca cf3f
00000050: ac0e 5ece 6417 d8bf 8ba2 e8b2 e49b dcbf
00000060: e388 07e7 7d89 cdbf 7107 daba a342 c7bf
00000070: a454 44f0 8805 ad3f de56 c111 7d30 e0bf
00000080: 0a6a b85c 43c6 a7bf 0ead 63c4 3b21 c8bf
00000090: b503 a462 264d b1bf 04b1 be8c 2eac aabf
000000a0: ad2c d5e2 82e1 b8bf f2d3 bf07 309e b1bf
000000b0: 98b3 1783 b359 d2bf 2641 81f8 004e c8bf
000000c0: 9520 87ce 39f8 98bf 25df e50e 57a9 a6bf
000000d0: 7090 779a 58c2 cfbf bd0d 3cd1 f3ed c1bf
000000e0: da51 c4c6 ceb0 d1bf 94d7 c3d1 0f63 b3bf
000000f0: 73f0 f9b5 02f6 b6bf 5bf0 b392 e1ec b5bf
00000100: 320d b76e 50da b73f 1b3c 619a 4334 b83f
00000110: c6ac 6896 f015 b53f 7417 8158 383c b63f
00000120: b48c 59f5 0333 b83f 52e5 72fb a0c5 b63f
00000130: abdb 8ffa d3ba ba3f 9495 1d0d 6857 b53f
00000140: d136 c3b4 c09d ba3f 3c7c 2365 54e1 bb3f
00000150: de3e 58f4 0fa1 b73f 2777 a8a9 855d b53f
00000160: 922a 83d6 9270 b13f 1e0b 6771 b5bf b93f
00000170: 29c4 518d 9fb7 ba3f 522a 21cf cd17 b23f
00000180: 83f7 b829 b230 b63f a7de a171 4d88 ae3f
00000190: 0cbe 2181 35ee b33f 6fbe f375 b42f aa3f
000001a0: 100c 1d6c 3fd5 ad3f 08a6 75e3 7998 b23f
000001b0: 0ef9 ea44 5ba7 ad3f c44d ebca 5578 b43f
000001c0: e83c 9be9 fd0a b13f d5fe a762 458b b33f
000001d0: c4eb f77e e5d6 b03f 7b06 da14 b87b b43f
000001e0: 3d9b 7ba5 be85 b23f 7c3e ff33 be2c a83f
000001f0: 2f6a 6369 1049 b13f fe39 859a 1536 ae3f
00000200: d58a cf86 0859 ba3f d11f 90cb 66c3 b83f
00000210: 4ca9 115e c782 b63f 6cbf d953 1dcf b73f
00000220: ed3c a472 83e4 b63f 70ae a902 11a5 b83f
00000230: 80eb 4636 21ec b53f d7dc bc42 8705 b53f
00000240: ac76 093e 2902 b63f 456d 93eb cc32 bb3f
00000250: 5857 9282 0324 b73f 2e4e b784 7b07 b73f
00000260: bd85 0dc5 4159 b33f 6f0a 518f 5ded b73f
00000270: f673 7828 0f34 b93f 57a3 957e a44f b83f
00000280: ee9d 90e0 3342 c83f f09a 07e6 b5bb c93f
00000290: 98ec 922c 3116 ca3f 2195 94b6 7423 ca3f
000002a0: 224c 8319 7fe5 c63f c4f7 3e4a 8a02 cb3f
000002b0: b28d 1cf9 0d11 c83f 7a45 b71a 0b46 cb3f
000002c0: bd95 5f54 ddc8 ca3f b841 0f80 d082 c93f
000002d0: 993f 72d5 df14 c83f 6d52 f403 e41d c83f
000002e0: 2831 50e8 36f9 c93f dba5 3abe 1aa2 c83f
000002f0: 6163 d478 92b5 c93f aa36 c8dc c29f c83f
00000300: 3561 cbb7 0a68 e2bf efc3 0db4 da86 edbf
00000310: 15c3 2d29 dacc debf cfd0 4c23 d87e e7bf
00000320: 142f c3b9 5fcb e5bf d434 a4c0 5f7a e8bf
00000330: 93da b392 ae89 f0bf 7f40 bde9 834e eebf
00000340: d155 3f98 5c16 eabf cd85 ea21 fc9e e0bf
00000350: df8c d7ce 2ff0 eebf c0a1 1f39 224a eabf
00000360: c411 3419 abea f0bf c013 a9d8 0e0b e3bf
00000370: 5c9d 432a 92be e7bf e597 c4ce 941c e8bf
0.1734865534693686 -0.3951626605177332 0.09741479788032052 -0.5227076006184745 0.0884721186616042 -0.4839174172286114 -0.2672329471045023 -0.3752263726565498
-0.39883602038102767 0.24836518192700513 -0.37642784264628903 -0.4470149752765244 -0.23075841694578178 -0.18172117828003878 0.05668285305925139 -0.5059190127164717
-0.04643450266685896 -0.1885142048771304 -0.06758346470088734 -0.05209489315106633 -0.09719102895648986 -0.0688200014991052 -0.28672492792139215 -0.1898804868128618
-0.024384406309565582 -0.04426071221217701 -0.24811847250305474 -0.14007423130543187 -0.2764164868433717 -0.07573031302658101 -0.08969132368832948 -0.0856457694207519
0.09317496016506224 0.0945474864868036 0.0823660247048564 0.0868563858103622 0.09452843418107443 0.08895307673346523 0.10441326968417168 0.08336496658519926
0.10396961606167145 0.10890700787739233 0.09230136599967007 0.08345828430216483 0.06812398659819 0.10058149355522203 0.10436436844044351 0.07067571932672337
0.08668054121605277 0.05963365566361505 0.07785353090888963 0.05114520969243307 0.05826757616753053 0.07263910105907467 0.057917453921151205 0.07996116832810346
0.0665739722564812 0.07634385737037104 0.06577905988517246 0.08001280316423191 0.07235328235729539 0.047216361853881644 0.0675211198135137 0.059006381142001615
0.10292104045178559 0.09673159093665552 0.08793302580457868 0.09300406739361983 0.08942433880678254 0.0962687140942593 0.08563430380938364 0.08211560611094924
0.08597047581266776 0.10624390364994436 0.09039327562126453 0.08995792379510512 0.07558070240840827 0.09346565960826479 0.09845061052369872 0.09496524897043677
0.18952034440120208 0.2010409711067136 0.20380224873028818 0.20420702853258724 0.1788786768507587 0.2110150206116811 0.1880204645504882 0.21307505421149725
0.2092549001674068 0.19930464032087314 0.1881370346277407 0.18841219132504552 0.20291792243404783 0.19244703568010277 0.20085364246258577 0.19237552433371735
-0.5752004232154265 -0.9227117077517714 -0.48125318547595103 -0.7342339219526596 -0.6810759189770317 -0.7649382364776565 -1.0336137514656556 -0.9470843854160335
-0.8152296994764417 -0.519407335512534 -0.966819671619671 -0.8215495219893043 -1.0572920784480724 -0.5950998527192652 -0.7420130563231555 -0.7534889257847196

weight f8 [112, 16]
00000000: 0731 aeca 52ab c5bf 2240 eb75 55a8 d1bf
00000010: 374c a9af 846c c3bf c280 9cc0 d5d7 853f
00000020: b581 ca9c a5b9 c1bf 4f0d 52e3 912a a2bf
00000030: bc7e 5d3b 9740 d3bf b4f7 fde9 4b32 d3bf
00000040: 9316 3bcc c26d b8bf 8306 dca8 59af c3bf
00000050: fc02 9abf a294 d3bf 7c16 90bf 1ea4 b7bf
00000060: 646a 093b 962d cfbf c08f c1df a69d bebf
00000070: f76c f3b3 301b c4bf 202f c225 5b18 96bf
00000080: 7d6b 7373 035b e7bf 9920 04f9 7c69 d9bf
00000090: da62 c452 702f e7bf 554d b6a4 b31a e1bf
000000a0: 773d d812 21d8 e6bf e8e3 eda3 06e0 dfbf
000000b0: 444e a3f1 4ec4 dbbf ebe8 47c7 e5b1 d9bf
000000c0: ba0c 55a1 469e dcbf 50de c294 28b9 e7bf
000000d0: 6f3e 2b95 d80e d7bf 6b9c 5626 04d6 dcbf
000000e0: fe53 1bb9 546c dfbf 15be cb51 aab1 e4bf
000000f0: 6d52 09f6 0604 e7bf f5d4 e5a1 dfce dfbf
00000100: 3f4b 5fa5 6502 c4bf 0bf5 6972 21e7 cfbf
00000110: cb17 4b0b e0fc c3bf bc80 43ba e159 a1bf
00000120: 6c17 cbd4 8b38 c3bf 469d 407c ef91 a0bf
00000130: fe15 8470 73d6 d2bf 178d ec26 1bdd d0bf
00000140: 6517 bf2a 4e32 b9bf 4653 4fbb d182 c6bf
00000150: 9575 a7f8 7926 d1bf 6766 8293 ec0c bcbf
00000160: 8cea 4875 0a8f d0bf 783d 2d11 b39e bcbf
00000170: d8d1 0e3d fe23 c5bf dc87 a8f7 48dc a1bf
00000180: a678 02cf 191f e7bf f6bf fe7d 1bf5 d6bf
00000190: 1b50 7cd2 2165 e6bf effa dd84 89c8 d9bf
000001a0: 3e6e 4f50 b471 e6bf 11fc e5cd 80b5 d8bf
000001b0: 6d4d 5345 7600 dbbf 05b1 cf0a a684 d8bf
000001c0: 053b 1c03 11a7 dabf 5070 ead2 c4ba e7bf
000001d0: bbd2 ffde 411b d7bf 8482 b884 e28b d6bf
000001e0: abe1 07bf 712e debf 4899 9ea7 77b2 e4bf
000001f0: 9c5d cffa fe9a e6bf 929b f78a 3372 dbbf
00000200: 9ebf 8dc6 3250 c7bf 73e7 b709 9206 cfbf
00000210: 5ad3 4988 f3b0 c8bf 1858 722e 3447 b33f
00000220: 82e8 def3 4152 c6bf f40b b36f 8fda a43f
00000230: 20fa 689f 2b0c d4bf 71a8 bbf0 d504 d2bf
00000240: 7fde 9410 0573 a7bf ed5c 0773 b447 ccbf
00000250: 7a20 6c7c a032 d2bf 2c1b 1660 d5a2 acbf
00000260: f64f 2070 9b20 d0bf 1f5a e00b 4e17 bebf
00000270: 7697 89ee 9282 c7bf 8bf8 7b66 0921 a53f
00000280: 5007 e384 728b e6bf a5ea 0ea7 3ac4 d7bf
00000290: 2085 0813 c70b e7bf 02f2 5a7d 11f7 ddbf
000002a0: 3aa8 3655 81cc e6bf 1dc0 ff13 a035 dabf
000002b0: 1ebd 0055 9842 dcbf 975a 1e8b 95ef d9bf
000002c0: a3f8 131f 7d97 d9bf 1366 a414 bd45 e7bf
000002d0: e268 26db 2ee7 d5bf 1a67 a1f6 829e d9bf
000002e0: 87c3 2c0c 2566 dfbf c8b0 5905 0c15 e4bf
000002f0: c0c5 f62d b149 e6bf 1b47 3693 a43b debf
00000300: b649 9c84 5000 e6bf de56 86e7 be95 d5bf
00000310: 5c02 3764 5afd e5bf baab 2db6 c380 d9bf
00000320: e595 4608 8f3f e6bf 9664 94cb f50d d9bf
00000330: 28aa 4c60 553e dabf 345c 9720 a241 dabf
00000340: 1f2e a220 66c4 debf f8f8 9018 8236 e6bf
00000350: 77d0 3752 180c d6bf 897a bf64 745f d7bf
00000360: 7ea3 24c8 f375 dcbf 96bd aa94 56e0 e4bf
00000370: 1312 5938 6c35 e6bf a849 59be 97d7 d8bf
00000380: cf80 ac39 d60f e6bf 1341 ab87 147d d7bf
00000390: f314 d64d dbd8 e6bf 4d85 7214 6a6d d9bf
000003a0: ccf7 bcc3 bd6d e6bf b5f3 ac8e 7fea d8bf
000003b0: d114 3724 c0c4 dabf a397 44b6 5fe7 d8bf
000003c0: 9f6c bce5 e7d8 ddbf 2846 65be 8a45 e7bf
000003d0: 5dcb 4381 b270 d6bf a0e6 b792 f3bb d6bf
000003e0: 1110 2456 fc4e ddbf 71a6 e2e7 c175 e4bf
000003f0: 464e 494e 2611 e6bf eee6 1b3b 0d97 d8bf
00000400: e40c 7391 5b23 e7bf 0480 68ee 866c d7bf
00000410: 42ea 2e93 d076 e7bf dccb 5825 b1ad d2bf
00000420: 66f2 4f92 b49e e6bf e821 ab2f dde0 d2bf
00000430: 0cc6 a8c5 669a dbbf 6de7 ee39 1be5 dabf
00000440: a5aa e616 8647 dcbf 2aea 658f 0b84 e7bf
00000450: 2cfc 8832 92f5 d7bf e01a d92c eae1 d1bf
00000460: 5a61 6d01 393a debf 99a3 b860 0148 e4bf
00000470: 0e8d b2a5 6bdb e6bf 7b8c 2011 3a50 d0bf
00000480: f2e1 9cb1 fb99 b8bf 05af 3c36 11e0 b7bf
00000490: fd11 c58b c3a7 bfbf 31ff 58d6 c591 983f
000004a0: 1a23 d1f0 5251 b5bf 8155 c55e 8479 9e3f
000004b0: 78ea 6d19 4873 c2bf 1989 aa79 2b04 bfbf
000004c0: 3461 79a3 f846 90bf 5adc 797f 305f b4bf
000004d0: 66f5 cfc8 c1e1 b9bf 1050 b7dd 8147 9fbf
000004e0: 5dd0 9828 e84e c2bf 47c5 a18c 4845 a8bf
000004f0: b0db dc93 6dc2 b8bf 4c33 cad4 ac05 9d3f
00000500: 2f90 591c eae4 e7bf ccaf 05cf ab12 dbbf
00000510: 802b 912f f384 e7bf f871 38dc 7be5 e2bf
00000520: b9b4 656b 72ce e6bf 8949 ad3c fa0b e2bf
00000530: 2566 e963 bf28 dcbf 1a3f 273f 42f8 d9bf
00000540: 6a8b 0d0a c8fa ddbf fba9 5335 de4e e8bf
00000550: 373f 0e69 9ec2 d8bf 1d33 e92a cd7b e0bf
00000560: 61c4 ac73 69c5 dfbf 0836 9334 1b3a e5bf
00000570: 4b59 7d28 92fe e6bf 0f9e 1005 4039 e2bf
00000580: f0bb 004d 3cef e6bf 9731 dbd9 2ebe d6bf
00000590: af2e e10b 1fe1 e6bf 5429 07e0 7796 ddbf
000005a0: 56e2 7178 0cfe e5bf 3f12 8983 cd0a d8bf
000005b0: 76cf ba6d e9da dcbf 1fed 585d 0da3 d9bf
000005c0: b9c3 1982 87db dbbf 296b 3f19 a43e e7bf
000005d0: 8756 b53c 3876 d6bf d5d3 1d57 20ee d8bf
000005e0: 22ff 306d 1162 dfbf 67ea d686 674f e4bf
000005f0: 2749 5600 3a12 e6bf 6221 849d b75f ddbf
00000600: de51 5ca0 44a4 e4bf 3521 5858 a6f3 d6bf
00000610: b8f1 7eb5 fb2c e4bf 48fe 7f85 1817 d8bf
00000620: 2818 d37e eaa9 e3bf 619e 3082 55ef d6bf
00000630: f140 99b5 61e7 d9bf 8957 c8d2 e1a9 d9bf
00000640: 33a9 54c4 2c31 debf b132 3989 3066 e4bf
00000650: c7fa d77f a7d2 d5bf 38f3 affa f60d d6bf
00000660: f8a9 1355 83d7 dabf 8f8c d115 13cc e2bf
00000670: f286 52c7 6fa1 e4bf 24e9 edd4 1600 d7bf
00000680: f9bb 305d 7bad d7bf cd66 1821 80d1 c2bf
00000690: b84b 0a90 7e9f d8bf c38e 8b66 a0e7 af3f
000006a0: e122 09a3 4c66 d7bf 423f 9a89 68d0 973f
000006b0: 8b1a 6f97 d0a8 d0bf 5fd1 2915 cbba c7bf
000006c0: 6951 6267 3d67 bdbf 5f53 57d3 a2ea d8bf
000006d0: bd51 afa0 8561 c5bf 317d 4230 add3 95bf
000006e0: 7162 a5bb a2bf d0bf 3f1e 8470 fb10 d2bf
000006f0: c21f 4cad c1b2 d7bf 56d6 2489 8b72 ad3f
00000700: 852f 78a6 8f36 c7bf a68a 1b4e 5332 b8bf
00000710: c8c3 7f9a d893 c9bf 7d19 a64c 81b8 c43f
00000720: 7e3d 6d4c 8230 cabf c6f6 ab1a 24dc c13f
00000730: b429 1c09 ca40 c9bf 508b 9dc1 7b82 bfbf
00000740: b065 0e3a 0c5d a83f 642b aa53 a303 c9bf
00000750: 0f1a 72c8 e2a1 bebf e41c 569b 4f4e a43f
00000760: f6bc 56de 19da cabf 18f9 3e73 3308 bebf
00000770: f8d2 1d00 410e cabf edae bb90 848e c23f
00000780: 772a 6a18 b04b e6bf 6b2a bda0 1308 d6bf
00000790: fe2a 3402 d732 e7bf 3704 7996 6e11 d9bf
000007a0: aa35 8e3e 2f50 e6bf 63aa 7ac2 3bc4 d6bf
000007b0: 0221 cb5c 4634 dbbf 63c7 ba67 6947 d9bf
000007c0: 3298 86dd 92e5 dabf 0c7e 17b1 0935 e7bf
000007d0: 059f 3008 1a2a d6bf fc8b ce27 723c d5bf
000007e0: 9234 91b1 f7d7 ddbf bb60 18fd eae4 e3bf
000007f0: 7c78 e179 1d3f e6bf 8185 21db f35f d9bf
-0.16929087540155072 -0.27589928164980126 -0.15174921586239673 0.010665578785449607 -0.13847799449741918 -0.035481032370649694 -0.30081730649360927 -0.2999448571280212
-0.09542481886009062 -0.15378876442996522 -0.30594700537771735 -0.09234802414729332 -0.24357869990020042 -0.11959307635112193 -0.15707978045143253 -0.021577285937879442
-0.7298600439929569 -0.39706348722439483 -0.7245408646150182 -0.534509488776545 -0.7138829582271872 -0.498048458182494 -0.43385671231701317 -0.40148300610566307
-0.4471603942403807 -0.7413523583881645 -0.3602811295249699 -0.45056251281716325 -0.49098699642973986 -0.6466876599860735 -0.7192416005514822 -0.4970015603096976
-0.15632315230194568 -0.24924104773155195 -0.1561546378272268 -0.03388886831976509 -0.15016315355586174 -0.03236339942696502 -0.29433904636275077 -0.2634952430837116
-0.09842384856810112 -0.1758672871207187 -0.2679734161627832 -0.10957220650961973 -0.25873052075954983 -0.11179656190255638 -0.1651609228262163 -0.034883766395310295
-0.7225464862019819 -0.3587101679249821 -0.6998452292486975 -0.40286481833747606 -0.7013799255905224 -0.386078072617182 -0.42190319795664416 -0.3830962281779338
-0.4164469271062646 -0.7415489310692553 -0.3610386541106824 -0.35228789292344964 -0.471584736398223 -0.6467855714625239 -0.7064204119332547 -0.42884529658334103
-0.18213495917325145 -0.2423880145504956 -0.19290012507158388 0.0753052342791708 -0.17438530357123133 0.04072998274343567 -0.313242822336095 -0.2815451479824623
-0.04579940631304868 -0.22093825928343538 -0.28434002066251873 -0.05592982099465468 -0.25199018430544073 -0.11754310407591405 -0.18367230079018854 0.04126767517117099
-0.7045223803945451 -0.37135187448772405 -0.7201876994842316 -0.4682048534557738 -0.7124640144659289 -0.40952302887944986 -0.4415646391016298 -0.4052480562763007
-0.39987113985979245 -0.7272630122344615 -0.3422352924477662 -0.4002997787953163 -0.49060941876364733 -0.6275692085742088 -0.6964956186040396 -0.47239031196760245
-0.6875383939789603 -0.33726475343551765 -0.6871768910714979 -0.3984841612897828 -0.6952586328158615 -0.3914770591814628 -0.41005453495259525 -0.4102559393190319
-0.48073723971239873 -0.694153831463864 -0.34448822049240085 -0.3652010902277785 -0.4446992353937772 -0.6523850349093887 -0.6940213299317882 -0.38815873707531034
-0.6894332052652546 -0.36700928925439874 -0.7139717598189733 -0.39730312344371016 -0.7008961508761273 -0.38931263859904713 -0.41825870072018484 -0.3891219406090107
-0.46636388240012566 -0.7272390097297761 -0.35062849639432675 -0.3552216465755951 -0.45794590389437057 -0.6393746880541596 -0.6895934609442029 -0.38421946308481736
-0.7230661240395446 -0.3659989669995414 -0.7332537531540952 -0.2918513169017254 -0.7068732125913584 -0.29497460990071867 -0.4312989168421104 -0.4202335420374002
-0.4418654655116064 -0.7348687935585236 -0.37436346945827625 -0.27941374187177637 -0.4723036302507545 -0.6337897194945185 -0.7142847286490068 -0.25489665672848333
-0.09609959684610894 -0.09326274465700742 -0.12365362322186253 0.023993579108945787 -0.08327215556449766 0.029760425838806896 -0.14414311639469068 -0.12115737648358439
-0.0158957338120171 -0.07957747566421017 -0.10110102799077011 -0.030546216161226936 -0.14303304655334417 -0.04740359036157798 -0.09671673641137946 0.028341961372052624
-0.7466936639507419 -0.42301459519398743 -0.7349792412800156 -0.5905131627255846 -0.7127010438540743 -0.5639620957465904 -0.4399870372486439 -0.4057775131923208
-0.468431482140821 -0.7596274415530496 -0.3868785882886984 -0.5151124799827788 -0.4964240674626748 -0.6633430506569207 -0.7185755530179362 -0.5694885348247584
-0.7167035583460102 -0.35535784983655944 -0.7149806243919182 -0.46230885389072296 -0.6872618057669324 -0.3756593498731355 -0.45086131778520355 -0.4005769168467896
-0.43527400689259427 -0.726396607696505 -0.35096555641698796 -0.38953407771560694 -0.490360600120754 -0.634692920072962 -0.6897249228079873 -0.4589671171420574
-0.6450522548716966 -0.35862120272988146 -0.6304911179391217 -0.3764096549711877 -0.614491698936722 -0.358357789171782 -0.4047474168228425 -0.40099378189312823
-0.4717513959209498 -0.6374743156571495 -0.34098231777890614 -0.3446023414724553 -0.41940387066156815 -0.587411444296224 -0.6447066205039091 -0.35938044351464016
-0.36996349430677317 -0.14701844802839617 -0.38473476473262336 0.062314045446127085 -0.36561885758832885 0.023255952261535436 -0.26030363834835474 -0.18538797887198208
-0.1148565652277448 -0.3893210471990666 -0.16703863473834515 -0.02131529433301899 -0.26169651341255135 -0.2822865103521259 -0.3702854339940097 0.05751453446502512
-0.18135257366554583 -0.0945179048244805 -0.19982440513515898 0.16188064806574323 -0.2046053765466062 0.13953067114191792 -0.19728970951866887 -0.1230847690290322
0.047584898077910665 -0.19542352280799513 -0.11965768235868544 0.0396599652404406 -0.2097809157980703 -0.1173126369821812 -0.20355999475182052 0.14497429911659002
-0.6967392422532858 -0.34424296090279566 -0.7249560397188757 -0.3916889638385927 -0.697288152865146 -0.3557271384440012 -0.42506560384619274 -0.39498362665027836
-0.4202620662057398 -0.7252243479560447 -0.34631968307302 -0.3318143261660109 -0.4663066133551378 -0.6216940825716145 -0.6952044849856658 -0.396481479640066

bias f8 [112]
00000000: 3c2d b920 c1bc c53f 6e89 e176 6195 d8bf
00000010: 73dc 0a1b a3c4 ba3f fedc 20ad 071f e0bf
00000020: 7e69 c214 ee8b b93f 0b8c bda6 fb24 dfbf
00000030: e78f 8ef8 e059 d0bf 9005 1ad1 9e49 d8bf
00000040: 1c36 0044 7154 d8bf cab8 8b41 5848 ce3f
00000050: ae0e 5e49 b80f d8bf 8ca2 687c 532d dcbf
00000060: e788 271d 9239 cfbf 7107 da24 bdfb c6bf
00000070: aa54 44d0 f58f ad3f b0ad 0201 d46f dfbf
00000080: 1635 5c6e 7b32 b0bf 0ead 6349 2fd1 c7bf
00000090: b803 a4e7 de90 b4bf 01b1 be3c ee46 a0bf
000000a0: aa2c d50f 32ee b6bf f8a7 ff6f b633 afbf
000000b0: 96b3 174f 6134 d2bf 2641 c1dc 9d90 c8bf
000000c0: af20 870e 41d1 9dbf 25df e57e bc45 a6bf
000000d0: 6a90 27f1 ede5 cebf cc0d 3c27 7418 c3bf
000000e0: dc51 c43a 15ee d3bf 8cd7 c36f 340d b7bf
000000f0: 6ef0 f916 0421 b7bf 60f0 b366 2e26 b3bf
00000100: 260d b706 fd42 b93f 103c 61b0 6ecf b53f
00000110: b4ac 6836 8d4f b93f 7117 81eb a0b5 b23f
00000120: b08c 591d d332 b33f 56e5 7248 d07b b23f
00000130: b4db 8ffc bb14 b73f 9c95 1d60 c676 b43f
00000140: d136 c370 2c26 b93f 407c 2365 82d0 b53f
00000150: e13e d8ef 5dbc b83f 2a77 a815 e8d6 b43f
00000160: 7c2a 83bc b18e b43f 1d0b 67f5 5e40 b73f
00000170: 28c4 51ab 7366 b93f 512a 2167 58ab b13f
00000180: 87f7 3801 02f4 b13f 4cef d004 a7ac b03f
00000190: 0cbe 2155 23ab b03f 35df f9b2 9572 b83f
000001a0: 0f0c 1d5c d514 ab3f ff4b eb9c e712 ac3f
000001b0: 807c 35e4 b919 b23f c54d eb8a 5e9d b23f
000001c0: ee79 36fe 5cf5 ae3f d5fe a7ae 4600 b43f
000001d0: c4eb f7d1 61c6 b03f b50c b469 a870 ac3f
000001e0: 3d9b 7bdd 41a6 b43f 299f af39 1569 b13f
000001f0: 316a 633f dc23 b03f 159d a29f 4b22 b23f
00000200: ec8a cf1e 561e b43f d31f 903b d57d b43f
00000210: 4ea9 11d1 3e3f b83f 6cbf d9da bcba b43f
00000220: e93c a4b2 1afa b83f 72ae 934f 920b b63f
00000230: 80eb 4690 473f b63f d3dc 3c27 e595 b23f
00000240: b976 c935 640c b83f 416d 93e9 7895 b73f
00000250: 5457 3202 561e b83f 2b4e b7a9 b7ac b93f
00000260: c385 0d1f dd7b b43f 960a 5147 bbc6 b03f
00000270: f873 78e0 7680 b83f 5ba3 95ae cabe b53f
00000280: ee9d c022 eba2 c93f ef9a 8749 7415 ca3f
00000290: 98ec 12bd b3de c83f 2195 94b3 d04b c83f
000002a0: 294c 83f5 9c54 ca3f c4f7 3e30 2f0b cb3f
000002b0: ae8d 1c21 138e cb3f 7c45 b770 cfa1 cb3f
000002c0: bb95 5f57 8876 c93f b941 cf8d a03d c93f
000002d0: 9a3f 7214 fe0f ca3f 6e52 f483 617a ca3f
000002e0: 2a31 d02a 434c c93f daa5 3a63 2973 ca3f
000002f0: 6163 f4ef a16e c83f a936 08d3 908e c93f
00000300: 3861 9339 8150 e2bf efc3 4db9 c3c2 edbf
00000310: 13c3 ad4b 28fb ddbf d1d0 8c83 d9f9 e7bf
00000320: 132f 0381 7564 e5bf d534 7bbc 2ab2 e8bf
00000330: 95da 53d4 d09c f0bf 8140 8d9a b832 eebf
00000340: d055 7ff6 7cc8 e9bf ca85 ea74 48bb e1bf
00000350: df8c 1738 40d7 eebf c4a1 9f99 3ca4 e9bf
00000360: c4b1 f96f 701e f1bf c013 cbf4 1afa e2bf
00000370: 5d9d 4387 8428 e8bf e397 a4da f8d4 e7bf
0.16982282731837894 -0.3841174755999849 0.10456294450965391 -0.5037878400243299 0.09979141241857367 -0.48663226397747 -0.2554857661546052 -0.37949343128283264
-0.3801539577551425 0.23658278656461668 -0.37595946469103125 -0.4402664866379744 -0.24394442008549008 -0.179557459825499 0.05773895423241389 -0.4912004480235863
-0.06327029651966529 -0.18607131083931744 -0.08033555178918916 -0.0317911576415515 -0.08957207571545447 -0.06094141118212798 -0.28444702838788183 -0.19191334990547054
-0.029118553649624953 -0.043500795832129215 -0.2413918902885855 -0.1491837684226155 -0.3114064287085776 -0.09004523972165951 -0.09034753380723412 -0.07480134971041386
0.09867841161672128 0.08519641691349045 0.0988701112589066 0.07308393239608592 0.07499427286670612 0.07220174568910429 0.09016013065398348 0.07993736120768918
0.09823873284332342 0.08521285027698955 0.09662425141891219 0.08140421417962487 0.08030234196045599 0.09082597247383402 0.09921954090693019 0.0690207721501477
0.07012951402518129 0.06513446681577512 0.06511135891354786 0.09549842471630828 0.05289332150871228 0.054831731705824886 0.07070504971987823 0.07271376506405776
0.06046572306808061 0.07812921299045723 0.06552707077200554 0.05554701128314702 0.08066188485427701 0.0680096879801765 0.06304718539778588 0.0708358063444517
0.07858789684500395 0.08004505829023793 0.094715047876581 0.08097439139396351 0.09756628857961726 0.08611406748576103 0.08690306923283053 0.07259971816971537
0.09393907845648188 0.09212451651130939 0.09421289018277196 0.10029170888383791 0.08001501091123146 0.06553240290763038 0.09571021061169904 0.08494250070874669
0.20028437802214633 0.2037797316581513 0.1942963288509858 0.18981369751524205 0.20570718753751407 0.2112788186622635 0.21527327648901234 0.21587555888849497
0.1989298273685288 0.19719321178719243 0.20361305235246335 0.20685976927838418 0.1976398428963731 0.20663945527239386 0.1908762380269549 0.19966326050091723
-0.5723272442365106 -0.9300249690260197 -0.46845443144324966 -0.7492492265069136 -0.6685130615018998 -0.771748893859377 -1.0382850927395897 -0.9436915415372057
-0.8057236494448095 -0.5541116984861045 -0.9637757392451042 -0.8012984276256749 -1.0699314474141923 -0.5930304318541104 -0.7549460069539397 -0.7447475691194508

weight f8 [3, 16]
00000000: 526f 045f 4ad0 d1bf 6f0e 9131 ae90 d2bf
00000010: ed92 fcf2 3584 d2bf ca82 9ebb 6c79 d2bf
00000020: 9337 2784 56a5 d2bf b2c0 01ff 8905 d2bf
00000030: 22a9 442d 120c d2bf 1d59 f62a 7c0e d3bf
00000040: 1500 3ed8 b4b2 d1bf 1ca4 bda0 45d4 d1bf
00000050: 41e1 f853 6dc5 d2bf 1ce3 90c1 3246 d2bf
00000060: 02b1 36a5 af4b d2bf a440 1859 0766 d2bf
00000070: c8c2 acca 9432 d3bf 8ffc 0818 f64f d1bf
00000080: 7308 9008 d6fb d1bf 777c c910 02f8 d1bf
00000090: 1946 f33e 0f99 d2bf 9efb 43f6 1530 d2bf
000000a0: d205 2679 9a2e d2bf 92e6 5782 04ba d2bf
000000b0: 8d19 2cfb d29d d2bf f9a4 72a0 4935 d2bf
000000c0: 358f eab5 43a0 d1bf eb40 f548 a5fb d1bf
000000d0: 0cae f439 71d4 d2bf febc 7358 3e40 d3bf
000000e0: 329b 906a 5870 d3bf d14c 4273 a4b5 d2bf
000000f0: 3e47 5931 60a2 d0bf 8180 2c33 1a25 d3bf
00000100: 8685 3277 b58b d2bf 782c 241e 710c d2bf
00000110: 660d 51f0 a7b2 d2bf 477a dfe4 a509 d3bf
00000120: 7af4 a374 e0ff d2bf e637 1164 d9a1 d2bf
00000130: 8277 87b6 2d0c d2bf 9c27 0657 a735 d3bf
00000140: 8f4f 6f97 1534 d3bf 560c a60e 781d d3bf
00000150: 556d a9b4 da1d d1bf b2d1 3c15 5cfe d1bf
00000160: af58 e8f7 602e d2bf ac32 116c 7d0e d4bf
00000170: ebb6 95c8 7ff3 d2bf 6488 16aa 4a6f d2bf
-0.278338043966632 -0.29008059349528187 -0.28931950310861404 -0.2886611778467737 -0.2913414278563035 -0.2815880766202198 -0.28198675556872577 -0.2977590961030659
-0.27653237454797025 -0.2785810537084801 -0.29329999161156556 -0.28553456213880835 -0.2858695138372839 -0.28747733784349294 -0.29996223251786747 -0.2705054506986437
-0.28099585376924735 -0.2807622112213219 -0.29059201381196115 -0.28418492364283476 -0.2840944464770391 -0.29260361412853186 -0.2908828213552617 -0.28450241726621034
-0.27540676846750795 -0.2809842312317545 -0.2942164483999654 -0.30079611432934417 -0.30373201758122825 -0.29233657127151697 -0.25991062945569243 -0.29913954732365516
-0.2897771514927502 -0.2820093912457149 -0.29215429752749456 -0.2974638686263557 -0.29686747923535217 -0.2911284901828125 -0.2819933207045936 -0.3001497602314147
-0.30005397594981614 -0.298673643403338 -0.2674471630359297 -0.2811498839758101 -0.28408073625304103 -0.3133843951552915 -0.2961120089374691 -0.28804270372541496
