Retweet/RetweetNetsV3/TrainNet_ep14V2.pt (torch, 23477 bytes, 6 tensors)

scale f8 [3]
00000000: b58f bf46 9787 e03f f872 f7bd ec58 e03f
00000010: 223f 6f76 2fdc dc3f
0.5165516263773414 0.5108550749096983 0.4509390503489944

weight f8 [112, 3]
00000000: 1581 e865 d883 d23f ae10 c445 9eee a33f
00000010: b6f6 be79 87e7 c0bf 9557 2482 df55 d9bf
00000020: deb6 1615 c906 ccbf 4e7d 89a5 48a1 babf
00000030: 187b 3278 96ce c83f 8a49 37b5 9d7f a6bf
00000040: 112e b4b0 82ff b0bf 3937 c097 3dd7 e7bf
00000050: ff14 94ae b832 e7bf b603 90e4 4d8d dbbf
00000060: 216e 68eb 83e4 a53f c653 4276 7512 c9bf
00000070: 2cf7 771c dce0 c7bf 1b84 98d5 3758 e5bf
00000080: 0702 9677 91b0 e4bf 4767 ae23 ec90 d5bf
00000090: 80da 1aaf cfa5 e7be 3cc5 f59d 036c a1bf
000000a0: 788b 09fe cbca b33f b276 2ff4 44c7 d6bf
000000b0: c720 76b8 8cbf bfbf a5a2 c605 b5e5 b3bf
000000c0: 32e0 7f62 228c e1bf 7d49 9e54 729e e0bf
000000d0: dbbb 2ad8 5184 d3bf 6d51 6b26 7d3d d83f
000000e0: 27d9 efb7 fe68 d93f 8961 d7ad 4c5b 9e3f
000000f0: 1be9 9a44 0ee1 d1bf 76df af1d 0e66 c6bf
00000100: 9a9b 5079 c82a 5b3f 052c b1af a848 e1bf
00000110: 324f 2b12 e9ed e0bf 38de 5a23 ef0e ccbf
00000120: d579 1bf1 76ab ae3f 5d40 c789 68b6 b6bf
00000130: ec72 70eb d136 c03f 2e16 8be4 caa1 c7bf
00000140: 397e cc7a 1421 d9bf 56e9 a9ba d892 dabf
00000150: d4ec 1637 70c4 e6bf 4c8f 685c edb0 e13f
00000160: 28aa de32 f2ed cbbf 645e b187 2a88 e3bf
00000170: d585 60d6 34d7 e5bf 9706 cfb7 c8e2 d6bf
00000180: 40be 8865 2cbe d03f f06d 035b ff5c d5bf
00000190: daa0 c03a 41d0 d5bf 89db d53b 2091 c9bf
000001a0: b0f7 21c2 0744 cebf 3b46 b86c 5ecf e9bf
000001b0: 9577 fe95 c378 c63f 5e55 cc64 dbfd d5bf
000001c0: 7e4d 1786 7864 cdbf 93b3 fe18 e180 9c3f
000001d0: 6a23 d3db ecce 6d3f 236f 3352 46ee d3bf
000001e0: 3393 a6cc 4520 cd3f f3d0 ef05 83f8 dabf
000001f0: 2c53 1f30 aaa2 e0bf 934d 11cc ebc0 a83f
00000200: 0375 5def cdf2 c1bf f95d 1d82 21be e5bf
00000210: c973 e6a6 ef64 9a3f 0e7a 79b5 2f28 e3bf
00000220: 7491 9541 b533 dcbf 3761 0019 c892 d2bf
00000230: 533f bd9e 7b92 adbf aff6 434b e49a dfbf
00000240: 45ac b17f faa0 c43f 4fb2 4d33 35e8 6a3f
00000250: 48b8 e2f4 128d dcbf 1d18 8844 05ef c53f
00000260: fd30 d4b6 ff13 c6bf c6ea c5c3 3192 d6bf
00000270: eda0 b9dd b228 c6bf 7abf f887 8e70 debf
00000280: 8bf4 82f5 d26a e6bf 3d3f 0f6d e2ed cb3f
00000290: 365a 0021 f3a0 e0bf 4ae1 9268 b704 ecbf
000002a0: 152e 17da 42e9 a63f 8350 7843 1c18 e8bf
000002b0: cfb5 5a0e a4ad d3bf 79a8 20c8 7d74 c33f
000002c0: c6be 5f03 d89d c5bf 97dd 171e 150b dbbf
000002d0: 70c8 02df 88bf e7bf 7c90 e1de b553 d33f
000002e0: 694e a491 95e9 d1bf b2cd f4ec b1e1 ce3f
000002f0: ecf9 9429 39e0 d4bf 241b cd8c 1baa e4bf
00000300: 71fc 7b97 ea46 b73f 3aeb b8ee 2bc5 b93f
00000310: b7c7 167c d3d7 dd3f b675 b46b 5ade ab3f
00000320: 7f98 c78d de68 c13f 672c 4e97 b9c9 de3f
00000330: c513 1752 7ab3 b33f 840f 1af2 145f bd3f
00000340: 8626 e07c 6c57 de3f c376 685a efb9 af3f
00000350: cbcb cad8 72ae b33f add5 2281 a854 db3f
00000360: bd92 ae9e 7910 b73f 0f8e edc9 b5ae b93f
00000370: 6f56 8b3e 12a9 da3f 2edd 3739 08a9 a53f
00000380: 2d75 1fcd ad69 af3f c586 3f9a b179 db3f
00000390: 1c36 f2a1 21fb b43f 9be7 449c 71f1 bc3f
000003a0: 36e6 cf3f fce4 de3f 7396 4cfe 14e2 b03f
000003b0: 1042 9744 cd8a b63f 5c3e 265d fd56 dd3f
000003c0: bc71 7974 958f b33f e1e0 3ad6 ce62 bb3f
000003d0: 4c8e 2318 0302 de3f f78a 3e96 a5c4 b43f
000003e0: c666 fcf9 a390 c13f 54ba a353 0a47 de3f
000003f0: 6578 3a36 51a5 b03f 9ffe 9815 d190 be3f
00000400: cd31 9b9c 30e3 dd3f 3f07 8f90 a75e b13f
00000410: 6cf6 0641 e5ec b43f 5965 ede9 baea dc3f
00000420: 75e0 741a 117e b23f ec3d 0415 9c5e b43f
00000430: 93dd 2eb1 a7cf dc3f 82a9 7be1 03f9 b43f
00000440: adc2 e1b1 2066 bb3f 9f82 54cf 1af6 db3f
00000450: 8f18 6727 6229 b43f 935e afdf 9083 bc3f
00000460: 4665 e6ab b89a de3f 9fc0 55cb 80a4 aa3f
00000470: 11e4 5503 8913 b73f f26e 64db 63fa db3f
00000480: 5127 b01b f221 b43f 795e 0f5a cadf aa3f
00000490: 68e9 e1ac ffa3 893f 2c36 2d81 c9c9 a63f
000004a0: 9e0b 3356 dba0 b13f 5db1 f722 cbd8 983f
000004b0: fc55 bbfe 949f b33f 000b 22ec e4a0 a33f
000004c0: 7420 ec2d 7df0 903f 9bb7 83c6 1320 a93f
000004d0: 6a3d 117d 3ab1 a63f 7ef7 2047 abcf 843f
000004e0: 9c73 882a f63c b43f 2cc2 5091 573a a43f
000004f0: 1d9b 3b04 84e2 983f 6959 6c1a 2682 9f3f
00000500: 8db4 ef87 b45c b43f 27cf 3bc6 0d32 aebf
00000510: 963f dc53 d91e ac3f a952 873f 4614 b43f
00000520: a091 60a1 b120 9d3f a284 ced0 787b a63f
00000530: 579b 6503 dfae ba3f 382a 5330 ebf7 b13f
00000540: 273e f9c6 9be0 b03f 3fa7 47e9 c0ad b43f
00000550: 1b13 50c7 0fbb a33f 10de e38e 985c b33f
00000560: 45a5 7827 8c48 b63f 140f 49e0 6422 ac3f
00000570: 94be 1003 e1c5 a83f 1296 70f4 419f b33f
00000580: e516 55ab 583c 6abf 9c98 f48e 8548 a33f
00000590: bb21 c75d a188 af3f 4dcd f5cb 1bdf acbf
000005a0: f4a1 e616 8db9 b13f 79e9 f7d6 c6dd b03f
000005b0: 4e80 06be bc76 ad3f 42c3 6b15 a9ce b43f
000005c0: 4a23 f440 6b4a ae3f 0f24 972b 0c3f 813f
000005d0: ac25 c8e6 acc1 b43f 0e3f 5df0 38a7 b03f
000005e0: 7a4b 5265 026f a93f e166 f9cc ae82 aa3f
000005f0: 1c46 835a c746 b03f 479d 25d6 2900 b8bf
00000600: 39c7 47c6 013d b43f 60bc bcbf eb13 bd3f
00000610: 3f55 c176 b2a4 dd3f 292d cede 9dec b33f
00000620: f040 80ba 08df be3f 9c66 88ec 3aa7 df3f
00000630: 1498 660c 5242 b93f ca12 f17d d566 b43f
00000640: ad37 407a aae1 dd3f ec78 0d6c cf65 b23f
00000650: 5289 c003 5f05 bb3f 228a 4f7d 5e67 db3f
00000660: 86e0 44a8 166c b23f af4a fe6f ff4f b63f
00000670: 603b dc1e b3c6 dc3f 9a58 bcc1 8d94 a73f
00000680: 6cda 57b6 761b bd3f 1b75 e8ab 52be dc3f
00000690: 7fc8 7453 b591 b73f 3395 86b1 398d be3f
000006a0: 879e 412a f229 de3f 1f6d d07d 6fa0 ac3f
000006b0: 3e1c 1119 c933 bf3f 9d4c 5f15 e032 dd3f
000006c0: 3140 6923 a070 b13f 1860 ba8a d451 c13f
000006d0: 7805 1601 efe9 dd3f 8334 7767 9c62 b53f
000006e0: a3bf fcad 5842 bf3f 1537 a995 bff6 de3f
000006f0: 319e d1f3 51d0 b23f 2278 376c 8b3e c03f
00000700: b705 9787 652b de3f 9458 6c36 cb3d ab3f
00000710: d2c0 ceb9 4720 b03f 10f6 753d 627b dc3f
00000720: 616c d323 ae69 b33f b241 c150 fb1c bc3f
00000730: 78a2 e738 e45b dd3f d6be 152a c54c b53f
00000740: 9615 31ae c965 ba3f 014d 5d8f 4478 db3f
00000750: 6523 0ea9 da4c ad3f ff34 6ff0 274d c23f
00000760: 8944 776a dc17 de3f 34f5 067c adb2 b03f
00000770: fb28 39af 45b0 b43f 4d54 9a11 a603 dc3f
00000780: 0917 9b5b 3d25 ca3f 22c9 0dec b0c8 c93f
00000790: 8b89 3899 d453 d23f a9fd 817b 2f68 cb3f
000007a0: f126 4500 d957 ca3f 8708 9da9 4392 d13f
000007b0: 4c78 4d6e 8f0b cd3f 5318 b101 e0fc c93f
000007c0: 198b 636d 658b d23f aa4b 0991 9c86 ca3f
000007d0: f73d 4efe cc10 ca3f 43b3 2233 356d d23f
000007e0: 0840 c503 148b ca3f 5e3e 35d4 54f7 ca3f
000007f0: a572 b49b b0b3 d03f 3b3c a232 f439 c93f
0.2892971987912614 0.03892988778719207 -0.1320657104933411 -0.3958662768285362 -0.21895707635615386 -0.10402349511558848 0.1938045584583612 -0.043942383166398605
-0.06639878095682429 -0.7450244869121213 -0.7249415788398038 -0.4304995281273095 0.04275905846244777 -0.1958758189618079 -0.18654967680043322 -0.6670188113968182
-0.6465537391341635 -0.33697036251543405 -1.1276102188301608e-05 -0.03402720740531115 0.07731318428117884 -0.3559124359725089 -0.12401656630948131 -0.07772380248082784
-0.5483562396830222 -0.5193416264249177 -0.30495115385104804 0.3787529826343164 0.3970333858736858 0.029645155058319914 -0.27936131190985386 -0.17498947572289197
0.0016581495049281304 -0.5401194983945748 -0.5290418009630911 -0.2192057535773857 0.059901921207472654 -0.08872083057144793 0.126672973595212 -0.1846250167783849
-0.39264404289312754 -0.41521280506971914 -0.7114792896240041 0.5528475575306202 -0.21819903835178533 -0.6103718424082669 -0.6825203120280842 -0.3575918002135067
0.26160726466602924 -0.33380111587550143 -0.3408358644251287 -0.1997413913884112 -0.23645112017760317 -0.8065635798868195 0.1755604250328672 -0.3436192020756915
-0.22962862536824596 0.027835385466164885 0.003638708700780692 -0.3114181330436045 0.22754738323887977 -0.42141795711292146 -0.5198565425767803 0.048346871052355266
-0.140222303273653 -0.6794593373587637 0.025775665818958324 -0.5986555618690674 -0.4406560078116606 -0.2902088398127662 -0.05775820076689677 -0.4938288435949784
0.16116267428455636 0.0032845534391781404 -0.44611047663318404 0.17135682913084418 -0.17248531748953858 -0.3526729976507962 -0.17311702562734102 -0.4756199195717198
-0.700540046229109 0.21819715809987797 -0.5196471828992972 -0.8755757372337396 0.04474839126814004 -0.7529431646130579 -0.30747319604674045 0.15199253341535604
-0.16887951054331135 -0.42255142153541086 -0.7421306949311326 0.3019842793057774 -0.27988185141405225 0.24126266546373426 -0.3261855035852068 -0.6457650899909351
0.09092584799144433 0.10066485002691375 0.46629798048081333 0.05443079533345545 0.13601285860858423 0.4810623147574859 0.07695736412195149 0.11473208342255076
0.4740859240997469 0.06196544626821556 0.07688062470224037 0.427042127713629 0.09009513973303292 0.10032211475259366 0.4165692911895808 0.042305237755437694
0.06135314110700061 0.4293025976495353 0.08195696071398867 0.113059139873171 0.4827261565365889 0.0659497376296601 0.08805544781285612 0.4584344300901415
0.07640966504681662 0.1069764397642561 0.4688728080493305 0.08112559240411686 0.1372265787729729 0.47308595817495314 0.06502254079757248 0.11939722802434936
0.46699157041146294 0.06785056380524866 0.08173973882272784 0.451826790280014 0.07223612686073173 0.07956862938976145 0.45017425826105145 0.08192466978986171
0.10702709524935967 0.43689604041177604 0.0787564607809108 0.11138253651676626 0.47819344317538925 0.052036309071696644 0.09014183360513096 0.4371575968268494
0.07864297080973627 0.052488635533959056 0.012519834006742683 0.04450826360571755 0.06886072973706667 0.02426450158047665 0.07665377825772873 0.038336900544001296
0.016542392661932984 0.04907285497925714 0.04432089592648476 0.010161722286394111 0.07905519998935379 0.0395076146018066 0.024301588781692297 0.03076991592669157
0.07953956907995714 -0.05897563023418533 0.05492285870252471 0.07843436289779028 0.028445029711421932 0.04391076611433077 0.10423082192356269 0.07018918924146866
0.06592725379709262 0.08077626891431765 0.038536542015242335 0.07563165176895148 0.08704448665289018 0.0549499057565567 0.04838469660205394 0.07664882867592152
-0.003202603513872459 0.037662671757332705 0.06158928174733399 -0.05638968338726134 0.06923753556350914 0.06588404415371042 0.05754651851316393 0.08127838871929519
0.05916152160540962 0.008421034889481786 0.08108025202104469 0.06505161159770642 0.049675059192984386 0.05177828075529845 0.06357999763283612 -0.0937524936504036
0.07905589190320662 0.1135852187260169 0.4631773147314852 0.07782923402389898 0.12059073022124145 0.4945819196596888 0.09866822054627306 0.07969412159679759
0.4668985551696732 0.07186600101474355 0.10555070726016894 0.4281841491448707 0.0719617996991265 0.08715816959583365 0.4496276666040355 0.04605525007188867
0.11370031310785017 0.44911639011282184 0.09206708228592396 0.11934242805599098 0.47131017805666214 0.05591152582948155 0.12188393461211519 0.45623018347868954
0.06812477936296159 0.13530976079778223 0.4674031744580911 0.08353593374268269 0.12210611579644008 0.4838103257687732 0.07349121286971962 0.1269087103273146
0.47139871827320284 0.05320582427354839 0.06299255644148907 0.4450307464793193 0.07583130240111437 0.10981722566180599 0.45873361165153126 0.08320266988243516
0.10311565878608628 0.4292155647319334 0.05722697557127424 0.14297961463891082 0.4702063598352387 0.06522640493399906 0.08081470039283893 0.43772269934681135
0.20426146481457177 0.20143710638110074 0.28636660540555486 0.21411698847439922 0.20580589783849448 0.27455226482209877 0.2269152916514393 0.20302963335615462
0.2897580688715365 0.2072330196557151 0.2036377183653568 0.28791551583963243 0.20736932930094576 0.21067295419423976 0.2609673996501363 0.197081112597944

bias f8 [112]
00000000: 10be 71af 68c5 c43f 9c31 b6d9 c16c d1bf
00000010: 1931 87b3 be67 9c3f 0c55 dbf9 b904 ebbf
00000020: ed4e d6c3 decd c8bf 14a9 fd5e ab81 e6bf
00000030: 7df2 60c4 c77c 923f 29a4 63e6 0ef3 cdbf
00000040: 00aa c92c 481e e6bf 06d0 e885 603a e13f
00000050: 3c91 6c1a 25fb c4bf a734 e8b8 e6cc e1bf
00000060: 5b02 0862 3c17 883f 019d 5a36 2310 debf
00000070: e551 fe18 154b bcbf d1f6 0b1a f2e0 e6bf
00000080: ad41 4c4e 0be6 c3bf e022 3694 4320 d7bf
00000090: c0bc 3ad3 c2f5 c9bf 31d9 23f7 5c48 92bf
000000a0: 36db 68cf a289 d1bf 7ea0 8bbb 4014 c2bf
000000b0: a245 1b43 9cbd ddbf 1efc 54c0 721d d1bf
000000c0: b4e9 491d 7269 a43f b7f3 c172 c69b b8bf
000000d0: 08d5 4403 8e21 debf 6e44 c16c 8adc d0bf
000000e0: 42a8 4224 eaa0 e2bf da16 ce37 80bb b4bf
000000f0: 2fa8 4aee 5a18 d9bf 5576 f391 64cd c2bf
00000100: 45ee a49a 9501 c33f 52ec 203b ebdc c13f
00000110: c481 3757 42ae c03f 962b b3fb 4a63 be3f
00000120: 78a3 565e d63e c13f 7892 e285 01f4 bc3f
00000130: 0b06 7e6f 5f3c c43f 65a2 5624 ed04 c03f
00000140: b0fd 8d8b 57c8 c33f 8b43 3acf b30b c53f
00000150: f8de ceed 494c c23f 898e 4aa6 a7fe bc3f
00000160: 67f4 8cbd d865 bc3f 8d39 66f8 6d89 c23f
00000170: 54b6 ccb0 3f5e c43f 4122 6341 9bb0 b83f
00000180: 4d53 a11c 434d b43f 9b31 bd2b 6145 a93f
00000190: c402 4306 fbac b13f 9cee 0852 55f6 a03f
000001a0: ef28 c234 9f02 ab3f e5d1 237a 0495 a83f
000001b0: 5746 23f1 dc27 ac3f 429e df48 86f1 b23f
000001c0: f45a 39ae 5606 ae3f 3261 e946 4d3d b33f
000001d0: a577 82d2 f530 af3f 48aa df50 456b ad3f
000001e0: 0f77 401f 4e87 b23f f4fe 1cfe 70a3 a43f
000001f0: 9258 4ac2 44b4 b03f 0b4b fccd 8e14 9f3f
00000200: 65c1 ab4c cf6f c43f c19b 1704 f795 c23f
00000210: db78 f662 9531 c13f ef33 2fde 9ddc bf3f
00000220: 90ad ae4a 40ed bf3f b71d 7ba3 ddb4 be3f
00000230: 0bd5 495a 73b0 c23f b9cd 000a 0e2f c03f
00000240: da0e ed45 4d45 c13f 1d98 de32 9d8b c53f
00000250: b004 3fba d2b3 c23f e33d 3674 2c9b be3f
00000260: 2fed 9c52 26b1 bf3f a2f6 7903 7147 c13f
00000270: 3e47 7837 3dcf c33f ed15 ec9b 63b5 be3f
00000280: b543 f506 b57d ca3f 163f e4e4 c7f4 cb3f
00000290: b76a cfbc bd4c cc3f 35a3 adf8 0324 cc3f
000002a0: aacd b783 73f3 c83f 85ac a85d ccea cc3f
000002b0: 7d9f 5f48 bc76 ca3f fae7 fe2f a8a9 cd3f
000002c0: 2467 61af 8fe2 cc3f 5712 d77e e8e6 cb3f
000002d0: 1dfd 8dd1 5f58 ca3f bc78 8295 dc22 ca3f
000002e0: 83a2 e8da 062c cc3f b69b 5b52 7d00 cb3f
000002f0: f47a 9003 0f26 cc3f 8472 2add 8b97 ca3f
00000300: a4dc 2d7a e2e7 efbf 1deb 64cf 99a8 f4bf
00000310: c563 8854 7e66 eabf f44c 3b36 1c2a eebf
00000320: 95f7 747f d871 f9bf 770f 9d1d defa f1bf
00000330: 2acc 826f e685 f4bf db87 9e1e 13ee f4bf
00000340: 677f 2ca5 e61d f0bf 8d90 4f8c bdd6 f2bf
00000350: b3a5 7e47 cbcd f4bf ca1b 4085 9e92 f4bf
00000360: b101 d1ef 7817 f5bf 9c21 9e16 ac41 ebbf
00000370: 6fa1 985d a11e f7bf 2e1e 43cb c2bb f0bf
0.16227444235435984 -0.2722630144205824 0.027739505488896563 -0.8443269615187616 -0.19378265917168083 -0.7033287864008195 0.01805412422275986 -0.23398004769777117
-0.6911965250740764 0.5383761039179269 -0.16391433515776466 -0.5562623607126128 0.011763068906476428 -0.46973495777133684 -0.11052066669646583 -0.7149591931081095
-0.15545789073122532 -0.3613442370774873 -0.202812531604172 -0.017854168495398063 -0.27402563338130237 -0.14124306828967187 -0.4646979003274173 -0.2674223783723749
0.03986698730018948 -0.09612694074344473 -0.47079801863886006 -0.26346073742485643 -0.5821428974352403 -0.08098603594234124 -0.39211152334849236 -0.14689309240832196
0.14848585177411358 0.1395544089044472 0.1303179670203588 0.11870258946434684 0.13473014456146948 0.11309823530843655 0.15809243148764582 0.12515033983551685
0.15455145181838992 0.16441962832007237 0.1429531489536584 0.11326072511524833 0.11092905643177318 0.14481901768563113 0.15912624485774762 0.09644480081909369
0.07930392693499506 0.04935744913982206 0.06904572394251846 0.03312937380220868 0.05275437850021258 0.04801191321340407 0.05499163096977771 0.07399787215364831
0.058642109649261004 0.07515414220086283 0.060920412013032256 0.05745903599002539 0.07237709296211058 0.04030945875137873 0.06525068038385687 0.03035185940013733
0.15966216319749119 0.14520156574073265 0.13432566959540435 0.12446009325431338 0.12471391509341445 0.1199472927211137 0.14600984486211419 0.12643599976000333
0.13492742456775525 0.16832318290579532 0.14611276716280974 0.11955526196674486 0.12379683987540056 0.13499272031542825 0.15476193626869333 0.11995527798361368
0.2069612773871349 0.21840761829707195 0.22109195441483617 0.21984910624021273 0.19492954188863837 0.22591547558963412 0.20674851926673546 0.23174002021352164
0.22566410125255587 0.21798425858846102 0.20582196933899236 0.20418889332080947 0.2200935906305582 0.21095243951205384 0.21991145776788523 0.2077498273764783
-0.9970562349616512 -1.291162309774058 -0.825011410811492 -0.9426404055797364 -1.5902943590913072 -1.1237469822671906 -1.282690463628351 -1.3081237026276458
-1.007300038538199 -1.1774268608942606 -1.3002426903498019 -1.285795708188504 -1.3182305686787965 -0.8517666284324608 -1.4449781089880067 -1.0458400669030072

weight f8 [112, 16]
00000000: 0b13 3999 b1cf d3bf 3182 114f d4a8 ddbf
00000010: a1f7 0543 2aa5 d1bf f45f 570f 34a7 c43f
00000020: a9f3 c8c9 694c d0bf ed50 2f88 136a bcbf
00000030: 8a5f 0151 8be7 e1bf b6ff 6da2 8724 e1bf
00000040: 3437 eba1 a550 b53f ff76 80ea 33c9 d4bf
00000050: a125 e628 1024 e2bf f3a3 4935 4c57 cabf
00000060: c189 04b2 dad4 e2bf 4257 cc13 aa1c b2bf
00000070: d86a b350 fe3c d3bf e2fd 3596 eb17 87bf
00000080: f041 3b4c fb93 f6bf a3ff bf38 1209 e2bf
00000090: b5c7 a8f9 22dd f5bf 8fee 3376 349a f1bf
000000a0: e520 ee1a 9a24 f3bf 97d8 d5ef fd47 ebbf
000000b0: 6c08 ccc4 ff93 e1bf 1ee5 76e9 814c e1bf
000000c0: 3f1b 51ef d2df e9bf 1b61 fb4e 25d5 f7bf
000000d0: 322d 0366 fce7 dfbf 22f7 27bf d103 e7bf
000000e0: bfc8 bdf1 8535 e3bf 3d4e f609 d6d3 f0bf
000000f0: 1a6c 5e63 b8ea f2bf 6b4d 3817 fdd9 ecbf
00000100: 327c 5ce5 a1fa d4bf b2e2 14f8 238f debf
00000110: 0655 550d 26e8 d3bf 1c73 3a80 8d5c b83f
00000120: 368b 3a46 ea96 d2bf 5a7d f2f6 6282 bcbf
00000130: 558a fb6d 7ae2 e3bf 7113 1397 7f13 e1bf
00000140: d4fa c557 29b1 ac3f f541 cd29 ee3d d8bf
00000150: e644 7981 af83 e2bf 86c8 ca5e 967f d0bf
00000160: 35ac 4f95 e452 e5bf f6f0 6e0a 86b5 b4bf
00000170: ede9 fa39 71ef d5bf 7e33 30ee 34f6 a4bf
00000180: 4b2a a3be 70ea f3bf 071b 1b24 2e4b dcbf
00000190: 7b48 fdc4 6ffa f2bf f0ca b685 f22f e3bf
000001a0: 2863 efb1 7258 f1bf d3b2 4260 e03e e0bf
000001b0: f470 39ad 64a0 e0bf 02d8 0509 d48a debf
000001c0: 64a4 1375 ca0e e2bf 5bdf 1652 ce3f f5bf
000001d0: d5af 4895 57ca dbbf d155 c9bb 13c4 ddbf
000001e0: 2be2 e527 dc2d e2bf f0c7 dc45 2047 ecbf
000001f0: 9244 f87b 9385 f1bf fada 01d2 0d87 e2bf
00000200: f02c 975a 19de e1bf e1ac fc61 bee2 ebbf
00000210: 07bb f281 5190 e1bf 0f5f e2c0 d4d9 ae3f
00000220: 3a92 dedd b5e4 d9bf 32da f9ac 43e2 a2bf
00000230: 4151 3e16 9f4a eebf c080 99f9 ba92 f0bf
00000240: b380 6c8c f187 a0bf 603b b91c 6802 e5bf
00000250: a413 d2ef e790 ebbf e049 3679 02bf d2bf
00000260: 3309 1b96 21cc ecbf e870 f177 f1e1 cdbf
00000270: 81a3 0ff9 2a97 e2bf bf81 02ab f05d 823f
00000280: 4ad9 22b0 14d7 f3bf 34d3 2abf d557 ddbf
00000290: 1b4a de13 0182 f3bf 86b3 e5aa fea2 e7bf
000002a0: 3c18 cae7 d388 f1bf 52db bb10 1116 e2bf
000002b0: 0a8c 2eec 2d1b e1bf 6d40 63c7 5a2e e0bf
000002c0: 6604 a8dc 12b4 e2bf 8dc3 2d24 cf43 f5bf
000002d0: 6c2f bd5f 1a80 dabf 8706 fcb6 2448 e1bf
000002e0: c10d 2cd0 3999 e2bf 1b58 a174 126e ecbf
000002f0: 268a 92b2 294b f1bf 5c9f f2b2 8464 e5bf
00000300: 3b52 ef89 38bc f5bf 4eca 935d 308c e3bf
00000310: bd2a 84db 885b f5bf 0780 d1c8 e638 f1bf
00000320: 85f8 f5dc 7b1f f3bf 7675 511d b817 ebbf
00000330: 48b3 7586 1978 e3bf 7c73 624b b061 e5bf
00000340: b1a1 80ad 4d45 f1bf 76c3 c64f ed63 f6bf
00000350: 70e2 6e4a 8907 e3bf 03ec 65f0 d22c e6bf
00000360: e67d b484 797f e3bf 109e b024 6494 f2bf
00000370: af0a 69a1 886a f2bf b3eb 9ac0 91ef ecbf
00000380: 4f3b 746d b39e f6bf bb3c 07b6 8118 e3bf
00000390: 0598 acd3 8766 f6bf 2c3a 6fda 70b1 efbf
000003a0: a80c 199a a396 f3bf c16c f932 e080 e8bf
000003b0: f424 fcc9 ab46 e2bf 97ce 5c32 4beb e2bf
000003c0: 2f75 f34d 2392 eebf ff77 390e d331 f8bf
000003d0: db3d ddb6 5ecd e1bf c52a d095 677d e4bf
000003e0: eb7c 23b1 bc14 e3bf d09d 4c98 63b1 f1bf
000003f0: 3691 418d 2af6 f2bf be94 d6f5 511e eabf
00000400: 6419 a2a7 53e2 f4bf 116e 7bd9 9992 e4bf
00000410: f752 252f 9076 f4bf 785a 78c3 870d e0bf
00000420: f7a9 1936 8876 f2bf 7daf b2e3 8b46 dfbf
00000430: 6ccd c246 b844 e5bf 144b 35e1 beff e5bf
00000440: 626d 3495 d20e e5bf c33c 02da b206 f6bf
00000450: 0b58 e8c1 32d4 e4bf 0b22 821b 4f0a e0bf
00000460: 9cfa dcea 88a4 e5bf 29f1 0c09 9069 edbf
00000470: b4f0 cdb1 50d7 f2bf 6c9d d99b 04f6 dcbf
00000480: c14a b3e6 b5aa c6bf 6bee 92fe 1f1c c7bf
00000490: 7de5 154d e1fe c9bf 82c2 6e8e 65e4 c63f
000004a0: 751e 92a2 b76d c2bf b282 dbd1 7763 943f
000004b0: 35bb c17f 5714 d2bf d964 122f d928 c9bf
000004c0: d3a6 a4f6 0315 c53f 221c 9fd2 c5f9 c4bf
000004d0: 84c3 caac 6c0c cdbf e5f5 61a4 3463 bcbf
000004e0: 4d7e eb10 2618 d4bf d7d1 862e 4579 77bf
000004f0: 7663 4053 30d9 c4bf 0a03 c65e c748 7d3f
00000500: 63bb 0bfd 562a f7bf 82ad 4327 f920 e3bf
00000510: 1174 6759 2a58 f6bf fd02 2f6e 89a8 f3bf
00000520: 2882 6273 3040 f3bf e94a ae4f c193 eebf
00000530: 0eb9 3a85 dbb1 e1bf bb62 9319 7079 e1bf
00000540: 98cd 8696 bde5 eabf 8428 dd8e f879 f8bf
00000550: 9ce4 38af 3a04 e1bf 5b93 8da8 ffb5 e9bf
00000560: 9ca4 f124 7e4b e3bf 344f 0851 5951 f1bf
00000570: 7e33 ae75 270b f3bf c52d e130 ab43 f0bf
00000580: 1f73 553c 51d9 f4bf ccba 20ac 336b dcbf
00000590: acc5 1f66 db35 f4bf 2bbf b430 87d9 e9bf
000005a0: 51eb 6fcb 2e9e f1bf 5013 7fa5 acc7 e1bf
000005b0: 9cb0 c9f4 b75c e1bf eeec 786e 6f0c e0bf
000005c0: 5e22 348d 7e53 e5bf 1d15 9f2c 8a1f f6bf
000005d0: b95d 1425 1310 dbbf e0bb 588a 4311 e1bf
000005e0: 3809 9286 188b e2bf fa78 a954 7b26 eebf
000005f0: bd0e f22a 228c f1bf fe52 9cae 2b6c e6bf
00000600: a7fa df90 6b6c f4bf 0722 2424 c085 e4bf
00000610: 8de2 e17c 3cde f3bf 08c8 d00f f442 f0bf
00000620: 06cf a249 e55d f1bf f123 4d7a 5e8a e9bf
00000630: 9ba2 8d9f bc2a e4bf 83fe 03d2 07b0 e5bf
00000640: 9ea9 5864 6a1e f1bf a51d bd19 77d1 f4bf
00000650: 9ff1 f097 b93e e3bf 417f 7cb0 9951 e5bf
00000660: 9561 2af2 6d3a e3bf cf98 08f5 1711 f1bf
00000670: 7184 2cb3 a138 f1bf 102b e660 a14d ebbf
00000680: e1d5 2d8d 1708 e8bf 7b56 57fc 6063 e0bf
00000690: de77 62ad 32a3 e7bf 94bd a3b7 9e0c bc3f
000006a0: f011 c0d2 0b7e e5bf 42b9 d937 bbd2 a8bf
000006b0: ecf0 9b88 2517 e6bf dace fb0d da58 e3bf
000006c0: 5b87 da88 e973 b2bf a91a 2c7f a531 eabf
000006d0: d9d1 c003 9f0d e1bf 113a f12e 096c cbbf
000006e0: d878 9594 e420 e5bf 53bc b982 7ecd d7bf
000006f0: d691 df5a eee2 e6bf f1db e03b 2e99 9e3f
00000700: e0a3 8153 43d8 dfbf 9e72 435c 893b a9bf
00000710: 7f46 ef67 247f e0bf 79ee b06d c72a b13f
00000720: 5317 3885 3675 dabf 6793 2d70 2b40 b23f
00000730: 2a7f 9ba7 8868 ddbf 805b b268 f5c7 4dbf
00000740: d381 5750 038e 8e3f c373 e478 1f45 e1bf
00000750: e8fd 693e 1530 dcbf d5c1 3658 a935 b23f
00000760: 9f2b 0b94 5ac2 e1bf 2c9d 5121 c04b d3bf
00000770: 9bcc 7593 f6d5 dabf 6e13 8af3 9056 873f
00000780: a930 aa4f be67 f3bf 77b5 a0bf 2a71 dbbf
00000790: d359 740e f947 f3bf f6a1 e9ee fb72 e3bf
000007a0: a3ab 07ee f20d f1bf 704c 3c56 e5a6 debf
000007b0: 92d8 871c ac81 e0bf 8f7b cc4d 05a4 dfbf
000007c0: 80c5 f336 a7c0 e2bf 74ac f794 37ee f4bf
000007d0: 2eb0 b797 0995 dabf aa66 56f3 24e7 dbbf
000007e0: 43d8 033b 10bf e1bf b3eb 8cb5 a6a8 ebbf
000007f0: 90d4 c1d2 2117 f1bf a5a2 21df 1583 e1bf
-0.3095516201322403 -0.4634295246269487 -0.2757058767818937 0.16135264157378482 -0.25466389375270154 -0.11099359583687703 -0.5595146734367387 -0.5357092068152187
0.08326182559104894 -0.32478044415061896 -0.566902236824877 -0.20578911401688024 -0.5884831883343439 -0.07074988349299097 -0.3005977428526143 -0.011276093026707682
-1.4111283281127918 -0.5636073215864496 -1.366488433105116 -1.1001476876544165 -1.1964360286675 -0.8525380787166509 -0.5493162959758258 -0.5405892906048029
-0.8085722612530403 -1.4895375333054008 -0.4985342975821424 -0.7192162259595742 -0.6002835961828835 -1.051717795290542 -1.1823047525019832 -0.9016099408640178
-0.3277973880630639 -0.47748660303799817 -0.3110442285736358 0.09516224270414536 -0.29046112879057107 -0.11136454133019438 -0.621396269616819 -0.5336301756548051
0.05603913494541293 -0.3787799270840247 -0.5785748986037589 -0.2577873159126586 -0.6663687626108926 -0.08089483027191932 -0.3427393976413942 -0.040940908504217596
-1.2447364279529605 -0.44208863759961087 -1.1861417479417742 -0.5996029483415821 -1.0840937567319973 -0.5076753501976675 -0.519579256371371 -0.47722340470443225
-0.564305523553355 -1.3280776220908226 -0.43422498301037865 -0.46509259546777765 -0.5680981425530879 -0.883682381105471 -1.0951113550729912 -0.5789860822395376
-0.5583616990419653 -0.8714286722000929 -0.5488669908571361 0.06025566916031099 -0.4045843760198157 -0.03688251005671751 -0.9466090616647663 -1.0358228445038975
-0.03228716696890057 -0.656543785191257 -0.8614387210842449 -0.2929083045684404 -0.8999183589697054 -0.23345774036977862 -0.5809531082605731 0.008968239039234825
-1.2400099640195372 -0.45848601978950687 -1.2192393089395697 -0.7386468255841556 -1.095905213763685 -0.5651936842758494 -0.5345677960325486 -0.5056585211077739
-0.5844816503232664 -1.3290549672348988 -0.41406878804695313 -0.5400565694728393 -0.5812043252812417 -0.8884365346846183 -1.0808503127560782 -0.6685203070710304
-1.3584523571090716 -0.6108629062349082 -1.3348473143438888 -1.076391968199461 -1.1951864844591296 -0.8466454098340097 -0.6084106088797876 -0.668174884067056
-1.0794197823944212 -1.3993962398783117 -0.594669957520706 -0.692971677329638 -0.6093108741660529 -1.1612283166122133 -1.1510092072573277 -0.9042443048305046
-1.4137453342006727 -0.5967415385474831 -1.4000318783305385 -0.9904102579401459 -1.2242771167227975 -0.7657319064704994 -0.5711268372553193 -0.5912223800318824
-0.9553391001206019 -1.512164168896106 -0.5563195773665329 -0.6403081823385369 -0.5962813815821425 -1.1058078717413657 -1.18509917429135 -0.8162011910941585
-1.3052555607005951 -0.6428956268022735 -1.2789460984833434 -0.5016516511703477 -1.1539384949961666 -0.4886808131802736 -0.664638651089644 -0.6874689482304768
-0.6580593980938085 -1.3766354099241631 -0.6509031092889485 -0.5012584244987591 -0.676334818570314 -0.9191360642212533 -1.1775671906935203 -0.45251574725849397
-0.17708467259088503 -0.18054580622070956 -0.20309082282964744 0.17884511427611832 -0.1439733070185302 0.01991069048279099 -0.2824915645241391 -0.1965590934603714
0.16470384162066995 -0.16387245926145605 -0.22694166600333798 -0.11088875783203596 -0.3139739194138869 -0.0057308866893674626 -0.16287807526603232 0.007149485387686347
-1.4478368649103792 -0.597775055587974 -1.3965247623775705 -1.2286466888473904 -1.203171206209058 -0.9555365139261457 -0.5529611208092164 -0.5460739612127193
-0.8405445041629944 -1.5297780590649674 -0.531766264182028 -0.803466633992325 -0.6029654237328432 -1.0823605695085918 -1.190223178567265 -1.0165206822738224
-1.3030559880055035 -0.4440430813728369 -1.2631486882422491 -0.8078037215509303 -1.101118845631124 -0.5556243164397561 -0.5425681859028546 -0.5015179784453758
-0.6664421804317262 -1.3827001326583919 -0.42285612698602965 -0.5333574010927542 -0.5794794681862987 -0.9421974805407267 -1.0967122724113516 -0.7007044229854669
-1.2764697703529835 -0.641326971615002 -1.2417569044320402 -1.0163460367007264 -1.085423743858827 -0.7981407536218496 -0.6302168957018525 -0.6777381040446503
-1.069925682046779 -1.3011389737529069 -0.6014068572617822 -0.6662109801290869 -0.6008825044437339 -1.066673237955502 -1.0763260840397175 -0.8532263653335992
-0.7509877927211016 -0.5121312073267313 -0.7386716257494716 0.10956756575955345 -0.6716364971367152 -0.04848275238770096 -0.6903255146167147 -0.6045961640470197
-0.07208118048813843 -0.8185603603204373 -0.5329127381615378 -0.2142344931803142 -0.6602652456311047 -0.3719173695198538 -0.7152015471333992 0.029881212620434586
-0.49757464556620157 -0.049282352936392146 -0.5155202894186032 0.06705900600439375 -0.4134041119544822 0.07129165161820837 -0.4595052372733216 -0.0009088466917031995
0.01491930569585601 -0.5396878586940307 -0.44043475241775676 0.07113130954417753 -0.5549748317219957 -0.3014984441164923 -0.4193092765846786 0.011395580703956045
-1.2128279792696424 -0.4287821647038394 -1.2050715031269774 -0.6077861467611558 -1.0659055040402812 -0.47893651410522065 -0.5158291394461847 -0.4943860301736373
-0.586017234161929 -1.3081584757844924 -0.41534652534642447 -0.4359829307883084 -0.5545731690060695 -0.8643373056323668 -1.0681474907590065 -0.5472516401324198

bias f8 [112]
00000000: 0cbe 711f 5b4d c43f 9131 b6fc cab7 d0bf
00000010: 7f98 c359 cbdc a13f 0a55 bb5c bc69 eabf
00000020: eb4e 96a5 f55a c7bf 18a9 3dd1 e897 e6bf
00000030: 2bf3 60bc 3b84 9e3f 27a4 0395 e17e cebf
00000040: fca9 c90c 3d85 e5bf 06d0 900c dbd9 e03f
00000050: 4091 6c10 cceb c4bf aa34 a81d 9e95 e1bf
00000060: 8aec bfff 3750 57bf 019d 5aeb afec ddbf
00000070: e551 fea8 de05 bcbf c3f6 cb08 5f68 e6bf
00000080: b941 4c2e b80d c6bf e122 b656 3df8 d6bf
00000090: c4bc ba15 9f97 cbbf 9236 e146 1d11 643f
000000a0: 31db a89a ce0c d1bf 7ea0 ab53 1612 c1bf
000000b0: a045 1b0f 4a98 ddbf 1afc 7432 c13e d1bf
000000c0: b2e9 497d eefc a13f b5f3 c12a f969 b8bf
000000d0: 08d5 9cae 58b3 ddbf 7244 c197 ca71 d1bf
000000e0: 40a8 425e 8dbf e3bf d016 ced5 a465 b8bf
000000f0: 2da8 8a46 1b23 d9bf 4f76 f3fb 0a6a c1bf
00000100: 3cee a4e6 ebb5 c33f 4aec 20c6 80aa c03f
00000110: bb81 37a7 10cb c23f 922b b38e b3dc ba3f
00000120: cf46 ade4 7b7d bd3f 7c92 e2d2 30aa b83f
00000130: 0906 7e70 5369 c23f d444 ad9b 3829 bf3f
00000140: aafd 8d69 8d0c c33f 7f43 3acf 4a03 c23f
00000150: f4de 8eeb f0d9 c23f 8d8e 4a12 0a78 bc3f
00000160: 51f4 8ca3 f783 bf3f 9439 66ba c249 c13f
00000170: 5bb6 ccbf a9b5 c33f 4022 63d9 2544 b83f
00000180: 5153 21f4 9210 b03f 8631 bdc3 6116 ac3f
00000190: a405 86b4 d1d3 ac3f 5b77 0421 e6d5 b33f
000001a0: ee28 c224 3542 a83f 12a4 47a0 f0ed 9e3f
000001b0: 1ea3 51ba fa59 b13f 439e df08 8f16 b13f
000001c0: 065b 39d9 b7e5 aa3f 3261 e992 4eb2 b33f
000001d0: 9a77 8278 ee0f af3f 4baa df90 7de4 a03f
000001e0: 0f77 4057 d1a7 b43f bffe 7c3d dd48 af3f
000001f0: e6b0 9430 211e af3f 8a25 be0b c998 a53f
00000200: 79c1 ab18 7652 c13f b59b 173c 2e73 c03f
00000210: db78 761c d10f c23f ef33 2f65 3dc8 bc3f
00000220: c756 57c5 6b01 c13f b91d 65f0 5e1b bc3f
00000230: 04d5 4987 06da c23f 6b9b 81f8 79ee bd3f
00000240: e00e cdc1 6a4a c23f 1e98 de31 f3bc c33f
00000250: ac04 0ffa fb30 c33f f81e 9b4c 34a0 c03f
00000260: 9d76 4ed6 e069 c03f 89ed f3be 3f68 bb3f
00000270: 3c47 7813 7175 c33f f115 eccb 8924 bc3f
00000280: b543 2549 6cde cb3f 153f 6448 864e cc3f
00000290: b76a 4f4d 4015 cb3f 35a3 adf5 5f4c ca3f
000002a0: b1cd b75f 9162 cc3f 85ac a843 71f3 cc3f
000002b0: 799f 5f70 c1f3 cd3f fce7 fe85 6c05 ce3f
000002c0: 2267 61b2 3a90 cb3f 5812 978c b8a1 cb3f
000002d0: 1efd 8d10 7e53 cc3f bd78 8215 5a7f cc3f
000002e0: 85a2 681d 137f cb3f b59b 5bf7 8bd1 cc3f
000002f0: f47a b07a 1edf ca3f 8372 6ad3 5986 cb3f
00000300: a7dc f5fb 58d0 efbf 1feb 0452 8ec6 f4bf
00000310: c163 c865 a5fd e9bf f64c 7b96 1da5 eebf
00000320: 93f7 1463 633e f9bf 798f 889b c316 f2bf
00000330: 2ccc 22b1 0899 f4bf da87 0677 2de0 f4bf
00000340: cafe 98a8 eded efbf 8c90 cfb5 e364 f3bf
00000350: b6a5 1e7c 53c1 f4bf c91b 80b5 ab3f f4bf
00000360: b1a1 9646 3e4b f5bf 9c21 c032 b830 ebbf
00000370: 6ea1 188c 9a53 f7bf 2f1e 33d1 f497 f0bf
0.1586107162033702 -0.26121782950283384 0.034887652118229966 -0.825407200924617 -0.1824633654147115 -0.7060436331496787 0.029801305172657038 -0.23824710632405408
-0.6725144624481909 0.5265937085555386 -0.16344595720250688 -0.5495138720740631 -0.0014229342332317285 -0.46757123931679706 -0.10946456552330337 -0.7002406284152233
-0.17229368458403174 -0.3589013430396744 -0.2155646186924739 0.002449567014116757 -0.26640668014026675 -0.13336447797269452 -0.462420000793907 -0.26945524146498345
0.03513283996013018 -0.0953670243633969 -0.46407143642439097 -0.27257027454203986 -0.6171328393004458 -0.09530096263741972 -0.39276773346739696 -0.13604867269798368
0.15398930322577253 0.13020333933113398 0.146822053574409 0.10493013605007054 0.11519598324710077 0.0963469042640756 0.14383929245745744 0.1217227344580068
0.14882056860004172 0.1407254707196692 0.14727603437290038 0.11120665499270839 0.12310741179403918 0.13506349660424333 0.1539814173242345 0.09478985364251802
0.06275289974412358 0.05485826029198208 0.05630355194717687 0.0774825888260841 0.047380123841394325 0.03020454386015465 0.06777922676850465 0.06675046888960261
0.052533860460860324 0.07693949782094903 0.06066842289986525 0.032993244108940965 0.0806856954590922 0.061102784877673504 0.060776745968128584 0.042181284602587146
0.13532901959070978 0.1285150330943147 0.14110769166740664 0.11243041725465706 0.1328558648662492 0.10979264611261542 0.14727861028556088 0.11692011181876942
0.14289602721156935 0.15420379576716042 0.1499323817243171 0.12988904705547788 0.12823114837822383 0.10705946361479425 0.15202153635669358 0.10993252972192359
0.21772531100807915 0.22114637884850966 0.2115860345355338 0.20545577522286754 0.22175805257539374 0.22617927364021653 0.2340013312052596 0.23454052489051935
0.21533902845367786 0.2158728300547803 0.221297987063715 0.22263647127414812 0.21481551109288347 0.22514485910434492 0.20993405333225434 0.21503756354367817
-0.9941830559827353 -1.298475571048307 -0.8122126567787903 -0.9576557101339904 -1.577731501616175 -1.1305576396489114 -1.287361804902285 -1.3047308587488176
-0.9977939885065663 -1.2121312238678312 -1.2971987579752358 -1.265544613824874 -1.3308699376449165 -0.8496972075673059 -1.4579110596187905 -1.037098710237739

weight f8 [3, 16]
00000000: 1e71 aa55 0dd2 d2bf 9972 3b03 fbca d4bf
00000010: d7c8 fa9b 8f8c d3bf eadc 16a9 8ae1 d3bf
00000020: d6eb 303a c8d7 d3bf 9f61 75bd 3495 d3bf
00000030: 10c1 5109 676c d4bf 3a3b 15d8 f062 d5bf
00000040: e4c9 29dc c707 d3bf 9c0f 3262 a6e9 d2bf
00000050: 709d 3f13 7e22 d5bf 1912 bef5 faee d3bf
00000060: 5bd4 fa87 6098 d4bf 38d0 5c61 56b2 d3bf
00000070: 11ed 1c78 97b1 d5bf 94fe 74b8 6ba4 d2bf
00000080: 4cad cba4 7647 d3bf 0c3f 4def ef03 d4bf
00000090: 4296 cacf 3a21 d4bf 541a 0eed 37ec d3bf
000000a0: 51bc b5cc 6c01 d4bf 72f5 c141 f0be d4bf
000000b0: 9034 0b96 4bcc d4bf 8f1f 67cc 7c65 d4bf
000000c0: cb90 93e3 353d d3bf a220 ea3f 39f7 d2bf
000000d0: 1ef5 5647 a4ef d4bf 7336 ba9c 5f90 d5bf
000000e0: aca8 f5f0 38ae d5bf 4130 dab0 5b84 d4bf
000000f0: 81c7 0d94 d2a4 d1bf db6a b86d d050 d5bf
00000100: 8dc5 9bc2 bbbb d5bf d240 8987 b7d3 d3bf
00000110: e10d d215 5a00 d6bf da4f 56cb 98fd d5bf
00000120: 8b29 e794 8eb7 d5bf d0a4 b4da a4ff d4bf
00000130: fa23 258a eb9f d3bf 919f b882 0444 d5bf
00000140: 33e8 902e c70c d6bf f056 e0a3 0c78 d6bf
00000150: 1962 4102 27ab d2bf 1dc9 567d 820f d4bf
00000160: 4d3d 2786 42b0 d3bf 3860 c2c0 5254 d7bf
00000170: 0ce1 d074 9053 d5bf 3a02 d99e 74eb d4bf
-0.29407056203651105 -0.3248889476360915 -0.3054541609991594 -0.31064096939685604 -0.31004529650425405 -0.3059818124943607 -0.3191163626679705 -0.3341638670143997
-0.2973498964339838 -0.29551086034211393 -0.3302302539800257 -0.31146120069777933 -0.3218003585746538 -0.3077598524862455 -0.3389643357256356 -0.2912854482019409
-0.3012367829639586 -0.3127403103762709 -0.31452818195461785 -0.3112926306716066 -0.3125869750137485 -0.3241539613880696 -0.32496919300758353 -0.3186943050500241
-0.30061099266300734 -0.29633933297783177 -0.32712656943097496 -0.3369368582287741 -0.3387586930390494 -0.3205785014222365 -0.2756849714124812 -0.33305750574952037
-0.33958333973631555 -0.3097971747965974 -0.343771477994066 -0.343603323527757 -0.33932842770868693 -0.32810326917622223 -0.30663574686747064 -0.3322764660429068
-0.34452991054024834 -0.3510772323946716 -0.2916963121438428 -0.3134466384900792 -0.307633048066198 -0.3645216829695559 -0.333225359037457 -0.3268710662123656
