Retweet/RetweetNetsV3/TrainNet_ep11V2.pt (torch, 23477 bytes, 6 tensors)

scale f8 [3]
000000 19 74 43 58 a6 18 e1 3f 5d 50 f4 d6 05 ed e0 3f
       0.5342590068718237 0.5289334486319707
000010 14 2f cc 6e 34 66 df 3f
       0.4906130868919132

weight f8 [112, 3]
000000 90 f8 9b ac 2d 5f cb 3f 7c 5f 79 ec 5b 8b ba 3f
       0.2138421147173557 0.10368895076078205
000010 bf fe ec 8e 81 0e 99 bf a5 cd 88 5f cd 77 db bf
       -0.024469398830887053 -0.4291871483757979
000020 2e f3 d6 94 7b da cf bf 39 a6 16 25 a0 0c bb bf
       -0.2488550640827269 -0.1056614008472473
000030 e4 e9 7c b4 1d 2b c1 3f 16 48 d8 a1 4c bf a7 3f
       0.13412829697502027 0.04638137317319051
000040 d5 c2 50 72 99 d2 97 3f 42 5b 63 3e 3a c6 e5 bf
       0.023264310457480192 -0.6804476946370885
000050 ed d3 bf 15 e7 d4 e4 bf 67 03 ac d8 ad 85 da bf
       -0.6509890961448243 -0.4144091239868914
000060 96 d4 26 76 12 f0 a0 3f 32 ba 04 ff 31 b6 b1 bf
       0.03308160488396898 -0.0691863296130826
000070 90 3c b0 b5 78 bf b5 bf 6b 74 9e 54 ae 2e e4 bf
       -0.08495287357094328 -0.63069836165563
000080 4b 8f 18 73 c7 12 e3 bf d9 fa 7f ce 4d 1a d5 bf
       -0.5960423706023702 -0.32973046461112926
000090 a3 65 5d 7a 52 6a b8 bf 2a 2f 00 a5 6c 31 a1 bf
       -0.0953723477117792 -0.033580203191461
0000a0 0c 3d bd c8 18 cc b2 3f a5 1e 56 e0 53 e4 d8 bf
       0.07342677021846472 -0.3889360132966238
0000b0 17 8e 61 d4 88 31 c4 bf 7b 92 f7 62 59 c3 b2 bf
       -0.1577616726891484 -0.07329329172314118
0000c0 e1 50 02 cf f9 7e df bf a1 ae 58 c8 fc a8 dc bf
       -0.49212498870589455 -0.4478141743190723
0000d0 bf c4 57 e3 11 80 d2 bf 67 c7 68 c8 51 2c d3 3f
       -0.28906676484536925 0.2995800454256056
0000e0 d3 2f ff fa e5 2d d7 3f 21 8a 23 76 8b 6a c0 3f
       0.36217641364487213 0.12825148838517555
0000f0 cb 94 47 65 db 9f d5 bf c0 dd 2c 6a 9a aa c9 bf
       -0.33788189783656425 -0.20051889595354844
000100 eb cd 0e c3 53 de 90 bf a5 e8 07 fd d8 35 e1 bf
       -0.01647311094320784 -0.5378231946954385
000110 7f 4f 5b 42 a0 9d df bf ad 5b ab d6 09 d5 cc bf
       -0.49399572830338195 -0.22525141698744502
000120 1e 92 a5 6b 21 5b ac bf 9a 7c f4 25 66 87 b3 bf
       -0.05538277091071485 -0.07628477503429779
000130 1c 77 e9 55 08 ac bc 3f fc 97 de d9 4c d9 c4 bf
       0.11200000855884834 -0.16288147581252577
000140 f1 b9 a7 4a e2 5d d4 bf 3c c9 b0 ad 5c ad d3 bf
       -0.3182302216581823 -0.30745617830247673
000150 54 1c 5d 9b 81 37 e0 bf 4c f5 87 1c 79 1d db 3f
       -0.5067756685683755 0.4236738947509664
000160 f8 5a fc fb f0 97 c1 bf 26 6e 94 6f 28 bc e2 bf
       -0.137449381866382 -0.585468500069912
000170 11 38 30 8f 9e e1 e3 bf 5d f7 99 71 8b 18 d6 bf
       -0.6212914272925919 -0.34524808973207205
000180 84 9a a5 76 19 8b c9 3f d5 88 77 8f c5 7f d0 bf
       0.19955747884087682 -0.25779856691782516
000190 c5 f5 cb f2 86 5f cf bf 13 12 e0 23 da da c2 bf
       -0.24510275702770748 -0.14730383636209918
0001a0 ff 19 a3 2d f4 15 cb bf 9e 85 9a 0d f0 bf e5 bf
       -0.2116074774587133 -0.6796798959441508
0001b0 0f ac e6 b4 14 59 c1 3f a6 f4 45 28 c0 6a d0 bf
       0.13553103287753784 -0.2565155404370877
0001c0 4e 71 fd 02 49 90 c4 bf fb 41 de 9a 4d 13 9c 3f
       -0.16065323492046918 0.02741738565197414
0001d0 3d f2 49 87 75 17 9b bf 48 53 0c df af 09 d1 bf
       -0.026456676847816708 -0.26621624738736616
0001e0 6e 4c 4c 7e 47 d2 c3 3f b9 a4 18 58 a1 42 d4 bf
       0.15485471407791657 -0.31656678774977426
0001f0 a7 fa 2a 06 bb 72 d7 bf 26 97 71 f8 ab 0f aa 3f
       -0.36637759783108453 0.0509008160377518
000200 3d 25 24 7d 85 e2 c6 bf fb ed a2 a1 1c 83 e0 bf
       -0.17878788576516938 -0.5160048634492677
000210 12 e6 3a ff 88 84 a9 3f 63 42 47 5c 7e 6e e1 bf
       0.049839287906660826 -0.5447379877387671
000220 4b 6a a9 d6 c3 18 de bf b4 ac 40 86 59 65 c7 bf
       -0.4702615352922847 -0.18278044753364997
000230 20 fa 5b 75 5c 57 ba bf 55 46 07 f4 e0 ff e0 bf
       -0.10289552560059478 -0.5312351957492846
000240 a6 53 7c 75 72 4c c2 3f c4 24 0c 48 d1 e5 93 bf
       0.14295798050502845 -0.019431371710230363
000250 47 b0 e3 21 1a 63 d7 bf 03 08 75 c1 49 87 bc 3f
       -0.36542371091377784 0.11143933270525967
000260 e6 03 f7 c1 31 7c c0 bf 8b 4c e1 db 5c a9 cc bf
       -0.12879011126463452 -0.22391854034740208
000270 dd 2d e3 ce e0 d0 be bf f6 61 83 7e a3 71 db bf
       -0.12037472773516052 -0.4288109527092553
000280 16 d4 f6 2a 0c aa e4 bf 95 b5 db b9 ce ab c6 3f
       -0.6457577551979081 0.1771181495200095
000290 db f4 d8 0e da a8 de bf 32 80 d1 e7 8f 3e e8 bf
       -0.4790558953280432 -0.7576369788839712
0002a0 5e eb 6c af 7f 56 bf 3f 57 08 48 df e9 5b e5 bf
       0.12241361649368573 -0.6674699173893356
0002b0 4f ea 8b dc 19 86 d2 bf 1d f0 49 a5 8e ec bf 3f
       -0.28943487680195273 0.12470332656261048
0002c0 b5 6b 26 68 3d eb c4 bf 41 f6 ec 6e 87 32 d4 bf
       -0.16342895112469838 -0.3155840476282244
0002d0 f0 e9 49 69 af a8 e0 bf bb 7c 30 86 38 1d c5 3f
       -0.52059145511822 0.1649542479726501
0002e0 8c 65 de a1 f1 0f cf bf f4 02 6a e0 97 e7 cb 3f
       -0.24267406848666118 0.21800516565055938
0002f0 f5 8a c2 d8 17 9c d5 bf 43 ea 30 92 6b 3d e2 bf
       -0.33765216987573804 -0.5699975829405236
000300 41 e0 23 10 bf 44 b5 3f 1c 1c 00 b6 83 39 b7 3f
       0.08308023590132142 0.09072135156030509
000310 b0 2a 07 4e dc f5 d9 3f 8e 5c c7 85 ed b0 ab 3f
       0.40563113803788564 0.05408422716180282
000320 3b 24 24 72 94 62 bf 3f 24 f0 f2 4e 1e c9 da 3f
       0.12259795939111566 0.41852529249058734
000330 9a 0b 52 62 47 bf b1 3f 31 b0 63 dd 1d 8a bb 3f
       0.06932493353273941 0.10757624297156167
000340 b8 7b 06 b3 c9 91 da 3f 87 60 b4 23 68 da b0 3f
       0.4151481865209763 0.06583262321180615
000350 a4 37 f8 1c 72 5f b0 3f 9f 73 b4 7f 1a 6d d7 3f
       0.06395638663545228 0.3660341498487529
000360 32 6d 2e 7e a3 2c b6 3f 5b a4 d5 22 b0 bf b7 3f
       0.08661863165473419 0.09276867723896613
000370 7a 9f 3c 4c 59 a8 d6 3f d5 44 0c 8c 68 09 ab 3f
       0.35402519650460074 0.052806155296033865
000380 71 42 19 68 13 0d aa 3f 6b 93 32 09 fc dd d7 3f
       0.050881010491711794 0.37292385957908064
000390 04 99 b3 ee c7 0b b4 3f b9 20 04 a8 c2 c2 b9 3f
       0.07830476358103416 0.10062805749851379
0003a0 70 04 e9 1b 71 cd da 3f c8 78 d1 42 99 3a b1 3f
       0.4187891743241101 0.06730039483361161
0003b0 64 08 a5 54 95 24 b3 3f 61 ba fd eb f5 fe d8 3f
       0.07477696720619204 0.39056156202324216
0003c0 4d 9c 97 4e 1b 9e b2 3f 4a 1b 9c 3b 94 57 b7 3f
       0.07272501629596313 0.09118010001485036
0003d0 88 b8 47 8f 93 12 da 3f 4b 2c 41 fc 52 3a b3 3f
       0.40738381378367494 0.0751087060790933
0003e0 f2 ce ad 80 03 b2 bf 3f 5e 78 df 29 86 30 da 3f
       0.12381002322745951 0.40921167458680496
0003f0 3a ac 82 be ac 7d af 3f 48 0e b9 29 91 28 bb 3f
       0.06150569749419117 0.10608775395035608
000400 9c b0 f1 b9 9e d9 d9 3f 0d 98 e8 63 d9 bb b2 3f
       0.403907472215687 0.07317885102438045
000410 aa 63 ee 27 54 ce b2 3f cd e7 aa 67 86 24 d9 3f
       0.07346082663424505 0.3928543102625753
000420 87 cb 81 8f c6 9c b1 3f f7 33 a4 0d e1 d2 b1 3f
       0.06879845622624546 0.06962400992433958
000430 8b eb ca 80 c3 9f d8 3f ec f3 35 89 c1 7b b3 3f
       0.38475120141418334 0.07610711669799713
000440 76 b1 74 b9 b7 9b b8 3f 8a 82 7e 2a 6a 33 d8 3f
       0.09612606313448233 0.3781381049139233
000450 00 58 4b 06 d6 33 b3 3f a4 6b fc 5b 3a 9b b8 3f
       0.07500970510167804 0.09611859079124813
000460 85 4a 38 e0 50 60 da 3f 42 0a 68 37 4e 2c af 3f
       0.41212865730737064 0.06088489939067589
000470 d7 b6 bb c4 76 8a b5 3f b4 f3 29 c2 8b 66 d8 3f
       0.08414404204423974 0.38125890694919495
000480 a4 2e 85 f2 7c 6f b3 3f 44 89 ef f9 25 93 ae 3f
       0.07591992302803391 0.05971640277836568
000490 d4 ec 35 10 f4 1a a4 3f f8 7f 53 5b 4e 9c aa 3f
       0.03926813791164255 0.051973770759786875
0004a0 9e b8 32 13 94 30 b1 3f 7c 6f e0 31 34 80 a9 3f
       0.06714749783233961 0.04980624302717637
0004b0 3f b5 a2 10 3c b1 b2 3f b4 4e df d1 46 81 a8 3f
       0.07301688581602138 0.047861302489449115
0004c0 f7 e8 8b f4 70 83 a8 3f 9c 94 3f ac c4 0f b0 3f
       0.04787781701266341 0.06274060445101032
0004d0 6f c2 8f 58 3c c4 a5 3f ae 65 23 80 b0 b8 9f 3f
       0.04251278477739084 0.030977971859874102
0004e0 42 7f 6d 76 38 00 b4 3f 77 4d 32 16 3f 2b a6 3f
       0.0781283654337104 0.04329869409516623
0004f0 d1 d8 10 0b 91 95 a2 3f f8 bc 2b fc 10 83 a8 3f
       0.03629735241013211 0.047874956877302866
000500 e8 5a 56 ca f7 b0 b3 3f 0f 4e d4 94 4d 61 84 bf
       0.07691906633258905 -0.009951215843591958
000510 f9 ac ea a4 f2 33 ad 3f 27 d7 91 00 51 e0 b3 3f
       0.05703695548194249 0.07764154685886791
000520 2c af 22 9c 49 1c a8 3f bc bb 55 4c d5 fd aa 3f
       0.047090816792972084 0.052717843597626296
000530 3a 41 bd 8d f6 b1 b9 3f cf d8 87 ce ab 22 b1 3f
       0.10037175140792423 0.06693528930904623
000540 ac f8 e8 ec a5 17 b2 3f 97 46 29 52 3f 07 b4 3f
       0.07067334207474357 0.0782355857457112
000550 3a 52 49 72 ee a8 ac 3f 56 cb 7c 70 63 61 b3 3f
       0.05597634453866758 0.07570477958942709
000560 91 e2 97 72 65 69 b6 3f 37 8f 61 bf 8f ec ac 3f
       0.08754571960151682 0.0564923211211678
000570 60 1b c4 b2 59 ef a9 3f c9 38 dd 2c b3 04 b3 3f
       0.05065422351076765 0.07429046483341319
000580 4a 1a d9 c9 c4 93 98 3f ac 94 59 66 8a 62 a8 3f
       0.02400119287474415 0.04762680529965144
000590 5e 25 0a ec e8 91 b0 3f cb ee ec 23 45 54 82 bf
       0.06472640764891 -0.008949794920787643
0005a0 e8 be 47 fe 10 e2 b1 3f 4f 21 12 19 b1 b5 b0 3f
       0.06985574920667725 0.06527239667969308
0005b0 4a de 37 9a 19 dd ad 3f a5 c8 82 3f f0 cc b4 3f
       0.05832748420283147 0.08125211287077379
0005c0 bd 0b 88 a0 a1 18 b0 3f 84 6e a0 f5 06 0d a5 3f
       0.0628758446619448 0.041115014537550315
0005d0 f9 cd 65 f6 73 56 b5 3f 8e b3 5a d9 c8 70 b0 3f
       0.08335041776245324 0.06422095591069718
0005e0 3b 3a 68 3b 06 3c aa 3f e1 0e 85 3d d3 00 b1 3f
       0.05123919940171048 0.06641884090373253
0005f0 12 38 24 ba ac 7a b1 3f cf ff b3 9a 55 d9 9b bf
       0.0682781176039671 -0.027196252410248974
000600 f8 60 d9 71 e3 62 b0 3f 58 25 c6 bf db 39 bc 3f
       0.0640089180900566 0.11025784904463387
000610 5d 00 88 e2 d2 48 da 3f ce da 5f 68 e9 97 b3 3f
       0.41069481012528347 0.07653673933223645
000620 77 62 99 d2 34 e5 ba 3f 6f e0 24 af 70 a5 db 3f
       0.1050599111707785 0.43197266677771656
000630 1b 89 c2 df 8e eb b5 3f c2 6d b7 5a 11 d3 b4 3f
       0.08562558138740821 0.08134563889273408
000640 23 b4 2c b5 34 81 da 3f 81 62 17 a9 8b 87 b3 3f
       0.41413610165438025 0.07628701093870839
000650 a6 c7 57 2e 7d e9 b7 3f 62 c5 cc ae ce 7b d7 3f
       0.09340650922220436 0.36693160124112556
000660 9e 0a 58 fe 1d 21 b1 3f 50 e0 e9 79 30 77 b6 3f
       0.06691157779281773 0.08775618530660378
000670 4a 7e c3 df 67 32 d9 3f 42 65 e3 e5 5b 1e ad 3f
       0.39370152332228214 0.056872245609791
000680 8c 45 33 0b 62 8d ba 3f 86 7f 18 8f cd 1e d9 3f
       0.10371983312076888 0.3925050637644677
000690 16 40 50 10 51 e4 b5 3f 46 94 18 45 b8 a2 ba 3f
       0.08551508568075436 0.10404540717043273
0006a0 f1 4f 4f 87 ea 13 da 3f b5 69 35 e5 d8 e9 ac 3f
       0.4074655839333437 0.056471612910815074
0006b0 54 d7 7e 07 52 4a bb 3f b5 a6 60 5e 5d db d8 3f
       0.10660278971667242 0.3883889600425435
0006c0 ea fa 7f fb b6 a5 b0 3f 21 36 db 22 c4 e1 be 3f
       0.06502860679755043 0.120632418165052
0006d0 f7 30 da 1e ce fa d9 3f 11 0c 71 96 6e db b2 3f
       0.4059329320232474 0.07366076634302511
0006e0 e6 b6 86 79 b8 d6 ba 3f dd 17 47 f0 b1 29 db 3f
       0.10483887640904363 0.4244198652708045
0006f0 9e 56 68 b4 36 84 b1 3f b8 e0 69 83 a2 69 bc 3f
       0.0684236708114789 0.11098685940112574
000700 c5 49 57 f0 46 1b da 3f d6 47 e3 40 14 c2 ad 3f
       0.4079148623542575 0.058121331139446106
000710 85 5e 90 02 00 14 ac 3f 7f 84 2e 13 99 bb d8 3f
       0.05484008818910716 0.38645007012571136
000720 b9 34 3c ab 37 d6 b1 3f 36 50 43 cd ef 08 b9 3f
       0.0696749489836347 0.09779261361410438
000730 b3 e8 74 87 2b 25 d9 3f a0 7a 4f 4d e9 df b3 3f
       0.39289367893401134 0.07763536584341546
000740 d5 13 7a 25 89 34 b8 3f 44 8c 4b 7a e1 da d7 3f
       0.09455163159334685 0.37273442213899366
000750 d2 d5 7c 96 af 58 b0 3f 86 ab df a8 01 38 bc 3f
       0.06385323928846923 0.1102295911111196
000760 68 af 4f 90 3e 4c da 3f da 36 93 d3 d3 ea b2 3f
       0.41090358822724804 0.07389568248182901
000770 03 85 5e 65 19 4e b3 3f dc bb ea 02 44 7c d8 3f
       0.07541044926485445 0.38258457455498074
000780 3e 55 02 ba ea 67 c9 3f 76 ee 48 79 47 a7 c9 3f
       0.19848379213787298 0.20041745588411047
000790 6f a7 b1 7f 1a c4 d0 3f e3 ed bf 7f 64 19 cb 3f
       0.26196920843232524 0.21171241987018083
0007a0 57 b4 d7 33 40 c6 c9 3f f2 59 d3 f8 cc 76 cf 3f
       0.20136263400437102 0.24581300878226348
0007b0 05 4a f6 36 8e 5f cc 3f ad 77 1d 8d 13 e3 c9 3f
       0.22166612323469806 0.20224232092271902
0007c0 c0 77 9b a9 97 e2 d0 3f c3 0b 79 57 58 4f ca 3f
       0.2638301044770479 0.20554641982206875
0007d0 ed 45 71 14 63 96 c9 3f 16 a4 f1 ee 0f ce d0 3f
       0.19990194795768393 0.262577041000044
0007e0 34 ef 40 ab 5c 20 ca 3f 38 e1 7d 79 a4 92 ca 3f
       0.20411260950083376 0.20760017330372604
0007f0 16 55 bd 84 9e 4f ce 3f 2a c8 34 64 25 e8 c8 3f
       0.23680478555130752 0.1945845355308518

bias f8 [112]
000000 d2 e8 d5 0b 18 6b ca 3f 06 88 d5 3f 34 2a d4 bf
       0.2063932473936974 -0.315075933778758
000010 71 b6 f2 67 41 8d b7 3f 9c a6 98 85 88 58 e8 bf
       0.09199913776202508 -0.7608072861960014
000020 be 95 48 d7 ae 1f b2 bf 9e 68 e3 b8 85 c3 e4 bf
       -0.07079594379373241 -0.6488674746608643
000030 3f 64 91 94 28 40 a8 bf 3d e6 2d a1 77 d0 d1 bf
       -0.04736449063847958 -0.27834883442082853
000040 98 99 8d 04 a3 96 e3 bf b5 6c 4e 3a 80 21 df 3f
       -0.6121382798126431 0.4864197320363915
000050 a2 e6 04 fc 1b a4 cc bf db 51 9f 8d cd 02 e1 bf
       -0.22375821881887697 -0.5315921560346014
000060 a9 29 84 70 1e 14 b0 bf fd 91 15 36 6b 37 d9 bf
       -0.06280699011782666 -0.39400749475160507
000070 ff d6 47 b5 52 82 b7 bf 53 ac a2 1f 97 0d e5 bf
       -0.09183232236668103 -0.6579089753989912
000080 a1 09 bc ae cc cc b9 bf 4d c9 8f a5 bf f4 d2 bf
       -0.10078124299983539 -0.29618827026492484
000090 95 e6 1f 7a f8 bc c1 bf 41 3b 09 13 42 eb 9f bf
       -0.1385794254600127 -0.031170875942105217
0000a0 fa f0 a4 e5 b6 3e ca bf 49 a7 ca ed 23 c4 c1 bf
       -0.20503889287090954 -0.13879822836798386
0000b0 4a c0 5d bc 95 0b db bf 71 05 05 12 f6 67 ce bf
       -0.4225820865167448 -0.23754764442314127
0000c0 4b ed df d0 1a ce 99 3f 2b cd 3c fd 44 4b b0 bf
       0.025200289725018348 -0.06364852125698366
0000d0 22 38 62 3b 9d d7 d9 bf f9 ee d7 29 3a ae cf bf
       -0.40378504561602047 -0.24750449221743745
0000e0 94 c8 bd b9 a6 3a de bf 21 22 0e 72 86 ae b3 bf
       -0.47232978953173554 -0.07688179287482245
0000f0 10 af 6a 10 e7 54 d4 bf 70 30 65 3c eb f5 c3 bf
       -0.3176820431060472 -0.15594234894740877
000100 04 e4 3d cd e4 a9 c0 3f 1d e9 2e ef 0b c5 bf 3f
       0.13018474599428498 0.1241004427855938
000110 6a b4 4b 72 37 59 bd 3f dc a8 c5 d1 8a 42 bb 3f
       0.11464258709357159 0.10648410436047889
000120 11 e8 75 4d 23 0e bf 3f 65 9f 57 f4 3b 24 bb 3f
       0.12130947724463705 0.10602163997066112
000130 6a 1c 51 95 32 fe c1 3f 5d 4d 75 88 c4 61 bc 3f
       0.14056999483929938 0.11086681682109174
000140 7f ac 46 f8 98 56 c1 3f 24 8a 08 f0 e9 a2 c2 3f
       0.1354552471433159 0.14559673519495775
000150 b5 5a a5 2d 90 0d c0 3f f0 fc bd 03 5f 7e ba 3f
       0.125413915908856 0.1034907707344137
000160 e1 3e f2 a6 7e a8 b8 3f a1 fc c4 e1 28 8c c0 3f
       0.09632102561794965 0.12927733444118863
000170 5c 44 ba 84 63 f2 c1 3f 7d 80 15 81 17 ff b6 3f
       0.1402096174320232 0.08982989217247624
000180 0f 75 2d 27 d8 26 b5 3f 56 f4 d0 b7 8f ba ab 3f
       0.08262396770938472 0.05415772551393931
000190 60 6d 28 f9 3d b3 b2 3f a7 39 e9 0c 2e e7 a4 3f
       0.07304751713711743 0.04082626254659099
0001a0 d7 cd 59 22 46 fd ab 3f 4e d9 cc 64 29 40 ae 3f
       0.05466670197793249 0.05908326487990455
0001b0 64 90 c4 39 bf 25 ad 3f 10 c0 78 62 73 b4 b3 3f
       0.056928611566292614 0.07697220949262396
0001c0 e0 1b e5 5f 45 48 af 3f 08 21 4b b0 1c 54 b3 3f
       0.061098258930136984 0.07550219825782645
0001d0 cd 54 1f b4 ca 14 b0 3f 65 8c 48 61 38 2a b1 3f
       0.0628172578575061 0.06705047965128726
0001e0 e2 fe 25 ea 39 8e b2 3f 84 da bb 8b 16 78 a6 3f
       0.07248270002855464 0.04388494926199818
0001f0 c1 61 70 7d 00 f2 b0 3f 17 4e 6c c7 76 c5 a6 3f
       0.06619265615916615 0.04447528061259847
000200 f0 21 36 fe 83 2d c2 3f d0 84 8b 69 6b 6a c0 3f
       0.1420140258089897 0.12824766782345032
000210 c4 e6 5b 86 be e8 be 3f 21 c9 58 2d f3 d0 bc 3f
       0.12073889522789744 0.11256332261180947
000220 7d 0d b8 14 62 77 bd 3f dc e8 d5 78 0f fc bc 3f
       0.1151028919776333 0.11322113704764852
000230 13 ff 36 7e 23 18 c0 3f a0 c8 ca 78 c2 6a bc 3f
       0.12573665297349432 0.11100402306581936
000240 cf 59 2b d4 53 df bd 3f 4a f9 07 15 2c c9 c2 3f
       0.11668895654597765 0.1467642882052565
000250 0a ce 61 ea 34 2f c0 3f 79 9b 32 12 d7 20 bc 3f
       0.12644063419757884 0.10987610048560538
000260 e1 ce 50 20 5f 57 bb 3f e9 c5 e1 af 72 ef be 3f
       0.10680193461376632 0.12084118646614396
000270 38 10 b2 78 c3 36 c1 3f e9 69 19 9f 67 1a bd 3f
       0.13448375123346223 0.11368415483722284
000280 18 10 b1 a1 18 cc c9 3f 43 77 b7 6a f8 42 cb 3f
       0.20154102225399195 0.21298127375387751
000290 56 fa 50 fa 11 a4 cb 3f 4c 7a 24 6f f6 91 cb 3f
       0.2159445259330421 0.21539192606810997
0002a0 f3 97 4f 99 53 51 c8 3f 62 48 1e aa fd 5a cc 3f
       0.1899818895901145 0.22152682119900918
0002b0 67 77 5f 0b 53 b4 c9 3f 6c 3a a6 76 c3 ec cc 3f
       0.20081556372945927 0.22597544949936166
0002c0 e8 dc 5a 5e 16 40 cc 3f 93 05 2e aa 3a 1c cb 3f
       0.2207057915418098 0.2117989855724259
0002d0 b5 7b 5d d5 6a a0 c9 3f bc d7 03 9f 95 85 c9 3f
       0.20020804804059159 0.1993891741219026
0002e0 b8 37 c2 37 0f 7a cb 3f 8d 56 5e f1 eb 48 ca 3f
       0.2146624586352439 0.20535039220401466
0002f0 35 77 89 6c 48 5b cb 3f b0 26 0c f7 f7 06 ca 3f
       0.21372323321969025 0.20333766520370977
000300 1b a7 ed 77 7e 1f ed bf 7d e4 b0 19 36 1c f3 bf
       -0.9100944845533577 -1.1943875316194685
000310 c9 a2 cb 29 57 15 e8 bf 05 db 99 e0 8d 0f ed bf
       -0.7526050392453608 -0.9081487070787665
000320 80 cf b1 ef 98 8e f5 bf b1 3e 4c b5 aa 7b f0 bf
       -1.347313820177959 -1.0301920968958422
000330 cb a6 2b 7c bd b4 f3 bf 8e 3f df 7c e2 8c f3 bf
       -1.2316260195170112 -1.2218956830801946
000340 50 77 47 94 6e 3b ef bf bc cd 8a 8c 5d e2 f0 bf
       -0.9760048767163685 -1.0552649965219265
000350 ff f2 7c da cd 87 f3 bf 28 fe 99 19 78 a0 f2 bf
       -1.2206553015413986 -1.1641770362911164
000360 f4 7e 5d 58 f1 23 f4 bf 93 98 07 a6 91 58 ea bf
       -1.2587750865713447 -0.8233116381423023
000370 0d 4b 1f 9f eb e3 f4 bf eb ce 21 a2 a3 34 ef bf
       -1.3056446281158884 -0.9751756827012888

weight f8 [112, 16]
000000 73 d1 b6 14 57 95 ce bf d1 16 ac 37 6f f6 dd bf
       -0.23893249999458596 -0.4681661647485785
000010 91 2c 3c 21 fc a7 ca bf ad b4 e5 e1 25 97 c0 3f
       -0.2082514917641203 0.12961267023221038
000020 2e a5 b7 3a 84 a6 c9 bf c2 84 a9 6a f9 79 b2 bf
       -0.2003941809373741 -0.07217367986733605
000030 93 a4 7f 9b ed b3 e0 bf fb c3 6e 80 c1 aa e0 bf
       -0.5219638859827164 -0.5208442219210377
000040 53 17 13 ec f5 21 a1 3f bb 3b f6 4f 35 32 d0 bf
       0.03346222407121382 -0.2530644684674674
000050 af c3 12 c3 16 9a e0 bf d1 29 b4 af 87 07 c7 bf
       -0.5188096818948135 -0.17991729811940485
000060 bb ff 6a 0f e7 0d df bf 14 4b 1f d3 b1 4a b1 bf
       -0.485223546082121 -0.06754599956847712
000070 5e 83 7f 44 66 bc d0 bf 2f 7c 39 84 4d 3d 62 bf
       -0.2614989918638936 -0.002226497077387111
000080 0e b5 32 9c bc e9 f2 bf 71 2f bc f2 d5 1c e0 bf
       -1.1820646382796585 -0.5035199871940518
000090 ed cf b5 49 05 77 f2 bf 2a dd dc a2 c9 51 ed bf
       -1.1540577773384897 -0.9162338429368095
0000a0 f8 43 89 c9 10 1f f1 bf c9 8b 75 68 f4 da e7 bf
       -1.0700843689448885 -0.7454778709619571
0000b0 19 4a bd d5 d4 eb df bf d5 16 c5 75 02 40 df bf
       -0.4987690055178589 -0.4882818365189057
0000c0 30 84 19 4d 5b 69 e5 bf 62 fe 8b 30 6b d5 f3 bf
       -0.6691109186032289 -1.239604177127966
0000d0 f2 6d c1 7d f1 6d dc bf 5d f7 a5 c5 30 75 e4 bf
       -0.44421040802782763 -0.6393054828947516
0000e0 ae 4e 65 7a f2 bb e1 bf 91 2a 74 53 63 37 ed bf
       -0.5541927710096013 -0.9130112295109304
0000f0 44 af 6f ba a9 a6 f0 bf 55 1d e2 f3 dc 68 e8 bf
       -1.0406892092386935 -0.762800670942776
000100 35 db ce 62 7a 5c cf bf b2 7e 2e f4 8f bf dc bf
       -0.24500970673190073 -0.4491920361124172
000110 f2 d4 d5 ff 2a cd cd bf e8 fe 05 de cb b2 b2 3f
       -0.2328237294383722 0.07304071588987038
000120 72 f3 61 e6 df 0c cd bf e4 15 58 8b 2e 97 b1 bf
       -0.22695540188933766 -0.06871310140566994
000130 87 df bd 9f 10 67 e1 bf 4e b0 e0 29 92 10 df bf
       -0.543831169124119 -0.4853864106141871
000140 c7 9b 59 21 42 a4 92 3f f6 55 95 66 f4 a1 d2 bf
       0.01820472076942872 -0.2911349298277338
000150 70 f8 b4 c4 2f 07 e0 bf 25 c6 b6 bb b5 db ca bf
       -0.5008772699291182 -0.2098300139019084
000160 e9 29 fb 10 85 00 e1 bf 73 f4 c7 40 94 15 b3 bf
       -0.5313134509718199 -0.07454802114075836
000170 f3 1d 3b 23 84 f9 d1 bf 79 63 a1 b4 e0 1b 9a bf
       -0.28085425797004787 -0.025496970200353773
000180 ea c5 22 63 51 9d f1 bf 26 ba aa 82 27 93 da bf
       -1.1009076950543837 -0.4152315879863714
000190 97 53 c5 66 51 ed f0 bf 04 37 bf 1e ef 9e e1 bf
       -1.0579389585957182 -0.5506511307264366
0001a0 71 64 40 76 35 10 f0 bf ee fd e1 e1 ad 9e de bf
       -1.0039572352600568 -0.47843501147141765
0001b0 3c a1 69 f0 3b db de bf ba 41 e7 74 31 71 dc bf
       -0.48213098981661395 -0.44440876404135177
0001c0 25 93 24 64 c2 9e e0 bf 55 a9 ab ff 87 9b f2 bf
       -0.5193798023143229 -1.1629714953547439
0001d0 ab 8a 2a c3 c7 32 da bf f0 74 70 3a 66 fa db bf
       -0.40934938487240896 -0.4371581621833931
0001e0 25 2f 8a 1a 39 12 e1 bf 7a 50 fe 7a 09 7c ea bf
       -0.5334744947772135 -0.8276412393775125
0001f0 e8 f9 3e 63 2c a7 ef bf a7 ae 71 21 2f 5a e1 bf
       -0.9891569078825428 -0.5422588017658726
000200 18 ca 13 8a b6 5d da bf c3 25 c1 18 e8 b2 e6 bf
       -0.4119697903071553 -0.7093391879545198
000210 72 73 24 e8 e9 17 da bf 26 ee ca eb fa 17 c1 3f
       -0.4077095763221258 0.13354431641879322
000220 5c ae 34 b6 c4 e8 d5 bf a6 51 24 bd cd 93 a0 bf
       -0.3423320559838652 -0.032377652491194994
000230 2f b2 cf 31 1c 7a e7 bf 25 36 bc 27 61 8c ea bf
       -0.7336560223462295 -0.8296361709669254
000240 55 8f ef d1 01 86 a0 3f 1d 45 9d f9 c8 f4 df bf
       0.032272393109251375 -0.4993154943122862
000250 00 80 35 9c 2e a4 e5 bf cf 67 18 91 f4 8f ce bf
       -0.6762917567211844 -0.2387681683038054
000260 ec c1 34 88 cf 60 e5 bf f3 5d bd 34 65 f2 c2 bf
       -0.6680677089953497 -0.14802231860333812
000270 2e 21 6f c2 a3 aa dc bf a2 62 56 a2 a1 ee a1 3f
       -0.4479150198717602 0.035023737970907534
000280 88 a9 a1 96 05 33 f1 bf 64 89 bc f4 32 71 db bf
       -1.0749565013926219 -0.42878412151380574
000290 25 49 cd 75 55 22 f1 bf c3 42 13 c7 26 f4 e4 bf
       -1.0708822824131599 -0.6548036468685371
0002a0 22 4b 1a 3f 86 17 f0 bf 57 bb ca c4 5f b4 e0 bf
       -1.0057432618093078 -0.5220183223335465
0002b0 d0 93 4e dc f1 d4 df bf 27 c1 7c 48 10 f2 dd bf
       -0.4973721171793928 -0.46789939001884523
0002c0 c8 c6 ae d6 39 7f e0 bf d1 17 77 30 34 41 f2 bf
       -0.5155305092832458 -1.1409189122364192
0002d0 72 0c 1e 08 41 e0 d8 bf cd bd f0 46 eb 0e e0 bf
       -0.3886873797675384 -0.5018211732439625
0002e0 42 78 38 fb 3e 84 e1 bf 1c 96 1d 29 a1 ff e9 bf
       -0.5473933130886126 -0.812454777053691
0002f0 bb 88 09 63 f1 f9 ee bf c5 a4 ea 7b 0c 80 e3 bf
       -0.9680106100388665 -0.6093809528585089
000300 18 88 83 ac 50 98 f2 bf fb d8 25 d3 88 84 e0 bf
       -1.1621863116092808 -0.5161785243970195
000310 75 5d 62 e4 63 3d f2 bf 66 0e bd 91 d2 a7 eb bf
       -1.1399878426799124 -0.8642361494498345
000320 3f 72 3d 00 fa 38 f1 bf d0 72 d7 43 3f 7e e6 bf
       -1.0764102944732625 -0.7029110264807858
000330 d6 97 ab d7 df bd e0 bf a2 8d 1a c1 a8 a5 e2 bf
       -0.5231780254659906 -0.5827220698887923
000340 6b 48 7d c7 38 50 ec bf 19 8a d8 a8 59 40 f3 bf
       -0.884792699458797 -1.203210506013994
000350 07 b7 08 bb 57 bb df bf c3 46 b6 60 9d ed e2 bf
       -0.4958094908241581 -0.5915057076365077
000360 c8 ae 35 ce 11 38 e1 bf 06 8d 56 55 e0 96 ef bf
       -0.5380944278271835 -0.9871675173530157
000370 50 72 7e 2b 8f ac f0 bf cd d5 a1 b6 10 f8 e6 bf
       -1.0421287249547682 -0.7177814070734542
000380 bd a5 82 9f ab d1 f2 bf cc c0 fe 07 95 97 e0 bf
       -1.176189063155433 -0.5185036808161612
000390 88 f0 df 1a 52 d8 f2 bf ef c0 7e b4 05 8d e9 bf
       -1.1778126764102428 -0.798464634446672
0003a0 b4 1c 05 a7 dc 6f f1 bf 32 7d 82 bb 85 eb e4 bf
       -1.0898100399224804 -0.6537502920436167
0003b0 48 1b 9f c7 6a 32 e0 bf 85 35 a2 85 57 a7 e0 bf
       -0.5061544321878069 -0.5204274759322948
0003c0 7b a6 e7 9a b0 da e8 bf 65 4b 9b 60 57 1d f4 bf
       -0.7766955399976746 -1.2571634076782285
0003d0 02 dc ee 37 bb a7 de bf a0 10 c4 55 fb da e1 bf
       -0.47898750745974905 -0.5579811740031069
0003e0 10 3d a7 e9 4f 40 e1 bf 77 14 ae b1 78 52 ee bf
       -0.5391006053486382 -0.9475673170387741
0003f0 dc ab 21 11 c1 9e f0 bf ac 6a 3a 65 6d 65 e5 bf
       -1.0387583417129838 -0.6686312653649416
000400 7a 22 b5 2e 5f 6a f2 bf 2b fe bf 8f 64 c2 e1 bf
       -1.1509696793092687 -0.5549795920960084
000410 fb c4 6c ba a6 3c f2 bf 2e b0 1c 85 53 e3 dc bf
       -1.1398074419233228 -0.4513748931810849
000420 73 b0 37 74 99 f6 f0 bf ca 9c ec 16 61 2c dc bf
       -1.06020493886447 -0.4402086948270606
000430 f1 69 36 8b 62 57 e2 bf 3b 8b 60 f6 68 16 e3 bf
       -0.5731671065325924 -0.5964855968526089
000440 07 a5 a1 20 c1 3b e3 bf a0 0a 6b fe 23 3f f3 bf
       -0.6010442387897975 -1.202915185757469
000450 bc cd 18 15 5c d4 e1 bf e6 92 30 73 8d 72 dc bf
       -0.5571728145645731 -0.44449173211095994
000460 74 04 65 99 a7 35 e3 bf 79 21 6e 19 25 4a eb bf
       -0.600299644087626 -0.8528008934672889
000470 27 5c 28 2d 4b d0 f0 bf f0 0e 28 fa bc cc d9 bf
       -1.0508529437991088 -0.4031212275442462
000480 73 38 63 86 7f a2 c0 bf bc 64 31 03 cf af c2 bf
       -0.1299590498151165 -0.14599025398164212
000490 23 f8 9c a0 7e 69 c3 bf df 86 4c f4 7a cb c6 3f
       -0.15165694086493983 0.1780847256532558
0004a0 83 fb c4 18 3d 75 bb bf 5f af bb 0e 12 4c b0 3f
       -0.10725766997073376 0.06366074428268352
0004b0 4c 04 db be 8a 80 cd bf cf 0e 17 83 94 ef c5 bf
       -0.2304852897559918 -0.17137390519029913
0004c0 3e 1e af 2e ff eb c2 3f 5d e2 ea 43 7c 6d bf bf
       0.1478270509671677 -0.12276436479704374
0004d0 d4 78 10 f2 f9 2d c6 bf f8 05 cf 8d cc 3f b0 bf
       -0.17327808684871704 -0.06347349607587904
0004e0 1f ce 89 03 c9 0b cf bf 87 95 ed 66 c2 e8 93 3f
       -0.2425471560742247 0.019442594082098388
0004f0 38 6a b9 96 5f f0 c1 bf 7e 5f 8d 96 26 c8 ae 3f
       -0.1401481138189682 0.06012077892108801
000500 98 fe ed 5f 9b 58 f3 bf 00 8e c1 19 48 03 e1 bf
       -1.2091325518848972 -0.5316505911873151
000510 c6 99 cb b6 d2 c6 f2 bf 9f a5 b0 6f 57 39 f0 bf
       -1.1735407963220594 -1.013999401368302
000520 33 41 e6 83 c1 2a f1 bf c3 13 8a 90 1e 99 ea bf
       -1.0729384567567422 -0.8311913321527914
000530 78 6f 6a 3d 7d 0e e0 bf 8b 4c dd ef c3 79 df bf
       -0.5017687034155491 -0.4918069689203512
000540 d6 c8 84 91 de 2f e6 bf 70 44 cf 1f 7c 55 f4 bf
       -0.6933434335863022 -1.2708703272403703
000550 83 f9 e2 54 67 2d de bf fd 52 85 dc cf cf e6 bf
       -0.4715212182017227 -0.7128676707312419
000560 84 76 06 86 40 cd e1 bf 3b 96 f3 de e1 e2 ed bf
       -0.5563051812820992 -0.9339455942651463
000570 81 2f 71 31 9d b8 f0 bf 71 50 6e 0f bd 67 eb bf
       -1.0450717860539671 -0.8564133931527192
000580 09 41 69 7d 9c ca f1 bf 07 14 0e ce 70 6f da bf
       -1.1119656466362946 -0.41305179712827605
000590 8d 37 26 90 1b 6f f1 bf ae 06 b1 83 f7 25 e6 bf
       -1.0896258955794764 -0.6921346256351251
0005a0 56 1b b9 45 b4 e9 ef bf 20 db b7 73 04 13 e0 bf
       -0.997278343370321 -0.5023214588280531
0005b0 7c aa 0f 0d ed 23 e0 bf 5b 30 5d e3 77 a6 dd bf
       -0.5043854956723659 -0.4632854194976567
0005c0 d1 fd 76 b9 c5 6a e2 bf 84 cf 02 a5 7d ae f2 bf
       -0.5755337355002955 -1.1676002927533498
0005d0 91 1b c4 ee 8c 5c d9 bf 9e cc d2 8c 72 7c df bf
       -0.39627383534428257 -0.49197067024506136
0005e0 e5 f0 26 bb 79 6c e1 bf f6 36 14 f8 1c fb ea bf
       -0.5444916396441185 -0.8431534619610079
0005f0 f0 74 c1 cb e6 1d ef bf 57 b6 7e d3 57 dc e3 bf
       -0.9724000911334354 -0.6206473475228432
000600 7b b2 7a 3e 46 9b f1 bf 35 4e b2 49 8f 77 e1 bf
       -1.100408786830626 -0.5458446921715622
000610 af 13 02 e7 4f 0e f1 bf 77 e2 06 41 0d 42 ea bf
       -1.0659941695932778 -0.8205629606300836
000620 70 e1 90 4c 9d 66 ef bf ea 15 9e 1b 54 3d e5 bf
       -0.9812761779240144 -0.6637363948254322
000630 06 de 0b 36 4c 2e e1 bf 03 e1 cd a1 a5 d6 e2 bf
       -0.5369015746682073 -0.5887020263899391
000640 a6 2c ea e8 24 5a ec bf 04 df 79 64 6c 00 f2 bf
       -0.886003928100213 -1.1251033711286604
000650 76 31 50 a4 df 05 e0 bf 4a e6 b9 31 d6 3c e2 bf
       -0.5007169923060661 -0.5699263545240651
000660 d9 52 09 1d 2b cf e0 bf a0 bd 75 f5 de 1e ed bf
       -0.5252891127698504 -0.9100184244288592
000670 47 5e 83 bd 42 59 ef bf 70 c3 63 c3 d8 be e5 bf
       -0.9796460820607046 -0.6795467201428504
000680 3f 24 d2 bb d1 e4 e4 bf 89 87 17 93 79 e8 da bf
       -0.6529320400596886 -0.42043914188808934
000690 95 5d 44 a3 1f d4 e4 bf fd a4 b7 c6 db 14 bc 3f
       -0.6508939923104885 0.10969327546594694
0006a0 d0 d3 39 d1 b7 4a e3 bf dd 07 81 76 b2 2a 98 bf
       -0.602870854038537 -0.02360037658969093
0006b0 0a a2 c8 23 4f c6 e1 bf 8c 47 fb 77 1f 40 df bf
       -0.5554576586628752 -0.48828875271748795
0006c0 01 ea 46 a4 2a 85 b3 bf be 0e d7 5e ae 98 e6 bf
       -0.0762507105891146 -0.7061378338189213
0006d0 6c fd 65 67 66 b1 db bf ff ad 08 3a a8 cf c4 bf
       -0.43270263764858075 -0.16258719285666243
0006e0 20 a7 c7 a5 65 e3 e0 bf 63 df c5 28 2d ef d6 bf
       -0.5277584302795937 -0.3583481691525689
0006f0 1c aa 45 61 1a ed e3 bf dd 77 5a b5 67 bd a2 3f
       -0.6226932430120686 0.036601296317925615
000700 2d 5c ed 6a 19 17 dc bf 45 35 76 9a 91 38 c3 bf
       -0.4389098686419313 -0.15016384164884236
000710 47 6c a1 6a b1 ef dc bf 1a b4 7a 77 0e b4 b5 3f
       -0.4521297017396972 0.08477869431472165
000720 0c 51 09 3e e8 d6 d9 bf 4f c5 25 a0 d6 3f b0 3f
       -0.40374189432374474 0.0634740963921747
000730 83 82 bc 6e 46 f3 da bf d9 cd 6a fb 25 c8 c0 bf
       -0.421098335400565 -0.131108043443972
000740 f5 c6 64 78 55 60 83 3f e6 7d 5f c4 01 ea de bf
       0.009461086022017432 -0.48303264786770084
000750 76 fa f2 47 3b df d7 bf 0e 95 47 4f 12 f3 83 3f
       -0.3729999735477699 0.009740965885564747
000760 91 3d 99 e8 36 09 dc bf 17 44 ae 0f 24 31 d1 bf
       -0.43806240763384446 -0.2686243203289122
000770 b0 7f 26 6e 79 a8 db bf 57 44 8a 2d d4 18 a8 3f
       -0.43215785748361224 0.047064428862662204
000780 bf 4d cf ca 3c db f0 bf 1d bf 5f fc 09 96 d9 bf
       -1.0535247728592905 -0.3997826542463246
000790 46 7a 89 37 d6 fe f0 bf 04 ac 59 b3 41 4a e1 bf
       -1.0622160119452402 -0.5403145316062141
0007a0 66 54 8e 0b 39 4c ef bf 96 00 5b b7 e8 7b dc bf
       -0.978054544992699 -0.4450628080921971
0007b0 58 94 2f 6b 4c a5 de bf f5 2c 9e b2 de 39 dd bf
       -0.4788390204178703 -0.45665709918166836
0007c0 7f 44 25 57 1c d8 e0 bf f7 d2 38 2d 12 03 f2 bf
       -0.5263807012617149 -1.125749756477658
0007d0 78 98 d0 ab 13 fe d8 bf 40 0d a0 8f b2 09 da bf
       -0.3905076196555295 -0.40684188867472315
0007e0 db 09 99 8f a6 aa e0 bf e1 74 b2 37 57 74 e9 bf
       -0.5208313755650197 -0.7954517448266892
0007f0 6f cb 5f 62 c1 9b ee bf f1 61 78 5a e0 15 e0 bf
       -0.9565131112452557 -0.5026704565998995

bias f8 [112]
000000 ce e8 d5 7b 0a f3 c9 3f 00 88 d5 62 3d 75 d3 bf
       0.20272952124270777 -0.30403074886100967
000010 67 b6 f2 67 b7 61 b9 3f 9a a6 78 e8 8a bd e7 bf
       0.09914728439135843 -0.7418875256018567
000020 76 2b 91 35 b9 73 ae bf a2 68 23 2b c3 d9 e4 bf
       -0.0594766500367631 -0.6515823214097234
000030 f5 63 91 98 6e 3c a2 bf 3b e6 7d f8 60 16 d2 bf
       -0.03561730968858249 -0.2826158930471114
000040 94 99 8d e4 97 fd e2 bf b1 6c 9e 47 75 60 de 3f
       -0.5934562171867577 0.47463733667400293
000050 a6 e6 04 f2 c2 94 cc bf de 51 5f f2 84 cb e0 bf
       -0.2232898408636192 -0.5248436673960517
000060 a3 29 c4 dc 46 74 b3 bf fd 91 15 eb f7 13 d9 bf
       -0.07599299325753477 -0.3918437762970653
000070 ff d6 47 45 1c 3d b7 bf 45 ac 62 0e 04 95 e4 bf
       -0.09077622119351857 -0.6431904107061049
000080 b6 09 bc 6e 26 1c be bf 4e c9 0f 68 b9 cc d2 bf
       -0.11761703685264177 -0.29374537622711194
000090 99 e6 9f bc d4 5e c3 bf 8f 76 12 e6 82 41 86 bf
       -0.1513315125483146 -0.010867140432590431
0000a0 e8 f0 24 7c 0e 45 c9 bf 49 a7 ea 85 f9 c1 c0 bf
       -0.1974199396298737 -0.1309196380510065
0000b0 48 c0 5d 88 43 e6 da bf 69 05 45 f6 92 aa ce bf
       -0.42030418698323446 -0.2395805075157498
0000c0 4b ed df 90 13 f5 94 3f 29 cd 3c b5 77 19 b0 bf
       0.020466142384959068 -0.06288860487693583
0000d0 22 38 ba e6 67 69 d9 bf 8b f7 eb 3f 5d 6c d0 bf
       -0.3970584634015514 -0.25661402933462146
0000e0 44 e4 de 96 f6 3b e0 bf 17 22 0e 10 ab 58 b7 bf
       -0.5073197313969406 -0.09119671956990093
0000f0 0f af aa 68 a7 5f d4 bf 6a 30 65 a6 91 92 c2 bf
       -0.31833825322495185 -0.1450979292370705
000100 fb e3 3d 19 3b 5e c1 3f 12 e9 2e 05 37 60 bd 3f
       0.13568819744594393 0.11474937321228065
000110 35 da 25 09 6a c9 c0 3f d8 a8 c5 64 f3 bb b7 3f
       0.13114667364762203 0.0927116509462026
000120 0d e8 75 75 f2 0d ba 3f 69 9f 57 41 6b da b6 3f
       0.10177531593026874 0.08927030892630018
000130 68 1c 51 96 26 2b c0 3f 65 4d 75 db 22 81 bb 3f
       0.126316855809111 0.10743921144358166
000140 79 ac 46 d6 ce 9a c0 3f 3e 14 11 e0 01 35 bf 3f
       0.1297243639249677 0.12190257759455478
000150 b1 5a 65 2b 37 9b c0 3f f4 fc bd 6f c1 f7 b9 3f
       0.12973680132809798 0.10143670061187376
000160 cb 3e f2 8c 9d c6 bb 3f 4e f9 89 47 fb 98 be 3f
       0.10849938098021565 0.1195218133598008
000170 63 44 ba 93 cd 49 c1 3f 7c 80 15 19 a2 92 b6 3f
       0.1350647898985101 0.08817494499590056
000180 13 75 ad fe 27 ea b0 3f 41 f4 d0 4f 90 8b ae 3f
       0.06607294051851324 0.059658536666099334
000190 ce da 50 9a 57 e0 ae 3f e3 9c 74 7e 52 ce b5 3f
       0.060305345141775754 0.08517947757046644
0001a0 d6 cd 59 12 dc 3c a9 3f 73 d9 cc 3a 1d 22 a5 3f
       0.04929244731911424 0.041275895526655136
0001b0 22 48 a2 de eb d8 b1 3f 11 c0 78 22 7c d9 b1 3f
       0.06971620736501952 0.06972480622857825
0001c0 eb 1b e5 8a a6 27 ac 3f 08 21 4b fc 1d c9 b3 3f
       0.054990009741736255 0.07728755387791264
0001d0 cd 54 1f 07 47 04 b0 3f c9 18 91 02 a9 cd a5 3f
       0.06256526874433917 0.04258468777020281
0001e0 e2 fe 25 22 bd ae b4 3f 28 ed 8d 65 c1 8e b0 3f
       0.08079130252553626 0.06467827538829296
0001f0 5a c3 e0 a6 98 99 af 3f 1b 4e 2c 6c f8 d3 ac 3f
       0.061718721743438024 0.05630470581504828
000200 f0 43 6c 94 55 20 be 3f 9a 09 17 43 45 8f bc 3f
       0.11768088220220796 0.11156113517703262
000210 6b f3 ad fc 9a 52 c0 3f 21 c9 58 b4 92 bc b9 3f
       0.12752091729989998 0.10053364661215315
000220 79 0d b8 54 f9 8c bf 3f de e8 bf c5 90 62 ba 3f
       0.12324484175046803 0.10306649043915025
000230 0c ff 36 ab b6 41 c0 3f 9c c8 4a 5d 20 fb b9 3f
       0.12700541839694102 0.10148813512458549
000240 dc 59 eb cb 8e e9 bf 3f 4b f9 07 14 82 fa c0 3f
       0.12465755918979177 0.1326449010666216
000250 06 ce 31 2a 5e ac c0 3f 76 9b 32 37 13 c6 be 3f
       0.1302602487590862 0.12020988557433818
000260 e7 ce 50 7a fa 79 bc 3f 10 c6 e1 67 d0 c8 b7 3f
       0.11123624311658951 0.09290792976550954
000270 36 10 b2 54 f7 dc c0 3f ed 69 19 cf 8d 89 ba 3f
       0.13174335132146248 0.10366140657553276
000280 18 10 e1 e3 cf 2c cb 3f 42 77 37 ce b6 9c cb 3f
       0.2123050558749362 0.21572003430531522
000290 56 fa d0 8a 94 6c ca 3f 4c 7a 24 6c 52 ba c9 3f
       0.2064386060537397 0.20099859505076478
0002a0 fa 97 4f 75 71 c0 cb 3f 62 48 1e 90 a2 63 cc 3f
       0.21681040027686987 0.2217906192495916
0002b0 63 77 5f 33 58 31 cd 3f 6e 3a a6 cc 87 48 cd 3f
       0.2280683756679834 0.22877595417635938
0002c0 e6 dc 5a 61 c1 ed ca 3f 94 05 ee b7 0a d7 ca 3f
       0.2103807187429318 0.2096875570387452
0002d0 b6 7b 5d 14 89 9b cb 3f bd d7 03 1f 13 e2 cb 3f
       0.21568406576531424 0.21783675207524125
0002e0 ba 37 42 7a 1b cd ca 3f 8c 56 5e 96 fa 19 cc 3f
       0.20938437909756918 0.21954281179630575
0002f0 35 77 a9 e3 57 14 ca 3f af 26 4c ed c5 f5 ca 3f
       0.20374582878405936 0.21062540137090965
000300 1e a7 b5 f9 f4 07 ed bf 7f e4 50 9c 2a 3a f3 bf
       -0.9072213055744418 -1.2017007928937173
000310 c5 a2 0b 3b 7e ac e7 bf 07 db d9 40 8f 8a ed bf
       -0.7398062852126591 -0.9231640116330205
000320 7e cf 51 d3 23 5b f5 bf b3 be 37 33 90 97 f0 bf
       -1.334750962702827 -1.037002754277563
000330 cd a6 cb bd df c7 f3 bf 8d 3f 47 d5 fc 7e f3 bf
       -1.2362973607909453 -1.2185028392013664
000340 4f 77 87 f2 8e ed ee bf bb cd 0a b6 83 70 f1 bf
       -0.9664988266847362 -1.0899693594954971
000350 02 f3 1c 0f 56 7b f3 bf 27 fe d9 49 85 4d f2 bf
       -1.2176113691668324 -1.1439259419274863
000360 f4 1e 23 af b6 57 f4 bf 93 98 29 c2 9d 47 ea bf
       -1.2714144555374647 -0.8212422172771475
000370 0c 4b 9f cd e4 18 f5 bf e9 ce 01 ae 07 ed ee bf
       -1.3185775787466723 -0.9664343260360201

weight f8 [3, 16]
000000 cf 30 b9 bc bd cb d2 bf c1 46 b3 b7 91 28 d4 bf
       -0.2936853735925639 -0.31497614802820456
000010 82 a3 c9 06 1d 8e d3 bf d4 f6 81 94 9a ab d3 bf
       -0.3055489126477867 -0.3073488664884796
000020 fc c8 d5 c2 0a b3 d3 bf 0e 4b b6 ee 9f 45 d3 bf
       -0.30780285860886614 -0.30112455665327864
000030 16 1a 38 13 19 c2 d3 bf e8 7a 0d c4 e0 bc d4 bf
       -0.308721798676204 -0.3240281977249837
000040 f1 6f 7d cb d3 d6 d2 bf 25 86 53 f1 01 d5 d2 bf
       -0.2943620192725112 -0.29425095145242813
000050 26 63 23 48 b7 74 d4 bf 80 c8 67 4b 2f 98 d3 bf
       -0.3196237759089392 -0.30616361964997196
000060 ed 5c b0 b3 8d f5 d3 bf 83 33 93 ba 1e 94 d3 bf
       -0.311862397649249 -0.30591552944388684
000070 dc c7 1c d1 31 c2 d4 bf d5 ae dc 9a 1f 7d d2 bf
       -0.32435269757399765 -0.2888869297337185
000080 60 73 13 e7 1d 1e d3 bf b0 6c 91 07 f4 85 d3 bf
       -0.29871318403256986 -0.3050508569628603
000090 3f c7 89 8f 66 d7 d3 bf 35 52 a4 b5 ce 96 d3 bf
       -0.3100220109691811 -0.3060795568319777
0000a0 dc fb ca a0 fc 78 d3 bf ed c2 31 cb f7 39 d4 bf
       -0.3042594499819964 -0.31603808253480176
0000b0 c0 9b a5 ff 1d 40 d4 bf fa f4 9e 08 b1 e2 d3 bf
       -0.3164134022285303 -0.31071115342986355
0000c0 04 6e 44 ae 90 f3 d2 bf b7 0e b6 2d 76 01 d3 bf
       -0.2961160375432146 -0.2969642111204211
0000d0 f7 93 97 0b d8 6a d4 bf 86 f5 c5 ca b1 e5 d4 bf
       -0.31902123577157177 -0.32651943971708197
0000e0 dd 35 7d 78 5c 16 d5 bf b6 a1 f7 43 6f 26 d4 bf
       -0.3294898201609991 -0.3148458636992716
0000f0 8e ad a1 00 00 be d1 bf 94 2c 48 53 b3 b7 d4 bf
       -0.27722168027568095 -0.32371218808175084
000100 a8 37 da e5 2d c1 d4 bf 0e ec 74 ae b6 84 d3 bf
       -0.32429072805904946 -0.30497519528188455
000110 6e fe a9 61 e1 04 d5 bf 33 97 56 a2 ee 2a d5 bf
       -0.32842287576202167 -0.3307453713735981
000120 f5 51 95 8e 31 11 d5 bf 86 e4 31 e4 a0 71 d4 bf
       -0.3291744129576551 -0.31943533215196174
000130 1e 4b 33 d8 44 63 d3 bf d6 48 36 e8 5d e0 d4 bf
       -0.3029338942844094 -0.3261942641921797
000140 b9 81 97 59 6d 3a d5 bf 2e f0 52 d7 34 67 d5 bf
       -0.3316911101265095 -0.33442421939594424
000150 9c 59 b2 a0 98 70 d2 bf 9c aa 2d ab ab a3 d3 bf
       -0.28812232678446903 -0.3068646594680702
000160 29 28 8c 51 19 7e d3 bf 80 30 fd ae 27 63 d6 bf
       -0.3045714660989938 -0.3498019417645608
000170 bc 3f 04 93 73 d2 d4 bf 98 c4 f6 5e de 4a d4 bf
       -0.3253449378689728 -0.3170696189291191
