Retweet/RetweetNetsV3/TrainNet_ep0V2.pt (torch, 23465 bytes, 6 tensors)

scale f8 [3]
0	0x3fe8d1ea8711394f	0.7756245267899348
1	0x3fe8d37c85d756d0	0.7758162130437203
2	0x3fe8e75233d16aef	0.7782374393530896

weight f8 [112, 3]
0	0x3fb44b243f0e74ae	0.07927156962837742
1	0x3fb4ad367c361985	0.08076801807883356
2	0x3fa833cbc805a624	0.04727017227817168
3	0x3fb0805c4b66bfd1	0.06445862618306754
4	0x3fb388ab8692409b	0.07630416903907859
5	0x3fa570e2977f51a1	0.04187687014897113
6	0x3fa53f72f810f48f	0.04149970319893114
7	0x3fb3857540f9e4b1	0.07625515781718907
8	0x3fac2214fcea89cb	0.054947524903827004
9	0x3fad41b5dc27ccfc	0.0571419554943535
10	0x3fb64ac1c365dba0	0.08707819958168139
11	0x3fa92680cf8dbd6c	0.0491218808518806
12	0x3faf879956f0f585	0.06158141313833724
13	0x3fb5cbca5b34746e	0.08514084555322807
14	0x3fab081272376bd4	0.05279595989460231
15	0x3fb03c8bd683d028	0.06342386233501485
16	0x3faff9522234d89a	0.06244904201086961
17	0x3f9abf590c686ecf	0.02612055910331784
18	0x3fa842de5dda9dae	0.047385167080672516
19	0x3fb5d2c79eb05372	0.08524749397504452
20	0x3f9b36604c0a1738	0.026574616089894948
21	0x3fb0ba29ef14259a	0.0653406342209081
22	0x3fb794a6cda4b3cb	0.09211199303236055
23	0x3f9db8619fd83873	0.02902367151369174
24	0x3fabac257bb8eb65	0.05404774794847959
25	0x3fb2d8fb7d3d23e8	0.07362338836277582
26	0x3fada2cddf048fac	0.05788272235284295
27	0x3fa99a8901a03500	0.05000713486524866
28	0x3fb2fe831154b95a	0.07419604466551757
29	0x3f9faf8f6e978e4c	0.030943146824837606
30	0x3faf7eaa87c423f0	0.06151326091100617
31	0x3fb0502ee1cfbe94	0.06372349751449696
32	0x3fab43602901aa75	0.053248410230328704
33	0x3fad8ff12c49413b	0.057738815933250774
34	0x3fb348c11f2bc30e	0.07532889376649285
35	0x3fa0c23bdc979dfd	0.03273188655640167
36	0x3fb2257ebb9aaae4	0.07088462906055387
37	0x3fb47bc621eb5289	0.08001364067178875
38	0x3fa1379eade562a3	0.03362747071031904
39	0x3fab23f00b4c87a6	0.053008557681337096
40	0x3fb3396cb6b5208c	0.07509498081810956
41	0x3fa22b194efc7d01	0.03548506821811693
42	0x3fae6955982c52e8	0.059397387338469276
43	0x3fb2db95522c9d05	0.07366307502944743
44	0x3fa93af7eba5534e	0.04927801848922418
45	0x3fb233787e5b25ce	0.07109788021911997
46	0x3fb21cdaf6c8f364	0.07075279736541301
47	0x3faa0f9fd4169b68	0.05090045417755712
48	0x3fb15061138f9158	0.06763273932989955
49	0x3fb0101322523a70	0.0627452811042788
50	0x3f624feb8807ed89	0.0022353744718636753
51	0x3fa860e4583fe22a	0.047614227078103546
52	0x3fab56fb95fcefd3	0.05339800077351211
53	0x3f81b940f0e934be	0.00865412459566028
54	0x3f9e13e28b24c114	0.02937273000969849
55	0x3facb1c7df97fd28	0.056043859523919715
56	0x3f9d23f1440f661f	0.02845742204576684
57	0x3faeb6db87c58c83	0.05998884231919368
58	0x3fb3f9230e42db84	0.07802027795956518
59	0x3f94a9a400fd1699	0.020178377685872027
60	0x3fa64ac15b911b46	0.043539087703314425
61	0x3fb309b5cb5465f4	0.07436691488364727
62	0x3fa1e80dfd52a40f	0.03497356145209817
63	0x3fad799c3a7c03bf	0.05756843770905772
64	0x3faab00cbcd3a06e	0.05212440304768583
65	0x3f74cb6c0bc1e7ac	0.0050768108886759915
66	0x3fa87d5858fc65b9	0.047831307280101716
67	0x3fad72cf7d98e55b	0.057516559678740996
68	0x3f9fcb634cda8651	0.031049300733349054
69	0x3faa8b395627418d	0.051843444601789114
70	0x3fb05d3772416189	0.0639223722404322
71	0xbf5150359c679d10	-0.0010567210716717103
72	0x3faabcaf9413c48f	0.052220808816749835
73	0x3fa8f90a7edd4d3e	0.04877503203047205
74	0x3f9dd7e44733d7f9	0.029143874021393377
75	0x3faab24d2ba2d22b	0.052141582085287595
76	0x3fa1ccd4aa943cd1	0.03476585943473654
77	0x3f9b9b0379e49300	0.026958517374754187
78	0x3faae55548c0deed	0.05253092301466986
79	0x3fa33bb0343cfaf8	0.03756476056741137
80	0x3f9bff5fc85074f1	0.027341362572873732
81	0x3fac80e195f4be1d	0.055670785479716246
82	0x3fa81f3b18d232cd	0.04711327245704453
83	0x3f8b71e55bea5077	0.013400833003551533
84	0x3fac632fe3d9aef7	0.055444237293015
85	0x3fadc272fbe4c6ca	0.05812415432809599
86	0xbf60ed20c670bcc5	-0.0020661964549827127
87	0x3f97d54c77d44e98	0.02327460748081353
88	0x3fabd325a26d25ee	0.05434529884093907
89	0x3f9413cc97613076	0.019606777896385506
90	0x3fa9a5c31e6ea05b	0.05009279009328856
91	0x3fa975effbdecf7f	0.04972791623677519
92	0x3f97b9c158bf54e6	0.023169537584028975
93	0x3fa94fba165ed11d	0.04943639300418765
94	0x3fac47f763720d55	0.05523655976233025
95	0x3fa126786c3114ef	0.033496630866048586
96	0x3fb398189194d232	0.07653955034476992
97	0x3fab726d76dce60e	0.05360738826716381
98	0x3fb4144aadb02f97	0.07843462696490487
99	0x3fb0b55dfdd41970	0.0652674431513327
100	0x3fb3155cee04f635	0.07454472361583771
101	0x3fb6544cbbf0c875	0.08722381199257419
102	0x3fb138fabcd16392	0.06727568731129299
103	0x3fafda150e44c1a5	0.06221071051766395
104	0x3fb102cc475908cf	0.0664489435376112
105	0x3fb043071dab4e85	0.06352276300759215
106	0x3fb0ce45a809ec49	0.06564746239193754
107	0x3fb5713bd62fbf1d	0.08375905970728721
108	0x3fac84f82f8127b5	0.055701976584330216
109	0x3faf1e4e58f275c7	0.060778091771890135
110	0x3fb06aba30a8a18f	0.0641285294337932
111	0x3fa42122df0ae9ae	0.03931530926407177
112	0x3fb295a9d0fb60de	0.07259618141268073
113	0x3fb1ec17ec0efc26	0.07000875008724047
114	0x3fb3b2b92a558a0b	0.07694585116909296
115	0x3fad177f1ba500af	0.056819889187410204
116	0x3fb5a44bca2ff78c	0.08453820883002389
117	0x3fb273cc7ac015c2	0.07207944866976049
118	0x3fa995e187dc0528	0.049971626123815505
119	0x3fb3c70443328761	0.07725550308762542
120	0x3fb26a63e625834a	0.07193588608562354
121	0x3fb0a928e9a2f76f	0.06508117393511069
122	0x3fb66953b251c436	0.08754466155529958
123	0x3fa509c38e7c4529	0.041090117591134075
124	0x3fb1d039854d9384	0.06958350662678298
125	0x3fb290521685dfa4	0.07251465844990307
126	0x3faf0b1e731a1c52	0.06063170580915113
127	0x3fa793263d721fcd	0.0460445356375768
128	0x3faff193b415a7c0	0.06238996098802785
129	0x3fa8b33733bb182b	0.04824230677108717
130	0x3fa83092f4098e09	0.04724559048625216
131	0x3faa234b645c28bd	0.05105052566621413
132	0x3faf65351a4d3749	0.06131902643265492
133	0x3fa6995a1bf482ce	0.04413873282670054
134	0x3fb1b8cdce6bb72c	0.06922613420075824
135	0x3faf6f04c517f2ac	0.06139387994696696
136	0x3fad980f986a8c0b	0.05780075774716672
137	0x3faf7dc4ea244530	0.06150641782927335
138	0x3fac4c761e6578fd	0.055270854197020804
139	0x3fb1aa8bfa5725c9	0.06900858747316997
140	0x3fb794db5a714f2c	0.09211512525626792
141	0x3fb398794285c4c6	0.07654531358800218
142	0x3fb4002472b42215	0.07812717247373542
143	0x3fb5caf210432a77	0.08512795350103795
144	0x3fb1fc56932e8a23	0.07025662511163282
145	0x3fb193f2d92bbcf9	0.06866376688025246
146	0x3fa7c4b92c8de43a	0.04642275494456567
147	0x3fb018847cfa7be2	0.06287410784942396
148	0x3fb1f0de473971ef	0.07008160818936181
149	0x3fa77201553a67e8	0.045791665700747164
150	0x3fb5af521c34e463	0.08470643223417222
151	0x3fb13594d1925781	0.06722383610244088
152	0x3fab349fbcc6cebd	0.05313586406137236
153	0x3fb04b235ec99a7d	0.06364651741169243
154	0x3fa5157a72e5259d	0.041179491544038195
155	0x3fb04ecd997a30e9	0.06370244023327455
156	0x3fafc27b322905a8	0.06203064906413697
157	0x3fb0bd2e2c2d35cf	0.06538666323213892
158	0x3fab81f9b9b60dca	0.053726009292428836
159	0x3fb3a30189de52eb	0.07670602432183286
160	0x3fb00c46332e7368	0.06268728971049387
161	0x3fad9946f693d9eb	0.05781003723125252
162	0x3fb55fc432e68de9	0.0834925293225336
163	0x3fb222a2d9cd5b24	0.0708410054915985
164	0x3faea536fcf7bae7	0.05985423887238089
165	0x3fb2004c02e42612	0.07031703062616426
166	0x3fb2a4822a755939	0.0728226998956857
167	0x3fb31e80453a6c8a	0.07468415918485696
168	0x3fb0d4cb1c42fba5	0.0657469696043181
169	0x3fb100f68f94c5bf	0.06642094617270454
170	0x3fb34a59bb56388a	0.07535324882175778
171	0x3fb2f794117e310c	0.07409024645875578
172	0x3fa68498c229c4f8	0.04398038263469489
173	0x3faf87923027afa5	0.061581200006769955
174	0x3fb1ae2badfb408f	0.06906388280481422
175	0x3fb2853085d38658	0.07234481112711799
176	0x3fb163794fce5f5f	0.0679241008605209
177	0x3fb1642b351bebab	0.06793470427139307
178	0x3fadb7b8522c26d7	0.05804229739267235
179	0x3fad201295ce6474	0.056885319506542326
180	0x3fa3abaf60e9ca02	0.03841922815344746
181	0x3fa9eb1add0da53b	0.05062183330921718
182	0x3fadcac807aad481	0.058187724052381824
183	0x3fac1ad21b30ac48	0.05489212591086151
184	0x3fa742b244def1da	0.04543072787007292
185	0x3facc9f96fad8076	0.05622844208005599
186	0x3faa0507e8665db9	0.05081963264381834
187	0x3fb225049e89adc8	0.07087735052635147
188	0x3fa9abe8e2b3d11e	0.05013969199527167
189	0x3fb23a271fe44156	0.0711998417721181
190	0x3fb3f44b49038eb6	0.07794638187948064
191	0x3fabc094da5ce159	0.05420365491449059
192	0x3fb0250cb59adeb5	0.0630653327342497
193	0x3facb36a6e82696c	0.05605633353225667
194	0x3fae3ef584066d07	0.05907408939966712
195	0x3fb48f59f21cd86e	0.08031236802057304
196	0x3fab62a176e5e6d4	0.05348686767952207
197	0x3fb1e335718d369d	0.0698731806016561
198	0x3fb2a0511a140550	0.07275874029803231
199	0x3fb008547b95ec90	0.06262710587718545
200	0x3fae1ef5a9e2f74f	0.058829953182324084
201	0x3faa16a868fe86ba	0.05095411569278725
202	0x3fb0f1d922c0e710	0.06619031046366453
203	0x3fb53fd5504aaf51	0.08300526819465161
204	0x3fb1a058604bb110	0.06885292387932318
205	0x3fac21903dca6e70	0.05494356874734485
206	0x3fb05aadb7e72957	0.06388364543741908
207	0x3fb0468da2913234	0.06357655733990769
208	0x3faafc1ff365a371	0.052704809629012035
209	0x3fb54ea767d74793	0.08323141369990443
210	0x3fada97f4c22d960	0.05793378643413649
211	0x3fb01b0f2ed1a08a	0.06291289227522348
212	0x3fb25f6812fbef02	0.07176828826407802
213	0x3fad2969646f1158	0.056956571111671905
214	0x3faaaead50f3226c	0.05211392987400107
215	0x3fb558014a098613	0.08337410028027419
216	0x3fad76a04913838b	0.05754567043346189
217	0x3fb19870322e521d	0.06873227334137551
218	0x3fb15fc276215285	0.06786742576634637
219	0x3fb0d47eaca6069c	0.06574241366436201
220	0x3fafa677e467e3de	0.06181692755848876
221	0x3fb63fdc722e774a	0.08691194331774202
222	0x3fa91a9276d6a8c4	0.0490308542315048
223	0x3faa20b8e3cc3fa9	0.05103090077147893
224	0x3fb1906870cbf1a6	0.06860974077057466
225	0x3fb07a7621f789a4	0.06436861352225393
226	0x3fb236fa3d4e1e5b	0.07115139004428654
227	0x3fb321976f28507c	0.07473131622129076
228	0x3fa6ae0962594fa7	0.044296544318654534
229	0x3fb204c2d1d388dd	0.07038514731133057
230	0x3faa9822988e1789	0.05194194900745603
231	0x3fb2129b10b3b80a	0.07059640081180887
232	0x3facc53a3952adf8	0.056192225930626394
233	0x3faca131f104ad3a	0.05591732089154751
234	0x3fa775cc8953d7f9	0.045820609820950105
235	0x3fb044756302d8ad	0.06354459445251122
236	0x3fb5c87f84851a8e	0.08509060845708857
237	0x3faeda8d4b825eae	0.06026116892570364
238	0x3fadbf5e7ffa93ee	0.05810065567246868
239	0x3fb47f175c17125c	0.08006425855917015
240	0x3fc65a11dd96d344	0.1746237117746664
241	0x3fc70e04320d936c	0.18011524623866693
242	0x3fc23e10f838af03	0.142519112779489
243	0x3fc545136c43e0f6	0.16617052828201623
244	0x3fc557931ad91cde	0.16673506556455825
245	0x3fc42ffa217d62b0	0.15771414408916007
246	0x3fc5afd717b2fb41	0.1694287172049034
247	0x3fc4762aec9d81c1	0.15985619119147823
248	0x3fc1cc4eec0d4044	0.13904749418225226
249	0x3fc72eb12d0c4a13	0.18111242961511262
250	0x3fc4aef757393554	0.16158954390486235
251	0x3fc400b06f243bcf	0.1562710325892724
252	0x3fc5e143ced0d7fc	0.17093703840663454
253	0x3fc67ebd7f33bbfb	0.17574280463256273
254	0x3fc1867f14a7a9fd	0.13691700466672777
255	0x3fc4b8d7cdf8186f	0.1618909602841003

bias f8 [112]
0	0x3fb5b7cd5cfd972f	0.08483584900167494
1	0x3fb4bf5cca4ca556	0.08104495943975584
2	0x3facbc3fe9869ead	0.05612373090417342
3	0x3fb3768abbc4766a	0.07602755626836602
4	0x3fb25a889e72ef70	0.0716939341390892
5	0x3fb01a42e23e965d	0.06290071509882851
6	0x3fb218adf5f84423	0.0706890798103506
7	0x3fb4ad07c175170c	0.08076523278313291
8	0x3fb4cd0c548a775b	0.08125378669725818
9	0x3fb32abaf88aafb2	0.07487076347268731
10	0x3fb2cbbb07eaeec2	0.073421182091745
11	0x3fb4b48ee75a6596	0.08088009975690222
12	0x3fb1bdcffa4926b6	0.06930255756847256
13	0x3fb00ade9b33c813	0.06266585625760994
14	0x3fae0e32e10e1b44	0.05870207783941919
15	0x3fb689741f01e458	0.08803487545982713
16	0x3fa891e7b8600757	0.04798816800759081
17	0x3faefd18c5260e6f	0.06052472502326799
18	0x3fa9fbebb3cec7bb	0.05075012750548021
19	0x3fb05dcdc4e08a1b	0.06393133217401507
20	0x3facb5951e36c456	0.05607286447355679
21	0x3fac895553faeb8e	0.05573527002476118
22	0x3faf5201f03d69a2	0.061172543121489356
23	0x3faabdb963d2b96f	0.052228730616991174
24	0x3fabb4a10cba4899	0.05411246567122525
25	0x3fa60234eeded600	0.04298558631800731
26	0x3fa628872fd49a1b	0.04327795466297265
27	0x3fabe286a0aa236d	0.05446263037908392
28	0x3fabca49ee105d00	0.054277715979134555
29	0x3fa78718b4d4b067	0.045952579568933775
30	0x3fb026d15c1d1bb5	0.06309231280202605
31	0x3fb2b208f56a9ffb	0.0730290984307657
32	0x3fb278c0b7e2eb55	0.07215504159368653
33	0x3fb86e9ad3a88308	0.09543769519269685
34	0x3faa1944a31e5951	0.05097403041070215
35	0x3fb2d4555acf5292	0.07355245081937259
36	0x3faf236dbf0a99a4	0.06081717450188087
37	0x3fb053d6d2a8583b	0.06377928393371317
38	0x3fab544053d0d396	0.053377161246692825
39	0x3fb121530d192b2c	0.06691474027426797
40	0x3fac20fc61144133	0.05493916211173868
41	0x3fae6ba04fe1f8b4	0.059414872885996145
42	0x3fb188ec21b5f55c	0.06849551985756847
43	0x3fb24493a78d7d86	0.07135889855043417
44	0x3fadf34bb6ede8aa	0.058496824341049816
45	0x3fb0141a540ef6e6	0.06280674507339831
46	0x3fb066d7ff8a0896	0.06406927098035661
47	0x3fae9d723651043b	0.059794968729427876
48	0x3fb262df98d25d1f	0.07182118874549247
49	0x3fb29c9524c1160c	0.07270176074333551
50	0x3fb1bd32c711070b	0.06929318771383579
51	0x3fb27745cdac07a4	0.07213245650566918
52	0x3fb273def2612f83	0.07208054940673318
53	0x3fb069f477c34882	0.06411674426934336
54	0x3fb362ed75bad258	0.07572826504003538
55	0x3fb07ccfaa8687ee	0.06440446770878314
56	0x3fb1b62b50bd352e	0.06918593140763526
57	0x3fb4779a59d130eb	0.07994999592591838
58	0x3fb02e75c27b3dc6	0.0632089233215459
59	0x3fb1864529e3b2a4	0.06845505020801085
60	0x3fae00c4f801be1c	0.05859962012698025
61	0x3fb2afc5bf4cc206	0.0729945747414221
62	0x3fb02ca11d0da71e	0.06318098983106465
63	0x3fb27add1d1d3e90	0.07218725167080664
64	0x3fae0c4a96899a03	0.05868752563110393
65	0x3fad843682638769	0.0576493295827863
66	0x3faa792819401a21	0.05170560177071005
67	0x3fb00c89ae64c0e5	0.062691311909251
68	0x3fb43704fdc4cebb	0.07896453090216486
69	0x3fae7d94ddf2157f	0.059551860897992796
70	0x3fa5bd489226fb47	0.04245974334798191
71	0x3fb4adad2f073120	0.08077509306093988
72	0x3fa927b9c5fba6b5	0.04913120786461659
73	0x3fb424aa79fe0fc3	0.07868447759943735
74	0x3fb1b1a52368bbce	0.06911689867477763
75	0x3fa09f1a3da1b5f7	0.03246385576572302
76	0x3fa61321cfb98e7d	0.04311471615508553
77	0x3fa74b6a4c3e48be	0.045497247511904856
78	0x3fb2a98c6396004f	0.07289960318849008
79	0x3fab01d0983c2484	0.052748221000066514
80	0x3fc621e8825b0f84	0.1729097973349064
81	0x3fc745a4c4a70556	0.18181285478753278
82	0x3fc58a8847aa0f20	0.16829017161591597
83	0x3fc3ba5ae46047d5	0.15412460471321646
84	0x3fc52ef84cec866f	0.16549590831805314
85	0x3fc5b0dcc79e40d6	0.16945991274815836
86	0x3fc6164e97612bbd	0.1725557555349421
87	0x3fc5a0a45a8033f9	0.16896490496620212
88	0x3fc68d54aa658b7c	0.17618807144307513
89	0x3fc8dceb93f1e8fc	0.19424195026278557
90	0x3fc72bc215566ad2	0.18102289239762698
91	0x3fc51884ee4c1f2b	0.16481076846707174
92	0x3fc6c44ede3ca600	0.1778658471242096
93	0x3fc5aa0693ef666b	0.16925127242466273
94	0x3fc4b2a35a3802b0	0.16170160203184514
95	0x3fc8036a47602e8c	0.1876042221559725
96	0x3fb2d0b3ecbffaad	0.07349705247905076
97	0x3fb5718b9e7d6e4b	0.08376381511100665
98	0x3f9460c7763181a7	0.019900433148338028
99	0x3f505a2fd8570ba0	0.0009980647313205596
100	0x3fb3cffea72ed838	0.07739249784103286
101	0x3fabb76a7b53bde1	0.05413372760255775
102	0x3faf49504a60bf7f	0.06110621364530199
103	0x3faaaefcf2cc74d9	0.052116303099163104
104	0x3fb8d59f7a89ade6	0.0970096277393889
105	0x3fb09d796042d40f	0.06490286445735215
106	0x3fb2b1f2f1bc7d83	0.07302778627171418
107	0x3fb5b493386b9fe4	0.084786607050432
108	0x3fa022dd38dea820	0.031515992347820765
109	0xbf71fbffcbc5ebe0	-0.004390715792733396
110	0x3fb4c012cd9f6131	0.08105580825884286
111	0x3fa19e06cde16b2e	0.034408772117521344

weight f8 [112, 16]
0	0x3fa577fd0f0f321c	0.04193106468992289
1	0x3fabd4b20663a0e6	0.05435711219780774
2	0x3fb0d1619225861f	0.06569490259200748
3	0x3faeb0740343367e	0.05993998088670781
4	0x3fb0129100450709	0.06278330093939756
5	0x3fae0790681afc64	0.058651459415607815
6	0x3fa3cfb9275d4579	0.03869417768022294
7	0x3fad42d107930711	0.057150394606209194
8	0x3faf9798fb06ad86	0.06170347275050418
9	0x3fabe23d511c6bed	0.05446044554829386
10	0x3fb1f542e954e02a	0.07014864155360159
11	0x3fb22c0fb8128633	0.07098482364610774
12	0x3faa4d5c2c34644b	0.0513714603386651
13	0x3fb3b359fdf936aa	0.07695543718838374
14	0x3fb041ee206d38b6	0.06350601474443604
15	0x3fa90df6db558bac	0.048934664034070735
16	0x3fa9579c23a8d7d8	0.049496535637828465
17	0x3fafea60bf45fc39	0.06233503661041379
18	0x3fb5d327385393e8	0.08525319218786331
19	0x3fb324f14bac4993	0.07478244874463362
20	0x3fb07d4c6662306f	0.06441190242384363
21	0x3fb3fb35ed7be9dd	0.07805192039442184
22	0x3fb0ff166137df0e	0.06639232514850965
23	0x3fb0a55216fb9d07	0.06502259312729929
24	0x3fb0ffefbc7f1f4c	0.06640528060881684
25	0x3fa9b8ef5f19dddb	0.05023906742001901
26	0x3fb53f9e6ea7dd98	0.08300199700885569
27	0x3fa7a42f399e0dca	0.04617450311982514
28	0x3fb040dc7afd7d62	0.06348970415773672
29	0x3fafac67429e6ce5	0.06186220825403569
30	0x3fb130fcc561e318	0.06715373820214798
31	0x3fafb0cb7658fee2	0.06189571208642321
32	0x3faa7050e4badfdb	0.05163815300096505
33	0x3fa8286fc1b52297	0.04718350638956286
34	0x3fae0b62823249f0	0.05868060912429829
35	0x3fa8292eb8f1f74d	0.047189197613063706
36	0x3fa71dffefff42df	0.04515075497295639
37	0x3fad4815f14ada90	0.05719059534515225
38	0x3fae3ce8ce578763	0.059058451832028756
39	0x3fae839601d7bea3	0.059597671246476545
40	0x3fa8789226276758	0.047794882924519555
41	0x3faf50c2f84f6bcb	0.061163037120159545
42	0x3fa6d5947bc2221d	0.0445982361862358
43	0x3facf5b1ecbb2a1d	0.056562004230347386
44	0x3faf9f1739cb606d	0.06176064091204201
45	0x3fa3c79054c906c4	0.03863192591644585
46	0x3fb0a2abed54a927	0.06498217148024264
47	0x3fa94481d918bb19	0.04935079360108414
48	0x3fb09c5a40d515d9	0.06488575060674097
49	0x3fb26cdec71ff040	0.0719737278122361
50	0x3fb1627f0eb28ddb	0.06790918454003451
51	0x3fa6b63c151b72a5	0.04435909040123435
52	0x3fadd1e1ff0efc8a	0.05824190367229061
53	0x3fb0b16dbbe75e2d	0.06520734632010124
54	0x3fad1e207b0f8787	0.056870474836400446
55	0x3fadf283c1004c8f	0.058490865049088396
56	0x3fb0e54e7f406be9	0.06599894148568776
57	0x3fac45d88dd25321	0.05522038203449698
58	0x3fb05316dc23350d	0.06376784204913495
59	0x3fb15438722d92e0	0.06769135272549986
60	0x3fa73d16d0845652	0.045387947992065705
61	0x3fb11a77b80b7c42	0.0668101143196376
62	0x3fb0ada54a19a819	0.06514962252700264
63	0x3faf67e2fb5379b0	0.06133946721978434
64	0x3fa7160d3c480d3d	0.045090116127563175
65	0x3fa69cacebac75ab	0.04416408898235188
66	0x3fabce9fba09af2e	0.05431079050035091
67	0x3fb15d154819255b	0.06782658586702921
68	0x3fb3c5f5af3f9f1f	0.07723937538650859
69	0x3fb191d778ea0147	0.06863161756519275
70	0x3fa973fee1f95c5b	0.04971310146782378
71	0x3fadca4f125bf748	0.05818411921607819
72	0x3fb214be4ea8b790	0.07062901897799478
73	0x3fa7ac8aed2c2f90	0.046238271190389146
74	0x3fac3e43102dc3e3	0.05516252109999422
75	0x3fb02799814710d6	0.0631042423838751
76	0x3facf068bba312d5	0.05652167597285077
77	0x3fa58830d1db914b	0.04205467759837463
78	0x3fa586f8aa0a945b	0.042045374638555365
79	0x3faff6b52ce26b8a	0.06242910550027776
80	0x3fa6b5ec24dc75db	0.0443567080494451
81	0x3faf42c89dc8f970	0.061056393872138126
82	0x3f9ccf7ab4814427	0.028135220782420724
83	0x3fac6515e2636a13	0.05545872105149754
84	0x3fa74156c0e21399	0.045420371098806096
85	0x3fae58fd6024b7c4	0.05927268789888232
86	0x3faa23592ef614dd	0.05105093668229597
87	0x3fa79793ea0cb98a	0.0460783217625816
88	0x3fa3d5a7522bfc88	0.03873942258905411
89	0x3fa948d3812ad0e8	0.0493837447333208
90	0x3faba2ca7322e11a	0.053976370386808095
91	0x3faad185aa1ee9f2	0.052379776970571515
92	0x3fab927b2f9501c6	0.05385193782649682
93	0x3fa387b129150afd	0.03814462305537878
94	0x3fa79f8c21364a28	0.04613912492199673
95	0x3fa8ba5c666d1d76	0.04829682112045479
96	0x3fb1b89c15dfd184	0.06922317060509015
97	0x3fb1bcc3c07907a0	0.06928657006304073
98	0x3fb3c20d7f514931	0.07717975958192792
99	0x3fa5e063a91ee1c1	0.04272757949314921
100	0x3fa7a4eba1ac7b30	0.04618011807018829
101	0x3fa7dd716a749ec3	0.04661135124689288
102	0x3fa5324107c745a9	0.04139903278304342
103	0x3faae7c27a1cdb28	0.05254943600305345
104	0x3fa201749e86bf3e	0.03516735491882493
105	0x3faabbfd9519b0cc	0.05221550412247353
106	0x3fa70e712f77e9c1	0.0450320597119176
107	0x3fae50d328f349bf	0.05921039461977128
108	0x3faad9b60bc7d29e	0.052442254007393205
109	0x3fb0bb7aa53d7a16	0.06536070379431921
110	0x3fa1fd1081095a45	0.035133853675394046
111	0x3faa39f4490e7939	0.05122340575984414
112	0x3fa8158ec4756709	0.04703947208572685
113	0x3fafa0927d1da65a	0.061771943829467005
114	0x3fb0f257fce39a7b	0.06619787143754678
115	0x3faf7a4c9e86bb80	0.061479944564204025
116	0x3fad3720671225bf	0.05706120737256581
117	0x3fae819bb0c45922	0.0595825818328868
118	0x3fae110330c550f6	0.058723544791662904
119	0x3fa99982785847b6	0.04999931067517542
120	0x3facce7546d82ca0	0.056262650392534086
121	0x3fafed0b3462d9e8	0.06235537542800157
122	0x3fac2d55c2534860	0.05503337857375423
123	0x3fae3febbcb336ef	0.05908142736880772
124	0x3fb194cb719bfa7f	0.06867667697586376
125	0x3fb12f1685a959ae	0.06712475550862138
126	0x3fae70e6c2cf7cb6	0.05945511940057584
127	0x3fa89629339ce190	0.048020637083428075
128	0x3fadee81bfed3160	0.05846028774121481
129	0x3fb12e3ab5b77268	0.06711165367546246
130	0x3fb379522d7a7a66	0.07606996164620625
131	0x3fad5d45056752d9	0.057352215680713754
132	0x3fb19dfef151de06	0.06881707564922843
133	0x3fb254e2491e0a2a	0.07160772595492718
134	0x3fa611a44ab235f2	0.0431033459836775
135	0x3fb49dcb2d034d78	0.08053274010608458
136	0x3faa4f555db059a0	0.051386516272191374
137	0x3faf5d7db298c959	0.06126015477311126
138	0x3fab139651c347eb	0.05288381336289646
139	0x3fad12348b41d0c0	0.056779520033985786
140	0x3fb04bc7f91f7a62	0.0636563285074572
141	0x3fa5186dfba79c3e	0.04120200821835639
142	0x3fab4541d08d8a1b	0.05326276465236309
143	0x3fb136c72e9aadad	0.06724209678457412
144	0x3fa07942b693e5de	0.0321751449464036
145	0x3fb29fae7497a113	0.07274904581538903
146	0x3fa86d0d45521ac2	0.04770699950409131
147	0x3faf520b87be6809	0.06117282897976401
148	0x3fac158f9fc784cb	0.05485199761802447
149	0x3fad195000694266	0.056833744096938685
150	0x3fb23f8fba3202d1	0.07128237052712484
151	0x3fa8eed3a055a0cc	0.048697102853851953
152	0x3fa1eb77b3e573a8	0.03499960013389308
153	0x3fb0cc609c1ffca8	0.0656185513653208
154	0x3fb0374edf874eca	0.06334393460502522
155	0x3f9e5d34dea531e5	0.0296524296657469
156	0x3fac215cbd730647	0.05494203388799384
157	0x3faadce54b2fbee1	0.052466550281563114
158	0x3fa7c6e6e716f14d	0.04643937655370909
159	0x3fa688615b7016ae	0.04400924912628788
160	0x3fad14dee10caa45	0.05679985520540191
161	0x3fad6dd8a7281ec7	0.0574786857651453
162	0x3fa9d1db58112148	0.0504292054179723
163	0x3fa62d6029c4b79e	0.043314938639340314
164	0x3fb08a18a6a65a24	0.06460718220328282
165	0x3facf8a8aa502eb6	0.05658461646097861
166	0x3fa6db0af5dac939	0.04463991404681384
167	0x3fabecc4b5e62221	0.054540774540388755
168	0x3fa8214a1aed330c	0.04712897852605211
169	0x3fa6aaa791aafb00	0.044270741016125825
170	0x3faadddafb67420c	0.052473872364888846
171	0x3fb0229d9bfcc680	0.06302819307600238
172	0x3faa67178902b905	0.05156777904027091
173	0x3fa70a9103136080	0.0450024906401163
174	0x3fa9476197f9f9bc	0.04937272052937966
175	0x3facda541a6c0d41	0.05635321447882769
176	0x3fa73d308b4c098c	0.04538871479418835
177	0x3faf962e8c679cc2	0.061692671431779825
178	0x3faaaf9309d91b44	0.052120776130826246
179	0x3fb0945f0515d5a8	0.06476396440651533
180	0x3fa7412d85cb0925	0.045419142324606455
181	0x3fb08addcb55517e	0.06461893285933759
182	0x3fa7041a979bc7e6	0.044953185088061606
183	0x3fabe03bd7971fd1	0.054445142810038434
184	0x3fa634d9c64830a5	0.04337196870264507
185	0x3fa4688d78f39165	0.03986017323930716
186	0x3fa92396ce8619de	0.049099648199490295
187	0x3fa5e673066ed36f	0.042773813758151806
188	0x3fb1dd48d600c744	0.069782783743702
189	0x3faf0a8f4035eb64	0.060627438152514285
190	0x3fad8bef40b73b09	0.05770824112879864
191	0x3fae75d20511ab98	0.05949264823796979
192	0x3fa9d08628d0cfb9	0.05041903732526926
193	0x3facde3759aca1b0	0.056382875153136225
194	0x3fabb35c6c607d96	0.054102791051487006
195	0x3fb290beda2cb5ec	0.07252114130525172
196	0x3fae067c54fcf81a	0.05864323174908766
197	0x3fadf7c40e71a6d3	0.058530928385904034
198	0x3fa404e0b42d9066	0.03909971427381791
199	0x3fa1b4d536ef4669	0.03458277030553065
200	0x3fa6b5db080225d6	0.044356198051058435
201	0x3faccd8a583c5705	0.05625564887138349
202	0x3faa07d32d1f1293	0.0508409493045622
203	0x3fa9035397bd01fe	0.04885350444101631
204	0x3fb08ed6573c3a97	0.06467952375190077
205	0x3faae6756ca98532	0.05253951026385052
206	0x3fac0a3b42eb5ae2	0.05476556007277168
207	0x3facd498f86a4aae	0.05630949051296362
208	0x3fa95540f3fe350a	0.04947855928831231
209	0x3faf7721b2d6c851	0.061455777245456596
210	0x3fae96c6183f7e42	0.05974406286236135
211	0x3faad50e63d350d8	0.05240673988888184
212	0x3fae42e3b61f3a2f	0.0591040763680336
213	0x3faa3282f7cc868f	0.051166622876064875
214	0x3fac04132a26a8ec	0.05471858872927435
215	0x3fb02324693839af	0.06303622788275363
216	0x3fac2a4826ef23fe	0.055010084870055195
217	0x3fa28c6b88003c6f	0.036227569915461603
218	0x3fabd4b40ee9aa02	0.05435717279472742
219	0x3faa0efba5ee6d04	0.05089556122330843
220	0x3fb1989c6cddd571	0.0687349096095511
221	0x3fa56d42bf899740	0.04184921825507937
222	0x3fa79a97c1537b49	0.04610132441461318
223	0x3fa76fd7c7e0d34f	0.045775168561169914
224	0x3fb0c937361e4e08	0.06557030745744197
225	0x3fa877d16452fb8d	0.04778913831386609
226	0x3fa44f7a994467ef	0.03966887589395173
227	0x3fa6636c8b84b810	0.043727294951494966
228	0x3fa6a3122260ba54	0.0442128817525044
229	0x3fa89ab71513e582	0.048055383036579094
230	0x3fa71206fca14b53	0.04505941232550605
231	0x3fa6c815856d7dc1	0.04449527028804879
232	0x3fa49b4a91da234e	0.04024727850361974
233	0x3fa40319eadd6d69	0.039086160583532266
234	0x3fad7ade778750b4	0.057578041163340116
235	0x3fa5be009a3b56f8	0.04246522791588164
236	0x3facd030131a7926	0.05627584679790436
237	0x3fab24d0c1c1626f	0.053015254642279845
238	0x3fa57d5d3a4935a9	0.04197207771776885
239	0x3fa83037af915df1	0.04724287050401788
240	0x3fb101b8fc47eb06	0.06643253478243247
241	0x3faed927d8fbd74d	0.06025051616408792
242	0x3fa4ace835966bc1	0.040381676236584514
243	0x3faee264d4c716db	0.06032099816688482
244	0x3fb0589e3c4d30d4	0.0638522050114177
245	0x3fb25f036e57c6f8	0.07176228946607555
246	0x3faeb75f928f168b	0.05999277748155148
247	0x3faf822ef6ee0c97	0.06154009594231374
248	0x3fb14a60540a60a1	0.06754114200373575
249	0x3fb2d122b2651701	0.07350365500778012
250	0x3faccaa8b0fb763a	0.05623366508892187
251	0x3fae79cd04b829fc	0.05952301676378011
252	0x3fafe10f4a2db4e3	0.06226394443988583
253	0x3fadd11b6091a195	0.058235984361832006
254	0x3faf75d2554d9514	0.06144578257844038
255	0x3fb1a67f41f2fdc5	0.0689467941292526

bias f8 [112]
0	0x3fb546d9b07d972d	0.08311234053470846
1	0x3fb82528334ca558	0.09431697132517536
2	0x3fb0fb2d7cc34f59	0.06633266731233557
3	0x3fb5f7a3b8c4766c	0.085809929475056
4	0x3faef902ece5dedb	0.06049355642147499
5	0x3fb14b1794be965f	0.06755206471879081
6	0x3fb46e0028784422	0.07980347621948217
7	0x3fb506e5d875170c	0.08213650259594035
8	0x3faeda4b4b14eeaa	0.060259201922659614
9	0x3fb5bf14138aafb0	0.08494687535374967
10	0x3fb19cf48feaeec7	0.0688011981355273
11	0x3fb64689eafa6595	0.08701383578081441
12	0x3fa7d96eba924d75	0.04658075358852446
13	0x3fb305b21e33c80f	0.07430566060409681
14	0x3fa858dee10e1b46	0.04755302903418239
15	0x3fb44f850201e455	0.07933837222107461
16	0x3fb03b38783003a8	0.0634036343981409
17	0x3fac21878f260e6e	0.05494330999775064
18	0x3fac11d0c6cec7bb	0.05482342173435436
19	0x3fb21ec3f7e08a18	0.0707819442909926
20	0x3fa9b209a136c458	0.05018644421523594
21	0x3faeb67095faeb8d	0.059985655124783134
22	0x3fa841d3fc3d69a0	0.04737722829914337
23	0x3fa58a4be3d2b96d	0.04207074314159596
24	0x3fb165203b5d2450	0.0679493088656653
25	0x3fac6070781ed5fe	0.05542327371896859
26	0x3fae77e0cfd49a1b	0.0595083478640854
27	0x3fb2001edc5511a7	0.07031433943945463
28	0x3fa9b6601f105d02	0.05021953944395287
29	0x3fab9823cad4b066	0.05389510966264836
30	0x3fb11e90fc1d1bb4	0.06687265544051862
31	0x3fb1bde1156a9ffb	0.06930357716430528
32	0x3fb1ba3e3ce2eb56	0.06924809442982158
33	0x3fb4f4ab07a88304	0.08185833870858167
34	0x3fb511a7cf8f2cb1	0.08230065171589974
35	0x3fb05ca3f9cf528e	0.06391358231423735
36	0x3fb284c9c3854cd3	0.0723386862130611
37	0x3fb08f8407a85840	0.064689876431971
38	0x3fb25ee701e869c3	0.07176059528902727
39	0x3faf62aaaa325655	0.06129964187236384
40	0x3fb0f387a50a2099	0.06621597079549914
41	0x3fb21d3853f0fc52	0.0707583622870385
42	0x3fb1499249b5f55c	0.06752886104182693
43	0x3fb684e2e38d7d85	0.08796518378721004
44	0x3fb5f1bbbdd6f454	0.08571980843312704
45	0x3fa1ff77101dedc4	0.035152168958088065
46	0x3fb17be3378a0891	0.06829662424027762
47	0x3fb19c7c3b28821f	0.0687940258435522
48	0x3fb4703b31925d1f	0.07983751259086035
49	0x3fb328490e41160c	0.0748334560203931
50	0x3fb21ea00d11070b	0.07077980345732386
51	0x3fae824201d80f58	0.059587538457008093
52	0x3fb2877938612f83	0.07237966181236115
53	0x3fb3fb0d10c34880	0.07804948481796892
54	0x3fa416e93b75a4bd	0.039237297542805895
55	0x3fb032c4d68687f1	0.06327467191161397
56	0x3fb0404031cd3536	0.06348038879260262
57	0x3fb15dec41d130ed	0.06783939940322954
58	0x3fb096bfad7b3dc4	0.06480024323831574
59	0x3fb23684f2c3b2a4	0.07114439894548724
60	0x3fab46468001be1a	0.05327053368170827
61	0x3faece38e6998428	0.06016710104882633
62	0x3fb00714240da716	0.06260801201065322
63	0x3fb3e1fe8b1d3e8f	0.07766714950889252
64	0x3fb2cc567544cd11	0.07343044627196017
65	0x3fb3d24c7531c3ae	0.07742765294257367
66	0x3fa5fe66d5401a24	0.04295655587343486
67	0x3fb155b20a64c0dd	0.06771385911702361
68	0x3fa623ebcb899d67	0.04324280604924518
69	0x3fab339969721580	0.05312804615190725
70	0x3fafd26d8e1efb47	0.06215231284976724
71	0x3fb1c668e387311e	0.06943374209294403
72	0x3fabaef3e5fba6b5	0.054069158386324125
73	0x3fb1ceeacffe0fc0	0.06956355646076329
74	0x3fb3d9c83f68bbcc	0.07754184291910277
75	0x3fb409ebf2d0dafe	0.0782763927280534
76	0x3faae4753fb98e7f	0.05252424624339102
77	0x3fb10a5f321f2459	0.06656451200173431
78	0x3fa67b0e5f2c00a6	0.04390759383932279
79	0x3facdbcbe83c2482	0.05636441430949281
80	0x3fc7b8656b5b0f84	0.18531482450464065
81	0x3fc6427e18e70556	0.17390419212282876
82	0x3fc4eeb417aa0f20	0.16353465228541442
83	0x3fc3876a0c6047d7	0.15257001499463627
84	0x3fc5def8baec866f	0.17086705329079474
85	0x3fc5ba47011e40d6	0.16974723391149976
86	0x3fc59dc0b0612bbd	0.16887673008235807
87	0x3fc6735a284033fb	0.17539526906367073
88	0x3fc7cf5d05658b7b	0.18601572764881866
89	0x3fc3b0b31df1e8fd	0.15382994615703885
90	0x3fc3873fed566ad6	0.152564993751034
91	0x3fc409519dcc1f2c	0.15653438763569605
92	0x3fc63904e33ca600	0.1736150846057143
93	0x3fc5238a9f2f666d	0.16514714024269797
94	0x3fc6b47b063802b3	0.17738282970096506
95	0x3fc6d5a5c7602e8c	0.17839500651495077
96	0x3fa7e79f117ff566	0.04668900574322769
97	0x3faedb521cfadc9e	0.060267034566487285
98	0x3fa50aeb4318c0cd	0.04109893030215659
99	0xbf812c7aaef51e87	-0.008385618652609906
100	0x3faf7a43125db06e	0.061479660026493174
101	0x3fb0636573a9def4	0.06401666711633053
102	0x3fb1d84c2cb05fc3	0.06970668879546253
103	0x3faacdf5b0cc74d9	0.0523525980299639
104	0x3fac341c15135bc1	0.0550850654341768
105	0x3fb25ddffa42d40d	0.07174491748703833
106	0x3faf11052778fb15	0.06067672831385643
107	0x3fb0ea5aca6b9fe3	0.06607596818832877
108	0x3fad25b688dea821	0.05692835255406715
109	0xbf6206cc778bd7da	-0.0022005074973732
110	0x3fb136b1b09f612e	0.06724081575464844
111	0x3fa7cabaa7516b2a	0.04646857540566025

weight f8 [3, 16]
0	0xbfc9fafd09608f45	-0.2029720588480989
1	0xbfc90a247cbd9f10	-0.19562202540259266
2	0xbfca8ef3d5c96dc6	-0.2074875635033619
3	0xbfc9d9e6824aca36	-0.20196229326173104
4	0xbfcb1ac08a5085ba	-0.21175390962257074
5	0xbfc9eaabc48592f3	-0.20247408958234522
6	0xbfc8fe77b4a9ddaa	-0.19526573487722249
7	0xbfc82441e2fe6392	-0.18860648711850253
8	0xbfc919a355703c94	-0.19609491035268845
9	0xbfc95a56500d61e6	-0.19806937130739682
10	0xbfcc44433155e9c9	-0.22083320530857822
11	0xbfca0cde9ac2d73f	-0.20351774746603188
12	0xbfca246aff934161	-0.20423638800867663
13	0xbfc91416b92075e7	-0.19592556037325368
14	0xbfc8a2ffa2887988	-0.19247432171046008
15	0xbfcb5e40515e90e9	-0.21381381962886017
16	0xbfc8c36224679fbd	-0.19346262719704824
17	0xbfc9613f9fc7e099	-0.19828028966708613
18	0xbfc9e8d310702518	-0.2024177389396662
19	0xbfc9ac6cdda11738	-0.20057450124493825
20	0xbfc8ad4e1c693918	-0.19278885257012557
21	0xbfc9557b15d75136	-0.19792116705378654
22	0xbfcb4f8e0a431738	-0.21336532116964135
23	0xbfca7d11ea53debc	-0.20694183294084734
24	0xbfc9dd1e1bd090bd	-0.2020604739965445
25	0xbfcb2ee54f264e42	-0.21236864437797648
26	0xbfc8667306c76bf5	-0.19062650519376204
27	0xbfcaa1f214911e14	-0.20806718830338922
28	0xbfc8c56aff9f4aaf	-0.19352471810869562
29	0xbfcb71d94b1cc2b2	-0.21441188972086916
30	0xbfcaf1ae9c7b6b47	-0.2105005516121656
31	0xbfc94788016408de	-0.19749546115787714
32	0xbfca50f75d86b46a	-0.20559589449604526
33	0xbfca0184d7903373	-0.20317135358382252
34	0xbfc9e97b9f82cb5f	-0.2024378327237981
35	0xbfca7352a46d5330	-0.2066443732134302
36	0xbfc94a6acf9c393c	-0.19758353364199788
37	0xbfcac4e74aafb849	-0.20913401743695406
38	0xbfcb6353671fb171	-0.21396868262616978
39	0xbfca4b2c60a3b691	-0.2054191085693913
40	0xbfca02bb50fc4697	-0.20320836500518588
41	0xbfc8995dfd29ff8f	-0.19218039380575333
42	0xbfc9816b53b20255	-0.19926206194579046
43	0xbfcb0722c74b0a75	-0.2111552689658144
44	0xbfcba918beed6dbe	-0.21609792063359906
45	0xbfcacccf7ca56450	-0.20937532030328265
46	0xbfca9d00aca188b8	-0.20791634015319516
47	0xbfc9312d34963873	-0.19681325023379123
