Retweet/RetweetNetsV3/TrainNet_ep1V2.pt (torch, 23465 bytes, 6 tensors)

scale f8 [3]
000000 b9 64 a1 43 47 90 e6 3f ad fe 64 55 92 91 e6 3f
       0.7051121064097493 0.7052699725972694
000010 7e a0 9f 3d 13 a4 e6 3f
       0.7075287059387987

weight f8 [112, 3]
000000 ec d3 77 ee 3d 28 b6 3f aa 72 8a 47 0c 17 c0 3f
       0.08655154296850726 0.12570336812213628
000010 b0 4a c9 19 8c a0 b5 3f a1 7c 1c 59 3d 15 b2 3f
       0.08448100690410842 0.0706365912014797
000020 96 7a 3a e1 78 21 be 3f 00 dc ff d5 d2 76 b3 3f
       0.11769824503651657 0.07603185391040768
000030 7d 93 a8 7f 35 0e a6 3f 9a cc b3 ce 24 89 bc 3f
       0.04307715590792947 0.11146764799541345
000040 7a 02 0e 77 84 88 b6 3f c1 c2 0f d2 75 15 b0 3f
       0.08802059084519867 0.06282745722252071
000050 3d 08 b4 14 0a e7 c0 3f 61 a3 46 60 ca 7e b6 3f
       0.13205076228047288 0.08787216997610649
000060 0f 45 42 4f f1 ee b0 3f 04 71 fc a9 98 38 c0 3f
       0.06614597497015871 0.12672718334295763
000070 10 1a eb 1c 7a 6a b6 3f 44 7e 63 a8 bd 09 b1 3f
       0.08756221014036947 0.06655488358546174
000080 61 d6 2b e8 17 9f b9 3f 7a 32 bb 24 1a a7 ad 3f
       0.10008382242434656 0.057915513023179835
000090 e1 f4 b5 c1 e0 27 ab 3f a6 4b 71 ff f2 23 c0 3f
       0.05303861965783497 0.12609708283215787
0000a0 06 27 7c 2a f4 96 af 3f 07 44 7f ad 33 9c b2 3f
       0.061698560892251605 0.0726959513260824
0000b0 80 fe 1a 40 38 a8 c1 3f 99 e4 79 a1 61 1b b1 3f
       0.1379461586966393 0.06682405655182534
0000c0 67 a3 8b 1b 8c ad ae 3f 15 f9 ff 1b 85 c9 bd 3f
       0.05991781078575436 0.11635620053855107
0000d0 d9 a5 50 1c c6 f1 b7 3f ac 2f b2 d4 d7 f0 ab 3f
       0.09353292647633484 0.05457186194789129
0000e0 71 d5 08 f0 cc 67 bd 3f 06 7c f0 f1 5d 95 b0 3f
       0.11486512050836041 0.06477915913318108
0000f0 b3 ac e8 b0 44 79 b0 3f df cd 2e 8d a4 42 ba 3f
       0.06435040778221683 0.10257938811155708
000100 98 99 67 24 54 46 b6 3f 71 14 ce 1b e3 36 b0 3f
       0.08701063050066293 0.06333751133759492
000110 b1 d0 ca 35 a1 ce bd 3f 3e 4b 4b cc 9a 7d b1 3f
       0.1164341694191673 0.06832282531403863
000120 08 61 ae d8 2b b4 b2 3f 70 d7 64 35 b7 09 be 3f
       0.07306169548099117 0.11733574918329537
000130 ad 54 8f 77 98 a7 b0 3f 05 12 04 0a 76 d3 ac 3f
       0.06505730551664853 0.056300820086139715
000140 c0 be 17 a6 00 21 bd 3f 3d 81 19 96 49 da b2 3f
       0.1137848287105454 0.07364330210248667
000150 76 5a bd 95 8d eb af 3f c8 eb 69 84 3d 66 bc 3f
       0.06234400227429131 0.11093506319768587
000160 c6 4a d2 09 f0 64 b4 3f 13 5f 86 af e1 4e b4 3f
       0.07966518630773142 0.07932863745952216
000170 14 ee 85 f9 85 86 bd 3f 1b da 04 7e 59 6a b7 3f
       0.11533391324876902 0.09146651579508396
000180 88 aa b2 40 01 4e b0 3f 60 2d 89 af 8c a1 aa 3f
       0.06369026021517687 0.052013775279727836
000190 e8 39 7a 82 24 81 63 bf 99 cc c6 9f c2 51 a6 3f
       -0.0023809159354819427 0.04359253120801405
0001a0 86 bf e6 e4 18 86 a5 3f 40 d9 82 a7 23 d3 70 3f
       0.042038705770550286 0.004107608103529892
0001b0 13 d6 67 8f 37 63 9a 3f cd b9 d0 12 4e 2b a7 3f
       0.025769107940467672 0.04525226573638328
0001c0 28 51 39 2e 3d 51 96 3f 34 f1 dc 99 f1 fb ab 3f
       0.021794277139933232 0.054656553299056304
0001d0 2e d8 45 b2 7b 51 af 3f 42 89 ea 29 92 89 89 3f
       0.0611685423963738 0.012469427017383187
0001e0 13 75 19 8f 8e 78 a4 3f de 0b 6b e4 8f 82 b0 3f
       0.03998227593249672 0.06449221922507273
0001f0 01 0f 41 45 83 e6 9f 3f 9a 97 e7 de 72 fb ab 3f
       0.031152773954331362 0.05465277644161333
000200 86 4b 99 fd 3e 70 a6 3f 66 34 32 52 f7 9f 25 3f
       0.04382511945427496 0.000164984646378849
000210 5f 7f 27 3d b7 a1 a6 3f 14 99 de a6 04 93 a7 3f
       0.04420254346382423 0.04604353463155256
000220 cd a3 dc cc 98 fa 9a 3f f1 96 cd 15 78 8c a8 3f
       0.026346576217438234 0.047946694051274615
000230 ed a7 47 1e d2 07 aa 3f 12 23 75 ca 52 07 79 bf
       0.05084091777446518 -0.006110499765164661
000240 9f df 3d ce 07 d5 a8 3f 67 77 07 78 90 19 a3 3f
       0.04850029366110608 0.03730441537093903
000250 ad f4 6a a7 d4 0d 99 3f 10 a4 5d 83 40 07 a9 3f
       0.02446682235562452 0.04888345340334166
000260 fe 0e 8f 86 4f cb 98 3f 8c f8 70 95 f7 95 97 3f
       0.024213068569010503 0.023033016678021087
000270 56 02 a8 fd ce 50 a9 3f cf 4e c3 00 6c 87 9e 3f
       0.04944464537038999 0.029813468500676173
000280 a0 37 4d 74 ae 09 97 3f 09 69 83 73 65 86 aa 3f
       0.0224978693470842 0.05180661234926915
000290 a5 40 c1 05 d4 59 a2 3f 50 fe 26 77 2a 9d 81 3f
       0.03584158487558512 0.008600551377525495
0002a0 a7 0e 7e d9 b3 a4 aa 3f fd 12 5d a8 c4 bd a8 3f
       0.05203783063828143 0.04832281642169354
0002b0 b2 81 e0 a1 7c bc 81 bf 79 a0 d4 4d 20 c3 93 3f
       -0.00866029137620292 0.019299034834290716
0002c0 3e f0 ac 8a b5 14 a5 3f 6a 90 0c bc 41 32 86 3f
       0.041173623254934885 0.010838044692327926
0002d0 bf d7 b1 13 90 26 a8 3f 4b 6c b3 ca bb 81 a4 3f
       0.047169210819375966 0.0400522885263049
0002e0 85 79 40 f1 42 5e 93 3f 74 f5 53 18 81 aa a6 3f
       0.01891426656231367 0.04426959440204828
0002f0 fc a5 06 89 13 9a a5 3f 8c a2 55 fd dc f9 9b 3f
       0.04219113395386029 0.027320340120612616
000300 7f 1a fc f1 f6 e8 b3 3f aa ed 86 7c 8b d9 ac 3f
       0.07777350814658666 0.05634723563295137
000310 ca 3c b7 f2 95 48 bd 3f 72 65 4a 4c cc 13 b1 3f
       0.1143888204162408 0.06670834410251361
000320 07 04 fd f2 3f e9 b3 3f 84 d7 6f 66 c3 4e c0 3f
       0.07777785951931558 0.12740366460610286
000330 76 6e 5d 81 c5 89 b1 3f a5 ef 3d 63 98 91 b0 3f
       0.06850847633671173 0.06472160742663265
000340 4b 88 e4 75 93 08 ba 3f a9 e9 54 be 3d 93 b0 3f
       0.10169335964431629 0.06474672219056878
000350 b2 d1 0b a3 4a 7b b1 3f e2 80 74 cc 40 cd be 3f
       0.06828752976054522 0.1203194140584887
000360 54 56 98 69 50 26 ad 3f 83 7c 24 3c 02 46 b0 3f
       0.056932938470862254 0.06356824844668733
000370 86 70 26 ee c1 cd b9 3f 6b 3d 36 e4 1e bd a4 3f
       0.1007958609029079 0.040505376203436715
000380 25 c6 9e 2e d8 3b b3 3f f2 68 0a 9e 32 00 bb 3f
       0.0751319040125727 0.10547176702894825
000390 2b 03 20 24 a5 fa b3 3f db 76 1b 2b d5 50 ae 3f
       0.0780432904430312 0.059210454475516726
0003a0 ca 83 c6 ed 84 fe bd 3f ac 41 dc 1a b0 ca b2 3f
       0.11716490559639606 0.07340527206202435
0003b0 41 e5 69 9c d0 17 ab 3f 6b c8 2a ef a5 9d bd 3f
       0.052916068166221304 0.11568677033463508
0003c0 95 0c 14 83 66 c3 b2 3f e7 fe 06 48 78 70 b1 3f
       0.0732940740600035 0.06812240370254195
0003d0 4f 77 0d 4b b4 49 c0 3f 6a cc 4a 54 5c b5 a5 3f
       0.1272492758243353 0.04239929703671737
0003e0 c0 5e cf 95 19 8c b2 3f a3 57 fd b2 2d 6c bc 3f
       0.07245025546523731 0.11102567310203297
0003f0 06 cb 3f 84 a0 ac af 3f cb 5e b9 68 7e ea a8 3f
       0.06186391462678924 0.048664045604423466
000400 a2 47 f1 be ee 41 b9 3f bd b6 18 d2 60 42 a9 3f
       0.09866230165178405 0.04933455052046785
000410 cd 17 2f d9 4a 6b a9 3f bf 02 db 6f dc 7d b5 3f
       0.04964670087024068 0.08395173769805363
000420 82 ae ab 7f 8a 01 b0 3f 80 b5 2a 16 8d e2 a7 3f
       0.06252351395567682 0.04665032287207804
000430 c5 ff 99 eb 5c cc ba 3f 25 6f a8 cb 89 05 b0 3f
       0.10468083145133196 0.06258450719945736
000440 33 59 5f 34 7b d3 ae 3f 24 50 aa 8e 31 9e b8 3f
       0.06020722402870362 0.09616384251631921
000450 7f 93 96 a7 9a f4 ac 3f 53 15 88 aa 7f 62 b2 3f
       0.05655368133310556 0.07181547082298793
000460 4d 8e 8e 70 82 aa c0 3f df bc 2d 4b 22 e9 b3 3f
       0.13020353790226338 0.0777760919133814
000470 77 5c 7d aa 32 b5 b4 3f 90 16 27 f8 3e 16 bf 3f
       0.08088986074777603 0.12143319662490115
000480 c3 e1 fa 1f f4 0e b2 3f 65 2d 8a 19 a9 a6 b1 3f
       0.07054067402612589 0.06894928811577967
000490 de d1 b3 d8 8f 1d a8 3f 0f c0 50 2d 48 2c b0 3f
       0.04710053940098978 0.0631756888039947
0004a0 69 21 a9 72 5f 04 b2 3f 7e 4b 4d 95 d0 d4 a7 3f
       0.07037922429402034 0.04654552290471424
0004b0 36 ce b8 b9 b8 de b5 3f d5 66 11 c6 6d 65 b1 3f
       0.08542971166826238 0.0679539307178872
0004c0 af f8 55 01 9d c9 ab 3f 6a c3 bc fa cc 66 b0 3f
       0.054272562420906716 0.06406861421124935
0004d0 2b 7c 16 f9 f4 4d a5 3f e2 ad d9 ee 23 84 b0 3f
       0.04161038914320899 0.06451630193048843
0004e0 d5 03 0f 97 5b e1 af 3f 5e d5 a3 e0 b4 cc b0 3f
       0.06226621836641014 0.06562357410787942
0004f0 4a e4 04 98 eb d6 ab 3f 4c 66 6f 6a 60 c3 b3 3f
       0.05437408667280204 0.07719996069445151
000500 5b ff 5f 63 59 2c b0 3f 28 a5 56 b1 1a 0d ae 3f
       0.06317671466967793 0.05869372763420194
000510 7a be ad f1 cf 6f b5 3f e4 ee df 42 d0 32 b2 3f
       0.08373737001761042 0.07108785278972679
000520 2a 78 86 a7 89 f2 ae 3f 40 0e ed d7 c5 11 b2 3f
       0.06044416589723796 0.07058369180327251
000530 ae ad 9e 0d d1 b5 b2 3f 72 5d 3e 20 fc 4b b3 3f
       0.07308680136218612 0.07537818705747215
000540 da 5d 55 a1 ec e7 b0 3f d0 e8 7d 2e ee 13 b1 3f
       0.0660388845329786 0.0667103637223676
000550 4f d1 b2 35 dd 7a b3 3f a8 bd 2f 94 b2 0f b3 3f
       0.07609350739477815 0.07445827596506283
000560 52 f6 2a 51 bc b5 a6 3f dc 0d 28 62 48 f0 af 3f
       0.044355282695943146 0.062380086881627966
000570 a6 71 6b 24 d0 d4 b1 3f fa bc 72 ec aa aa b2 3f
       0.06965351952698615 0.0729166819826225
000580 f7 8d 7c 7e ce a2 b1 3f 3e 47 bb 8c 80 74 b1 3f
       0.06889048183489153 0.06818393169239997
000590 db 86 bc 2a 8d d8 ad 3f d3 ae 9f 55 38 6f ad 3f
       0.058292781321382235 0.057489166690940195
0005a0 fa ea 7c 25 9e 01 a4 3f e6 90 37 aa 47 3c aa 3f
       0.03907484252564149 0.05124114945263773
0005b0 e5 38 2d dd 73 4e ae 3f 5e 18 8f b9 d2 76 ac 3f
       0.059192295788862904 0.05559404864429561
0005c0 36 0d b8 ec 22 9d a7 3f 5c 66 89 4f 9f 57 ad 3f
       0.04612073077808036 0.05730913015277103
0005d0 4c 6a cf 5c fc 3e aa 3f 38 fd 15 fc e5 3f b2 3f
       0.05126179345071033 0.07128751186791227
0005e0 21 78 82 4c ab 1c aa 3f ed 14 1d fc 06 4b b2 3f
       0.0509999781508983 0.07145732550732804
0005f0 99 32 39 e6 10 05 b4 3f 71 d1 2b f5 64 16 ac 3f
       0.0782023012226979 0.054858355453606296
000600 25 16 e8 e0 d9 76 b0 3f 6a 4c 82 f7 59 25 ae 3f
       0.06431352368243688 0.05887871881818614
000610 08 1b 0b 8f 29 64 b8 3f 8d 32 47 75 86 ee b4 3f
       0.09527835600156831 0.08176460612521393
000620 ec b3 24 11 69 14 ad 3f 05 9b cd 93 04 38 bc 3f
       0.05679634413022669 0.11022976501918087
000630 7f ea e4 be ba f0 b2 3f 08 a9 25 df 77 ae b0 3f
       0.0739857402849484 0.06516217420508863
000640 7a 82 03 e9 2b 0a b8 3f 62 80 f5 41 34 b7 aa 3f
       0.09390520514308234 0.052178986598619984
000650 c9 01 85 6c 25 a2 b1 3f 15 28 89 33 8d 99 be 3f
       0.06888040446666034 0.11953051098058183
000660 0e bf 6a eb eb f1 b1 3f 42 5f 76 c8 d4 99 ad 3f
       0.07009768006787118 0.057814263792521206
000670 1e c9 9d 93 d5 ce b9 3f d2 ac 17 50 81 95 b0 3f
       0.10081229070582196 0.06478126721747238
000680 9f 21 80 02 53 53 ac 3f ba 33 44 5b 08 7e be 3f
       0.055323213629949956 0.11911060550865119
000690 63 08 1f 50 99 38 ae 3f e0 48 07 ff 57 b9 b0 3f
       0.05902556517641313 0.06532812095909746
0006a0 ef 73 29 07 54 ae ba 3f c6 7c 68 03 2a d9 ad 3f
       0.1042225377545518 0.058297455707582865
0006b0 56 75 33 4a 88 3c ac 3f 08 4f 28 31 42 3e bf 3f
       0.05514932542585409 0.12204374027379228
0006c0 cc 77 32 5a 2b 24 ae 3f 87 b5 66 8e 34 5d b2 3f
       0.058869700203316805 0.0717346999797056
0006d0 bc 6a ab b6 4b 5d bb 3f d1 47 cc b8 a5 29 b1 3f
       0.10689233026225059 0.06704173814458093
0006e0 33 98 96 e6 5e 90 b0 3f 95 8f e9 15 8d 05 c0 3f
       0.06470292214962185 0.12516940660418344
0006f0 82 e1 9c 04 cb bb a9 3f aa d7 56 38 91 7c ab 3f
       0.05026087218579091 0.05368474781737061
000700 18 68 da 47 19 d3 ba 3f e3 a6 82 0d ba c2 b0 3f
       0.10478361133792224 0.0654712946876788
000710 03 14 67 a3 ae d8 b2 3f 6d d3 c0 c3 c7 9d bb 3f
       0.07361880769083488 0.10787628678447243
000720 73 6c 22 e0 55 4d a7 3f 0b ab 06 6c 9a ad b2 3f
       0.04551189766899535 0.07296147477488206
000730 ab 17 9d 0a 80 6f b6 3f 46 1f c7 33 e5 60 b2 3f
       0.08763885745164994 0.07179100526911694
000740 5a df 30 b2 ac 07 ae 3f ae 34 96 5c 98 37 b7 3f
       0.058652302505321344 0.09069206486147394
000750 37 34 62 e8 e0 1e a8 3f 64 15 ad a2 2f 00 b1 3f
       0.047110584609165 0.0664090892942873
000760 6a 95 af ed 28 91 bf 3f 9c eb b5 ad e1 7d af 3f
       0.12330871394040846 0.061507275061521954
000770 4f c7 73 de 56 34 af 3f da 0c e8 28 75 db bd 3f
       0.060946192412201776 0.1166299080724004
000780 e0 c0 5e 87 e7 ea c7 3f 9a d2 6f f1 42 a4 c8 3f
       0.18685621366376548 0.19251286305338483
000790 13 b7 f0 21 aa 72 c4 3f dd 9a fb 91 e0 e5 c6 3f
       0.1597492852901544 0.17889029625003774
0007a0 3b 25 96 a0 40 00 c7 3f be 09 c2 d5 f2 7a c6 3f
       0.17969520417345017 0.17562709271812865
0007b0 07 c2 36 62 31 94 c7 3f e3 53 8f 02 9d 6f c6 3f
       0.18420998855209822 0.17528116822236858
0007c0 d0 15 3f 59 a9 6a c4 3f 87 ab 6c 9a 75 de c8 3f
       0.15950505120978997 0.19428892174013532
0007d0 9f 11 b9 60 19 6e c6 3f c2 fb cc 2f ff 62 c6 3f
       0.1752349588661106 0.17489614328402864
0007e0 ef 96 63 08 fb 70 c7 3f e0 f0 a2 9a af 14 c8 3f
       0.18313539418811994 0.18813128519639744
0007f0 48 25 7e f7 4d b9 c3 3f d8 7e a8 f9 60 7d c6 3f
       0.15409254631621594 0.1757012576135739

bias f8 [112]
000000 9b 2b 89 32 96 aa c0 3f cc 38 ad ba 90 5d bf 3f
       0.13020589320725837 0.12252144391570424
000010 f6 bd 49 3b 2a da b4 3f b8 9e 1f 46 d4 f6 bd 3f
       0.08145393321478153 0.11704756462097066
000020 fd 94 96 cc 03 4d bc 3f ec 94 77 ac 92 cc b7 3f
       0.11055015320615165 0.09296528540251686
000030 4f aa 9f 53 55 5c bc 3f 5e 63 8e 0f 2d 3b c0 3f
       0.11078389445871405 0.12680590877132664
000040 c5 46 e6 84 dd 7c bf 3f 39 02 a9 cb 0a 7f bc 3f
       0.12299904341332553 0.11131350967571842
000050 3b c9 35 3d a8 9e ba 3f 99 1e a7 b6 71 14 bf 3f
       0.10398341650378466 0.12140570363328108
000060 7c 11 40 27 41 dd b8 3f b0 e9 f4 d5 a7 a3 b7 3f
       0.09712607582338778 0.09234093640853902
000070 69 a4 99 af 4a eb b6 3f ef 72 30 3a 39 47 c1 3f
       0.08952776705850031 0.1349860700728622
000080 08 40 b2 b0 8e c1 a4 3f 5f d3 41 4d 60 16 ab 3f
       0.040539225644465715 0.05290509169655055
000090 88 ff fa 4f f9 30 a6 3f c1 f2 78 34 1f 31 ab 3f
       0.04334239102672571 0.0531091453126229
0000a0 15 c8 ce 9a 6e 5d a9 3f cb bf 97 8c d0 90 a9 3f
       0.04954095496886183 0.04993297306270924
0000b0 23 aa 54 58 f1 8c ab 3f e7 b7 b0 f7 14 8e a6 3f
       0.053809682877119756 0.044052748904831955
0000c0 b2 ee 42 ea 39 e5 a7 3f 6c 44 95 af 73 86 a2 3f
       0.04667073235165499 0.0361820365748223
0000d0 fe 97 98 eb b9 32 a3 3f 75 47 a5 11 2a 05 a8 3f
       0.03749638558319644 0.04691440072441725
0000e0 a5 f8 03 b7 51 49 a8 3f f4 45 46 f8 34 00 a3 3f
       0.04743438109470447 0.03711095362372055
0000f0 c7 5f 0a c5 ae 28 ad 3f 27 7f 50 0f ea 52 b0 3f
       0.05695100932388147 0.06376517175567341
000100 33 da 32 c1 fe b3 b3 3f 4c e3 0a a7 b5 e2 b9 3f
       0.07696525780452461 0.1011155636614493
000110 80 5e 7e 30 67 4d ac 3f 1e a4 4e 4b 5d 03 b4 3f
       0.05527803866351366 0.07817633713297353
000120 e5 bb c4 6b 6e d1 b0 3f 88 a7 fb 43 09 72 b1 3f
       0.06569566851679516 0.06814630422345946
000130 cc 62 c6 17 d9 81 ad 3f 56 04 02 8c 95 76 b2 3f
       0.057631286766257256 0.07212195079957104
000140 1c 71 ce be 2f db ae 3f 93 6b b3 35 c7 7f b0 3f
       0.060266010324285996 0.06444974003845365
000150 fd bc dd 31 8e b0 b2 3f f4 a6 ae 51 f7 5a b3 3f
       0.0730065223449294 0.07560678238101187
000160 bd 95 b1 ae 06 13 b0 3f ac b6 7b 6a 8c 23 b1 3f
       0.06279031529410069 0.06694867706002111
000170 a5 59 84 17 32 a2 b1 3f e2 df d0 7b 68 8f b0 3f
       0.06888115953584036 0.0646882345471336
000180 3c 0f ec b8 96 77 b2 3f a4 84 c2 7f 89 b2 b2 3f
       0.07213727965068711 0.07303676003586418
000190 8e e7 ff 3e 50 ef b1 3f ae 5e 77 23 42 95 b2 3f
       0.07005788362576323 0.07259000173450644
0001a0 7f f4 a9 d8 64 85 b2 3f 67 7a ff 27 51 8c b0 3f
       0.0723479298557823 0.06464106775772792
0001b0 9b 97 79 ba de 74 b3 3f e9 19 d7 2f 51 90 b0 3f
       0.07600204517947733 0.06470210473990047
0001c0 fc 1f b7 58 67 cb b1 3f cc 05 e2 1f 18 92 b4 3f
       0.06950994411374717 0.08035422113791596
0001d0 d8 b3 99 cd c8 56 b0 3f 09 cc d7 8b 80 98 b1 3f
       0.06382422465840365 0.06873324789175696
0001e0 b0 c2 d1 0d f4 58 ae 3f 68 8a ed 18 c4 df b2 3f
       0.05927241009419981 0.07372689827529089
0001f0 37 36 70 28 db 4a b0 3f 87 2b 68 04 be 8d b2 3f
       0.06364221322311257 0.07247531516638449
000200 5e de 55 57 3b 47 b0 3f 45 c6 85 77 95 3c b0 3f
       0.0635869110318423 0.06342443626433532
000210 c7 04 df ba 0d ad ac 3f 91 50 ce f1 a6 3b b1 3f
       0.056007794438764295 0.06731646922554747
000220 38 bd 7a 63 50 7c b5 3f 1c 67 02 6a 89 62 b0 3f
       0.08392813137719635 0.06400355184669276
000230 ca 42 0e 94 ee e8 a7 3f e9 29 cb fc 4b 06 b6 3f
       0.046699004719931006 0.08603358194083167
000240 cb 92 52 d4 43 d1 ab 3f c5 96 6b b0 2d 6c b5 3f
       0.05433093993022949 0.08368192250380975
000250 e0 3b 8f 7d 0a d8 b2 3f c4 75 8b 9e d9 d2 a2 3f
       0.07360902371804867 0.036764908412560554
000260 8a 75 d1 f5 9c 4f a8 3f cc e8 4a c4 a1 70 a9 3f
       0.047482399947266066 0.04968743821287233
000270 27 b0 e2 81 6e e7 b3 3f 2b 5a 47 d6 53 8a ad 3f
       0.07775011702568745 0.05769597998339678
000280 90 39 3d 5a c9 ce c7 3f 10 e6 4c 57 2b 04 c9 3f
       0.18599812418183292 0.19543973696436057
000290 b5 5d 57 26 81 95 c7 3f cb cd 1b ef 0a 8c c5 3f
       0.18425001499302388 0.16833626437401814
0002a0 d5 10 cb 74 97 da c6 3f de 21 8e 8c c0 96 c7 3f
       0.17854588702005594 0.1842880903534611
0002b0 76 26 86 42 2e b9 c7 3f 6e 65 cb a0 14 56 c7 3f
       0.18533876655810716 0.18231447078032254
0002c0 e4 45 20 90 2d 58 c8 3f 86 cb 97 af d2 ac ca 3f
       0.19019097840695942 0.20839913915514446
0002d0 31 22 86 e1 e6 1d c9 3f b7 a4 dc 9b 31 c3 c6 3f
       0.19622503291999885 0.17783184156841056
0002e0 a1 02 05 2e 08 c2 c8 3f a0 6a 19 ee 4f b9 c7 3f
       0.19342138526009925 0.18534278036061824
0002f0 16 f2 23 19 2d 9f c6 3f 03 b4 d1 94 b0 b3 c9 3f
       0.17673267104682172 0.2007961966186543
000300 1a b0 db ec d7 7b ab bf f7 b0 c1 f2 be 43 71 3f
       -0.053679225600575545 0.004214998141929486
000310 7b f8 fd a6 de ea b8 bf 5d 8d 4f d0 44 55 c5 bf
       -0.09733382775263692 -0.16666469737456682
000320 00 68 67 83 db 2a 7d bf 3e 88 69 88 fc 59 93 bf
       -0.007120950197043285 -0.018897958589498602
000330 d4 7c b8 c9 e9 5f 7d bf 89 bc 1c a3 74 07 b5 bf
       -0.007171548113120003 -0.08214501363976202
000340 3c e1 d4 0c dc 9b 7c bf a5 b3 79 01 ec 16 9c bf
       -0.00698457676963243 -0.02743119009976493
000350 c7 4b a7 3a f2 f4 96 bf e1 4a 09 3b 36 21 64 bf
       -0.02241877062790445 -0.0024572428886043694
000360 aa ad 02 ca 5b 3d b0 bf e3 6c c3 ad 5f 8f c5 bf
       -0.06343625718971305 -0.16843791946926165
000370 99 cf 90 fe 17 ee a5 3f 61 39 48 59 e5 db bd bf
       0.04283213598719655 -0.11663659505595582

weight f8 [112, 16]
000000 61 6b 1a 32 88 0a 9d 3f 27 cf d3 6a da a1 a4 3f
       0.028360488946968746 0.04029734186215555
000010 c2 04 71 40 72 ba a8 3f b1 8f 02 6f 48 0c a7 3f
       0.048297472349540196 0.04501558642485238
000020 7c 14 88 a0 ba 39 a9 3f 8e c1 45 d0 0e f0 a5 3f
       0.04926856240857888 0.04284712116612176
000030 cd ce 5a 0c cf f4 99 3f e6 fa 13 12 84 39 a6 3f
       0.025347933892318864 0.043407561499398103
000040 d1 a8 ab bf 4f 41 a8 3f 35 c5 ef a7 32 4b a4 3f
       0.04737328734138802 0.03963621425635681
000050 cf 64 a9 6e 0a 89 ab 3f a0 ea bb 2d 76 5b ad 3f
       0.0537799129567219 0.05733842190052951
000060 7c e4 f8 40 8b a8 a1 3f 43 7b a5 f1 74 4d ae 3f
       0.0344890133678257 0.05918469857964805
000070 db c0 49 66 c7 63 a8 3f fc 79 13 d5 76 11 a2 3f
       0.047636252628650864 0.035289491186393435
000080 6e ee 0e e0 bb 6c a2 3f f1 d8 1c 9f 0a bf a8 3f
       0.03598582372748359 0.04833253090184709
000090 9a 14 da d4 f3 5b b1 3f e5 f8 fb b5 77 aa ae 3f
       0.06780933329180741 0.0598943147324336
0000a0 78 94 19 e8 7c 17 aa 3f 37 e5 ec c1 7d e0 af 3f
       0.050960448582181905 0.06225960724118312
0000b0 a9 a2 76 bc 52 31 ab 3f 3b a4 d9 be 1c 49 aa 3f
       0.053110681062496674 0.05133905248369116
0000c0 db e7 27 ba 1e b0 aa 3f 0d 2d 0d 00 d9 27 a2 3f
       0.052124939178568495 0.03546026349666862
0000d0 d4 c5 c6 f0 a2 0e b1 3f c8 98 09 6a 97 af a0 3f
       0.06662958505946587 0.032589656538037526
0000e0 d8 f5 6f 5c 03 da a7 3f 9b a6 75 6a 8b 8c a6 3f
       0.04658518317590293 0.044041020150712394
0000f0 e0 e4 00 62 6b 44 aa 3f 27 03 33 5f 31 bc a8 3f
       0.051303249085728586 0.048310797568325285
000100 6c b9 40 7d f4 06 a5 3f cb ea fc 10 23 90 a2 3f
       0.04106868771519853 0.03625592787144213
000110 3e 03 ac 29 6b 6f a7 3f 86 fc 20 12 44 5c a2 3f
       0.04577193149271473 0.03586018296527364
000120 87 a9 4f 81 b5 b7 a1 3f 9e f2 53 17 5a 39 a7 3f
       0.03460471347337362 0.04535943541302355
000130 f5 2a f6 69 57 df a8 3f ca cf 16 f4 7f 0a a9 3f
       0.04857896011806943 0.04890823225596781
000140 a7 39 cd 7c 2f d3 a2 3f a7 a0 f8 ad 65 84 a9 3f
       0.036767467484071496 0.04983823536559955
000150 e4 23 ae 7e 72 94 a0 3f dc 53 bd 28 54 81 a7 3f
       0.03238256260289754 0.0459085750323209
000160 69 0d eb f5 88 37 a9 3f ab 81 d0 a3 cb 1f 9a 3f
       0.04925182344370677 0.025511915086214348
000170 1e 89 24 c4 89 27 ab 3f ec cd f7 33 44 d0 a3 3f
       0.053036027138903416 0.03869832167029216
000180 9d e4 b4 f0 e1 17 a8 3f e9 4f bd 98 24 67 ab 3f
       0.04705720961869384 0.05352129330154282
000190 db 97 19 8b 55 35 a7 3f a0 46 86 61 62 85 99 3f
       0.04532878230092737 0.02492288322679903
0001a0 9d a2 5a 65 36 b8 a4 3f 25 5a ca 28 7c e5 a6 3f
       0.04046792971832256 0.04471958158426429
0001b0 11 db 24 20 fa 1a a4 3f 42 57 31 06 0f b4 a4 3f
       0.03926831858045977 0.04043623877139037
0001c0 ec 60 73 c8 3a 31 a8 3f 9c 33 af 4e f0 5f a2 3f
       0.047250592202262215 0.03588820419790936
0001d0 4c bb 60 7b f1 c8 a5 3f d0 07 0a d3 b2 76 a9 3f
       0.04254870062901847 0.04973372293626677
0001e0 4c d7 a7 95 7c 1b 98 3f 69 ed 74 55 e7 6b a6 3f
       0.023542353281264014 0.04379198949979008
0001f0 cf d9 a5 0a aa cd a6 3f ce 5f ef b0 58 37 a6 3f
       0.044537843513285595 0.04339100990154031
000200 d5 00 78 66 ff c8 a0 3f 73 c9 f4 59 14 15 a0 3f
       0.03278349042739285 0.031410823803883846
000210 14 f0 20 23 41 b0 a3 3f 23 74 f0 33 b9 c6 ab 3f
       0.038454089677969844 0.0542505145933563
000220 4e 85 ac e6 b6 a2 b0 3f 6d 51 5c eb f4 c3 ab 3f
       0.06498282558142884 0.054229406099838375
000230 23 3f 5e cf cf 42 a3 3f a5 c9 21 d6 6a 68 a7 3f
       0.037619108260626775 0.04571851600566682
000240 5f 90 5e cf d1 7f ad 3f 71 00 b0 ff 11 c6 a0 3f
       0.0576158109318221 0.032761156522611475
000250 a1 ab 6c 8e 9e 9a a4 3f 79 89 48 0e 3f f9 a9 3f
       0.04024215210514304 0.05072972344739219
000260 4c e8 79 8e ab 0d a5 3f 3e 4b 16 85 03 76 9a 3f
       0.04111991991244732 0.025840811727515282
000270 82 e6 28 9c a9 40 9c 3f b0 d5 be ff 04 a1 a9 3f
       0.027590418010936542 0.05005660650150945
000280 03 d6 dc 09 b0 e0 a1 3f 74 4f 16 bd 33 42 aa 3f
       0.03491735573190271 0.05128633197014568
000290 fe 4f ff 2b 42 cd 90 3f 13 80 0d dd 74 2c a7 3f
       0.016407998977072673 0.04526105116269732
0002a0 6f fa 16 ac ea 6f a2 3f 16 43 9d e4 75 de a8 3f
       0.036010106570292126 0.04857223907186474
0002b0 e9 3f 51 ae 1f 5c a5 3f 63 50 d1 bf 02 b4 a2 3f
       0.04171847346208308 0.036529622950781236
0002c0 43 07 8f d6 44 8c 9d 3f eb ae d2 40 b1 12 a4 3f
       0.028855395885109002 0.03920511165901338
0002d0 23 6e d6 16 8d f8 a5 3f c9 2c 1b 56 b5 f3 a5 3f
       0.04291191962985532 0.04287497211552133
0002e0 dd 3a dc 93 ac c1 a5 3f 77 b0 7d df 1f d6 9a 3f
       0.04249324135718322 0.026207445159727585
0002f0 bb 9c a8 47 be 19 a2 3f e5 79 54 ce 4e dc a3 3f
       0.035352655646698726 0.03879019039799284
000300 20 fb 7c ff 31 2e ac 3f 41 1a 16 bc 16 f4 ab 3f
       0.05503994220497632 0.05459662481284911
000310 e9 b2 c6 77 a2 35 ae 3f 6b 21 df ba 3a ba 9b 3f
       0.05900294983016414 0.027077596336114434
000320 65 5e a0 17 d9 68 a0 3f e6 78 43 9a 21 c3 9e 3f
       0.032049926885687786 0.03004124168443747
000330 71 61 8d d5 52 1d 9c 3f 14 5f 57 fa fc 8b a3 3f
       0.02745561054629903 0.03817740016864782
000340 62 7b d7 50 93 a6 94 3f c3 22 62 b6 44 c9 a2 3f
       0.020166684922397045 0.036691806090919175
000350 6b 7a 18 0b 56 8e 9c 3f f3 8f f3 e1 d4 02 a7 3f
       0.027886719157431388 0.044943478185615414
000360 7e e9 50 aa 0a cc a1 3f 70 0e 5d d0 f9 f2 a7 3f
       0.03475983933499814 0.046775633511541126
000370 3e 8e c0 08 56 f3 92 3f 71 fc f9 93 ed ec a2 3f
       0.018506378444852915 0.03696386748651371
000380 07 35 4d db f6 6e a0 3f 6d b0 38 dc 52 b3 a7 3f
       0.032096590299810095 0.04629000604867959
000390 9c ed 48 66 4e 14 a8 3f bc 65 9f 03 bf 11 a7 3f
       0.047029924379297955 0.04505726737233881
0003a0 27 db cd 7b a0 98 a5 3f cb 5c ef cc db 99 a5 3f
       0.042180075753029116 0.04218947292945926
0003b0 ea 4e a1 56 8e 8a a6 3f e2 1c fc 45 43 da a1 3f
       0.04402584846016373 0.03486833791071732
0003c0 c9 c5 ff 05 04 bb a4 3f 33 3f 94 ac 5e 92 a7 3f
       0.04048931668502182 0.04603858811071717
0003d0 ea 4e cc a7 75 f3 a2 3f 3f a9 e6 35 6a 8e a6 3f
       0.037013699277080495 0.044055289344515185
0003e0 31 c3 cb 88 48 a5 a9 3f ba b5 78 3b 4b 58 a8 3f
       0.050089136790012374 0.04754862881632556
0003f0 5c ee 52 1d 8c 7f a5 3f d3 cd 66 c0 c0 e4 a0 3f
       0.041988733844360054 0.032995246397515075
000400 2c 60 4b bb aa 0f a7 3f 51 ec c1 12 5a 3e ab 3f
       0.04504140411671673 0.053210081853614206
000410 34 ae bf 7f 68 31 ae 3f ed b0 3c 72 98 d8 a5 3f
       0.05897070464547163 0.04266811747069874
000420 ec c3 07 b5 29 64 ac 3f 8d 03 c2 3d 08 b7 ac 3f
       0.055451682423047405 0.05608392480735978
000430 1f 2c 49 41 bc 9b 9e 3f cd ed 44 24 a2 23 b1 3f
       0.029890958294611743 0.06694997201423476
000440 b6 34 13 b6 b4 12 a3 3f 3c cd d7 8a 62 e2 a7 3f
       0.03725208971591469 0.046649054955106156
000450 90 26 94 9d 15 d8 a2 3f 02 e5 8e ca 59 29 a6 3f
       0.03680484341209678 0.04328423116334969
000460 a1 fc b2 d4 a1 1b a8 3f 39 29 2b 27 6c 52 98 3f
       0.047085816587690184 0.023751916781102642
000470 c9 78 f9 22 00 48 a3 3f fa fe dd 1b 77 84 ab 3f
       0.03765869547781759 0.05374500479865492
000480 81 42 1f a9 bd 16 95 3f 81 4e 17 65 5b 1b af 3f
       0.020594562003511733 0.060755592432227175
000490 fd b2 eb 81 e8 eb a0 3f 91 40 27 48 75 da a8 3f
       0.033049836978397786 0.04854170327928487
0004a0 89 2f 68 25 13 2d a6 3f f3 aa a5 7f 71 46 a6 3f
       0.04331264335277669 0.04350619013970016
0004b0 8e a7 18 56 b7 a6 ae 3f 63 e4 18 90 93 ee a2 3f
       0.0598656933401137 0.03697644361495447
0004c0 28 ce d8 24 f1 5d 97 3f ee 95 6f 51 05 28 ab 3f
       0.022819297670322453 0.05303970927324629
0004d0 d5 eb 4c 1a 45 5e a9 3f 31 26 ec 30 71 6e 92 3f
       0.04954734750796034 0.017999428378095487
0004e0 74 23 d0 5b 8d db a4 3f 4c e5 e3 a2 63 35 a3 3f
       0.04073755021824513 0.03751670230298973
0004f0 fa 27 d4 c6 5d e9 a0 3f 24 74 fd 4a 06 91 a0 3f
       0.03303044368847448 0.03235644975095678
000500 d0 2c 22 52 4a 99 a8 3f 91 be 76 64 49 ca a8 3f
       0.04804451229673534 0.048418324960377686
000510 eb 6a 6c 87 87 4a a4 3f fd 7b 6a 11 f2 59 a1 3f
       0.039631114274205924 0.03388935530278301
000520 32 e9 18 e4 12 9c ac 3f e7 ae 77 06 bf ea a7 3f
       0.05587824854269953 0.046712846316806104
000530 ab 4a b7 31 96 6b a2 3f 4f 3f 58 8d 4b 64 a7 3f
       0.035977071350904076 0.04568706608199468
000540 d6 05 05 e2 8e 71 a3 3f 55 3e d2 0e 52 d8 a1 3f
       0.03797575482395714 0.034853519734607964
000550 10 c3 46 0b b5 a4 a5 3f c4 49 fa 2b a0 c1 ab 3f
       0.04227224123622453 0.05421162163578999
000560 71 9a 67 75 e2 0b a5 3f 8b ac 68 6b dd 6a a1 3f
       0.04110629733240934 0.03401843963759984
000570 db da ee 04 24 2e a4 3f f1 d2 db 7c 5b 56 a8 3f
       0.03941452560632338 0.047533854476489064
000580 bc 6e eb fc 4c fe 9f 3f 0e ab 3e fa e0 15 a8 3f
       0.031243517815581198 0.04704192213769974
000590 40 e0 6c 03 3b 68 a1 3f 6e e7 5c 49 b9 2d a9 3f
       0.0339983407670279 0.049176969724114325
0005a0 cf 5c e1 4e 20 0a a0 3f 47 a2 98 27 03 a3 a8 3f
       0.031327256802507024 0.048118685325168324
0005b0 16 80 52 32 63 c9 9f 3f 42 ba 24 aa bd 89 a4 3f
       0.031041669794490266 0.040113379497019
0005c0 3a 7b 8b 76 69 1a 9d 3f 07 52 ea 7b 56 fa 98 3f
       0.02842106615104998 0.024392463029089508
0005d0 71 ca ab 1b 1e 65 a0 3f 10 f3 d6 4a c4 3a 9d 3f
       0.032021466138662975 0.028544489925241
0005e0 1d 06 49 2f 20 b6 aa 3f 67 78 31 35 dc 8e a5 3f
       0.05217075898373145 0.04210556172687135
0005f0 f6 e5 04 fd 1d 11 a5 3f ea a7 b1 b4 91 2d a7 3f
       0.0411462184296844 0.04526954012619895
000600 03 19 47 b6 b9 9a a4 3f c7 f6 37 53 a5 7a a7 3f
       0.04024296140737429 0.04585758820392765
000610 35 ae 6a ed 93 4e a5 3f 99 bd fa cd f8 88 af 3f
       0.04161512635377244 0.061591887611366754
000620 02 2d fa 44 20 d4 a8 3f b4 68 20 af c8 1d a8 3f
       0.04849339334495008 0.047102233293303014
000630 4e 74 b1 db 71 b7 9d 3f c5 1c 07 ba d2 df 98 3f
       0.02902009871865046 0.02429131756232718
000640 d0 98 1a 1f 0d 45 a1 3f a1 9c 40 82 fd 35 a7 3f
       0.03372994427381715 0.045333788061094234
000650 fe 46 59 ec 57 fc a3 3f c6 c3 11 ae 8e c3 a3 3f
       0.0390346027385373 0.03860135912771727
000660 61 56 ac 1f f5 eb aa 3f 4c 4f 7c f0 39 66 a4 3f
       0.052581462971073696 0.03984242497077037
000670 a2 94 d5 d1 6a 22 a6 3f 2d b4 40 f9 b1 94 a7 3f
       0.04323133288816307 0.046056329418526644
000680 7d 02 3f 62 e4 19 a3 3f f3 41 f1 20 66 06 a9 3f
       0.03730691623014069 0.048876945039072604
000690 11 81 21 e1 a1 06 a7 3f 80 32 a3 2e a5 2b a4 3f
       0.04497247574977526 0.03939548677735605
0006a0 c1 3f 33 5a 99 0a a8 3f 8f 4f 71 3d 38 40 a3 3f
       0.046955864201322146 0.03759933233291612
0006b0 0a 9a 67 84 f9 d4 a5 3f 97 3e 54 55 16 f9 a9 3f
       0.04264049283283462 0.050728509822986094
0006c0 49 3b c3 64 e5 ab a5 3f 13 ae f7 ad db c4 97 3f
       0.04232708792698376 0.023211891644605197
0006d0 a4 f0 aa 05 db a9 a4 3f ea 2c f8 26 8d c6 a3 3f
       0.04035839504419528 0.03862420178128352
0006e0 61 db 57 26 0d dc ab 3f 53 3b 02 92 65 7c 9b 3f
       0.054413233690800984 0.02684172347704401
0006f0 39 e4 bd a6 1a 96 a0 3f 2a c5 13 5d b3 27 a1 3f
       0.03239520345136566 0.03350601683804151
000700 e2 9d 3a 55 c3 41 ac 3f fb 3d 0d 78 2c f7 a2 3f
       0.05518923201935501 0.03704203572726424
000710 f7 3f 05 95 02 4e 9b 3f 19 8d 86 cd 06 a0 a0 3f
       0.026664772363176294 0.032470905865262085
000720 e6 0a df b7 ce 56 a1 3f de e4 e0 d2 82 8a a2 3f
       0.03386541361353128 0.03621300529671044
000730 83 6c b2 85 7e d2 a1 3f ce 06 ca 65 7b 67 a1 3f
       0.03480906850855894 0.033992630172190993
000740 39 76 9a 9f a8 10 9e 3f 08 03 2d bc 73 86 9c 3f
       0.0293604228414692 0.027856644020405802
000750 af 45 b1 73 07 35 a7 3f 8c 9c 58 ce 70 64 a0 3f
       0.04532645499478904 0.03201630133508457
000760 5b cb 7c d4 4c 5d a6 3f b2 a0 9a cb 1f 5c a4 3f
       0.043680573404705846 0.039765351871495894
000770 4a 91 bd 8b c7 c3 9e 3f 1c 24 54 0a 8b d6 a2 3f
       0.030043714431841985 0.03679308415491553
000780 73 da 2c ad 21 2f a9 3f 0f 2e ef 0d c6 b3 a5 3f
       0.04918771017985515 0.04238718910309213
000790 44 cb f1 b6 ee 9e 92 3f 78 bd e7 31 97 25 a5 3f
       0.018184404293104764 0.041302418558070764
0007a0 19 c1 bf ac 20 e6 a7 3f 41 4f b9 f2 64 6d aa 3f
       0.046677609527139015 0.051615862492921945
0007b0 13 02 ca c3 3e 08 a6 3f f8 35 25 8e c4 8f a6 3f
       0.04303165569308844 0.04406561122105396
0007c0 07 ab cb 0a 70 3e a9 3f d2 2a fe 35 ab fa ab 3f
       0.04930448657781566 0.054646826115534744
0007d0 ed 72 e4 3f e1 1a a2 3f fc f3 f0 45 00 98 a5 3f
       0.03536132721840155 0.042175301110979974
0007e0 9e fe 8a 4c 74 da a4 3f ae 25 b1 b2 01 35 a2 3f
       0.04072917398798136 0.03556065851496314
0007f0 45 9c 00 4f 6b 1c a5 3f a6 1c 22 56 e8 6b aa 3f
       0.0412324460924585 0.05160451938086767

bias f8 [112]
000000 97 2b 49 5c 1c 72 c0 3f 6a 9c d6 11 ae 61 c1 3f
       0.1284823847402918 0.13579345580112384
000010 f4 bd 49 c3 37 77 b7 3f 5c cf 8f a1 f6 3b c0 3f
       0.09166286962294362 0.1268299378276606
000020 f9 94 96 a4 fc 6e b9 3f ee 94 f7 5e 67 fd b8 3f
       0.09934977548853742 0.09761663502247916
000030 4f aa 1f 86 a7 b1 be 3f 5e 63 0e 1b 1c 68 c0 3f
       0.11989829086784563 0.12817717858413408
000040 c2 46 e6 d5 f6 1c ba 3f 37 02 a9 e6 63 13 bf 3f
       0.10200445863872701 0.12138962155678078
000050 40 c9 35 c5 e1 6f b9 3f 4a 8f 23 5d 36 53 c0 3f
       0.09936343254756697 0.12753943965719322
000060 7a 11 40 8a 28 0c b3 3f ac e9 f4 58 7b 9e ba 3f
       0.07440427184343959 0.10398074075502589
000070 6b a4 99 af a0 10 b4 3f ef 72 b0 ab 41 2a c0 3f
       0.07837871825326352 0.12628956683410972
000080 01 40 b2 e8 17 a6 ac 3f 5e d3 41 17 cf 3a a8 3f
       0.0559546920350158 0.047323676671033196
000090 88 ff fa 62 de 46 a8 3f c3 f2 78 9a 0b b3 ae 3f
       0.04741568525559986 0.05995975742960049
0000a0 17 c8 ce 1d e3 59 a6 3f c9 bf 97 ce eb bd ab 3f
       0.043654534710540975 0.054183358162731184
0000b0 21 aa 54 64 c3 7c a4 3f e5 b7 b0 77 a7 5a a1 3f
       0.04001436805477377 0.03389476142943674
0000c0 b2 ee 42 54 d9 fa ae 3f 6a 44 d5 38 af e4 a8 3f
       0.060507575546095 0.04861972397578358
0000d0 fe 97 98 8b 13 82 ab 3f a4 a3 d2 94 70 11 b0 3f
       0.05372677878430919 0.06276610978478786
0000e0 a7 f8 03 e8 67 35 a6 3f f3 45 46 0e 40 11 a7 3f
       0.043376204559522784 0.04505348371743514
0000f0 d6 5f 0a 05 2e 18 af 3f 46 fe a0 5e 84 bd ae 3f
       0.060731351962374155 0.060039650489212934
000100 34 da 32 46 7c f5 b2 3f 48 e3 0a db c5 68 b6 3f
       0.07405831064065965 0.08753620717733412
000110 43 2f 3f 16 b9 2b b6 3f 1a a4 4e ea ab 8b b1 3f
       0.08660465996871118 0.0685374686278383
000120 df bb c4 4f 81 c4 b3 3f 8d a7 fb 78 b6 ad b1 3f
       0.07721718022797529 0.06905689672171729
000130 5f 31 e3 63 b3 75 b3 3f 54 04 02 d4 97 06 b1 3f
       0.07601472080859172 0.0665068523976669
000140 8c 38 e7 53 a1 50 b2 3f 7c 6b b3 61 2f 67 b3 3f
       0.07154281900804643 0.07579322943949579
000150 fd bc dd 59 34 71 b2 3f f3 a6 ae 8d 46 9b b7 3f
       0.07203986352918786 0.09221306761778773
000160 b6 95 11 91 1c 0b b7 3f 75 6d f7 3c 5b 1e a4 3f
       0.09001329938617783 0.03929410094471112
000170 a0 59 84 4f 3d b7 b2 3f e2 df d0 9b 2b dd b2 3f
       0.07310851279576136 0.0736872916612579
000180 3c 0f ac 51 f2 84 b4 3f a4 84 42 69 3d 3e b3 3f
       0.08015360349605499 0.07516845531292177
000190 8e e7 ff 84 bd 50 b2 3f 75 bd 6e ad 3a be ae 3f
       0.07154449936925131 0.060045083685845414
0001a0 7f f4 a9 1e ff 98 b2 3f 65 7a ff c0 69 1d b4 3f
       0.07264704226141026 0.07857380830635348
0001b0 52 2f f3 c4 cb 3a a4 3f ec 19 d7 5b 46 46 b0 3f
       0.039511077682247944 0.0635723089427313
0001c0 04 20 c7 39 7c 55 b0 3f ce 05 e2 07 6a 78 b1 3f
       0.06380440149871452 0.06824362461522712
0001d0 d6 b3 99 b8 12 bf b0 3f 09 cc b7 54 c0 48 b2 3f
       0.06541554457517348 0.07142259662923335
0001e0 ae c2 d1 95 75 9e ab 3f f9 14 db 99 35 2e af 3f
       0.05394332364892783 0.06089942458269521
0001f0 2f 36 70 2f 4e 25 b0 3f 86 2b 68 72 df f4 b3 3f
       0.06306923540270114 0.07795521300447036
000200 72 de 55 81 6c 0d b4 3f 3a c6 85 ab c6 4c b5 3f
       0.07832983167269861 0.08320275962412263
000210 ca 04 df 76 4c 32 a8 3f 89 50 ce 4d cf 84 b2 3f
       0.04725874854148911 0.0723390164333201
000220 64 7a f5 96 82 ae a8 3f 2a ce 84 5f 17 7b ad 3f
       0.048206406524276685 0.05757973710060711
000230 5f 21 03 c8 09 ff b0 3f e7 29 4b b1 07 1f b3 3f
       0.06639157422171625 0.07469223097283582
000240 cb 92 52 f4 7d 58 ae 3f c3 96 6b 06 6e 16 b3 3f
       0.05926889045193703 0.0745610013651357
000250 de 3b 8f 99 2d 00 b5 3f ec ba 45 a3 cb 23 b5 3f
       0.0820339679623738 0.08257744537489103
000260 8c 75 d1 65 f0 20 ad 3f 6b 74 25 ee fa 1c b2 3f
       0.05689193003557155 0.07075470270270194
000270 63 60 c5 9b d2 f6 a8 3f 29 5a 47 26 4f 64 af 3f
       0.048758107676520245 0.061312173292823076
000280 90 39 3d 43 46 65 c9 3f 10 e6 8c ab 04 01 c8 3f
       0.19840315135156716 0.18753107429965654
000290 b5 5d 57 f6 ac f9 c6 3f cd cd 1b 17 1a 59 c5 3f
       0.17949449566252232 0.16678167465543794
0002a0 d5 10 cb e2 97 8a c7 3f de 21 0e c6 2a a0 c7 3f
       0.18391703199279755 0.1845754115168025
0002b0 76 26 86 5b a0 40 c7 3f 70 65 8b 6e ca 28 c8 3f
       0.18165974110552313 0.18874483487779115
0002c0 e3 45 20 eb 35 9a c9 3f 87 cb 97 39 9a 80 c5 3f
       0.20001863461270294 0.16798713504939775
0002d0 35 22 86 b9 64 79 c5 3f b8 a4 5c 4b fe b3 c5 3f
       0.16776713427340587 0.16955546073703487
0002e0 a1 02 05 33 be 36 c8 3f a2 6a 59 f9 d3 32 c7 3f
       0.18917062274160393 0.18123864817865348
0002f0 19 f2 23 c5 04 a1 c8 3f 03 b4 d1 14 ec 85 c8 3f
       0.19241389871594164 0.19158698097763258
000300 07 d8 6d 5a d0 9a b4 bf bf 93 4f 83 9a be 93 bf
       -0.08048727233639862 -0.019281782402589927
000310 7c f8 fd e2 9a 7d b3 bf 5f 8d ef da c0 88 c6 bf
       -0.07613533059881833 -0.17604838075849735
000320 f8 d9 d9 58 2b 96 97 bf 41 10 d3 60 77 76 82 bf
       -0.02303378801158293 -0.009015019075725774
000330 3d 0e 1e b9 5a 69 57 3f 89 bc 1c 44 f8 f7 b4 bf
       0.0014289270370405748 -0.08190871870896123
000340 30 9c 9a 61 9e 0a a9 bf a5 b3 79 99 51 15 95 bf
       -0.04890913907484451 -0.020589137070078718
000350 cc a5 53 d9 59 cd a1 bf 84 29 61 7f 08 ad 95 bf
       -0.034769828585762136 -0.02116788175070773
000360 5a 5b 05 44 de 77 a3 bf e1 6c 43 e1 9a 47 c5 bf
       -0.03802389698346671 -0.16624771117390139
000370 1c 9f 21 89 ab b6 9d 3f 66 39 90 6c 8b c5 ba bf
       0.029017143483002092 -0.10457679176781695

weight f8 [3, 16]
000000 c8 5b 7f 4d 1f ad ce bf 8b 38 7a 69 9c d1 cd bf
       -0.239658272591184 -0.23295931959404856
000010 a9 1f 90 e4 16 f7 cf bf 91 d0 08 9f 0e d9 ce bf
       -0.24972807083417806 -0.24099905743935726
000020 79 94 85 cc 97 d1 cf bf a5 67 3b 98 f7 0e cf bf
       -0.24858376966873033 -0.24264426167684153
000030 a9 84 c8 98 85 b4 cd bf 68 9e 4b 19 67 e5 cc bf
       -0.2320715900432664 -0.22575081572653066
000040 41 fb a3 46 b9 fb cd bf 92 05 c9 08 57 4d ce bf
       -0.23424449872251255 -0.23673522881476267
000050 a9 ef be 15 50 bf d0 bf 01 34 6c 52 66 d2 ce bf
       -0.26167680858247394 -0.2407958891348301
000060 f0 c6 b1 a1 e6 74 cf bf b0 c0 b6 e0 4b 8e ce bf
       -0.2457550324939386 -0.23871754143101986
000070 9f 0e 7e 4a a1 cf cd bf f8 50 06 86 94 0d d0 bf
       -0.2328988660557245 -0.25082886780116054
000080 cb ab 96 63 ef 76 cd bf 03 97 34 11 2d 2a ce bf
       -0.23019211161348915 -0.23566211071118212
000090 ed de 6f 8e d0 52 cf bf e2 d5 35 be 34 ad ce bf
       -0.24471480326587117 -0.2396608284722524
0000a0 59 86 d9 b5 92 65 cd bf ea b8 c9 56 77 7b ce bf
       -0.22966226462726771 -0.23814288842863301
0000b0 d0 6e 8d 6c 85 03 d0 bf 76 74 75 03 ad 3f cf bf
       -0.2502149162371383 -0.2441307322396004
0000c0 27 fa 41 11 c0 c0 ce bf 94 ce 5a 13 b9 11 d0 bf
       -0.24025727121984738 -0.25108172311886645
0000d0 5c 74 52 3b 8d a2 cd bf 71 c4 70 3a f2 68 cf bf
       -0.23152318379007653 -0.24539020398654857
0000e0 08 95 50 b2 b2 17 ce bf 12 d2 99 bd f8 76 d0 bf
       -0.23509820658470226 -0.2572614528246798
0000f0 3c ff 60 e8 01 10 d0 bf 81 fd 25 4f e4 05 ce bf
       -0.2509770173382895 -0.23455480446498814
000100 68 24 3c 7b 72 11 cf bf f0 8f 4c e0 d8 d7 ce bf
       -0.24271994607287017 -0.24096213295081226
000110 29 b1 31 be 85 65 cf bf 48 1c ce 9e 4d 83 cf bf
       -0.24528571879216912 -0.24619455579906657
000120 00 ec 2c 5d b1 0f ce bf 78 0a 0c 99 22 fb cf bf
       -0.23485390710433762 -0.24985153649329894
000130 72 1b a1 3a d2 13 d0 bf 79 da 7d df 14 1b cf bf
       -0.25120979047317527 -0.2430139628665591
000140 32 44 84 ec 8f f4 ce bf f3 7b eb e6 a3 9c cd bf
       -0.24183844612756072 -0.23134278083213608
000150 dd 05 de 0a 53 ce ce bf 71 7b 7b 3b 6d db cf bf
       -0.2406715205252529 -0.2488838711205648
000160 65 98 dc d8 6f 86 d0 bf 23 08 c9 64 c6 2d d0 bf
       -0.2582053773679774 -0.25279388277351894
000170 12 ba d4 b5 98 db cf bf b6 04 2a 9a a1 fc cd bf
       -0.24888905409302758 -0.23427219417138695
