Retweet/RetweetNetsV3/TrainNet_ep2V2.pt (torch, 23465 bytes, 6 tensors)

scale f8 [3]
0	0x3fe53e6a8dec9f2c	0.6638691684683855
1	0x3fe53dd1b57406ec	0.6637962860115443
2	0x3fe5480d614ce61c	0.665045442619149

weight f8 [112, 3]
0	0x3fa97af34023a948	0.04976616056395017
1	0x3fc0dcba56181b6a	0.1317360802060777
2	0x3fa522471c8185c6	0.041277143697481075
3	0xbfc2017c77797dbc	-0.1406703551647136
4	0xbfba98fbaaca0698	-0.1038968364682894
5	0xbfa2ae08625d20e7	-0.03648401451806809
6	0xbfd52056d4fa230a	-0.3300988273481812
7	0xbfd1dd982f60e766	-0.2791500532799688
8	0xbfc2e6a474f002c3	-0.14766364774552274
9	0xbfd4e98bef004b84	-0.3267545541759136
10	0xbfd0d2e5849353d4	-0.26287210413766826
11	0xbfc3f76ac2af6885	-0.15598806863892292
12	0x3f95b35e61eb6534	0.021192049719364905
13	0x3fc64f41e49c04e2	0.17429374373026635
14	0x3fab5071b44fe521	0.053348115216019794
15	0xbfb39fdcbd0d778c	-0.07665805450002788
16	0xbfafcada1ab446f5	-0.06209451271037195
17	0xbfaa8a6b4da7cd77	-0.05183730433409555
18	0x3fb082c7726b7d37	0.06449553054288946
19	0x3fc4aaab5cff119e	0.1614584163745691
20	0x3fab8f3f1f15a500	0.053827259582996945
21	0xbfbf2fb281ffeaca	-0.12182155298061584
22	0xbfb98abf1f990593	-0.09977335473469955
23	0xbfa7372156949788	-0.045342485255147
24	0xbfa14af6224921ea	-0.033775035557997615
25	0xbf93a60f42d9fde4	-0.019188154654782866
26	0x3f1da2aae7768830	0.00011305015674748019
27	0xbf94d61ecc9b520f	-0.020348054159358194
28	0xbfa14105d3de08c7	-0.0336992093207456
29	0xbf706d8a20b41c09	-0.004010715066448797
30	0xbfc4f80a28eb36f4	-0.16381957052219998
31	0xbfac8930a6cb81e9	-0.05573417697974376
32	0xbf8652520348e0c3	-0.01089920113109633
33	0x3fa151d20502bd5a	0.033827365028055126
34	0x3fb6a1bdb2c305b8	0.0884054719381514
35	0x3f7b7b3c2cc21a97	0.006709322984653674
36	0xbfd15cb11d296792	-0.2712824616224846
37	0xbfcff3db5a53fd17	-0.2496294203810769
38	0xbfc4ebe429053f6c	-0.16344882967905094
39	0xbfd3b3a79259af9c	-0.30784024517083153
40	0xbfd20d2068f3d80c	-0.28205118417042807
41	0xbfc50069bc5774a1	-0.16407510467880562
42	0x3facf289ebd3a1c4	0.05653792384856929
43	0x3fb083457d98eec3	0.0645030433305989
44	0x3f9742e899e935b2	0.0227161735477261
45	0xbfd1377c8abab8e9	-0.2690116266993657
46	0xbfccb5c683f377a7	-0.2242973465244493
47	0xbfb4f59b5b478d94	-0.08187266329291837
48	0x3f9cc736bde65072	0.02810369047217915
49	0xbfaaf534d12a81f0	-0.052652025731052876
50	0xbfb66e61f8f23fff	-0.08762180640974292
51	0x3fa37d08c245d1f2	0.03806331035130829
52	0xbfc599789774fdcf	-0.16874606509553167
53	0xbfc108b7fa94f740	-0.13307857261127687
54	0x3f931c1bb9db6993	0.018661912173095607
55	0xbfc0cc3a2053cc98	-0.13123251512988499
56	0xbfb9ee130e324113	-0.10128897759046067
57	0x3fac4ad137b558df	0.055258310366001366
58	0xbfc17549bd998077	-0.13639184720796368
59	0xbfc03e8252be63af	-0.12690762558193344
60	0xbf94e0a0ec1bb903	-0.020388140116602404
61	0xbf64ebfcf91814a0	-0.0025539341811531974
62	0xbfad5cc71fb2e965	-0.05734846364926475
63	0x3fa06db20c3ea5c1	0.032086910242763896
64	0xbfbd9d843096a91c	-0.11568475900881875
65	0xbfc0d8d0687f2d1a	-0.13161664106733256
66	0x3f9e025421e3bff2	0.02930575806470865
67	0xbfa04b3f0f751d54	-0.03182408393564154
68	0xbfa5ae95d01ee42a	-0.04234760442290793
69	0x3fb4275899ff00af	0.07872537383718979
70	0xbfc896f59f404213	-0.19210691715171943
71	0xbfc2ea6ee5b534fa	-0.14777933326914888
72	0x3fa7fdc8d635c3c5	0.046858097218212026
73	0xbfc3db5b73cbed7b	-0.1551317515767144
74	0xbfb86dba120a2c3b	-0.0954242986719444
75	0x3fa826ef6deda6c0	0.04717205254457957
76	0xbfc80e65c4fd8d12	-0.18793937796281363
77	0xbfb121a8d9f32c66	-0.06691985436479939
78	0xbfa3d2a4548a36d4	-0.038716445274173644
79	0xbfb51755e147f868	-0.08238732099559487
80	0xbfb68f62a47e0180	-0.08812538638995271
81	0x3fa126eddd627de6	0.03350013091516839
82	0xbfbbc084e2c0d5c7	-0.10840635810821829
83	0xbfb70ad8b5f87520	-0.09000925486221378
84	0x3fa32395df5632e0	0.03738087035444493
85	0xbfbf448c2152ff83	-0.12213970006541612
86	0xbfc86db660edc8c4	-0.19084815724233384
87	0x3fac45a7eb515558	0.05521893260508176
88	0xbfc5c055f5dcedb4	-0.16993212227849386
89	0xbfbfffdd115fc3d4	-0.12499791788265152
90	0x3fac17010f27e7ff	0.05486300764091822
91	0xbfbd3dfe070a5142	-0.11422717735178359
92	0xbfb235a8d9d78685	-0.07113128012090371
93	0x3f9340a0fafbf733	0.018801226919996594
94	0xbfc2a92d49787910	-0.1457878693335677
95	0xbfc0090e794bc31a	-0.12527638361600496
96	0x3fb427ba33f8d78a	0.07873119133804898
97	0x3fae4bd052f70dea	0.05917216313130409
98	0x3fc344f3cee071d1	0.15054175950434837
99	0x3fb15596b04cc91b	0.06771222881505816
100	0x3fb4b317100df483	0.08085769788699974
101	0x3fc554932611455a	0.16664351805460847
102	0x3fb1b849a2c59ce7	0.06921825622486076
103	0x3fb11abd7ece5db5	0.06681427331783747
104	0x3fc19924eba1fae9	0.13748609071259146
105	0x3fb0c1b7f4daee61	0.06545591094885019
106	0x3fb2094dfbed766e	0.07045447731567275
107	0x3fc413b57ea54f4e	0.15685146983980264
108	0x3fada4f653879e3f	0.05789918679857608
109	0x3fb103be1a56b6fd	0.06646335738215821
110	0x3fc19bd473b82e3e	0.13756805086483043
111	0x3fa52bf5cb446a11	0.0413510141972503
112	0x3fb3dcba9dd7e109	0.07758680680843012
113	0x3fc218f18b2a2560	0.1413862161173638
114	0x3fb434c3e32c6124	0.07893013282990019
115	0x3faf985303ced713	0.06170901700481415
116	0x3fc3457640161ff0	0.15055730942935908
117	0x3fb307c5ccccde58	0.0743373513222364
118	0x3fac7f3d4d4cd68e	0.055658260046056104
119	0x3fc3aa06ed570249	0.1536263140569807
120	0x3fb3054c9406958c	0.07429960836323896
121	0x3fb234f963cf8112	0.07112082182675675
122	0x3fc54b1528c11956	0.16635384073215204
123	0x3fa633e191764e96	0.04336457157765243
124	0x3fb34458c32e2bb6	0.0752616383089578
125	0x3fc31ab1e851c53f	0.1492521652576588
126	0x3fb00c36c2193f3d	0.06268636931167477
127	0x3faa35fa901923d7	0.051193075265991865
128	0x3fc1507b2bcbcb35	0.13526858938674882
129	0x3fa9b01922893541	0.05017164751607562
130	0x3faaa92ea07f38cf	0.0520720072669164
131	0x3fbe185e0fcd95c8	0.11755931745354709
132	0x3fb02fd2665fedbc	0.06322970389731258
133	0x3fa8fe9cedd261f6	0.04881754305933221
134	0x3fc1fd952409f636	0.14055122623169475
135	0x3fb0361de2a0f911	0.06332575591020297
136	0x3fafd62290b91d2a	0.06218059555663509
137	0x3fc0d54f817ce599	0.13150972197199165
138	0x3fad7641da40f83b	0.057542856113727635
139	0x3fb31d7086f2b721	0.07466796202308192
140	0x3fc589e6ae308cfc	0.16827090745309892
141	0x3fb416febd920f49	0.07847587707698013
142	0x3fb552ec934ed466	0.08329657169709179
143	0x3fc42e443479899f	0.15766193926090197
144	0x3fb215b04a6070fe	0.07064344230497352
145	0x3fb1aa61458c656e	0.06900604198417223
146	0x3fa847bb33bc7009	0.04742226606887818
147	0x3fb0368c506a1836	0.0633323379825875
148	0x3fb1fc457c2c47f7	0.07025560647551275
149	0x3fa7df01bb5024b7	0.046623281588901326
150	0x3fb60acd27687c4e	0.08610231601822813
151	0x3fb17cc71f68fab4	0.06831020848128838
152	0x3fac2fd658ff6ba7	0.05505246960065984
153	0x3fb08f15d5987a45	0.06468330826508246
154	0x3fa5658bb69664cd	0.04179035762644787
155	0x3fb0aaca761e2600	0.06510606178030542
156	0x3fafeac2a86ce28a	0.06233795457814491
157	0x3fb0cf0eb4612ceb	0.06565944579886078
158	0x3fac017b3152e45f	0.05469880082223066
159	0x3fb3d294f4b6590a	0.07743197416707318
160	0x3fb032ba13f8ee86	0.06327403056723754
161	0x3fae2f00e3d08fa6	0.058952358064089425
162	0x3fb57623145e500f	0.08383387801433194
163	0x3fb235adc1d726ab	0.0711315725558516
164	0x3faf1b254f2c2281	0.060753980555152694
165	0x3fb21cb81712e08d	0.07075071872066215
166	0x3fb2aadb4897b268	0.07291956445960468
167	0x3fb34d5f49cc589e	0.0753993563815549
168	0x3fb0ef7fcb4257cd	0.06615446770078322
169	0x3fb10ff1072b54fc	0.06664949822455307
170	0x3fb38622bc93083d	0.07626549819818336
171	0x3fb31b651eb81568	0.0746367645261522
172	0x3fa6b8b1d0f321f1	0.04437785792976346
173	0x3fb00912b5b79582	0.06263844429448365
174	0x3fb1e665e0ce3834	0.06992184389511708
175	0x3fb2b7521dd449ee	0.07310975292447328
176	0x3fb1b8a528eca20a	0.06922371148233011
177	0x3fb179f5f75aa977	0.06826722420615804
178	0x3fadd890e5914de1	0.05829289247835923
179	0x3fad904031254058	0.05774117088242353
180	0x3fa4412c76722157	0.039559735735624706
181	0x3faa55cb9e2aaf98	0.05143581681963311
182	0x3fae86958faa33a6	0.059620546138013084
183	0x3face14925b7b47f	0.05640629372997185
184	0x3fa7ca441c306c6e	0.04646504253488436
185	0x3fadbb0c873e7418	0.05806769514968141
186	0x3faa57ee45465549	0.05145210834158804
187	0x3fb2450b688423f1	0.07136603643097296
188	0x3faa4feb1cdcbe03	0.051390979073740815
189	0x3fb2561aa565d07d	0.07162634408979503
190	0x3fb3fd8b9ca95ea8	0.07808754515405758
191	0x3fac355d87160f9e	0.055094645252238936
192	0x3fb0b4173a687cdc	0.0652479665372882
193	0x3fafa3cc7abf5b5c	0.061796560272049134
194	0x3fc0d5ae90fbae78	0.13152105407003822
195	0x3fb522930224e9d2	0.08255881121014078
196	0x3fae7ccd639c98f2	0.05954591599429361
197	0x3fc31fb4ed323533	0.1494051130470467
198	0x3fb3028ad3acf802	0.074257542303684
199	0x3fb10834c7d03bf4	0.0665314662767143
200	0x3fc089d36f2edc5a	0.1292061131368623
201	0x3faad5bc7b53fd9e	0.052411928229044266
202	0x3fb1fc1b1af79f7f	0.0702530804479675
203	0x3fc3ec249e5feba0	0.15564401372088543
204	0x3fb22f3615759864	0.07103288673315117
205	0x3faf284a99cf7b34	0.06085427405900248
206	0x3fc19fff9fe204b5	0.13769526774198018
207	0x3fb0c38950d9af17	0.06548364852795562
208	0x3fad807f6ab1eb95	0.05762098481587611
209	0x3fc3dbb5e7e24150	0.15514253447009674
210	0x3faead8ca9ec0ea3	0.05991782736057629
211	0x3fb16035a040729b	0.0678742901076909
212	0x3fc196f6f58524a5	0.13741957653318085
213	0x3fae3d71c679c6c5	0.059062533834447296
214	0x3fad7996768556ef	0.0575682658842832
215	0x3fc478df3891ecad	0.15993871938903706
216	0x3fae959081bcef1e	0.05973483642307385
217	0x3fb30ed13eb33360	0.07444484501611504
218	0x3fc298ea6195fd01	0.14529161229072687
219	0x3fb162029e0b133a	0.067901767334729
220	0x3fb13975a49e37cf	0.06728301304812521
221	0x3fc4ddca73d12d08	0.16301851897365105
222	0x3faa074135bb4ade	0.05083659916785675
223	0x3facad4968f58a44	0.05600957304229273
224	0x3fc20f6d9e54ea5d	0.1410958312133798
225	0x3fb0f81c8d404798	0.06628588150513648
226	0x3fb3792732cac60d	0.07606739988366247
227	0x3fc21ec866e1f0c1	0.14156441711009474
228	0x3fa77cc9d96509d7	0.045873935496746725
229	0x3fb3196459c261ce	0.07460620108975677
230	0x3fbf97186ea2604d	0.12339928341896318
231	0x3fb276babb9b67b8	0.07212416725397375
232	0x3faeaccd0c4993bb	0.05991211676590732
233	0x3fc018358b62c7a6	0.12573880487394468
234	0x3fa8a000cbe6e127	0.04809572686230217
235	0x3fb1ba075de37c59	0.06924482385828536
236	0x3fc4a6f72382c85c	0.16134537919930636
237	0x3fafb10b1a6218a3	0.061897608728984886
238	0x3fb01b9f5730d8d1	0.06292148474389882
239	0x3fc38f0ec9c17280	0.15280327655172599
240	0x3fc89aa9878b1c9d	0.1922199165185007
241	0x3fc9603cc7e14f63	0.1982494331338059
242	0x3fc5fb283d9e66de	0.1717272091744268
243	0x3fc79c4a08586d04	0.18445706756106273
244	0x3fc7c3a0ccb98f5d	0.18565759655313743
245	0x3fc814801a7960c1	0.18812562267954117
246	0x3fc865ce7a629f8c	0.19060688949434412
247	0x3fc755da6e4c3833	0.1823075331271312
248	0x3fc630962502416d	0.1733577423770031
249	0x3fc99b21c7822612	0.20004675141926548
250	0x3fc73bef2b92e5d8	0.18151654842021858
251	0x3fc8087cc37731ce	0.18775901359766894
252	0x3fc81fcd2c972a46	0.18847050359029732
253	0x3fc8d064733ce8a0	0.19385963084079538
254	0x3fc53dc903a7aa99	0.16594803503479197
255	0x3fc742064f2b62c5	0.18170241227814735

bias f8 [112]
0	0x3fbc16372a410b59	0.10971398145288215
1	0xbfc33bc4a7c7b6fa	-0.15026148025884095
2	0xbfd5410b9147c7ba	-0.3320950430635282
3	0xbfd2f01690de54e1	-0.2959038176280285
4	0x3fbdd1ce11dd12d4	0.11648261963007239
5	0xbfbd6e1d74f69653	-0.1149614725641979
6	0x3fc265ab459d565d	0.143727692595962
7	0xbfc2ba4c2b0b7a9d	-0.14631034948157132
8	0xbfa5d673bea27c51	-0.04265176488956313
9	0xbfadb9d058d98980	-0.058058272214810636
10	0xbfc2a512bb54e481	-0.14566263339091637
11	0x3fb325c245a0f63f	0.07479490470810733
12	0xbfd2d942a4ef4f20	-0.2945105181399743
13	0xbfd4400d329f2420	-0.31640939658660905
14	0x3fa696411c9a83ec	0.044115099660537144
15	0xbfcf018404acd048	-0.24223375538133696
16	0xbfa00e22cb0db5ae	-0.031357848440943456
17	0xbfb25f26502df0fd	-0.07176436860567388
18	0xbfadd3a61db15a3b	-0.058255377888305
19	0xbfaa9037e27a6b5f	-0.05188154830576396
20	0xbf9658178ba53de6	-0.02182041921451896
21	0xbfabe2d2367f9c30	-0.05446488299622165
22	0x3f793266fc7dda71	0.006151582994667324
23	0xbfb3f94fde4a0849	-0.07802294899923469
24	0xbfb080cf97ac3a55	-0.06446549847553602
25	0xbfb61ce43b29c6d4	-0.08637834972776243
26	0xbfb4afd127c18451	-0.08080775471309322
27	0xbfa4e2ab5f685f7e	-0.04079185046810972
28	0xbfad7bdb47b7cf00	-0.057585575585020976
29	0xbfaca804150da04e	-0.05596935994145778
30	0xbf920348ae332a72	-0.017590652115169587
31	0xbfac0f39ae18d0ee	-0.05480365991789592
32	0x3fb4ff86058511d8	0.08202397951851681
33	0x3fbb5d8c06981836	0.10689616356839413
34	0x3fae7078f2c7b961	0.05945184672951843
35	0x3fb528dd177fd99c	0.0826547796603791
36	0x3fb222fce9fff1ba	0.0708463736809283
37	0x3fb297be12648f63	0.07262790631335529
38	0x3fafd0b273c1e2f7	0.06213910735181643
39	0x3fb3d0bfa0e0213e	0.0774040000689
40	0x3fb0d7446d451bfe	0.06578471820567697
41	0x3fb1d5040fa99c04	0.06965661413561014
42	0x3fb3de20ded75c4d	0.07760816040477998
43	0x3fb47dd994b63472	0.08004531746537838
44	0x3fb1265a024efe3b	0.06699144893990987
45	0x3fb22bf3034a80d0	0.07098311262462009
46	0x3fb2ecef25a5ae34	0.07392782849427065
47	0x3fb1ca5788364806	0.06949374270905659
48	0x3fb27e10dece81a7	0.07223611297241082
49	0x3fb2b4ad2a731ede	0.07306940351838473
50	0x3fb2138ec33d9247	0.07061092630971998
51	0x3fb2b1c4d80bbf36	0.07302503847654127
52	0x3fb28a393d12e9cc	0.07242162457524798
53	0x3fb0980e64479074	0.06482019375067855
54	0x3fb37aba4bc0c657	0.07609142636717912
55	0x3fb0914d91363e2f	0.06471714778148717
56	0x3fb1ce5603545b3b	0.06955468732153929
57	0x3fb499d771b05e47	0.08047243619545795
58	0x3fb066cbf639a50d	0.06406855355603032
59	0x3fb19c6988fa2349	0.06879291147391799
60	0x3fae88c543036749	0.05963722651513465
61	0x3fb3085731a8ae17	0.0743460174787106
62	0x3fb0552ef888bb01	0.06379979675032744
63	0x3fb2914461f21040	0.07252910033463511
64	0x3fb19736117b3871	0.06871354986944468
65	0x3fb1a9b422bc9d11	0.06899572227540697
66	0x3fae8388e2d53953	0.05959728020626422
67	0x3fb23668b5da7cbe	0.07114271583349116
68	0x3fb6d379d7c47afd	0.08916436689149161
69	0x3fb1809ee08e9c1c	0.06836884481764155
70	0x3faa36d471708dec	0.051199568603148865
71	0x3fb75042e3b8365e	0.09106844005165146
72	0x3fae7a8d57e3145e	0.05952874849166599
73	0x3fb6b306c8b96cad	0.0886692276048275
74	0x3fb3f3a9aba1600e	0.07793674888796451
75	0x3fa5199849e9f1c6	0.04121089842098828
76	0x3faa439d0cbf725f	0.05129709988225239
77	0x3fab3ba8021c9609	0.05318951631333497
78	0x3fb531779d7236d6	0.08278606027507904
79	0x3fafd09704b49d79	0.06213828976097608
80	0x3fc899cc23949a3e	0.1921935247166448
81	0x3fc9d6ca85981f28	0.20186740420489824
82	0x3fc888b802026f75	0.19167232607002985
83	0x3fc667477a9ea081	0.17502683150565093
84	0x3fc7a46589eab38b	0.18470448717326024
85	0x3fc879b9140dabaf	0.1912146900097844
86	0x3fc87e0c7e73072b	0.19134670423778152
87	0x3fc824b2dc0eb160	0.18861995453824942
88	0x3fc92f7113898a43	0.19676030591934265
89	0x3fcb865397681f3a	0.21503682034403387
90	0x3fca061bc8b5a6e0	0.20331141758224813
91	0x3fc78b8c93803a04	0.1839462013453642
92	0x3fc9af7acfcc16cf	0.20066771646832257
93	0x3fc8ade0734cb042	0.192806297587028
94	0x3fc784a5f5295e5d	0.18373560400754033
95	0x3fca7f7b440368f8	0.2070154268356601
96	0xbfde96f8e4616f44	-0.4779646139411293
97	0xbfe0b4cf5d82206f	-0.5220715357145432
98	0xbfe2867bdbb60cb9	-0.5789164820893326
99	0xbfe1ef0e36abd030	-0.5604315822406587
100	0xbfe017f5f063766d	-0.5029248900497812
101	0xbfe2bdcbe8ffdb54	-0.5856685210008927
102	0xbfd4c282f2ec48eb	-0.3243720409674455
103	0xbfe2352df4544912	-0.5689916393332928
104	0xbfe15ee8ca491be2	-0.5428356123819607
105	0xbfe31de0a42cdd07	-0.5973971563861661
106	0xbfe394e0cf7a3b96	-0.6119236042303438
107	0xbfde593e413ac0c4	-0.4741969716078638
108	0xbfe1eed9b9a87ba8	-0.5604065538535581
109	0xbfe32e39a82d9365	-0.59939272734901
110	0xbfdefa20637366c5	-0.48401651107779414
111	0xbfe431e1f22099c8	-0.6310891846704232

weight f8 [112, 16]
0	0xbfc0007c79fa1b62	-0.12501483875186198
1	0xbfaba2d966aab7f2	-0.05397681597001726
2	0x3facc03a72f0e49e	0.056154085665590645
3	0x3facb5066bc5c8a9	0.056068611770471684
4	0xbfbdd0a394e15183	-0.11646482834595955
5	0xbfb603e77ae35d68	-0.08599707365225628
6	0xbfc234c78191ca32	-0.14223569704661682
7	0xbfa3dea31bd231ad	-0.03880796160328557
8	0xbfb549efe79e9148	-0.08315944103975881
9	0xbfbc2f9214d3d3b4	-0.11010087021334308
10	0xbfb2f1eee7d7334b	-0.07400410804912132
11	0xbfb8794d7aebb9bd	-0.09560093165393986
12	0x3fa0587e74d2aed7	0.0319251554113557
13	0x3fb13ba310ea6521	0.06731623805025723
14	0xbfbf4b258238e634	-0.12224039487127741
15	0x3f99a027a2f25783	0.025025004692529784
16	0xbfd64f4540b94142	-0.34858828850430623
17	0xbfd16234072c5f23	-0.27161884975929435
18	0xbfb2f63bfb7b86b7	-0.07406973733625476
19	0xbfb53073b1240ae4	-0.0827705676529536
20	0xbfd5f215f6b99255	-0.34290074438312007
21	0xbfd25a64517d6b53	-0.2867670818138112
22	0xbfd6248349a55a24	-0.34597856704695773
23	0xbfd0a295ff15ca42	-0.25992345724731447
24	0xbfd32968eea63ba8	-0.29940245919800157
25	0xbfd4c9f3c37f15ea	-0.32482618419120846
26	0xbfd18adc8e34c830	-0.2741004360897277
27	0xbfd63982913d75b0	-0.34726013358689567
28	0xbfc0a3705760b22e	-0.1299877573632257
29	0xbfba28c093a3adf6	-0.10218433002926716
30	0xbfd5f4bd87b0a331	-0.34306276560760113
31	0xbfc22b89f0def97d	-0.14195369969634078
32	0xbfda0562d87a38f7	-0.406578742412321
33	0xbfd6d8bdfaa0c848	-0.3569788882770166
34	0xbfd0b509a21ee3b4	-0.2610496600350942
35	0xbfd365b71f7c540b	-0.3030832107045291
36	0xbfdae872278aad74	-0.420437372794104
37	0xbfd7c0971a3b1a9f	-0.37112977563485033
38	0xbfda500cd4f96437	-0.4111358718706159
39	0xbfd5ab0623d04220	-0.338563475584154
40	0xbfd89849b6ed47ef	-0.3842949186702062
41	0xbfd81d1e8c1308f2	-0.3767773025430322
42	0xbfd8011e8c969648	-0.37506831864661594
43	0xbfd97e3888714798	-0.39832890819990885
44	0xbfd100aabbb826bb	-0.2656657059857072
45	0xbfd4a51d7c7ef6f8	-0.32257783086593816
46	0xbfd99eb6bb1641fc	-0.40031212110719117
47	0xbfd26e4e91f0fdb4	-0.2879825997551635
48	0xbfda2fc0af7bc58c	-0.40916459214266676
49	0xbfd667231c5b4a7d	-0.35004499215316526
50	0xbfd04837bd7172c9	-0.25440782070454
51	0xbfd253768d1771bc	-0.2863441827628568
52	0xbfdb110166150f42	-0.4229129311463461
53	0xbfd8729a7603d609	-0.381994834183701
54	0xbfdb6b354ef4281f	-0.4284184714348402
55	0xbfd6e3703bdb4849	-0.35763173909538587
56	0xbfd8886e0c7aafe9	-0.3833270189159053
57	0xbfd99b98fea99cbb	-0.4001219260157531
58	0xbfd8090854714347	-0.37555130239802675
59	0xbfd9c99c5988331f	-0.4029303430877906
60	0xbfd3b8fd8eb676ac	-0.30816592156211686
61	0xbfd194069b48879f	-0.27465977825533544
62	0xbfdab93c7a22992f	-0.41755592276821835
63	0xbfd307aceca58d3e	-0.29734347448375675
64	0xbfb51aa89be3a3bd	-0.08243802839173404
65	0xbfa3534c157a3f02	-0.037744882222908074
66	0x3f98538370478679	0.023756078460684258
67	0x3fa5cccc2d485c7e	0.04257810642973768
68	0xbfaf9973b2a81fec	-0.06171762042873738
69	0xbfa42fa8e96e1e2b	-0.039426115507975666
70	0xbfb768e4543ce451	-0.09144427353466368
71	0xbf8efc44a00f37c0	-0.015129600653292274
72	0xbfa2bfeae4f52ee5	-0.03662046475309725
73	0xbfb3e63351046de6	-0.0777313301845691
74	0xbfabc8a747b207a8	-0.054265239240535224
75	0xbfb019914520002d	-0.0628901284944738
76	0x3f955717d921dcd3	0.020840046527578714
77	0x3f88fbf6162b2f1e	0.012199327994856509
78	0xbfba7a85d4b87c4b	-0.10343204921126518
79	0x3f997850ae6fb2ca	0.02487302841830078
80	0xbfd12b8263629b5a	-0.2682805986936977
81	0xbfc6dbd649736e4b	-0.1785838946005803
82	0xbfa2bb5714245f3c	-0.03658554192423799
83	0xbf821648bf8facde	-0.008831566186890457
84	0xbfd1c6d1e50afb7c	-0.2777600037333554
85	0xbfcc1269c23ea10a	-0.21931192383386416
86	0xbfd1b7792e50f3c6	-0.27682332537716225
87	0xbfc6f777bda5367c	-0.17942711601283523
88	0xbfcf0c032e6b0f42	-0.24255409018052815
89	0xbfcf4b07e2852bf9	-0.24447725830609082
90	0xbfcbe056dd1b6f91	-0.2177837924599513
91	0xbfd06b9b047cf9c2	-0.2565677207784597
92	0xbfa03cd53f3a645f	-0.031714118927262495
93	0xbf9dbb67c545f59b	-0.029035207191090966
94	0xbfd1e9c3636eabc3	-0.27989277563272824
95	0xbfa762a54058468f	-0.04567448053798017
96	0xbf95802041c284e9	-0.020996574414884703
97	0xbf5e4929ae4881f4	-0.0018484980620386811
98	0x3f99d8a3450af908	0.02524047001747312
99	0xbf53ba886460a6d0	-0.001204140849504421
100	0xbfa9cecae2f2fcf6	-0.050405826762920755
101	0xbfa55ffbe47a3a5a	-0.04174792446166427
102	0xbfac47ee6d9e9428	-0.05523629272583036
103	0xbf8e132b82848219	-0.014685001297551502
104	0xbfa90e7e0ce7e384	-0.048938693118493
105	0xbfa4f3467b3c526b	-0.04091854338017672
106	0xbfa76ff784e80269	-0.04577611443892666
107	0xbf9fe1a91ab42800	-0.031134264235369358
108	0xbf619d58ce8db26b	-0.002150224161985561
109	0x3f8b5479bb98a71b	0.013344718015179382
110	0xbfb2065d90b5e3d4	-0.07040962965937975
111	0x3f5ff925f81282d3	0.0019514914313633516
112	0xbfd6f6b794e6dec9	-0.3588084177131177
113	0xbfd200401347c7ad	-0.2812652767453255
114	0xbfc1d76f24e740a4	-0.13938702871246733
115	0xbfc1d8f0b02c1ea1	-0.13943298914113192
116	0xbfd6e7ef89315547	-0.3579062309048208
117	0xbfd41580f6ecf925	-0.3138124858268319
118	0xbfd71edf0c651bf0	-0.3612592335743434
119	0xbfd23c4946dcd5b1	-0.2849295799272467
120	0xbfd455bd4cc226dc	-0.317733120879536
121	0xbfd486274192101e	-0.32068807032942626
122	0xbfd3e2f51f993d9e	-0.3107273872928661
123	0xbfd5e7bbfbfbfa87	-0.3422689400467011
124	0xbfc5a04f5c1187b3	-0.16895477290659996
125	0xbfc2492e3d8cd24d	-0.14285829549193566
126	0xbfd6f8e450700ba3	-0.3589411530994601
127	0xbfc8cc582e509654	-0.19373609792198698
128	0xbfcf6dbc5cc6658e	-0.24553637056378047
129	0xbfc534904e1b0c21	-0.16566661657097462
130	0x3f86df2045416ef6	0.011167766679299512
131	0xbf7271465e825783	-0.004502558593363906
132	0xbfcf7935d14bd56b	-0.24588654250662087
133	0xbfc9d052d1d24580	-0.2016700291174338
134	0xbfd1a12b57c1e5f8	-0.2754619938856133
135	0xbfc1846dbe216da3	-0.1368539026615113
136	0xbfcc970334a7a562	-0.22335853644407694
137	0xbfcd29766b89f53b	-0.22782783747599375
138	0xbfcba86528fa0163	-0.21607651234445333
139	0xbfcf2d00559e7468	-0.24356083088506186
140	0xbf957b86a46877c9	-0.020979026589081493
141	0xbf9a405de25164ec	-0.0256361646064293
142	0xbfd0fe47b3d0ac65	-0.26552002487250653
143	0xbf989261ff8baf04	-0.023995906088130972
144	0xbfd110cc49e7d28f	-0.26665026872005
145	0xbfc26ab888e46f55	-0.14388186153598306
146	0xbf9e7c7b8da6b6d2	-0.02977173854895094
147	0xbf8d445f5dc0553b	-0.014290566490709913
148	0xbfd047dea035a0bb	-0.2543865742250195
149	0xbfca1f3afe176e63	-0.20407807738125702
150	0xbfcf064a3e02867c	-0.24237945583177012
151	0xbfc376c490d36348	-0.15206200667923953
152	0xbfcd6ac69339b4ca	-0.22982103527775727
153	0xbfcb89af91ea9924	-0.2151393377764147
154	0xbfc85c4bf2e79fb5	-0.19031667099556918
155	0xbfd0f813e3fa1c26	-0.2651414610231221
156	0xbfa35b1e89debfa9	-0.03780456002220884
157	0xbf9b8cbc2c52d93b	-0.026904049115466604
158	0xbfd11f1b12564715	-0.2675235442230684
159	0xbfa9b192217ecd42	-0.05018288287046825
160	0xbfd30fc035e8a272	-0.2978363539173535
161	0xbfccd44e6c17914a	-0.2252290752213731
162	0xbfac21fb58cf5d21	-0.054946760741297014
163	0xbfafc08e8f877e29	-0.06201596738878507
164	0xbfd32a221bcfb942	-0.29944660869559325
165	0xbfd0c558388bde37	-0.26204495927911203
166	0xbfd4cae60a24ed38	-0.3248839472832574
167	0xbfcbb12ededaca54	-0.21634469873022744
168	0xbfd19313d552c4f2	-0.27460189659457435
169	0xbfd26153fbe6b764	-0.2871904334996229
170	0xbfd06c0a0833a2d7	-0.2565941886992226
171	0xbfd2646a136758a7	-0.2873788060654853
172	0xbfb3e80c1e6010bc	-0.07775951139052756
173	0xbfb092f8aa537ec1	-0.0647426048121771
174	0xbfd44cd34ee7026c	-0.31718905167875877
175	0xbfb3ee7fd63492e0	-0.07785796146033475
176	0xbfc1eefe53fe96ab	-0.1401060018662766
177	0xbfaf10318b2d9e5b	-0.06067042182877166
178	0x3f989182f4ce5c8f	0.023992582504061274
179	0x3fa6237a8b484cd6	0.04323943090653308
180	0xbfc37bb3c3e821a1	-0.1522125917984001
181	0xbfb84c73513de19b	-0.094916541418462
182	0xbfc3d52625e42a03	-0.15494229173812366
183	0xbfac11a0feb19c9c	-0.0548219977288735
184	0xbfbdda78790cc752	-0.116614846757128
185	0xbfc1f292cb88970a	-0.1402152532402215
186	0xbfbc2a6adfec6179	-0.11002223936919177
187	0xbfc216abc3d4316e	-0.14131686269719118
188	0x3fa05c829d299b8a	0.03195579689491186
189	0x3fa0af66c972dea0	0.03258820733156864
190	0xbfc2c0e4fdcf8ae4	-0.14651167290784095
191	0x3f9315d44e431460	0.018637959744200905
192	0xbfd9712fe758c069	-0.39753339378785896
193	0xbfd54634abadc7a9	-0.3324100185919812
194	0xbfd33a03a7706477	-0.3004159102579886
195	0xbfd0fbdfb7627c9d	-0.2653731623522136
196	0xbfd96d85c2ab064b	-0.3973097230010338
197	0xbfd6e15a325eedf5	-0.35750441473984945
198	0xbfdaff2526323ee4	-0.42182282190422726
199	0xbfd63c62f8b6c72b	-0.34743570602869295
200	0xbfd80781912bb750	-0.37545813729126554
201	0xbfd7b29ab63ada01	-0.370276143988491
202	0xbfd6c839a3770ea3	-0.35597077334771593
203	0xbfd9527679f390e7	-0.39565812978095355
204	0xbfd09c789c698bf5	-0.2595502402747905
205	0xbfd383366524fdf8	-0.30488357427017787
206	0xbfd9b32eecd4354e	-0.4015614807875253
207	0xbfd02aa47ac37aee	-0.25260269154197956
208	0xbfd9f1bc830a785d	-0.4053794173904686
209	0xbfd5e27db0303e63	-0.3419489117231704
210	0xbfcee34ae1fe9a8c	-0.24131141695871283
211	0xbfd058d0128ce3e4	-0.255420702090815
212	0xbfd9c8bc9f31a6d0	-0.40287700220379197
213	0xbfd8017409c1fc00	-0.37508870079904
214	0xbfda5894f0ee116d	-0.41165660408321153
215	0xbfd56aa028aa237b	-0.33463291140701984
216	0xbfd7fdd6a48eda96	-0.37486806936377925
217	0xbfd98c4ab309fc69	-0.39918773159292315
218	0xbfd747698a5735f3	-0.3637336588843418
219	0xbfd9a57683163a7c	-0.4007240562577079
220	0xbfd0e93588f1ab55	-0.2642339551300002
221	0xbfd197cd83dfbe45	-0.27489030721969626
222	0xbfda970f5e488452	-0.4154699726805734
223	0xbfd2ea2e4cad7a5c	-0.2955432652287635
224	0xbfb6671ec89e7e11	-0.08751099012305753
225	0xbfa5d017930dd050	-0.04260324163524898
226	0x3fa1d26a233a4ade	0.0348084609987802
227	0x3fa5052527732b4b	0.041054879251154995
228	0xbfbf28cabf1bee3a	-0.12171618619680027
229	0xbfb312b366cbfe17	-0.07450410136879558
230	0xbfbfb3c258426114	-0.12383665709274211
231	0xbfa153ce608fbd19	-0.03384251526574129
232	0xbfb5d120575f4203	-0.08522226460559783
233	0xbfbb0bc238559d67	-0.10564817309715623
234	0xbfb048f364503701	-0.06361314009719977
235	0xbfbbeaf29de9eac6	-0.10905376773181805
236	0x3fa611d49a12099d	0.04310478573553953
237	0x3fa91da330eb210c	0.04905424091481522
238	0xbfc04dbae185c306	-0.1273721314605824
239	0x3f9ba0bcba7e5bbf	0.026980351336159943
240	0xbfdae2e42f5fa365	-0.4200983488686261
241	0xbfd70c515450320a	-0.3601268123027529
242	0xbfd66b217b9ec0dd	-0.35028874466207843
243	0xbfd44c01caa08e09	-0.3171390990048342
244	0xbfdb981f5f2c3179	-0.43115982336237085
245	0xbfd877829d98b85f	-0.38229432478227027
246	0xbfdc29dedaafc8fb	-0.4400555739986342
247	0xbfd678c427cc0744	-0.35112098585533524
248	0xbfd8de5e801c1575	-0.3885723353453934
249	0xbfd8fe26ece1dce8	-0.39051221020731797
250	0xbfd8d0fea26e4317	-0.38775602209447996
251	0xbfdb123592218a3b	-0.42298640509230595
252	0xbfd6f3c73006a809	-0.3586290329936906
253	0xbfd53ceba8e8f393	-0.3318432950507539
254	0xbfdbf6b103f83cd7	-0.43693185222305203
255	0xbfd2ca028409dc4a	-0.29357970137011036

bias f8 [112]
0	0x3fbba5437dc10b53	0.10799047298591562
1	0xbfc188def347b6f4	-0.1369894683734213
2	0xbfd499c82f47c7bc	-0.3218861066553662
3	0xbfd24fd0519e54df	-0.2861214444213384
4	0x3fbaf3c6e9dd12be	0.10528224191245791
5	0xbfbc3d48c276964f	-0.11031012294423558
6	0x3fc390545edd5659	0.15284208900509347
7	0xbfc28d5d1f8b7a9d	-0.14493907966876388
8	0xbfb04b208e513e1b	-0.06364634966416143
9	0xbfa8911e22d98980	-0.04798216033374825
10	0xbfc33c75f754e47d	-0.15028261734713402
11	0x3fb4b7bd4940f63b	0.08092864073201948
12	0xbfd44d88cc2f4f22	-0.3172323221199226
13	0xbfd3815851df241f	-0.30476959224012207
14	0x3fa0e0ed1c9a83f1	0.03296605085530036
15	0xbfd00f3dc9966824	-0.25093025862008944
16	0xbf905333261b6b63	-0.015942382050393344
17	0xbfb3cceeeb2df0f5	-0.07734578363119111
18	0xbfabbdc10ab15a3d	-0.05418208365943087
19	0xbfa70e4b7c7a6b60	-0.0450309361887864
20	0xbf9c5f2e85a53dde	-0.0277068394728398
21	0xbfa9b5b6f47f9c34	-0.05021449789619972
22	0xbf7f4f08a3822576	-0.007643731827678626
23	0xbfb693069e4a0846	-0.08818093647462985
24	0xbfa9ebffc55874a3	-0.05062865528109597
25	0xbfb2edc67689c6d6	-0.07394066232680116
26	0xbfb0882457c18456	-0.06457736151198054
27	0xbf9989e88ed0bf54	-0.024940141407739105
28	0xbfaf8fc516b7cefe	-0.06164375212020266
29	0xbfa896f8ff0da050	-0.0480268298477432
30	0xbf8c48945c6654a8	-0.013810309476676899
31	0xbfadf7896e18d0fc	-0.05852918118435643
32	0x3fb441038a8511d9	0.07911703235465185
33	0x3fb7e39c3a981832	0.09331680708427895
34	0x3fb73d41f763dcb5	0.09077846803471597
35	0x3fb2b12bb67fd998	0.07301591115524386
36	0x3fb5160fcdfff1b4	0.08236788539210843
37	0x3fb2d36b47648f68	0.07353849881161312
38	0x3fb49d2011e0f175	0.0805225413941509
39	0x3fb260c1e8e0213c	0.07178890166699586
40	0x3fb3ba4de1c51bfc	0.0770615268894374
41	0x3fb4bc6c3ba99bed	0.08100010353665228
42	0x3fb39ec706d75c4d	0.07664150158903844
43	0x3fb8be28d0b63471	0.09665160270215424
44	0x3fb81e6fe4aefe34	0.09421443303198701
45	0x3fa62f286e9501b6	0.04332853650931005
46	0x3fb401fa5da5ae2f	0.07815518175419166
47	0x3fb4181aa8364806	0.07849279982318089
48	0x3fb48b6c778e81a7	0.0802524368177787
49	0x3fb3406113f31ede	0.07520109879544232
50	0x3fb274fc093d9247	0.07209754205320805
51	0x3faef74016977e76	0.06048012042788013
52	0x3fb29dd38312e9cc	0.07272073698087594
53	0x3fb42926fd479072	0.0787529342993041
54	0x3fa44682e7818c9c	0.03960045886994942
55	0x3fb04742bd363e32	0.063587351984318
56	0x3fb0586ae4645b43	0.06384914470650664
57	0x3fb1802959b05e49	0.06836183967276911
58	0x3fb0cf15e139a50b	0.06565987347280015
59	0x3fb24ca951da2349	0.07148226021139438
60	0x3fabce46cb036747	0.05430814006986267
61	0x3faf7f5bcb515c5f	0.06151854378611498
62	0x3fb02fa1ff88baf9	0.06322681892991601
63	0x3fb3f865cff2103f	0.07800899817272099
64	0x3fb55d673b7b3885	0.08345647051030099
65	0x3fb6b9e556bc9d06	0.08877404563519428
66	0x3faa08c79ed53956	0.050848234308989035
67	0x3fb37f9111da7cb6	0.07616526304126378
68	0x3fab5cd57f88f5e3	0.05344264203857187
69	0x3fafb7424c9d3829	0.06194503007155589
70	0x3fb225fcb6b446f4	0.07089213810493417
71	0x3fb468fe9838365c	0.07972708908365561
72	0x3fb080e3bbf18a34	0.0644666990133736
73	0x3fb45d471eb96cab	0.07954830646615345
74	0x3fb61bccc7a1600c	0.08636169313228964
75	0x3fb6472af8f4f8fb	0.08702343538331896
76	0x3faf14f07cbf7261	0.060706629970557875
77	0x3fb3027e0d0e4b04	0.0742567808031645
78	0x3fab8ae4d2e46dc8	0.053794050925911885
79	0x3fb0d5492a5a4eba	0.06575448307040235
80	0x3fca30490c949a3e	0.20459855188637904
81	0x3fc8d3a3d9d81f28	0.1939587415401942
82	0x3fc7ece3d2026f75	0.1869168067395283
83	0x3fc63456a29ea083	0.17347224178707074
84	0x3fc85465f7eab38b	0.19007563214600184
85	0x3fc883234d8dabaf	0.1915020111731258
86	0x3fc8057e9773072b	0.1876676787851975
87	0x3fc8f768a9ceb162	0.19505031863571803
88	0x3fca71796e898a42	0.20658796212508618
89	0x3fc65a1b21681f3b	0.17462481623828716
90	0x3fc66199a0b5a6e4	0.17485351893565515
91	0x3fc67c5943003a05	0.17566982051398852
92	0x3fc92430d4cc16cf	0.19641695394982725
93	0x3fc827647e8cb044	0.18870216540506324
94	0x3fc9867da1295e60	0.19941683167666024
95	0x3fc951b6c40368f8	0.19780621119463837
96	0xbfe02718feb0b79d	-0.5047726606769519
97	0xbfe1754baf82206f	-0.5455683162590627
98	0xbfe1d8d363360cb9	-0.5577179849355139
99	0xbfe23bed3953d031	-0.5698152656245893
100	0xbfe09a519423766c	-0.5188377278643208
101	0xbfe26cd5e23fdb52	-0.5757855814871198
102	0xbfd43599f10c48ed	-0.3157715658172851
103	0xbfe2333e68744911	-0.5687553444024919
104	0xbfe2b65af8491be2	-0.5847601746871727
105	0xbfe2e5d3d0ecdd06	-0.5905551033564798
106	0xbfe3fa0edb3a3b94	-0.6242746621882014
107	0xbfdf8bcc5cbac0c5	-0.49290761046996706
108	0xbfe11eac24a87bad	-0.5349941936473123
109	0xbfe31c48750d9365	-0.5972025190536497
110	0xbfdfdc78aab366c8	-0.4978315035819887
111	0xbfe3cf16b48999c8	-0.6190293813822842

weight f8 [3, 16]
0	0xbfd07fa94f880273	-0.2577918316529015
1	0xbfd0182ae5f22f3c	-0.25147507148425396
2	0xbfd154ec5dcc3e55	-0.2708083072657009
3	0xbfd0abcace34cc21	-0.26048536431625463
4	0xbfd11303c4a37f4e	-0.2667855663585116
5	0xbfd0cd93f2d19877	-0.2625474807049452
6	0xbfd00440c59d2208	-0.250259583456256
7	0xbfcf40cd60286866	-0.24416510768134286
8	0xbfd033592ffebcbf	-0.2531340569211799
9	0xbfd0605e33cf537a	-0.25588183459813474
10	0xbfd20b4930093b15	-0.2819388360120894
11	0xbfd09740bed29eee	-0.25923174510033575
12	0xbfd10d557f17e9ef	-0.2664388409754385
13	0xbfd0a5271ad70ae3	-0.26008012410254205
14	0xbfd02f6e45ffd8f8	-0.2528949435794767
15	0xbfd13b8bfff5b2d9	-0.26925945278234803
16	0xbfcfcbee86bb4a56	-0.2484110029095798
17	0xbfd0466ee3efc24f	-0.25429889926366384
18	0xbfd105d21d339017	-0.26598027087880055
19	0xbfd098b6e39729ec	-0.25932094789155147
20	0xbfcfbca2577c75de	-0.2479441573313314
21	0xbfd085d2c4d3faf6	-0.25816792699326585
22	0xbfd12ed39ea6d80f	-0.2684830712636321
23	0xbfd0cfbcfb4ab4bd	-0.2626793340703662
24	0xbfd097b8e51a8951	-0.2592603909817131
25	0xbfd14d42eb780a04	-0.2703406619549755
26	0xbfd01f2e64e82a95	-0.25190315107526234
27	0xbfd0e4099e70e880	-0.26391830895193635
28	0xbfd0617d21d8fb07	-0.2559502440016534
29	0xbfd1d84543c7030f	-0.27882510775457175
30	0xbfd1594285988ae6	-0.27107298895331977
31	0xbfd033178f0fd4d6	-0.25311840983279177
32	0xbfd0beaed26bfcae	-0.26163836049085887
33	0xbfd0a684f44e15b4	-0.2601635347167204
34	0xbfd1166340160898	-0.2669914365616335
35	0xbfd109e311d18d17	-0.2662284540185324
36	0xbfd03f1f18bced8e	-0.2538526288587598
37	0xbfd150dd53ce33b4	-0.2705605810559135
38	0xbfd14b067e7d9447	-0.2702041850337235
39	0xbfd0c66defdfb8a9	-0.26211117196261086
40	0xbfd0bc598f2e6f40	-0.2614959619765962
41	0xbfd014c65b5c56a5	-0.25126799508994174
42	0xbfd0bfe585771b51	-0.26171243699757435
43	0xbfd128bf0853a580	-0.26811195195349313
44	0xbfd1e42e11a83c6e	-0.27955199932416164
45	0xbfd1962f0d66d132	-0.2747914915919579
46	0xbfd14400f2f0ecb9	-0.269775616881542
47	0xbfd0355702778c68	-0.25325560799519176
