Retweet/RetweetNetsV3/TrainNet_ep9V2.pt (torch, 23465 bytes, 6 tensors)

scale f8 [3]
000000 b5 84 09 0d 12 93 e1 3f 60 5b f4 d2 51 70 e1 3f
       0.54920294328999 0.5449608917432265
000010 58 a2 70 88 8d 9f e0 3f
       0.5194766678660683

weight f8 [112, 3]
000000 fc 95 4b fd 14 5a c5 3f 3e df 02 9a 9c 4e be 3f
       0.1668115841668366 0.11838701972999119
000010 9d a3 67 fe 65 6a 6c 3f ea 43 ce 32 6b db de bf
       0.0034687034669684384 -0.48214225732323135
000020 51 aa ce 21 0e f5 d1 bf e0 2d b5 c3 19 3e bb bf
       -0.28058198262684636 -0.10641633060475142
000030 d1 db d4 64 58 22 bc 3f d7 b0 ff da f0 29 b1 3f
       0.10989906751352342 0.06704621645593832
000040 5c 7e f6 55 bd bc a8 3f c9 b6 68 7c c7 55 e5 bf
       0.04831496881820094 -0.6667210988868756
000050 d5 2b 60 1b 91 ae e3 bf 94 36 be 82 08 ce d6 bf
       -0.6150594267540962 -0.3563252713000591
000060 88 0b 3e 98 bd 10 78 3f ff 94 1b b4 36 a3 87 3f
       0.0058753400843468764 0.011541774150325866
000070 ea 1a c2 42 4c ca a3 bf 7d 39 1f 12 87 62 e4 bf
       -0.038652785443494 -0.6370272973961587
000080 0c 38 b2 ca 8b 66 e2 bf c3 9c eb 13 08 e9 d2 bf
       -0.5750178297910238 -0.29547311730716447
000090 a3 69 f2 8f 46 a6 c5 bf 03 e0 3d 30 09 30 b0 bf
       -0.16913682964952867 -0.0632329695489489
0000a0 b9 63 7f 6b 45 23 ab 3f 23 aa c8 8c 8c 45 dc bf
       0.05300347268320799 -0.4417449354974982
0000b0 88 70 a5 e2 85 d6 c8 bf f9 13 25 56 97 9c b2 bf
       -0.19404672209464402 -0.0727018914522687
0000c0 85 95 76 6b 33 4a df bf 75 0e 9f a6 86 fc da bf
       -0.48890386099295596 -0.4216629626427911
0000d0 d1 75 88 1f 4f 9d cd bf d9 6a 72 47 af 54 ce 3f
       -0.2313631919832191 0.23695937145824678
0000e0 15 57 88 70 01 5b d4 3f 42 db 7d 6f 60 1d c0 3f
       0.3180545424414601 0.12589650577475636
0000f0 fa 8d b8 46 f3 f4 d9 bf 79 3d 03 29 93 c4 cd bf
       -0.4055755797037076 -0.2325614881760705
000100 62 07 c4 ec f5 44 a1 bf 78 fe a3 42 96 05 e2 bf
       -0.03372925296026953 -0.5631820012640238
000110 3b ed f0 46 3b 05 df bf 1b de 2b be 97 d1 ca bf
       -0.4846943085464834 -0.20952126298628646
000120 a0 5e 77 70 30 0f c0 bf 2c 75 1c e5 53 50 b8 bf
       -0.1254635380889697 -0.09497570365461588
000130 dd 06 49 bd 17 5f b7 3f 80 dd 88 72 75 36 c5 bf
       0.09129474993917648 -0.1657244500399706
000140 05 ef 1f 3a 27 32 d1 bf 1d 75 d0 f8 97 ac cf bf
       -0.2686861102699683 -0.24745463990340336
000150 19 a2 a5 48 0b b2 d9 bf 68 0a 76 2f 3e b8 d6 3f
       -0.40149194807466554 0.3549952949034947
000160 bf 54 d6 c1 4a 6e ba bf 7a cb 90 b4 0d 22 e3 bf
       -0.10324542267183555 -0.5979069258377046
000170 3c 40 29 75 78 fe e2 bf 32 ec 9b 89 07 1c d4 bf
       -0.5935632980636067 -0.3142107814634897
000180 ff 08 d6 ef 06 2c c4 3f f7 f5 ed 4d 1f 79 cb bf
       0.15759360037561262 -0.21463385872986837
000190 0f 5d 67 97 39 92 c7 bf 3c 6e e0 f5 7a c9 ba bf
       -0.1841499318386259 -0.10463684561585124
0001a0 4c 03 2b b9 bf ab ca bf 8f 46 a0 6b b4 dc e3 bf
       -0.20836636105925732 -0.6206914999076661
0001b0 84 5b f2 cc 2b e6 be 3f 05 9a 39 fb 9b cd cb bf
       0.1206996322019745 -0.21721219794126526
0001c0 74 85 d1 40 cb b3 bc bf 28 e7 ac 0d 75 7e 95 3f
       -0.11211843807679661 0.020990208587341602
0001d0 cd a4 a3 eb 46 7c 89 bf 88 3d dc 9e 1f 81 cc bf
       -0.012444070879114833 -0.22269053704119934
0001e0 ed 64 41 1a 06 86 b5 3f 03 72 da 96 ac e6 cc bf
       0.0840762914753161 -0.22578961721309562
0001f0 65 aa 75 72 56 da d0 bf 65 81 7a d9 a3 89 a2 3f
       -0.2633262746591412 0.03620636014716431
000200 e2 d6 42 13 8c 7e c5 bf 8a 61 d7 76 cf f9 d7 bf
       -0.1679244131134317 -0.3746222172317394
000210 b6 8e e5 a3 ad 2f b3 3f 18 b6 a4 35 94 42 e0 bf
       0.07494626284965986 -0.5081273124430394
000220 f2 e2 42 e6 6d 5f df bf 3a 5b 93 91 72 e4 bf bf
       -0.4901995419163959 -0.12457958273021755
000230 af 87 f1 72 e7 52 c2 bf a4 55 8a a9 42 bb e1 bf
       -0.14315503227686352 -0.5541089354834878
000240 b5 d2 7d b1 cb 20 bc 3f 72 c1 b6 3c 0b d4 72 bf
       0.10987542231834875 -0.0045967520667747775
000250 42 5f 4b 76 7a b9 d3 bf a6 15 6f 26 9f 23 b3 3f
       -0.3081957011431663 0.07476229370430207
000260 22 b2 50 00 c8 9d ba bf 44 d3 c3 5f 20 92 c7 bf
       -0.10397005088516001 -0.18414692569754199
000270 43 2b 31 56 60 36 b5 bf 39 d2 fd d1 f2 b5 d9 bf
       -0.08286096672342773 -0.40173025614720675
000280 fc 67 f7 71 ab 48 e3 bf d1 33 6b f1 df 80 c2 3f
       -0.6026208139330715 0.1445579460909401
000290 07 80 34 9f e5 d1 da bf 5d 26 b8 22 1f 18 e5 bf
       -0.4190610937821479 -0.6591945341217059
0002a0 40 fb 75 86 39 f1 c1 3f 83 bb 40 53 74 18 e3 bf
       0.1401740938708489 -0.5967351556808896
0002b0 41 da d7 1e 1e 21 d3 bf 79 41 63 d4 85 ea b5 3f
       -0.2988963414385673 0.08560978350874916
0002c0 bc 7a 55 20 1b 75 c0 bf fc 46 50 a6 8e db cf bf
       -0.12857379034809024 -0.24888785477428843
0002d0 85 1a 96 f8 d6 e3 da bf f8 43 bc 1e bb a1 c0 3f
       -0.4201562335587499 0.12993563652756257
0002e0 c5 10 90 a7 5c b4 cd bf c5 87 ab 36 d8 34 c7 3f
       -0.23206670934462728 0.18130018872676437
0002f0 6b 64 ac f6 83 29 d3 bf 98 3f 9d a9 79 ee de bf
       -0.29940890397262504 -0.4833053738011528
000300 ef dd 26 a1 22 12 b4 3f 6c 53 f7 51 b2 72 b5 3f
       0.07840172228213026 0.08378138066411872
000310 6f 51 ff af 0f 02 d7 3f fc c2 a9 bc 8f 93 ab 3f
       0.3595008105014789 0.05386017969147436
000320 50 10 31 34 7f 20 bd 3f 2f b5 6f 7e 85 d7 d7 3f
       0.11377711319170314 0.37252938601780533
000330 87 ca 27 38 8a 9c b0 3f c1 3b a0 b3 ed 2f ba 3f
       0.06488860960943486 0.10229383120916592
000340 80 c9 a2 91 55 a1 d7 3f 2c 34 8a b1 a4 61 b1 3f
       0.369222061369463 0.06789616903752521
000350 47 05 e3 e8 d9 9d af 3f d4 eb 81 7e 14 b7 d4 3f
       0.06175118415695607 0.323674319784627
000360 5f 2c d1 01 73 8e b5 3f 8b ed 6f 30 34 8a b6 3f
       0.08420485300409684 0.08804632360982205
000370 e8 31 0c 5c 7f d7 d3 3f 4a 97 4a 7f 3d d7 ac 3f
       0.3100279234793377 0.05632965258455032
000380 28 97 ce 0a 7f 35 a8 3f 4e bb e0 11 49 43 d5 3f
       0.04728314406319917 0.3322317766750772
000390 8c 13 80 57 10 4c b3 3f 76 3a 22 61 10 6e b7 3f
       0.07537939201581717 0.09152319308689436
0003a0 f4 61 eb 0e 44 ca d7 3f 53 64 4e 46 65 39 b1 3f
       0.37172032792071197 0.06728203741512688
0003b0 c6 b3 7a cf 2b 04 b1 3f 03 65 a8 cf 96 f7 d5 3f
       0.06646989646351562 0.3432366397770041
0003c0 37 10 bd c2 3e 3e b2 3f b5 1d ee b2 6f d6 b5 3f
       0.07126228575094805 0.08530328863536492
0003d0 31 7d 9d 80 f6 40 d7 3f 40 9b 0b db 61 4a b2 3f
       0.3633400207526903 0.07144748304163517
0003e0 99 55 3a ea 1e 73 bd 3f ce 10 9c 0c 06 33 d7 3f
       0.11503785341695617 0.362489235223859
0003f0 18 54 bc 79 47 69 ae 3f 9b b6 a8 26 ab df b8 3f
       0.0593969665625666 0.0971629113562024
000400 d1 40 14 b4 7d e0 d6 3f e6 90 d3 48 a3 5a b3 3f
       0.3574518450341318 0.0756017735289479
000410 d3 7d 39 a7 d3 c9 b1 3f ff cc 19 5e 29 6b d6 3f
       0.06948588211661581 0.3502906245186778
000420 78 9e da 9d c3 fa b0 3f 82 a6 2c 1e 07 16 b0 3f
       0.0663263569246001 0.06283611761741706
000430 48 91 18 ce b1 a9 d5 3f 6e 07 98 f2 7c 9c b2 3f
       0.3384823334365774 0.0727003185529875
000440 94 28 c9 a0 ad 27 b7 3f bc 80 98 df 29 5b d5 3f
       0.09044919181283922 0.3336891826202295
000450 eb a1 a6 56 8b 7d b2 3f e6 a4 eb 54 3e 4a b6 3f
       0.072228153853423 0.08707036565069223
000460 be 54 e1 39 8b 5f d7 3f f5 9e 6b 82 92 27 b0 3f
       0.36520653393138136 0.06310382541743904
000470 00 31 87 69 3d 2e b5 3f 6c 53 30 e1 3e d1 d5 3f
       0.08273681475037975 0.34089633933154206
000480 07 1b c2 11 3e 15 b3 3f eb 4e 0e 0f b7 64 b0 3f
       0.07454288419294751 0.06403679006171685
000490 71 5f 81 dd 6a 07 a9 3f 0d 84 ce 51 9e 11 ad 3f
       0.048884715594509916 0.0567750429975221
0004a0 30 8f c3 a4 56 91 b0 3f e2 fc cb fb 7b ab ac 3f
       0.06471768877559891 0.05599582146350614
0004b0 58 ca 20 9f e6 47 b2 3f 4c cb b3 f2 86 4b ab 3f
       0.07140962014163088 0.05331060135531249
0004c0 21 38 fa fa c2 a5 ad 3f 51 00 ee 14 af 6c b1 3f
       0.05790528596581646 0.06806463490465943
0004d0 bf 08 11 85 99 8c a8 3f 5d 93 f0 a5 d9 05 a6 3f
       0.04794769048068436 0.043013383394543615
0004e0 70 27 41 16 99 db b3 3f a3 6b 51 36 06 c7 a7 3f
       0.07756954949686956 0.04644030964910619
0004f0 23 e9 aa b7 54 8f a6 3f ce 78 94 a5 0b 6d ab 3f
       0.044062278194774394 0.053566326105497816
000500 90 59 5e 97 f4 2b b4 3f b3 77 d4 ea b9 2d 8a 3f
       0.07879570670625058 0.012782528380338087
000510 79 a7 bd d1 d8 28 ae 3f f7 a7 b5 cb 64 84 b3 3f
       0.058905387499932745 0.07623891805056347
000520 68 63 d8 80 44 f1 a9 3f c0 df 0f 7d 9f 08 ad 3f
       0.050668850639516816 0.05670641328464354
000530 8a 35 2d 6e 90 ff b8 3f 36 8b e0 a0 0d e8 b0 3f
       0.09764959993227343 0.06604085138000645
000540 85 6b 68 14 76 92 b2 3f cc 22 4f d2 a3 ee b4 3f
       0.0725473213027908 0.08176635632038226
000550 6a e2 eb 1f 11 8e b0 3f bb aa 4c 4d 9b 5e b3 3f
       0.06466776875812177 0.0756623328895029
000560 4c 5e 8d 0e 70 88 b6 3f 16 e4 d4 e9 89 04 ad 3f
       0.08801937442091762 0.0566752527178737
000570 a9 e7 42 d0 98 4e ab 3f d3 bf aa 3f 1c 7d b2 3f
       0.053334021971252206 0.07222153238649236
000580 85 c4 eb fe c0 36 a0 3f 24 3e fd 36 15 df aa 3f
       0.0316677390272924 0.052483237230827734
000590 fb bc 4e 19 3a 3e b1 3f f3 81 cd 0c 54 80 8b 3f
       0.06735575788365004 0.013428360596379618
0005a0 bc 0e 64 15 39 12 b2 3f b4 8f c8 63 8e 7c b0 3f
       0.07059056064832253 0.0644005769359513
0005b0 9a 11 f2 53 2c 48 ae 3f 19 25 26 63 dd a0 b4 3f
       0.059144387480986896 0.08057960196142168
0005c0 21 4d 6c 92 a2 07 b1 3f 22 87 c6 09 0e 57 aa 3f
       0.06652275156766453 0.051445425694750094
0005d0 4f 02 fa e4 42 6b b5 3f 2e f8 3c 39 41 87 b0 3f
       0.0836679276490113 0.06456382415214598
0005e0 bf f2 7a c5 64 e5 aa 3f d8 be 5c 2d 1f f1 b1 3f
       0.0525313845696238 0.07008547646978103
0005f0 b7 bd fb f8 17 e4 b2 3f 7f 7b 53 0f 7b c4 7a 3f
       0.07379293278403663 0.00653503484974649
000600 a6 73 b2 af 31 3e ad 3f a4 bc c4 ae eb 4e ba 3f
       0.05711512822856628 0.10276673332986036
000610 f6 a4 4d 41 90 64 d7 3f 0c 2c f7 f4 0b 54 b3 3f
       0.3655129087188266 0.07550120096782126
000620 a5 e6 eb 9c 40 55 b8 3f df 94 14 a6 2e b2 d8 3f
       0.0950508483037092 0.3858753797415612
000630 fa ea 10 0b 61 89 b4 3f 5a 25 17 c3 c9 7c b3 3f
       0.08022123832862951 0.07612286580037644
000640 99 80 1c d5 db 9f d7 3f 9c ee ca d0 cc 0f b4 3f
       0.3691320019879725 0.0783660897968112
000650 c9 9c da a3 10 63 b7 3f 32 73 6e a9 1b c9 d4 3f
       0.09135536194172568 0.32477466150321554
000660 18 b6 8e eb cb 24 b0 3f 06 3d 11 bc 33 e1 b5 3f
       0.06306147099413584 0.08546756116378526
000670 c3 73 21 7e 1a 7b d6 3f b8 f7 37 88 a2 dc ae 3f
       0.3512636405701494 0.060277060631036716
000680 da 05 9b 41 96 a0 b9 3f 1e da 6e e7 3a 86 d6 3f
       0.10010661222170061 0.3519427547538799
000690 4a ec ac b4 4f ba b4 3f 79 27 fa 93 d3 ce b7 3f
       0.08096788559935067 0.09299967158054114
0006a0 c4 68 67 22 7e 07 d7 3f b1 af 98 df 71 8d ac 3f
       0.35983231887588496 0.055766638321386515
0006b0 dd 26 68 73 05 e1 b8 3f 22 04 6a cd 8f d3 d5 3f
       0.09718355243253592 0.3410377031323738
0006c0 6d 7a 87 6e 7b 3b b0 3f 09 26 5d 8f 9c 62 bd 3f
       0.0634076256605824 0.11478594303221014
0006d0 7f 47 7d 6e 8b 32 d7 3f ab ed c7 31 2a 6b b1 3f
       0.3624600008962417 0.06804145541530342
0006e0 79 02 77 d6 f2 e5 b7 3f c4 6b 9c b5 24 2d d8 3f
       0.09335248695334454 0.3777553342385398
0006f0 31 b8 2c b8 11 b2 b0 3f ea 47 0c 12 67 bf b9 3f
       0.06521712061359676 0.10057682219147038
000700 2b 2a 12 e5 79 1a d7 3f 13 18 5d 61 4a c3 ae 3f
       0.36099097604952374 0.060083698640070925
000710 04 eb e8 04 29 eb a9 3f c2 63 56 82 4b 0a d6 3f
       0.05062225518164179 0.34437835434215114
000720 46 c1 f2 4b cf e0 b0 3f af d7 cd 17 10 ee b6 3f
       0.06593032459455114 0.08957005101350889
000730 c3 fc 3a cd 34 25 d6 3f a3 ef 82 64 c7 ec b2 3f
       0.3460208896830858 0.07392545894521034
000740 25 8d 56 84 6a f4 b6 3f 39 fe 3f e9 2b 0f d5 3f
       0.08966699343595914 0.32905099657361664
000750 4c 03 ae 89 91 77 b0 3f 9a ff 9d 69 bf 41 b8 3f
       0.0643244706279919 0.09475323036713093
000760 7d 97 79 b2 2d 62 d7 3f 1c 9a 48 4a b0 66 b3 3f
       0.36536734036632607 0.07578565419735422
000770 80 e4 d8 92 38 f3 b2 3f ac 9c 76 d4 6b f1 d5 3f
       0.07402375779283155 0.3428601813161076
000780 a1 b3 66 c3 07 12 c9 3f bc dc fe e3 18 59 c9 3f
       0.19586274186204114 0.19803153164477816
000790 27 0d 6e a9 74 49 cf 3f 8d cc 8e 93 61 dc ca 3f
       0.24442919037765273 0.20985049920054558
0007a0 04 2b 34 78 f3 63 c9 3f b7 60 c0 47 56 26 cd 3f
       0.1983627640659834 0.22773245337953593
0007b0 18 db 7e 69 3c 0d cc 3f 75 5d e6 e9 8c 99 c9 3f
       0.21915393019818263 0.19999848767177367
0007c0 25 34 5e dc 7e 6b cf 3f fd 0d 79 ad a3 18 ca 3f
       0.24546800384669712 0.2038769337687966
0007d0 9e 7a e8 30 d1 4e c9 3f 09 2e fb 40 c3 61 cf 3f
       0.1977178086098847 0.24517098114880323
0007e0 27 ea f4 58 94 de c9 3f 3a 8e 51 74 5f 3d ca 3f
       0.20210508674229397 0.20499795131319037
0007f0 d4 4e 7b be 47 49 cc 3f c0 91 0c 02 d4 ac c8 3f
       0.2209863357626235 0.19277429676107083

bias f8 [112]
000000 2a dd a5 20 04 34 c9 3f 25 2e 18 4b 1d ab d7 bf
       0.1968999061025241 -0.3698189957947043
000010 fd 9c 5c 4e 41 86 b9 3f da 32 b3 ca 3e ff e6 bf
       0.09970482028130685 -0.7186578711494704
000020 25 78 0f a3 9b a2 84 bf 75 c0 98 22 e4 28 e4 bf
       -0.01007577506419117 -0.6299915958134209
000030 a3 5c b9 1e d3 ec bf bf d4 d2 f5 86 01 8c d5 bf
       -0.12470740795230255 -0.33667028598510496
000040 cf be c2 fe ea 96 e2 bf d1 67 28 61 3c 1a da 3f
       -0.5809226012988463 0.4078513096625303
000050 cd 73 61 8e 94 bb d2 bf 31 89 21 e8 98 18 e1 bf
       -0.2926989927707922 -0.5342525991257273
000060 30 24 b3 fc 24 b8 c0 bf 3a 6d 1b b0 1d 91 d6 bf
       -0.13061964358192446 -0.3526071758075947
000070 32 3a 44 99 79 d1 b2 bf 38 78 ed 5f 69 6b e4 bf
       -0.07350883476122119 -0.6381117700182193
000080 99 1b c6 9e a0 7e b3 bf 5f d7 2a df 9f b3 d0 bf
       -0.07615093113245876 -0.260963409363617
000090 cb f6 6a be 77 f1 ba bf 7d e2 2e 33 20 b2 97 bf
       -0.10524700545189629 -0.02314043342969051
0000a0 21 1b 05 4b 17 ec c3 bf 73 18 c3 db 9c 8f bf bf
       -0.15564242518504393 -0.12328510632787175
0000b0 c4 b5 25 51 dc ea d8 bf e0 60 96 a3 76 8b cd bf
       -0.38933475422421915 -0.23081858623186857
0000c0 3a 2a 21 a6 d2 e2 96 3f 77 53 74 05 29 f8 ad bf
       0.022349635495894506 -0.05853393737394346
0000d0 2f b7 71 bf 49 13 d7 bf 83 66 fb ed 25 1c cc bf
       -0.36055225082133097 -0.2196090137502332
0000e0 5f 62 86 e5 cf 87 da bf 95 ba b2 d0 cb e5 b0 bf
       -0.4145393125013807 -0.06600641102952871
0000f0 3b 92 bc 34 37 7f d0 bf bf c5 e2 72 7f 51 c2 bf
       -0.25776462698039254 -0.14311211690578138
000100 15 e9 e4 d1 89 20 be 3f 94 bd b2 3b 7e 1a bd 3f
       0.11768399595613162 0.11368550260043825
000110 a3 b4 b3 8a 3e 91 ba 3f 7b f5 8d 36 fd e1 b9 3f
       0.1037787521961087 0.1011045702161563
000120 9e 0c 6d e7 af cd bc 3f d6 1d 22 38 c9 d7 b9 3f
       0.11251353645370663 0.10094888325158222
000130 1c 44 3c 5e 00 65 c0 3f 99 32 c1 7a 49 ec b9 3f
       0.12808231927240932 0.10126170393886937
000140 11 d0 ee 1d 3e 0a c0 3f 32 2a 4a 93 3a 0a c1 3f
       0.12531258069577736 0.1331246585071582
000150 1a 93 0c d7 66 17 bd 3f dd 01 24 5d 49 d7 b8 3f
       0.11363833189222952 0.09703501247350439
000160 80 6f 8f 42 ed 22 b6 3f 46 d3 a2 c3 98 99 be 3f
       0.08647044062621312 0.11953120018263261
000170 4b c5 45 94 bd 61 c0 3f 41 52 0e 17 41 a6 b5 3f
       0.12798280467863274 0.08456808865441535
000180 e7 51 92 ac dc 97 b5 3f 28 6f 77 9a 17 b4 ac 3f
       0.084348480350236 0.056061494451311866
000190 b7 ae ac a4 e7 3a b3 3f 8e e5 d0 56 b3 f2 a7 3f
       0.07511756677984747 0.046773533198982795
0001a0 dd 95 99 18 d4 c9 ac 3f f1 d2 48 be a6 78 b0 3f
       0.05622732925693772 0.06434099336258804
0001b0 63 15 b3 a3 f5 75 ad 3f 38 70 fe 01 08 f4 b3 3f
       0.05754058478627646 0.07794237183264918
0001c0 21 00 b3 35 e8 6c b0 3f bf 9d cf c1 a1 60 b3 3f
       0.06416178999916201 0.07569323522294889
0001d0 eb c9 e8 84 f4 57 b0 3f 14 ad 36 c5 3e 78 b2 3f
       0.06384208912712779 0.07214729609284048
0001e0 a2 f3 f0 76 da 91 b2 3f 06 4b 41 51 85 67 a7 3f
       0.07253804591978377 0.04571167580492923
0001f0 67 2f d0 19 fa 0b b1 3f cd 98 86 9b 90 14 aa 3f
       0.06658900385099074 0.050938147530631285
000200 59 79 00 a7 b8 6f c0 3f b4 c7 28 8a a0 e8 bd 3f
       0.12840946344744955 0.11683085797338216
000210 23 a4 8b 61 fe 11 bc 3f 18 a2 52 4e b4 6a bb 3f
       0.10964956170541078 0.10709692871262921
000220 ba 5d 62 b4 90 5f bb 3f c4 a1 73 78 82 a9 bb 3f
       0.10692696002876448 0.10805526200022714
000230 a9 2e 35 07 59 89 bc 3f f4 93 5d 32 aa c2 b9 3f
       0.111470760593131 0.10062659959437764
000240 ff fa 0a 01 5a 49 bb 3f 3a db fd ba fc ee c0 3f
       0.1065880062624096 0.13229331140947825
000250 d0 05 48 1b cd 00 bd 3f 9e ce f7 30 c5 6f ba 3f
       0.1132934753041106 0.10326797910220839
000260 39 64 dc 57 0d 78 b8 3f 93 5f 10 ac 15 80 bc 3f
       0.09558185000459297 0.11132941675930245
000270 0e 69 0f 4f ec 10 bf 3f 4f 91 8a df 73 c0 bb 3f
       0.12135197572880349 0.10840534408140921
000280 27 8d 8f 86 78 50 c9 3f e6 84 17 fc 9d ca ca 3f
       0.19776827402447703 0.20930838402913493
000290 2b 79 f3 9d 51 2a cb 3f 21 d7 91 ef 89 2a cb 3f
       0.2122289677854011 0.21223568151224817
0002a0 9c 5c 85 18 67 e1 c7 3f e3 ab 33 72 aa f5 cb 3f
       0.18656624505340325 0.21843462539922517
0002b0 d2 7c 4a d2 48 31 c9 3f 9f 4d f8 3b 6c 6b cc 3f
       0.1968165423213351 0.22202828338832334
0002c0 3c c1 3a 59 58 d1 cb 3f c2 42 f2 4d 4b 97 ca 3f
       0.21732620579633444 0.2077421312901802
0002d0 fb 96 6b b2 6b 25 c9 3f 8b cd 59 97 47 19 c9 3f
       0.19645448886802072 0.19608397379088802
0002e0 a2 b5 87 e6 bd 02 cb 3f f4 04 ad 58 73 c8 c9 3f
       0.21102117306092533 0.20142976598621198
0002f0 e6 43 a8 76 2b d6 ca 3f 98 67 66 0c 35 9e c9 3f
       0.20966094297230525 0.20014060121030464
000300 e2 a8 3c 19 3c a3 ea bf 38 c6 f7 4b c7 fa f1 bf
       -0.8324261181744783 -1.1237252204413277
000310 0e a9 8d 2b 8d fb e5 bf a9 13 6a df 2d 6c eb bf
       -0.6869569636012629 -0.8569554675637977
000320 0d 26 a2 05 dd 43 f2 bf 22 aa af a1 56 84 ee bf
       -1.1415682048849505 -0.9536545904096025
000330 61 07 85 51 d7 1d f3 bf 47 e4 2c 9b 21 6d f2 bf
       -1.1947854217873657 -1.151643377450698
000340 44 b4 ad 75 64 f1 ed bf 9c 51 28 42 9e a4 ed bf
       -0.9357168482216669 -0.9263449947489337
000350 3a a4 fe 8e d7 9b f2 bf 56 b4 51 db a6 15 f1 bf
       -1.1630473695497714 -1.0677860800890548
000360 4b 47 42 6c 86 8f f3 bf 33 70 a8 da 42 de e8 bf
       -1.2225403050292296 -0.7771314879096337
000370 e0 3c c5 17 9b 3d f3 bf 5b 5d a7 2d 5c 45 ed bf
       -1.2025404861959075 -0.9147168056178246

weight f8 [112, 16]
000000 8f 7d 1f 6e b6 bb cb bf dd f2 40 d7 e3 33 dc bf
       -0.21666603448009567 -0.44066711445684154
000010 93 de fa c5 4b 85 c8 bf 70 38 11 83 2a 3a bb 3f
       -0.19156787077894374 0.1063562936771818
000020 74 b5 bb 27 76 e6 c6 bf dd 86 7c 32 da 47 a8 bf
       -0.17890812816714752 -0.047423189795393596
000030 1c c2 08 7a ca af de bf 84 e0 3d 04 81 89 de bf
       -0.4794794265499449 -0.47714257635335167
000040 f8 8a 99 f4 1a 5d 32 bf 60 e3 7b b4 b1 b5 cc bf
       -0.00028020771114804733 -0.2242948657292585
000050 4e 61 61 6d 9d 94 de bf 7b a3 3b 95 cb 17 c4 bf
       -0.4778207367103463 -0.1569761732746676
000060 32 fc 45 6e 2a 83 db bf 34 55 1c 2b ab dc b3 bf
       -0.4298807217491599 -0.07758588602549282
000070 57 30 c3 00 0d a0 cd bf 2c 58 0a 76 b2 1d 69 bf
       -0.23144686257581057 -0.0030659184997814583
000080 07 32 9b 2c 05 a4 f0 bf 9a 1d db 4b 6b 4f de bf
       -1.0400439970427457 -0.473597358778045
000090 7c 7f d3 19 82 56 f0 bf e5 56 90 f9 c8 84 e9 bf
       -1.021120167621091 -0.7974591135304904
0000a0 27 2f 9c 3a c7 38 ef bf 6f c9 41 24 d9 d4 e5 bf
       -0.9756809372642906 -0.6822324474472178
0000b0 d1 9e 82 d7 f6 98 de bf 6a 58 a5 da 6b 9e dd bf
       -0.4780861954300067 -0.4627942691053081
0000c0 e9 69 7b ed a8 f2 e2 bf c0 cd 8c 52 fe 50 f1 bf
       -0.5921215666124314 -1.0822737907991353
0000d0 bd 88 fd ef 3f e0 da bf 84 c5 81 d9 9a fe e2 bf
       -0.41993711887893054 -0.5935796974355729
0000e0 b9 7a b5 32 d6 1e e1 bf bd a8 63 12 2c c0 ea bf
       -0.5350142469795492 -0.8359585150876893
0000f0 ad ca 05 ef 3f ae ee bf 2a f9 3a 7f 8d f8 e5 bf
       -0.9587707203302976 -0.6865909085243278
000100 cc f9 ad 5c 21 e7 ca bf 6f 43 93 65 fe 84 da bf
       -0.2101785376107287 -0.414367293543413
000110 2b 0f 30 85 30 00 ca bf 38 06 d0 eb 3b 7b ac 3f
       -0.20313078406626892 0.05562770131656375
000120 10 06 f2 7a cf 2d c9 bf 8a a6 44 b0 65 ef a5 bf
       -0.19671052458947758 -0.0428420808478452
000130 0a ac d2 c4 5c 21 df bf 2c c3 cf 77 07 0b dc bf
       -0.48641127797117234 -0.43817316723202526
000140 3b 78 88 46 13 8d 81 bf 6a b4 31 c9 4a 0a d0 bf
       -0.008569861021040839 -0.2506281819140158
000150 25 eb a0 e6 b1 ab dc bf 45 76 df 3b 47 c8 c6 bf
       -0.44797942659686135 -0.17798700736504905
000160 ea 07 17 fe 41 86 dd bf 9a cf ae f2 86 c1 b3 bf
       -0.46131944478486153 -0.0771717398154678
000170 09 af e8 e2 22 1a cf bf 69 af ef 41 16 2e 93 bf
       -0.2429851158097949 -0.018730495237761078
000180 3d 9f 59 5a 03 08 f0 bf b6 24 33 65 55 a4 d9 bf
       -1.0019563226032482 -0.4006551254538623
000190 48 6e b3 11 f4 e7 ee bf 64 93 43 4d 6a 60 e0 bf
       -0.9658146234245999 -0.5117694386541243
0001a0 6a 53 64 6f fe 03 ee bf 38 bd 91 40 fd 45 dd bf
       -0.9379875350592617 -0.45739680581660336
0001b0 5c 80 30 71 fc bd dd bf 94 9a e4 33 84 60 db bf
       -0.4647208314290816 -0.42776589458154857
0001c0 ee f6 ca f3 ce 5c df bf 09 bf d6 45 2b d4 f0 bf
       -0.49003957565206135 -1.051799080665605
0001d0 31 50 a3 ad ac 62 d9 bf d3 05 92 98 54 c8 da bf
       -0.396647615021041 -0.41847720050290355
0001e0 b7 27 ab 1f ea 86 e0 bf 25 75 05 ae 9e 37 e9 bf
       -0.5164690607573367 -0.7880395315984613
0001f0 03 e1 ff 38 6c b5 ed bf b6 ec ea 97 f2 7e e0 bf
       -0.9283963311454787 -0.5154965369360045
000200 6f 83 1a 9b ca aa d4 bf d6 68 8d a8 9c b8 e2 bf
       -0.3229242815669328 -0.5850356380499544
000210 93 f3 16 24 29 b8 d4 bf 41 a5 43 33 c5 7f c4 3f
       -0.3237402775228528 0.16014924052368865
000220 7c 14 81 c2 b4 72 d2 bf ee 90 70 ba 2d d3 65 bf
       -0.2882511043029081 -0.002664174378440013
000230 e3 9b b6 19 5b e5 e3 bf f0 9b f8 0c c6 28 e5 bf
       -0.6217475416386801 -0.6612272504179355
000240 37 ab 4e 96 12 db a6 3f 7c 44 0f d8 3e 90 d9 bf
       0.044640141342219435 -0.3994290456731233
000250 9d 7c d1 11 e8 76 e2 bf 0f 68 3a 88 fc 22 c6 bf
       -0.5770149562848875 -0.17294270183339264
000260 d7 fb e3 00 6e b5 e1 bf b0 4d d7 fc 2a 7e bd bf
       -0.5533971803087024 -0.11520641968609513
000270 aa a0 9f bb aa 4a d6 bf ca 7b 3a 1c d4 65 ac 3f
       -0.3483073074589905 0.05546439022622669
000280 5d ba 69 e2 b4 0e ef bf 43 ae 49 5e bb 75 da bf
       -0.9705452367905526 -0.41343578536791287
000290 7f 9e 7d c6 44 27 ef bf 16 ce 50 54 5f 21 e3 bf
       -0.9735435368319968 -0.5978237768926558
0002a0 ea 30 fc 41 d7 fa ed bf 1f 05 69 f3 27 a3 df bf
       -0.9368702210208799 -0.49433325548678114
0002b0 65 90 82 61 19 cc de bf 1f e7 ad 80 ab ca dc bf
       -0.4812072231527565 -0.4498699909814707
0002c0 d2 e9 a6 88 4b 7f de bf db 99 6b 8a a6 5f f0 bf
       -0.47651947350428003 -1.0233521849673852
0002d0 15 4d 6e d6 39 18 d8 bf ea 98 52 81 99 9c de bf
       -0.3764786333133128 -0.47830808285870197
0002e0 b6 10 19 f1 bd 04 e1 bf 9b ee c3 d4 b2 81 e8 bf
       -0.5318288525527552 -0.7658323436330251
0002f0 4b 47 8f 95 c8 ff ec bf 87 0f aa 35 b3 54 e2 bf
       -0.9062235756957561 -0.5728393600588654
000300 88 99 8a f8 1b 45 f0 bf e7 db fc b6 be ef dd bf
       -1.0168723782204285 -0.46775787229438354
000310 de ba cb be 6e 0c f0 bf b0 c5 4c 44 a5 33 e7 bf
       -1.0030353024446224 -0.7250543912870651
000320 62 08 21 67 a8 45 ef bf 31 03 59 5b cf 05 e4 bf
       -0.9772531522978734 -0.6257092270026076
000330 48 6d bd 32 ce 26 df bf c4 a4 9e 5a d4 20 e1 bf
       -0.4867434974200546 -0.5352575082698867
000340 67 80 e6 65 dc 3b e8 bf 01 90 6c 44 55 c3 f0 bf
       -0.7573072424165844 -1.0476887390914273
000350 91 74 fe ee 52 ea dc bf 0a 73 0d e7 e8 3e e1 bf
       -0.4518019994664622 -0.5389294159645897
000360 8c 17 6c 54 6f 4c e0 bf d9 d5 1d 07 fd 7f ec bf
       -0.5093304299232257 -0.8906235827441221
000370 40 a3 a8 1c 6e 80 ee bf dd b5 a2 59 1d 0c e4 bf
       -0.9531775054684672 -0.6264788389868802
000380 10 ab 41 3e fd 69 f0 bf 7d 70 fe 57 60 9b de bf
       -1.0258762771506476 -0.4782334193530529
000390 13 ca db 13 0e 95 f0 bf e4 27 36 46 97 93 e5 bf
       -1.0363903785443014 -0.6742664691275846
0003a0 33 a4 04 b2 4d 9b ef bf b1 a1 61 99 f1 c7 e2 bf
       -0.9877079464832889 -0.5869071956376982
0003b0 06 67 b8 2a 7f a7 de bf 0a b8 9c d7 6b 00 df bf
       -0.4789731900396962 -0.48440071159245746
0003c0 d1 99 4f 36 59 82 e5 bf 40 b2 11 00 cf 7d f1 bf
       -0.6721616802940905 -1.093214988966011
0003d0 eb 86 a0 a4 5a 5f dc bf 8c 62 cb 86 88 50 e0 bf
       -0.4433199508367653 -0.5098307259277859
0003e0 cb 27 55 57 18 7b e0 bf 83 df bc f0 6c 77 eb bf
       -0.5150262551990122 -0.8583283140096544
0003f0 5e 94 6f 0d 84 71 ee bf c1 82 e3 cc 8f c7 e2 bf
       -0.9513569128436179 -0.5868605615360921
000400 86 de 4f 31 fa b5 f0 bf c4 44 4a ad 67 42 e0 bf
       -1.0444280554055765 -0.508106077630281
000410 86 e9 ff 27 1a a4 f0 bf 1c 85 ab 64 cb 7d da bf
       -1.0400640070425609 -0.41392788725905105
000420 7c 63 da 4c 20 8b ef bf 96 ee 2d 0f b5 1c da bf
       -0.9857331753765801 -0.40800215227475556
000430 1a 38 2c f5 e0 06 e1 bf 8b 7c bb 8a 53 9f e1 bf
       -0.5320896900682357 -0.5506990155808053
000440 c2 4b ad 2a d5 03 e2 bf 4c 18 bb 4b ff 5d f1 bf
       -0.5629678567441874 -1.0854485471950452
000450 aa 78 7f 9f b3 53 e0 bf e3 a8 ca 3b 46 31 da bf
       -0.5102174868768732 -0.40925746764209076
000460 cb 60 77 4b b7 12 e2 bf 3b 8d f4 a1 24 db e9 bf
       -0.5647846673919273 -0.808000866240412
000470 26 58 6c df df 56 ef bf 77 b8 52 b3 44 af d7 bf
       -0.9793547977194563 -0.3700725318148054
000480 e5 2c 35 30 c8 5c bf bf ad dc 5e 95 f4 95 c1 bf
       -0.12250949074693869 -0.1373887757633602
000490 18 06 aa e9 c5 a9 c2 bf bd 53 ce e3 54 ca c2 3f
       -0.14580606374151794 0.1467996704419913
0004a0 eb 46 8d 39 c6 11 ba bf 47 05 ee 22 49 37 b1 3f
       -0.10183371453356542 0.06724984267022648
0004b0 99 a6 dd 6e 73 d9 ca bf b1 bd 8b 02 b7 42 c5 bf
       -0.20976107514734535 -0.16609847664174773
0004c0 31 c6 6c f1 a4 af bb 3f 41 2f 51 f9 11 98 bd bf
       0.10814886945879533 -0.1156016572651284
0004d0 d6 f4 6d 74 bc ef c3 bf 42 9f 75 25 88 78 aa bf
       -0.15575366673502938 -0.05170083482044997
0004e0 46 3d b3 33 7b de cb bf ed c3 b5 b0 2c 02 79 3f
       -0.21772708916112488 0.006105589457875188
0004f0 c9 5d 21 d6 95 b3 c0 bf 81 ac 19 72 48 13 b0 3f
       -0.13048050838072658 0.06279423509265493
000500 d8 4b c7 58 50 ec f0 bf df 85 1d ab d0 ee df bf
       -1.0576938121710011 -0.4989511176155172
000510 eb bf af 12 7f 83 f0 bf 35 31 a2 73 fd 13 ec bf
       -1.0321036081259034 -0.8774401911228212
000520 10 22 5a 7c 41 27 ef bf 7e 20 7c 3f 85 53 e8 bf
       -0.973541968226586 -0.7601953735293276
000530 5d 17 44 4e 45 c5 de bf 24 20 f2 02 1c c0 dd bf
       -0.4807904495540834 -0.4648504284637076
000540 b8 bb 36 de 51 9c e3 bf 61 aa c4 e7 10 a3 f1 bf
       -0.6128320064652746 -1.1023110440679817
000550 f4 be f6 29 1e 7e dc bf 6d ef cf 48 ff 37 e5 bf
       -0.445197621326755 -0.6630855962862207
000560 7a ec 66 2f 97 2f e1 bf ac 30 4a 77 2a 49 eb bf
       -0.5370593953915794 -0.8526813821677215
000570 a7 9e 82 d6 f8 a2 ee bf 23 2f 0e ef 6c b4 e8 bf
       -0.95739404579668 -0.7720245999384797
000580 a2 f9 7c a0 ee c6 ef bf 87 af 52 11 7c 6f d9 bf
       -0.99303370805119 -0.397429482380851
000590 cc 2c cf 50 9e 4f ef bf 91 9f b7 6a 6a cf e3 bf
       -0.9784690454775045 -0.6190692982026907
0005a0 33 d2 2d 16 8f 67 ed bf 66 e4 5d 25 d6 14 de bf
       -0.9188914712127086 -0.47002175950144076
0005b0 f0 3f 14 75 3b 40 df bf 30 33 26 66 e6 7d dc bf
       -0.4882954257345764 -0.4451843259383166
0005c0 cd 1a 6e 2f b0 db e0 bf a6 0d e2 da ee 8b f0 bf
       -0.5268174101227828 -1.0341633367650984
0005d0 43 61 5c 07 2b 93 d8 bf 6b 08 83 56 b3 e8 dd bf
       -0.3839824268229856 -0.46732791374609545
0005e0 19 44 db 8b 8a ed e0 bf 0c 94 c3 7b df 24 e9 bf
       -0.5289967280933779 -0.7857510964646521
0005f0 8f 7d 8f 38 7a eb ec bf bf 3a c5 21 9e 63 e2 bf
       -0.9037448029229597 -0.5746603641108193
000600 a3 ea d5 7e 13 df ee bf 3b 9e 48 74 7a ce df bf
       -0.9647309758432424 -0.4969774375517521
000610 4d 0d 3d 23 2b 04 ee bf da 39 97 28 32 24 e6 bf
       -0.9380088508845944 -0.69191844871403
000620 3c be af d1 3a 75 ec bf ef d5 ee 04 f2 e6 e2 bf
       -0.8893102736892113 -0.590691575655624
000630 a5 64 65 db 30 b9 df bf a6 5b 7b aa 9b 3d e1 bf
       -0.4956781523265568 -0.5387705163692444
000640 9e d1 f2 b7 b4 5b e8 bf ee 47 82 24 05 5a ef bf
       -0.7611945717567783 -0.9797387803139352
000650 06 00 02 a8 0e 2b dd bf 9b 9b 7e 1c 2c 9f e0 bf
       -0.45575300604832625 -0.5194302135977183
000660 9c 33 6e 42 45 98 df bf 2c 2f ec da 07 41 ea bf
       -0.493668856500159 -0.8204383159477167
000670 41 d9 7a 45 4b b5 ec bf 7a 71 01 83 c5 fe e2 bf
       -0.8971306187657221 -0.5936000403121817
000680 b0 5e 35 bd 5d 9e e2 bf 73 8d db 6c 33 2b d7 bf
       -0.581831807658963 -0.3620117724478497
000690 55 1e 15 14 ff ba e2 bf 0c 91 78 4c 67 c7 ba 3f
       -0.585326709006902 0.10460515610663296
0006a0 65 84 8c e7 6b a6 e1 bf 80 b4 5d 24 37 0c 88 bf
       -0.5515651247443542 -0.011742049023917511
0006b0 7b 94 5f 39 94 e2 de bf 7d 39 2b 8a 47 7e da bf
       -0.4825792846953118 -0.41395748608638155
0006c0 1d dd bc 5b f8 cb b5 bf c1 45 45 1e 90 0c e4 bf
       -0.08514358749095093 -0.6265335646841593
0006d0 f9 dc f0 66 38 24 d8 bf f4 fc 93 d8 28 d3 c0 bf
       -0.3772107129365874 -0.13144407820798387
0006e0 f7 15 32 17 75 77 dd bf 1c 0b 05 07 a5 3f d6 bf
       -0.4604161001701352 -0.34763456044690755
0006f0 6f 8e 80 23 97 05 e2 bf 56 11 2f e9 60 9e a3 3f
       -0.5631824201013397 0.038317707505060625
000700 b7 06 85 02 e2 2b d8 bf fb 83 d1 67 d5 a2 c8 bf
       -0.3776783966642187 -0.19246928757914347
000710 27 e8 81 f1 9d 1c d9 bf 0a 90 1c 6f 18 73 c1 3f
       -0.3923716410132578 0.13632493424768227
000720 0c ec b0 9b 56 89 d7 bf 11 0e d3 5f ad cf b7 3f
       -0.3677574654026905 0.09301265325034815
000730 41 27 37 99 a3 85 d8 bf 49 f1 89 68 24 48 c7 bf
       -0.38315668070264414 -0.1818891058391137
000740 e0 e9 4a e8 6a 68 a8 3f d0 e6 1e 7a 67 b8 da bf
       0.04767164311984451 -0.41750513959742097
000750 1a 4a 30 7a e4 9b d4 bf 54 79 9f 64 38 d6 51 3f
       -0.3220149224518153 0.0010886717523060545
000760 ca 37 77 15 54 ed d8 bf 1e 30 a7 0c 46 ce cb bf
       -0.3894853791833809 -0.21723247163606713
000770 19 dc e6 81 45 91 d8 bf 54 fe e1 65 ab bf b8 3f
       -0.38386666951868303 0.09667464482662896
000780 75 6a 6d d2 d7 70 ee bf ea a7 1f c4 3f a5 d8 bf
       -0.9512747869406001 -0.38508600380612157
000790 01 01 15 42 3d f2 ee bf e4 0d 20 9a 21 b5 df bf
       -0.9670702257790539 -0.49543037463464956
0007a0 e4 6c a3 ab 5e 25 ed bf e6 8b 63 c5 1d 1d db bf
       -0.9108117439567676 -0.4236521175027391
0007b0 60 07 d4 63 23 a3 dd bf 1c db 77 a4 91 17 dc bf
       -0.46308216809130975 -0.4389385324606552
0007c0 3c 85 ae e9 8e 7f df bf 5e e5 62 17 54 29 f0 bf
       -0.492160537915044 -1.0100899613883807
0007d0 30 e5 02 74 92 3f d8 bf 0c b4 80 74 17 eb d8 bf
       -0.3788801320002504 -0.3893488538477079
0007e0 7f 11 3b e6 f4 2d e0 bf b2 fe 39 8b 30 12 e8 bf
       -0.5056099411672647 -0.752220413138238
0007f0 41 af 76 d7 16 a6 ec bf 05 9f a6 e3 b3 67 de bf
       -0.8952745636247316 -0.4750795100357979

bias f8 [112]
000000 26 dd a5 90 f6 bb c8 3f 1f 2e 18 6e 26 f6 d6 bf
       0.19323617995153447 -0.358773810876956
000010 f3 9c 5c 4e b7 5a bb 3f d8 32 93 2d 41 64 e6 bf
       0.10685296691064021 -0.6997381105553258
000020 2b 41 84 07 b2 5f 54 3f 79 c0 d8 94 21 3f e4 bf
       0.001243518692778232 -0.63270644256228
000030 82 5c b9 20 f6 ea bc bf d2 d2 45 de ea d1 d5 bf
       -0.11296022700240552 -0.3409373446113878
000040 cb be c2 de df fd e1 bf cd 67 78 6e 31 59 d9 3f
       -0.5622405386729609 0.39606891430014174
000050 cf 73 61 09 e8 b3 d2 bf 34 89 e1 4c 50 e1 e0 bf
       -0.2922306148155344 -0.5275041104871776
000060 34 24 d3 32 39 68 c2 bf 3b 6d 1b 65 aa 6d d6 bf
       -0.14380564672163276 -0.350443457353055
000070 32 3a 44 29 43 8c b2 bf 2a 78 ad 4e d6 f2 e3 bf
       -0.07245273358805873 -0.623393205325333
000080 a5 1b c6 5e fa cd b7 bf 60 d7 aa a1 99 8b d0 bf
       -0.09298672498526502 -0.2585205153258041
000090 d2 f6 6a 43 30 35 be bf f6 13 77 99 fc 3c 67 bf
       -0.11799909254019816 -0.002836697920175708
0000a0 0f 1b 85 e1 6e f2 c2 bf 79 18 03 0c 48 8b bd bf
       -0.14802347194400808 -0.11540651601089448
0000b0 c2 b5 25 1d 8a c5 d8 bf e0 60 d6 87 13 ce cd bf
       -0.38705685469070883 -0.23285144932447732
0000c0 2c 2a 21 66 cb 09 92 3f 7b 53 74 75 8e 94 ad bf
       0.017615488155835177 -0.05777402099389569
0000d0 2f b7 c9 6a 14 a5 d6 bf 91 66 fb 43 a6 46 cd bf
       -0.3538256686068619 -0.2287185508674168
0000e0 61 62 86 59 16 c5 dc bf 8f ba b2 6e f0 8f b4 bf
       -0.4495292543665866 -0.08032133772460724
0000f0 3a 92 fc 8c f7 89 d0 bf b9 c5 e2 dc 25 ee c0 bf
       -0.2584208370992972 -0.1322676971954431
000100 09 e9 e4 69 36 89 bf 3f 89 bd b2 51 a9 b5 ba 3f
       0.12318744740779065 0.1043344330271251
000110 91 b4 b3 2a db ca be 3f 77 f5 8d c9 65 5b b6 3f
       0.1202828387501589 0.08733211680188001
000120 9a 0c 6d 0f 7f cd b7 3f da 1d 22 85 f8 8d b5 3f
       0.09297937513933832 0.08419755220722128
000130 45 88 78 be e8 23 bd 3f a1 32 c1 cd a7 0b b9 3f
       0.11382918024222118 0.09783409856135929
000140 23 a0 dd f7 e7 9c be 3f 67 54 94 26 a3 03 bc 3f
       0.11958169747742935 0.10943050090675542
000150 1d 93 8c d2 b4 32 be 3f e1 01 24 c9 ab 50 b8 3f
       0.11796121731147165 0.09498094235096445
000160 6a 6f 8f 28 0c 41 b9 3f 45 d3 a2 47 42 1a bc 3f
       0.09864879598847912 0.1097756791012446
000170 9d 8a 8b 46 4f 72 bf 3f 40 52 0e af cb 39 b5 3f
       0.12283797714511953 0.08291314147783968
000180 eb 51 12 84 2c 5b b1 3f 13 6f 77 32 18 85 af 3f
       0.06779745315936452 0.06156230560347189
000190 66 5d 59 f1 aa ef af 3f dc 72 68 23 15 54 b7 3f
       0.06237539478450564 0.09112674822285832
0001a0 dc 95 99 08 6a 09 aa 3f f5 a5 91 52 41 d3 a7 3f
       0.05085307459811947 0.046533624009338505
0001b0 a4 8a 99 13 07 01 b2 3f 39 70 fe c1 10 19 b2 3f
       0.0703281805850034 0.07069496856860348
0001c0 5d 00 66 96 31 b9 ad 3f bf 9d cf 0d a3 d5 b3 3f
       0.058053540810761396 0.07747859084303509
0001d0 eb c9 e8 d7 70 47 b0 3f 1b 5a 6d ca b5 69 a8 3f
       0.06359010001396086 0.04768150421175595
0001e0 a2 f3 f0 ae 5d b2 b4 3f 79 a5 50 c8 78 06 b1 3f
       0.0808466484167654 0.06650500193122423
0001f0 be 5e a0 df 8b cd af 3f 62 4c 23 20 89 11 b0 3f
       0.06211506943526278 0.062767572733081
000200 c5 f2 00 e6 be a4 ba 3f b6 c7 28 fa 0e a3 b9 3f
       0.10407631984066786 0.10014432532696457
000210 25 a4 8b d4 75 ce bd 3f 18 a2 52 d5 53 56 b8 3f
       0.1164315837774131 0.0950672527129729
000220 b6 5d 62 f4 27 75 bd 3f c6 a1 5d c5 03 10 b9 3f
       0.1150689098015992 0.09790061539172887
000230 a9 2e 35 61 7f dc bc 3f f0 93 dd 16 08 53 b7 3f
       0.1127395260165779 0.09111071165314377
000240 0c fb ca f8 94 53 bd 3f 6b b6 fb 73 a5 40 be 3f
       0.11455660890622371 0.11817392427084321
000250 cc 05 e8 9a 1f fb bd 3f 9b ce f7 55 01 15 bd 3f
       0.11711308986561803 0.11360176419094119
000260 3f 64 dc b1 a8 9a b9 3f ba 5f 10 64 73 59 b5 3f
       0.10001615850741617 0.08339616005866804
000270 10 69 0f 07 54 5d be 3f 53 91 8a 0f 9a 2f b9 3f
       0.11861157581680382 0.09838259581971913
000280 27 8d bf c8 2f b1 ca 3f e5 84 97 5f 5c 24 cb 3f
       0.20853230764542127 0.21204714458057264
000290 2b 79 73 2e d4 f2 c9 3f 21 d7 91 ec e5 52 c9 3f
       0.2027230479060987 0.19784235049490298
0002a0 a3 5c 85 f4 84 50 cb 3f e3 ab 33 58 4f fe cb 3f
       0.21339475574015862 0.21869842344980758
0002b0 ce 7c 4a fa 4d ae cc 3f a1 4d f8 91 30 c7 cc 3f
       0.22406935425985924 0.22482878806532106
0002c0 3a c1 3a 5c 03 7f ca 3f c3 42 b2 5b 1b 52 ca 3f
       0.20700113299745643 0.2056307027564995
0002d0 fc 96 6b f1 89 20 cb 3f 8c cd 59 17 c5 75 cb 3f
       0.21193050659274337 0.21453155174422667
0002e0 a4 b5 07 29 ca 55 ca 3f f3 04 ad fd 81 99 cb 3f
       0.2057430935232506 0.21562218557850307
0002f0 e6 43 c8 ed 3a 8f c9 3f 97 67 a6 02 03 8d ca 3f
       0.19968353853667437 0.20742833737750452
000300 e5 a8 04 9b b2 8b ea bf 3a c6 97 ce bb 18 f2 bf
       -0.8295529391955624 -1.1310384817155765
000310 0a a9 cd 3c b4 92 e5 bf ab 13 aa 3f 2f e7 eb bf
       -0.6741582095685612 -0.8719707721180517
000320 0b 26 42 e9 67 10 f2 bf 23 aa 86 9d 21 bc ee bf
       -1.1290053474098183 -0.960465247791323
000330 63 07 25 93 f9 30 f3 bf 46 e4 94 f3 3b 5f f2 bf
       -1.1994567630612998 -1.1482505335718698
000340 43 b4 ed d3 84 a3 ed bf 98 51 28 95 ea c0 ee bf
       -0.9262107981900346 -0.9610493577225041
000350 3d a4 9e c3 5f 8f f2 bf 55 b4 91 0b b4 c2 f0 bf
       -1.1600034371752053 -1.0475349857254248
000360 4b e7 07 c3 4b c3 f3 bf 33 70 ca f6 4e cd e8 bf
       -1.2351796739953496 -0.7750620670444789
000370 df 3c 45 46 94 72 f3 bf 59 5d 87 39 c0 fd ec bf
       -1.2154734368266913 -0.9059754489525559

weight f8 [3, 16]
000000 f7 d2 16 c7 d7 a2 d2 bf 0b 63 00 29 a6 b8 d3 bf
       -0.2911891407232327 -0.3081450844197639
000010 4a 56 e7 63 95 63 d3 bf 0b b9 3a 72 d3 6e d3 bf
       -0.30295309787957037 -0.3036392798920963
000020 74 ce 21 13 96 80 d3 bf d2 8d 17 76 e2 fc d2 bf
       -0.30472328060498133 -0.29668485195562966
000030 eb ff 7a ec 43 47 d3 bf 1c 37 0e e3 5c 4a d4 bf
       -0.30122469037814764 -0.31703874753371664
000040 43 5c 6b a4 38 9d d2 bf ee 1e ab 07 c9 a8 d2 bf
       -0.2908460240991568 -0.29155183552619135
000050 69 85 cb 37 7a fa d3 bf b5 e9 80 52 d2 48 d3 bf
       -0.31216292809229756 -0.3013196759890449
000060 85 80 92 b0 76 7f d3 bf 4f 76 f8 80 f4 5c d3 bf
       -0.3046547626818284 -0.30254852862149034
000070 c7 90 30 17 bb 43 d4 bf ae b6 bc cf cb 41 d2 bf
       -0.3166339613401416 -0.2852658775981166
000080 b2 c8 5d 42 9c e5 d2 bf be 34 f1 e4 55 20 d3 bf
       -0.29526430588806385 -0.29884860379827305
000090 dd bc 65 b7 ee 94 d3 bf 84 d2 0a 9d a6 46 d3 bf
       -0.3059651175489771 -0.30118718467864647
0000a0 d2 e8 45 7f 0e 26 d3 bf df c6 da 07 7b d6 d3 bf
       -0.2991977923299035 -0.309965856237893
0000b0 1a b0 42 d0 eb d2 d3 bf 57 1d 7e e2 0b 76 d3 bf
       -0.30974860513629354 -0.30407998197957425
0000c0 28 cd 52 e0 08 a9 d2 bf 68 d5 42 d2 de d9 d2 bf
       -0.29156705767236923 -0.2945477536516905
0000d0 7a 37 51 1e 69 01 d4 bf 75 84 3b a2 81 71 d4 bf
       -0.31258609734219756 -0.31942787974373427
0000e0 db 96 17 ce 6c a5 d4 bf 59 9c 02 a3 74 d2 d3 bf
       -0.32259674192606064 -0.30972019118275324
0000f0 69 27 c4 72 bb 8b d1 bf 75 3b a3 70 e2 4c d4 bf
       -0.2741535778774194 -0.3171926593758408
000100 1b 17 5f 92 6e 13 d4 bf 86 50 05 99 c3 2d d3 bf
       -0.3136860303314834 -0.2996682161658629
000110 43 e4 e8 bd 21 50 d4 bf 5a 23 c9 f8 6f 8b d4 bf
       -0.31739085718033183 -0.3210105828807649
000120 27 f8 fa a5 fc 7b d4 bf 68 87 87 90 2c f7 d3 bf
       -0.32006756028192956 -0.3119613086147326
000130 ec 71 b3 84 75 1a d3 bf 0f 4f 7a 63 ce 78 d4 bf
       -0.29848993262365187 -0.3198734256231867
000140 68 5e d9 70 ec a0 d4 bf e2 c8 86 f2 fc af d4 bf
       -0.3223219968835793 -0.3232414596960905
000150 ad 41 5d 67 2f 29 d2 bf 94 98 25 71 29 3b d3 bf
       -0.2837637433449583 -0.3004859547567176
000160 40 e8 49 c2 5e 38 d3 bf 17 9b 66 9b 0f b3 d5 bf
       -0.30031556104188795 -0.3390540139757134
000170 a3 0e 1c 5f 8f 5e d4 bf fe 6e 91 35 2a c8 d3 bf
       -0.3182714871220275 -0.30909209471950294
