Retweet/Comparison_ModelsV6/Curriculum_Learning_finalV6.pt (torch, 23685 bytes, 6 tensors)

scale f8 [3]
0.520780108765635 0.5137358238580737 0.4646744591077939
00000000: 80c8 f10b 3baa e03f 1f21 481c 8670 e03f
00000010: bee2 49f1 39bd dd3f

weight f8 [112, 3]
-0.4915484606180291 -0.26660538519669547 -0.21495220205178825 -0.03776827567117293 0.11594822817341152 0.06168239356288181 -0.6247281099224672 -0.6408643377207812
-0.3493529475616467 0.024793067705483725 -0.12474329407947388 -0.2261559188137052 -0.04469921257354844 -0.09987169650847434 -0.08897063700320619 0.16946864340962006
0.06423273270691324 0.19244639530924965 -0.3498640063358377 0.1902617021100507 0.07903208618114986 -0.4599849316422997 -0.3995341147894743 -0.18848652273262226
0.23342972992560132 0.35590332808426023 0.22678024160220436 -0.43402897800733387 0.582464695494698 -0.2163970067544267 -0.6097852582326942 -0.6605784319019944
-0.3579696756654947 -0.37471552232707095 -0.4077143102781804 -0.37986045823907916 -0.6122332845377022 -0.6097530120447683 -0.3144384219955376 0.4964129625180027
-0.30530397045563556 -0.012560091931301313 -0.284464436932024 -0.3301569318443566 -0.16332427314513562 -0.016395454633819573 -0.012777029514492439 0.13874517645917417
-0.41318712029255017 -0.0019376785059497716 -0.4205526191997799 -0.028256210159020526 -0.5093691623168484 -0.5366813086222636 0.06428403756573867 -0.0356450310018132
-0.4023399349250152 0.17245311479511247 -0.25666968038844246 -0.42168700785325614 0.36857676832611114 -0.7351189477611937 -0.6272540694303896 0.15780600340766002
-0.28231851661045393 -0.1330980829136194 -0.47909648573500335 -0.17983044930735373 -0.13805015965050582 0.003477060896759543 -0.28819227481239484 -0.8785526639592788
0.03968226270843702 -0.13472949418304445 -0.18402384762079116 -0.5345006023411538 0.3569187182362644 -0.3693308486656483 0.07482761042183046 -0.14660539186409108
-0.4643233494110467 0.18632609767691122 -0.048062689477730965 -0.41726360341814295 0.0010905530434138337 -0.2040859396464093 -0.7190242389920892 0.7740617464984854
-0.6043206904088051 -0.4393865684958681 0.30097472404550274 -0.50500209479863 -1.0118276960215082 0.13467238391505018 -0.7302138335220266 -0.26458347985473335
0.062463202437179136 0.1018832723287434 0.4283244302892649 0.09447509531238897 0.12121971010472365 0.44208259585332804 0.06981418970349824 0.0833004629843204
0.4296210751345785 0.08139809626209464 0.10938952529268386 0.4431968033164747 0.061120491319928104 0.13055065747792194 0.44459531331203467 0.08256821343208143
0.11143753953876095 0.4519374351596056 0.08888823681555609 0.13092664331772488 0.47303039417502313 0.08173749249479163 0.12520776097576994 0.4303888948036182
0.06341534238071618 0.109821282726891 0.45477824111821535 0.07576823661412505 0.11600703742660573 0.43702331075554696 0.07550486211783355 0.10743492967703004
0.4420239563341257 0.07523830257607002 0.12283558320645376 0.4492716032118123 0.07748632622920062 0.10045796990814468 0.4398620052771369 0.09251550669906787
0.09975916603003264 0.4318185331796482 0.06210778510285431 0.10965106971400418 0.4086446541689464 0.07349233281568913 0.11905611994169141 0.43403634145654224
0.04365277026627797 0.04685655205586109 0.052652771885557226 0.08203046274520917 0.061127698478763884 0.023951852969198464 0.06659121113565662 0.05151242015820793
0.021766835176625313 0.0701867682272234 0.07032323749335444 0.046270253319283465 0.0718190048166296 0.06175702157822069 0.021985917236665844 0.07904561400941261
0.05488440877039019 0.017857748035573346 0.08393083471919895 0.07163707401193826 0.04317976605573336 0.058596012714162114 0.0548675108762107 0.039673903562448466
0.06802632275515418 0.05766685910885541 0.025879022722305023 0.05494306305612493 0.07935166854153596 0.045386899814194005 0.0638708058820059 0.06239801656206799
-0.023636630249714432 0.059768800127919804 0.08051597538824969 0.01875940919251637 0.043129112334676215 0.036232137113397976 -0.04403599025268003 0.08198654094049852
0.04557002877732742 0.0012754748384767574 0.04481990039685467 0.054232287058318666 0.01395923254932032 0.07677721338982006 0.06463954494922766 0.0391108338290375
0.06612257734992534 0.08821946220425977 0.4344304772903348 0.09457010093961747 0.13086480683565715 0.4759746089930168 0.08279512787927024 0.08965422611113977
0.42269384639407925 0.07242704352601737 0.08771902693362353 0.42255237357153247 0.08380196174174441 0.12043657084378717 0.44026820139421685 0.10197387949801624
0.11478409972507123 0.45274897492750177 0.06892032070951802 0.1392791328256815 0.45433682615666526 0.06082768964520312 0.0916428923928788 0.4364426333964271
0.08440613818889062 0.1413812418044959 0.42986122867347204 0.06832346763655314 0.14327241239644348 0.44886922747080293 0.0618012884591093 0.08897543798231522
0.4483237280193844 0.09587043161945819 0.12186326924963437 0.4484981995185417 0.06664418931033463 0.09591566146505645 0.4342834131536546 0.10585301242329538
0.09307935504940307 0.41329542256618 0.07913556027803394 0.09953603175977112 0.41309137080681596 0.09160407254190638 0.107131324037746 0.4405493859344067
0.20619969376492897 0.19459868485558984 0.30340562144965905 0.19701698354898517 0.20067119996525767 0.2824003642960157 0.20001311754882609 0.21904838126568113
0.2812725616728392 0.22513694223443598 0.21341742109969136 0.27982220396629787 0.20190803113389202 0.21569192531605938 0.28399422797375196 0.20974498291464427
00000000: a33a b0ac 8775 dfbf d5dd 9608 1010 d1bf
00000010: a9ff 01c3 8d83 cbbf 1202 ab09 5d56 a3bf
00000020: d6b0 0878 c8ae bd3f 5ae3 2eae d594 af3f
00000030: d348 20ce c5fd e3bf dcde 75ed f581 e4bf
00000040: 6276 2277 cc5b d6bf ffaa d99b 5a63 993f
00000050: 6c76 7730 2def bfbf 5704 8d59 adf2 ccbf
00000060: 6b18 52b0 d0e2 a6bf 85c8 4c06 3191 b9bf
00000070: b1a9 3b98 c7c6 b6bf a326 9204 26b1 c53f
00000080: 3214 4f6e 8e71 b03f 5f0c 0b5f 15a2 c83f
00000090: 2ea3 5000 2c64 d6bf 253a 1fd6 7e5a c83f
000000a0: b791 7b61 723b b43f 409d 83a3 6470 ddbf
000000b0: f60d 2a89 f791 d9bf b1ca 6f8d 5320 c8bf
000000c0: ade7 f87f 06e1 cd3f 8734 aac0 1ec7 d63f
000000d0: b5bc 878c 2207 cd3f 08b3 837a 21c7 dbbf
000000e0: af2d 4700 8da3 e23f f634 7ba9 e5b2 cbbf
000000f0: 9f27 b65f 5c83 e3bf f1c8 2e61 7523 e5bf
00000100: 8d5a 7ca4 f9e8 d6bf 66b1 6cd0 56fb d7bf
00000110: 0062 30c3 fd17 dabf fb8b 4b3d a24f d8bf
00000120: 4596 d341 6a97 e3bf 30d5 abbf 1883 e3bf
00000130: 58e8 c454 c21f d4bf a4d1 d4df 3ac5 df3f
00000140: b589 1caa 198a d3bf e235 a300 1bb9 89bf
00000150: d5e0 5f53 aa34 d2bf fb6d 348a 4a21 d5bf
00000160: ef91 e64d cfe7 c4bf ed3b d255 f8c9 90bf
00000170: fdf8 3cdf d72a 8abf f458 afe5 66c2 c13f
00000180: 253c 3264 a871 dabf d8bc 0b74 36bf 5fbf
00000190: db73 6d88 55ea dabf d1e6 2a2a 32ef 9cbf
000001a0: a8bc b78e c04c e0bf 0107 9d47 7e2c e1bf
000001b0: 3aeb ff2e eb74 b03f f7db d5c4 1040 a2bf
000001c0: 602c 98ff efbf d9bf 2fb5 1194 f112 c63f
000001d0: 1729 c9aa 466d d0bf 5f2e f880 ebfc dabf
000001e0: 3faa 8103 c396 d73f 7ebc e92b 1886 e7bf
000001f0: e490 4f20 7712 e4bf 67ca dfb3 fc32 c43f
00000200: 9e6a f9ae 8111 d2bf fe1b a3a4 5b09 c1bf
00000210: 4d10 774e 84a9 debf 19cf 4c25 af04 c7bf
00000220: 3c08 74ac a0ab c1bf 9a1d cfda ec7b 6c3f
00000230: 74dc d102 be71 d2bf d999 f079 1a1d ecbf
00000240: e3c6 20c9 3b51 a43f 7351 a9e9 d03e c1bf
00000250: c091 9beb 178e c7bf fceb d701 a11a e1bf
00000260: 6eeb 899b c1d7 d63f 8b10 1bdb 1da3 d7bf
00000270: c57e 99fb e627 b33f d19c bc29 f7c3 c2bf
00000280: 0a56 1f48 79b7 ddbf 00f2 f497 88d9 c73f
00000290: a1e7 ed3e ac9b a8bf 8c7d 9f66 72b4 dabf
000002a0: 3529 fc69 1cde 513f b468 2df2 7c1f cabf
000002b0: ef12 f01e 3f02 e7bf dc75 c923 1dc5 e83f
000002c0: 3f43 3358 9856 e3bf 6273 7fd7 e81e dcbf
000002d0: 00ad 2c7d 2b43 d33f 9c4a 3227 fa28 e0bf
000002e0: 2c97 f93c 7230 f0bf a374 4bd6 f13c c13f
000002f0: 690b c266 e95d e7bf d96d 428c efee d0bf
00000300: fa9b 5747 2dfb af3f 7952 a9aa 0515 ba3f
00000310: f6e4 0adf aa69 db3f b137 a714 852f b83f
00000320: 90c7 8742 4108 bf3f 7788 d4cc 144b dc3f
00000330: 7dc1 92bd 57df b13f 7262 42dc 2d53 b53f
00000340: 1e06 d864 e97e db3f d300 6771 81d6 b43f
00000350: e833 a8b1 f300 bc3f 7ae7 fb1f 565d dc3f
00000360: 3b49 ab5e 2f4b af3f 7463 2b4a e2b5 c03f
00000370: f152 a8e6 3f74 dc3f 9843 61c0 3023 b53f
00000380: 8c9d ddab 2b87 bc3f e64f f6fd 8aec dc3f
00000390: ed35 1f26 61c1 b63f 7dc2 9c49 34c2 c03f
000003a0: c4b9 3f46 2146 de3f e546 1f91 bfec b43f
000003b0: 1d54 4cd3 ce06 c03f 5a8f efdc 7d8b db3f
000003c0: 5dfe 96e5 fc3b b03f 037e b761 3f1d bc3f
000003d0: b13f 2232 161b dd3f 5250 5512 8c65 b33f
000003e0: 0c66 da1f a3b2 bd3f d738 d29e 30f8 db3f
000003f0: 7e2e 7c61 4954 b33f ff30 6905 db80 bb3f
00000400: 043b 20d9 1e4a dc3f 9984 f840 d142 b33f
00000410: 6b24 a81c 2772 bf3f fd3c b4ae ddc0 dc3f
00000420: 8aa6 0ad5 24d6 b33f cec6 600f 9db7 b93f
00000430: 24c5 daf7 b226 dc3f ab36 a5a3 18af b73f
00000440: e741 9313 d189 b93f c70c 7433 eaa2 db3f
00000450: b000 b073 97cc af3f d89f 64ae 1712 bc3f
00000460: 91d0 55e8 3b27 da3f e13b f3bd 64d0 b23f
00000470: a8c8 893d 767a be3f a434 f55c 40c7 db3f
00000480: 6bd0 58e9 a759 a63f 48d2 5dfd 94fd a73f
00000490: 689d 95da 4df5 aa3f 1634 c4ca f2ff b43f
000004a0: 222c b133 214c af3f c7a8 b9a4 d586 983f
000004b0: 5357 0722 1f0c b13f 35aa d5ff d55f aa3f
000004c0: 3155 e294 0b4a 963f ebd9 2592 c2f7 b13f
000004d0: dfcb 2e25 b400 b23f ef62 9111 bcb0 a73f
000004e0: 4f2f ebf4 ba62 b23f 4c22 f4c7 9d9e af3f
000004f0: b723 04ee 7983 963f eb0a 1057 553c b43f
00000500: 684f 7529 cf19 ac3f 1507 2c2f 4d49 923f
00000510: 71b4 3ebe 7d7c b53f ddf9 0faa ce56 b23f
00000520: 3eda 1d86 a81b a63f 2b10 91ec 4b00 ae3f
00000530: 250a a729 9817 ac3f fd59 9c4c 2350 a43f
00000540: 9722 804f 2c6a b13f 8403 dfb3 8286 ad3f
00000550: 609d fad0 0780 9a3f bdad ef45 7f21 ac3f
00000560: 87d8 4415 6450 b43f 45d2 bca4 f33c a73f
00000570: 71b0 6e4e d659 b03f 6e4e f000 a2f2 af3f
00000580: 0703 a467 3334 98bf 29bc bd23 049a ae3f
00000590: 551b 19e9 b19c b43f d884 e5a3 aa35 933f
000005a0: 8244 f7dd 0415 a63f fbb5 eec7 048d a23f
000005b0: 92e7 f6a3 e28b a6bf 1136 0de8 11fd b43f
000005c0: 5284 8d6e f454 a73f 79d1 f5ad bae5 543f
000005d0: 2e35 d44c a2f2 a63f b703 9b96 55c4 ab3f
000005e0: 8c74 367a a896 8c3f ab58 96e4 aba7 b33f
000005f0: 42d3 959b 378c b03f 5615 6ed0 5506 a43f
00000600: c9c2 3ec3 68ed b03f 9eba 09f9 8c95 b63f
00000610: 0a40 167d b5cd db3f 370f b702 bf35 b83f
00000620: 8c3b c790 2dc0 c03f 407d d634 5e76 de3f
00000630: 6075 82be 0f32 b53f f474 1851 94f3 b63f
00000640: c4e9 9e7d 6a0d db3f 684b 4a27 948a b23f
00000650: 17b7 ea0f c174 b63f e18f 551c 190b db3f
00000660: cb7c 059d 0b74 b53f 4436 045d eed4 be3f
00000670: e63d 9dad 5a2d dc3f 5d7f 7dcd f51a ba3f
00000680: 0a84 6ba2 7d62 bd3f fc1c 27d6 d6f9 dc3f
00000690: 872a 7a1b c3a4 b13f 8832 400c e6d3 c13f
000006a0: 2e86 6dc4 da13 dd3f 1e4d 6f93 ce24 af3f
000006b0: b7fe bc99 e875 b73f 2c23 4115 adee db3f
000006c0: 665a 1a03 a49b b53f 0eba e8d0 c718 c23f
000006d0: e123 beab d882 db3f 0e5e 0c93 a57d b13f
000006e0: 37b4 d41a c056 c23f 9abe 0aff 45ba dc3f
000006f0: a6a8 9021 6ba4 af3f 9804 4824 18c7 b63f
00000700: ad4c 7701 56b1 dc3f 887f 75f0 f68a b83f
00000710: 3cc5 0264 6e32 bf3f 2bcf cfca 31b4 dc3f
00000720: fd6a 8ef5 970f b13f eea7 2ac5 ed8d b83f
00000730: 482c 2ca8 4ccb db3f d987 8ada 2e19 bb3f
00000740: 9cb5 de71 0cd4 b73f 1087 e0a4 6e73 da3f
00000750: 5144 5863 3a42 b43f b18c 2e81 317b b93f
00000760: 5f01 f8c9 1670 da3f 5776 bf4f 5d73 b73f
00000770: 4c8a 1e5d f56c bb3f 3b1d 370d f631 dc3f
00000780: e431 9566 c064 ca3f b851 a615 9ce8 c83f
00000790: 3920 6369 ff6a d33f 26bb 8c3e da37 c93f
000007a0: 26c8 8c08 98af c93f 73e9 41fa d812 d23f
000007b0: c354 52a3 079a c93f 3f90 e300 c709 cc3f
000007c0: 3e68 69a1 5e00 d23f 1659 028e 49d1 cc3f
000007d0: f289 0216 4351 cb3f 88b6 ae63 9be8 d13f
000007e0: 5589 4253 1fd8 c93f 2f33 9f02 cb9b cb3f
000007f0: 249a 5920 f62c d23f 382a 0f71 ecd8 ca3f

bias f8 [112]
-0.4466723829900448 0.07299850033942491 -0.7268044081772022 -0.142675357254939 -0.13488173973450768 0.18222354798357265 -0.09131247390557398 -0.46092990029191505
0.4612949620645161 0.04048502399624078 -0.7254754470026109 -0.5271483468167837 -0.6647742675661744 -0.024705424949878988 -0.38232533578322175 -0.022228882154499925
-0.27000639272916105 -0.48180264124546757 -0.04343828480318544 -0.1944740797147285 -0.41737879606276623 -0.1640457566042043 -0.5196898664104872 -0.28424845750581856
-0.10030181454997177 -0.2627384137399991 -0.08363766025200457 -0.006906770490343077 -0.17595800399852096 -0.2561268397593549 -0.2847970656139539 -0.564595953266551
0.11664315087437628 0.16344510202552562 0.127125880110982 0.145665861382079 0.14870578535860804 0.16663404120940248 0.14416844161100914 0.1433273122104897
0.14182752928986453 0.17054897614380238 0.14165427160845556 0.1332429786053291 0.13605610508813815 0.15610879500604904 0.13100504225401804 0.1263905873090944
0.06346943144813535 0.08511181047242758 0.042602739974143475 0.06595528261168988 0.05577427558572359 0.04454659888968049 0.05895194025782691 0.034075517265162183
0.0616509328974724 0.05409113064731272 0.04424432853709112 0.07410803803976793 0.04673825156590753 0.06077032206219818 0.06549130987050421 0.053114337188276635
0.11005133380553551 0.163528904502404 0.13334103080886867 0.13449842452147473 0.13742504293664906 0.16794356623739035 0.19409697352747105 0.13769267455349457
0.14950181560379966 0.14842348741973393 0.12939905279496272 0.14825782404806562 0.12113869544667806 0.1498591932656946 0.12544775610430256 0.14805453527975482
0.2515924732183798 0.22977686091950877 0.19751203185204858 0.21208455352847563 0.21061058479754738 0.22453271369512293 0.22306940668483324 0.22546811240466
0.228701724592029 0.21858467740856888 0.21497626303333445 0.2172758447058189 0.2332480406325931 0.21837853502386106 0.2152381407892814 0.2342418862078506
-1.185793089999628 -1.4373835388383664 -0.9556503985909593 -1.4773298344455472 -1.459388870416849 -0.8753973443649216 -1.4546576555479864 -1.2190955960725063
-1.2714640913800996 -1.3708955422703977 -0.9387646946833652 -0.9248361533004545 -1.0343530653532256 -1.4206658006559745 -1.2458788908440714 -1.436338354293531
00000000: 05fe 3dc3 4796 dcbf 7168 9d9b 07b0 b23f
00000010: 03b6 7651 fb41 e7bf 3d73 ada4 2f43 c2bf
00000020: a85f 7e0a ce43 c1bf 9c44 93e9 1953 c73f
00000030: d22b 2419 4160 b7bf f225 e01f e07f ddbf
00000040: 271b f84d db85 dd3f 7250 15fc 73ba a43f
00000050: 95ab dd48 1837 e7bf 60fe b635 66de e0bf
00000060: 0b69 4daf d445 e5bf 3128 c600 614c 99bf
00000070: 05c1 67af 0478 d8bf 2257 8507 2bc3 96bf
00000080: 36e4 9ee4 c847 d1bf 22a5 d1be dad5 debf
00000090: ee7e 3ff9 8a3d a6bf bbb0 25d2 86e4 c8bf
000000a0: 318a c88d 55b6 dabf 2dd1 d48b 73ff c4bf
000000b0: fa75 89a4 4ca1 e0bf 8b42 3b71 2031 d2bf
000000c0: d7b9 3835 61ad b9bf 3da3 9ac7 b4d0 d0bf
000000d0: bf0e 7f17 4769 b5bf 9f32 0816 464a 7cbf
000000e0: 9a50 52b8 ca85 c6bf 963b 19d4 6164 d0bf
000000f0: b6c1 b378 1d3a d2bf 227b 5788 2b11 e2bf
00000100: 99ce 4e56 53dc bd3f cf0c f2e3 c4eb c43f
00000110: 27a4 c62c a945 c03f 2acd 63cf 2da5 c23f
00000120: 01ad 6b8a ca08 c33f 8785 b2a6 4354 c53f
00000130: 2fd3 ea8a 1c74 c23f 41a8 48a3 8c58 c23f
00000140: 4079 fc8b 6727 c23f 80b3 7381 8cd4 c53f
00000150: 7cd1 f227 ba21 c23f b908 c41d 1b0e c13f
00000160: 2029 e354 496a c13f 1da0 957c 5ffb c33f
00000170: 1eca 0bf2 c5c4 c03f bde4 8117 912d c03f
00000180: 7a8e 5d5c 883f b03f 5280 7b3a e3c9 b53f
00000190: 5660 d1bd 06d0 a53f 25ce d005 72e2 b03f
000001a0: 8492 3223 728e ac3f 8027 c2d2 cfce a63f
000001b0: a0df e2de f22e ae3f 2a0e 7fa0 5872 a13f
000001c0: 8504 2009 b690 af3f cc8a 442a d5b1 ab3f
000001d0: ac58 3350 31a7 a63f 1664 c08f bef8 b23f
000001e0: 3545 e57b 13ee a73f 9828 a6a3 491d af3f
000001f0: 87e6 10da 09c4 b03f 3140 586a cd31 ab3f
00000200: bd71 93ff 522c bc3f a1ee 64e0 83ee c43f
00000210: 96fe 44a3 5111 c13f 0375 578f 3e37 c13f
00000220: 193b 88d0 2497 c13f fb16 48be 2c7f c53f
00000230: ddca c66c 2bd8 c83f 6992 0ddf e99f c13f
00000240: 2600 5b20 e022 c33f fa87 3674 8aff c23f
00000250: 8aa1 f1ed 2590 c03f e7ce d4c4 1cfa c23f
00000260: f53c 390f f202 bf3f 8b61 0a07 962e c33f
00000270: 4f8b e90c ac0e c03f fe87 8675 73f3 c23f
00000280: f321 1951 171a d03f 306f 8303 5469 cd3f
00000290: dc7e af02 1348 c93f c71e b22e 9625 cb3f
000002a0: a5cd f2a2 49f5 ca3f 8ff1 19eb 7cbd cc3f
000002b0: a588 39cf 898d cc3f 9fd0 889c 23dc cc3f
000002c0: 1dae d41d 1946 cd3f 9731 702c 95fa cb3f
000002d0: d67d 9299 5784 cb3f 3e73 9ce3 b1cf cb3f
000002e0: a5c0 2f61 12db cd3f 3cb6 09ed d3f3 cb3f
000002f0: f159 c563 ec8c cb3f 71db 4e5c a3fb cd3f
00000300: 62f0 d52c 02f9 f2bf 98e9 b1e1 85ff f6bf
00000310: ed70 0b25 b094 eebf 5b94 c59b 24a3 f7bf
00000320: 5263 e924 a859 f7bf cdae a14a 4103 ecbf
00000330: 2f46 171b 4746 f7bf c043 3d62 6a81 f3bf
00000340: 0f41 28bb ea57 f4bf 6589 042a 30ef f5bf
00000350: 4abe c941 5c0a eebf 44af 12fd 4198 edbf
00000360: ed59 c3cc b58c f0bf 1ecf 0510 0cbb f6bf
00000370: 8f3b 2fb4 1eef f3bf 1ae6 1aed 3dfb f6bf

weight f8 [112, 16]
-0.6141324105463337 -0.5467377576937036 -0.7462517470430753 -1.1100559505953775 -0.5540458758283193 -1.2732414826863565 -0.7232732031779258 -0.5859594130104702
-1.3450469861958274 -1.2250569690374666 -0.719520204814251 -0.8374691111068768 -0.6679005733799577 -1.151407071390603 -0.5693552835739726 -0.6167083448057203
-0.7696350875964224 -0.669942585588109 -1.0747824467596827 -1.3184661288512876 -0.7052110727402635 -1.4768313941243645 -0.8087471029919974 -0.7679908537767212
-1.5065873280508384 -1.4367089115631124 -1.0907141700909204 -1.2054793649184974 -0.9701302873033807 -1.3476712111555702 -0.7487162675874598 -0.6697742018910506
-0.5848225004392726 -0.5703738911392705 -0.6167429644002259 -1.127713992954631 -0.5754116262541125 -1.2510978519654794 -0.7557928021285981 -0.4785458580192983
-1.302785554256385 -1.2121681798722006 -0.6569019549808757 -0.7083595652833716 -0.59620641357563 -1.1376821920392755 -0.5100403967532984 -0.6257240656274239
-0.6951729519308081 -0.7139200233683203 0.19469890372980925 -0.40791541713997287 -0.5789185684009429 -0.5251625462203792 -0.7664858393992078 -0.338031730528891
-0.6211068011584842 -0.5365255431085642 0.2086958096104894 0.16736615632334498 0.10349270943684995 -0.4858981284904846 -0.31891100032447756 -0.6726059760177019
-0.7570230077037342 -0.6643480792788778 -0.9175871589051949 -1.235741613920251 -0.6716901401989408 -1.4044842069817565 -0.7776769148345933 -0.6962859401179607
-1.4484008748833943 -1.362394663060349 -0.9035793428998325 -1.0550076327851399 -0.8269851567849238 -1.2452809792624506 -0.6893571729987831 -0.6569269120464247
-0.5620067596725421 -0.6150477422659932 -0.09039016545092976 -0.2952026355755045 -0.4766082721560672 -0.3253623655359899 -0.5125480125731989 -0.4507709432376725
-0.3867543199948325 -0.3493139802652555 -0.10846287064110434 0.027889654605754995 -0.19058677520210268 -0.32638163533882353 -0.4782903360654122 -0.5701898311419058
-0.659889772171402 -0.7113258870419444 -0.7382977474702166 -0.9476691299916846 -0.6502967513202661 -1.0649909480554185 -0.6583109660945631 -0.680789013634294
-1.1061520265339686 -1.0135277831860818 -0.7309305898213477 -0.7533034023339079 -0.7239193814828782 -0.9525464106511257 -0.6781164692508881 -0.6133590674352355
-0.5630651527718225 -0.5615687210661227 -0.986885374924509 -1.1567711314798774 -0.5744619945720641 -1.33954261810083 -0.7277214503255783 -0.6087219906140017
-1.3792518989871754 -1.2668933226724168 -1.006655111198858 -0.8401229657343262 -0.9354750449452508 -1.1919257919409438 -0.5295497166339816 -0.6139774783479389
-0.4177710463645013 -0.42683706921506204 -0.010357912599098223 -0.18293749282994082 -0.31775973558765386 -0.19020121422832517 -0.38281722989436623 -0.33241231559198076
-0.2490467711256842 -0.24095033957653292 -0.025106256034037083 0.09191112189593954 -0.10338460649431903 -0.2137658236409444 -0.3355240842796247 -0.3966085993206794
-0.3658939511036042 -0.4403254843581173 0.13304007511286392 -0.33155616117560077 -0.230700679203153 -0.467994292746823 -0.5107535097860011 -0.092307914202771
-0.4972394001370416 -0.39235076216939463 0.14220617384112016 0.11272457526606086 0.06268137499554993 -0.41163882533162327 -0.0653036232177574 -0.44066310142300963
-0.5493516582196225 -0.5838568544816398 -0.5768060478990692 -1.0837488199014613 -0.5601257242724262 -1.2188438385519087 -0.7383112029556305 -0.4787560705994901
-1.2834963403934223 -1.1969406828451346 -0.5946300266195168 -0.7030095999080048 -0.5382692376583165 -1.1290790741619088 -0.5099670886939789 -0.6418768565572662
-0.7534288208656886 -0.6933852060764235 -0.5446116817328488 -1.0822087184202254 -0.6793287982795603 -1.2225403067176552 -0.833659807183897 -0.6618428053694817
-1.270673557177534 -1.182481438137957 -0.5584136226204834 -0.7035363030933571 -0.5510986845266231 -1.1388426881764455 -0.7028182564526257 -0.7174083205954919
-0.5629152110437458 -0.5885073494180681 -0.6351973866705025 -1.0923828369496171 -0.575433336330027 -1.221806891672138 -0.7347061875693032 -0.510314090453229
-1.3038587508993493 -1.201234941250433 -0.6830717436880204 -0.7136707716316109 -0.6037261505907241 -1.127571145601394 -0.5191018917409126 -0.6324218933691194
-0.8283704238941122 -0.8075960905679621 -0.05686405454546111 -0.40340848536404034 -0.6740890103348165 -0.49301317477871104 -0.7934627546099786 -0.54974563063424
-0.5789364401344322 -0.53762268940934 -0.03976643128810403 0.0607008370139202 -0.13169981121696098 -0.4349575049348208 -0.5527242253830802 -0.74797315590171
-0.6836998384348506 -0.589514014701528 -0.8998438662106119 -1.2205941619625458 -0.5868696157092291 -1.3818439227886947 -0.7675527349533959 -0.6973607128907992
-1.4669363778788875 -1.3385245227271527 -0.9006642909465123 -0.8972184771711387 -0.8315280474765011 -1.2438079272002307 -0.6299692204092492 -0.6281552804051923
-0.7326705808663632 -0.6518714396938766 -1.005377006871707 -1.2199200946494742 -0.6386650934337849 -1.3573525222294214 -0.7651877802710039 -0.7146251461176575
-1.40770241616971 -1.312470645914581 -1.0378869828367232 -1.1233150825015328 -0.8820276467535744 -1.194753676684905 -0.7062801334547646 -0.6179092373256142
00000000: 8ab9 5603 f9a6 e3bf f00c 992e e07e e1bf
00000010: 7f40 0458 4be1 e7bf f098 4807 cac2 f1bf
00000020: 6652 a56a beba e1bf 75c6 0076 325f f4bf
00000030: 871d 37d8 0d25 e7bf f839 75f4 2dc0 e2bf
00000040: 09b6 14fd 4f85 f5bf 7c0b 1c56 d599 f3bf
00000050: 38a1 8f3c 4f06 e7bf bea7 7305 8ccc eabf
00000060: acb0 f405 715f e5bf aa17 40d2 296c f2bf
00000070: 1c29 5892 2838 e2bf 2b8c 8323 13bc e3bf
00000080: 5695 62c3 d9a0 e8bf 358e e96e 2b70 e5bf
00000090: f95c 3214 4f32 f1bf cfcc 84f0 6f18 f5bf
000000a0: cd49 c6cf 1691 e6bf 1286 b7f4 19a1 f7bf
000000b0: 5fbb c29a 41e1 e9bf ed23 138e 6193 e8bf
000000c0: f3bd 6850 fb1a f8bf b090 d07b c2fc f6bf
000000d0: 4530 9db3 9073 f1bf a73e 05bb a449 f3bf
000000e0: a377 1aac 4e0b efbf 3bc8 1ab0 0f90 f5bf
000000f0: b1ae 68d1 7bf5 e7bf 3673 9a4e ca6e e5bf
00000100: 7c40 2bad ddb6 e2bf 0def 1dbf 8040 e2bf
00000110: d162 c4bd 5bbc e3bf 1ab5 efd3 1d0b f2bf
00000120: a0fc 8fa4 c569 e2bf f199 642e 7f04 f4bf
00000130: 9339 f662 742f e8bf b810 75ce 7ea0 debf
00000140: f1b7 53aa 35d8 f4bf dfd8 1c76 0a65 f3bf
00000150: 4c48 aa3f 5705 e5bf 6e6d d6ad e1aa e6bf
00000160: 0621 ff78 1f14 e3bf f2cd 003e f233 f2bf
00000170: 8d37 f63c 4052 e0bf 0414 c679 ee05 e4bf
00000180: 4669 b358 db3e e6bf 9e72 0ace 6ed8 e6bf
00000190: 2815 0bc8 e4eb c83f d99f 0944 491b dabf
000001a0: b788 ca3b 8086 e2bf 4138 23af 21ce e0bf
000001b0: 7422 a24f 0d87 e8bf 9670 e8d6 4fa2 d5bf
000001c0: 4c90 c95e 1be0 e3bf 65d6 a39d 372b e1bf
000001d0: 006e 8b56 8bb6 ca3f c5d8 ee13 416c c53f
000001e0: 07dc 678a 7f7e ba3f 9f78 c376 f418 dfbf
000001f0: 159c 2eaf 0969 d4bf d6e2 c2f7 fc85 e5bf
00000200: eb06 8d50 8839 e8bf e638 35e7 5642 e5bf
00000210: 9846 d7be df5c edbf f27f a1ff 98c5 f3bf
00000220: 4467 2652 7c7e e5bf 21c3 8b6e c478 f6bf
00000230: 3f33 82b2 bae2 e8bf 8714 af73 f947 e6bf
00000240: 93f3 5165 a62c f7bf 1c6d a158 5ecc f5bf
00000250: 0712 e339 1fea ecbf 197b fdae 4fe1 f0bf
00000260: d465 5593 a976 eabf 9335 84bf abec f3bf
00000270: 845e 29c6 360f e6bf d240 6396 8b05 e5bf
00000280: 8195 9d99 f5fb e1bf c05a 509a 78ae e3bf
00000290: cce4 7d54 cf23 b7bf da58 5f98 99e4 d2bf
000002a0: c174 7afb bf80 debf ade1 d4ab bcd2 d4bf
000002b0: c636 f416 cb66 e0bf 1358 cc5e 6ed9 dcbf
000002c0: c5ba fd30 95c0 d8bf 5697 5106 295b d6bf
000002d0: bddb 3b02 39c4 bbbf 82bc b609 1b8f 9c3f
000002e0: 7185 45bf 2565 c8bf 4be5 72cc 6fe3 d4bf
000002f0: ef33 d911 4f9c debf 1a85 a8be fe3e e2bf
00000300: 2f1d ce27 d11d e5bf 4196 b481 2ec3 e6bf
00000310: a00a 0399 22a0 e7bf 22c7 1736 4e53 eebf
00000320: e5b2 f321 3bcf e4bf e6f1 c6f2 330a f1bf
00000330: 932d bf28 e210 e5bf ec21 a10a 06c9 e5bf
00000340: 5ce1 a577 ccb2 f1bf 13f2 a5e8 6837 f0bf
00000350: bdb7 5d8c c863 e7bf 55ab 9fbc 0f1b e8bf
00000360: b41a 8dfa 582a e7bf 9266 359c 427b eebf
00000370: 40f8 494f 21b3 e5bf 53dc ea31 a3a0 e3bf
00000380: d682 1536 a104 e2bf f8ef 6df7 5ef8 e1bf
00000390: 6672 46a3 9094 efbf 9b9b 2a72 2282 f2bf
000003a0: 186c ef1e fe61 e2bf e575 853d c46e f5bf
000003b0: 9fdf b77e 7e49 e7bf 8961 418a a67a e3bf
000003c0: 7488 7170 6a11 f6bf 8261 c6ee 3145 f4bf
000003d0: 9634 cf63 421b f0bf 9751 ce8e 49e2 eabf
000003e0: 8b72 885c 69ef edbf f652 7ac7 2012 f3bf
000003f0: 8f91 513f 12f2 e0bf ad84 bf18 b4a5 e3bf
00000400: 997a 56c5 c2bc dabf 90f2 3f6d 4c51 dbbf
00000410: 7691 f17e 8736 85bf b25a 75ea 7e6a c7bf
00000420: c569 15ee 2c56 d4bf 2994 626d 8358 c8bf
00000430: a576 afd6 1380 d8bf 0155 104e 3e46 d5bf
00000440: 0561 94bc c3e0 cfbf a17c 38f2 75d7 cebf
00000450: 6b61 5d52 74b5 99bf d985 aebe 7c87 b73f
00000460: c98c cddf 6977 babf 832a c5b2 ad5c cbbf
00000470: e315 4002 3a79 d5bf 8842 d908 0962 d9bf
00000480: 39d4 7276 ce6a d7bf 5976 baf0 4a2e dcbf
00000490: a664 d509 7507 c13f 2f56 4255 3738 d5bf
000004a0: 01d8 2b90 9987 cdbf fcfb 8355 9ef3 ddbf
000004b0: 8f23 9bbe 1758 e0bf 33b2 a9d0 7da1 b7bf
000004c0: 96c2 7734 c5d2 dfbf 9f01 055f 461c d9bf
000004d0: 66ec f7d8 cf33 c23f 1225 398c 84db bc3f
000004e0: 5098 acf7 e20b b03f 1d0b 245f 4a58 dabf
000004f0: b8d3 07fe bcb7 b0bf c59b 4a02 d333 dcbf
00000500: 10d0 c1ed 4994 e1bf 0e69 f191 f4ae e2bf
00000510: 8191 fbf4 3175 e2bf cce2 a800 0957 f1bf
00000520: 90bf 6cc8 8cec e1bf 512f 9865 6280 f3bf
00000530: 10e0 ded0 3ea0 e7bf 2a1f 7f80 f0a3 debf
00000540: 2c68 6875 3389 f4bf ef25 0146 ab26 f3bf
00000550: 289d b18c 3507 e3bf 2820 0cfd 0d7f e6bf
00000560: 26ee 8568 8039 e1bf 45f9 2138 b510 f2bf
00000570: 5843 ff7f a651 e0bf b320 5f55 418a e4bf
00000580: 576c 2fc2 161c e8bf 571c f42b 3630 e6bf
00000590: 1afd 417a 756d e1bf 9df9 d016 ba50 f1bf
000005a0: 25ef 7abf 0fbd e5bf 644e b66c 868f f3bf
000005b0: 2c06 fb54 57ad eabf 43f4 84f6 d02d e5bf
000005c0: 0d83 bfcb ad54 f4bf 87df 0ea8 71eb f2bf
000005d0: b477 d93e 86de e1bf f7b5 aa90 5e83 e6bf
000005e0: 8d22 5db5 99a2 e1bf de1a 501c b338 f2bf
000005f0: 56dd 4fb6 7c7d e6bf ddbf 5a4b 02f5 e6bf
00000600: 8b52 bbc2 6603 e2bf 9499 665d 0dd5 e2bf
00000610: a824 4878 8953 e4bf 9d90 f66c 667a f1bf
00000620: ae19 122c f369 e2bf e125 1c62 858c f3bf
00000630: 8fed f88c b682 e7bf 47e8 2537 7e54 e0bf
00000640: 3675 5bfe 9adc f4bf beba 3721 4238 f3bf
00000650: 97c6 fe45 b9db e5bf 729a 0816 64d6 e6bf
00000660: 42de 1081 b951 e3bf 0157 a40a 880a f2bf
00000670: db34 0a92 7b9c e0bf bb6e a9d6 cc3c e4bf
00000680: ef29 f3b0 0282 eabf 3fbd abc1 d3d7 e9bf
00000690: 4772 2e0d 491d adbf 1151 e4d2 71d1 d9bf
000006a0: b464 bf1d 2392 e5bf 11fd 8a21 878d dfbf
000006b0: 169b b400 0c64 e9bf b32c 1626 8497 e1bf
000006c0: ade1 9ab6 a586 e2bf c738 937f 3434 e1bf
000006d0: f8d9 b803 445c a4bf 0715 a11b 2e14 af3f
000006e0: f179 0817 8adb c0bf 6f11 b600 58d6 dbbf
000006f0: bc45 f7b6 eaaf e1bf b647 5c66 65ef e7bf
00000700: 1b76 cb7b dee0 e5bf bda7 b57e 4cdd e2bf
00000710: 542f 1c5d 85cb ecbf 2415 75be 8d87 f3bf
00000720: 5d97 cfc9 a2c7 e2bf 56dc 885f 081c f6bf
00000730: ee90 d2c0 ca8f e8bf 0533 ec69 c750 e6bf
00000740: 1fd7 8447 9278 f7bf 341d a0b0 986a f5bf
00000750: 224a 49eb 3dd2 ecbf 9024 1a86 03b6 ecbf
00000760: 2dc9 33b5 e09b eabf e449 1d24 a3e6 f3bf
00000770: 719e e435 b528 e4bf e3cc 441a d919 e4bf
00000780: ccfe f192 0972 e7bf f7cf 557e 21dc e4bf
00000790: 2ca1 4a33 0616 f0bf 200b e4ee ca84 f3bf
000007a0: f1a2 2cc7 f16f e4bf 49e5 4147 b7b7 f5bf
000007b0: 6c02 7215 6b7c e8bf 992f ef8d 35de e6bf
000007c0: 752f fff7 f285 f6bf 259c 5238 e1ff f4bf
000007d0: 3ba5 8361 2f9b f0bf 7929 673c 19f9 f1bf
000007e0: a22e 1f0b 9239 ecbf e432 0208 b61d f3bf
000007f0: 5c16 60cb d899 e6bf cfb6 c697 e9c5 e3bf

bias f8 [112]
-0.4536240466331666 0.08383261007603138 -0.7252279081637315 -0.1507700563769507 -0.10771800693760035 0.16907409558783526 -0.10659122353915426 -0.46322563232442254
0.47781633862216405 0.03184049065262758 -0.7362226249946269 -0.5201673739865778 -0.6674866749483793 -0.021113750569874683 -0.37479143080328475 0.0009130877721557425
-0.27473973575576155 -0.5041873406795098 -0.043400273803625086 -0.2045776916887743 -0.409714042472987 -0.1778263579268554 -0.5030919551606413 -0.26410741333987847
-0.1014177168769728 -0.23683422487606545 -0.08378563343927238 0.0027871175257020604 -0.17795490907576983 -0.25469954786688603 -0.3113512468544527 -0.5755647054719224
0.121660738149155 0.17727732108696756 0.11816534453581184 0.11191509635646302 0.15571165989181407 0.15803289923227862 0.16716053007044146 0.12888796128510455
0.15288986497848542 0.1458815219297342 0.1437673689557747 0.15770745313063234 0.11746840755797279 0.13748652235813133 0.12645240549279926 0.13297760533513356
0.05246036787644388 0.06639000476161645 0.056520452759913214 0.08130405524644195 0.05376269938395671 0.05342808956727564 0.0664459105914256 0.04768427420597374
0.06431301917474115 0.06405097976882808 0.042629316588930176 0.07219511774054894 0.020678494113449537 0.05987305306469278 0.05612420041952704 0.06461602895808465
0.11415351591444435 0.16367376148433715 0.12308587507321957 0.12752401146182282 0.15114271525859477 0.15170525120645806 0.17195149500692816 0.14369234026084457
0.1697946150579825 0.1412959356503621 0.14576713272550695 0.16760621631112074 0.11783868428868864 0.1475836583602012 0.12440416236048653 0.14400249557826303
0.22287204748548053 0.22459920542939354 0.22748714624230262 0.22247453671683667 0.22489050587101392 0.2077596094931207 0.21247368101018535 0.2165667319365001
0.21513280311170113 0.21721138965257286 0.21633756932440804 0.22327487711381794 0.21500704329765088 0.22544848571435408 0.23883024173365142 0.22353229499796207
-1.2058263242643295 -1.4285435634943493 -0.9632164667960105 -1.4691189877278445 -1.4593159098787578 -0.8794299822888773 -1.4422327477844978 -1.2390633113284217
-1.2664005650477204 -1.3778742035579736 -0.9332529376969856 -0.9177482371646666 -1.0448766369860274 -1.4099677240855684 -1.252377246728176 -1.412451050635701
00000000: 06fe 3d27 2d08 ddbf 7068 9dce 0d76 b53f
00000010: 03b6 7628 1135 e7bf 3f73 ade6 6e4c c3bf
00000020: 57bf fc44 6893 bbbf 9444 934f 38a4 c53f
00000030: c62b 24fb 8f49 bbbf ef25 601f 7da5 ddbf
00000040: 231b f8fa 8a94 de3f 6b50 1594 654d a03f
00000050: 94ab 1dc0 228f e7bf 62fe 760c 36a5 e0bf
00000060: 0969 ed03 0d5c e5bf 4e28 c6d0 d79e 95bf
00000070: 01c1 8732 95fc d7bf 4429 550f 89eb 4d3f
00000080: 31e4 fef8 5595 d1bf 93d2 687d 4d22 e0bf
00000090: ee7e 3f89 8f38 a6bf c1b0 a50f 9a2f cabf
000000a0: 2f8a 483f c138 dabf 33d1 d49b 03c3 c6bf
000000b0: fd75 c94c 5419 e0bf 7942 bbc7 22e7 d0bf
000000c0: d3b9 38f1 82f6 b9bf 6546 3579 9550 cebf
000000d0: c10e 7fab f972 b5bf 289b ef53 02d5 663f
000000e0: 9c50 52f9 39c7 c6bf 973b 1955 ff4c d0bf
000000f0: b2c1 b3c7 2ded d3bf 1e7b 57ac 066b e2bf
00000100: 9fce 8e7b 2825 bf3f d70c 32f4 05b1 c63f
00000110: 4848 4d82 1540 be3f 409a c7be 77a6 bc3f
00000120: faac 6b13 5cee c33f 8985 f20a 6c3a c43f
00000130: 36d3 ea28 8465 c53f 5ea8 4895 667f c03f
00000140: 4379 fc24 e591 c33f 7eb3 e3e6 3eac c23f
00000150: 7cd1 f219 f866 c23f ce08 c400 c22f c43f
00000160: 3d52 c6d8 6812 be3f 0da0 958a 2899 c13f
00000170: 0dca 0ba9 972f c03f c3e4 0101 6905 c13f
00000180: f91c bbd8 15dc aa3f 5580 3b73 effe b03f
00000190: 9c60 51b0 3ff0 ac3f 23ce 50b2 57d0 b43f
000001a0: 6e92 32d7 c886 ab3f 8227 c232 ed5a ab3f
000001b0: da6f f164 9902 b13f fc0d 7fbc 126a a83f
000001c0: 3d02 106a d176 b03f 9545 621f a565 b03f
000001d0: 9b58 3381 82d3 a53f 1564 a015 617b b23f
000001e0: 958a ca3f be2c 953f 8b28 a649 aea7 ae3f
000001f0: 20cd a1aa 4fbc ac3f f31f 2c13 ad8a b03f
00000200: b971 9331 2a39 bd3f a2ee 6406 43f3 c43f
00000210: 31fd 0950 8e82 bf3f 0175 57f1 b452 c03f
00000220: 233b 88fd a458 c33f 0017 48e2 136b c33f
00000230: cbca c6af 8102 c63f 7192 0db7 8264 c23f
00000240: 3600 5b77 d4bb c53f 0388 5637 fc15 c23f
00000250: 96a1 f155 7fa8 c23f f1ce d4d8 1e74 c53f
00000260: fb3c 390f ad2a be3f 8661 0a75 05e4 c23f
00000270: 9d16 d380 f3d8 bf3f f787 867c ac6e c23f
00000280: ed43 923d 1287 cc3f 326f 03b1 aabf cc3f
00000290: dd7e af7e 4c1e cd3f cb1e b2ad 0b7a cc3f
000002a0: a5cd f24b 36c9 cc3f 91f1 19ec dd97 ca3f
000002b0: a388 996b 5632 cb3f a0d0 886b 75b8 cb3f
000002c0: 1cae d4c0 7889 cb3f 9631 7033 95cd cb3f
000002d0: d77d 9210 f3b0 cb3f 3e73 9c6b 4594 cc3f
000002e0: a5c0 afcd 5985 cb3f 3db6 89f8 7edb cc3f
000002f0: f059 c546 fd91 ce3f 6edb 4ecc b49c cc3f
00000300: 61f0 358b 104b f3bf 98e9 e17e 50db f6bf
00000310: ed70 fb56 abd2 eebf 5994 63e9 8281 f7bf
00000320: 5263 b7a3 5b59 f7bf cbae a158 4a24 ecbf
00000330: 2f46 4fa5 6213 f7bf bd43 fd0c 34d3 f3bf
00000340: 0b41 283d 2d43 f4bf 6589 24d2 c50b f6bf
00000350: 4abe c943 35dd edbf 44af 128d 315e edbf
00000360: ea59 8390 d0b7 f0bf 20cf f550 3a8f f6bf
00000370: 8d3b 4fb9 bc09 f4bf 19e6 da45 6699 f6bf

weight f8 [3, 16]
-0.3483243862268941 -0.32183734533602965 -0.30636838115681797 -0.30071029383442904 -0.3092773802854684 -0.30037952466973006 -0.33818441551549155 -0.31110172377741957
-0.3011855840009132 -0.32907426326266553 -0.298200073794256 -0.29069344547722964 -0.3038609267218616 -0.28046623827999817 -0.3092134293334173 -0.3331412806299034
-0.3225014784338093 -0.31544429302875476 -0.3104302188479529 -0.3110241800065119 -0.3273544011577055 -0.3102774106158146 -0.3056719733659974 -0.31618895609206005
-0.30031119846369136 -0.2820058808990682 -0.3112601601797518 -0.292601600614551 -0.3071333290144692 -0.32707843388058766 -0.33230342332916774 -0.33901414091047727
-0.3394089724437493 -0.3025126744587566 -0.33852574212492825 -0.3529855759476783 -0.31500248745256226 -0.3396207405837996 -0.30513027585746477 -0.31195441919283834
-0.34656071364538193 -0.35573816396071417 -0.33187277724380804 -0.3534005940871479 -0.3185200341471319 -0.3462117110343048 -0.32866139592584875 -0.30815334837582536
00000000: 249a cf5d f24a d6bf 9361 36aa fb98 d4bf
00000010: 2e35 6620 8a9b d3bf 1cb9 6563 d63e d3bf
00000020: 3bfe 6d5a 33cb d3bf 8c0c b60a 6b39 d3bf
00000030: 73fa 293f d0a4 d5bf 879b 5634 17e9 d3bf
00000040: 98e0 53e6 9f46 d3bf c4c7 aa7f 8d0f d5bf
00000050: 871c 27c3 b515 d3bf e41e 5fae b89a d2bf
00000060: 965e b319 7572 d3bf f2dc 42aa 28f3 d1bf
00000070: 6d25 9e1f 27ca d3bf 0b31 50ce 2f52 d5bf
00000080: 263b b23d dda3 d4bf 862c 9142 3d30 d4bf
00000090: d917 69b5 16de d3bf f429 59f6 d1e7 d3bf
000000a0: f922 cbdf 5ff3 d4bf 4414 d2c8 95db d3bf
000000b0: 9849 3a2e 2190 d3bf cf64 719a 703c d4bf
000000c0: 2e8b 0176 4c38 d3bf 506f ef64 620c d2bf
000000d0: ac43 21bc afeb d3bf 5a64 5910 fcb9 d2bf
000000e0: 7e3d e88c 12a8 d3bf 109e 2f62 daee d4bf
000000f0: 300c e393 7544 d5bf e9e3 055e 68b2 d5bf
00000100: 015a 2769 e0b8 d5bf 3241 db1e 5e5c d3bf
00000110: eef6 d1df 67aa d5bf 90eb 29d0 5097 d6bf
00000120: 2b1d 7131 0029 d4bf 2f72 76a1 58bc d5bf
00000130: fcf1 f422 4187 d3bf 99a8 11ab 0ff7 d3bf
00000140: 8ddc cbfc 0c2e d6bf 639f 0901 6ac4 d6bf
00000150: 6678 2c51 673d d5bf fd70 7f86 1d9e d6bf
00000160: 5418 72da a162 d4bf 549c 182a 5528 d6bf
00000170: fe63 bdce c908 d5bf 0755 5bd2 c8b8 d3bf
