Retweet/Comparison_ModelsV6/Curriculum_LearningV2_finalV6.pt (torch, 23709 bytes, 6 tensors)

scale f8 [3]
0	0x3fe0321dd55131f7	0.5061177412367773
1	0x3fdfdd60e796ba16	0.49788687339869975
2	0x3fda7cdbebea5d23	0.41387079275723887

weight f8 [112, 3]
0	0x3f7da348f09dca69	0.007235798760904724
1	0xbfca44fbf22ee378	-0.20523022961949855
2	0xbfca75a22970a68f	-0.2067148878425553
3	0xbfbd657522f33727	-0.11482936957619626
4	0xbfc277a472a63504	-0.14427619550807702
5	0xbfcd688eee3c3061	-0.2297533667809857
6	0xbfe2bcad11208ffe	-0.5855317434802598
7	0xbfda1115e6f3cfe7	-0.4072928195375866
8	0xbfd4bf33c240ae00	-0.324170055103167
9	0xbfe583d214bef426	-0.6723413853829967
10	0xbfe7d59aa87c8b22	-0.7448247233154215
11	0xbfe1fbc860802416	-0.5619851956154231
12	0xbfe12b0b6beb695d	-0.5365044696621158
13	0xbfdda19936db6998	-0.4629881892884895
14	0xbfce1481c0a93058	-0.23500081927557193
15	0xbfd49687c977651f	-0.3216876475758727
16	0xbfda08bc99f48cbf	-0.40678324732489196
17	0xbfc5d9011ef96ac8	-0.17068494808594026
18	0x3fd6be1813352789	0.35535241962190206
19	0x3fe3fda3bc5e91d2	0.6247118643846596
20	0x3f8ac97c58fc8ecc	0.013079616037038909
21	0xbfc4d72d09923931	-0.1628166481718352
22	0x3fdb87e66c197992	0.4301696830424585
23	0xbfacc0c50242371d	-0.056158215070452246
24	0xbfcf4ac9d3a0b377	-0.2444698603952948
25	0x3faf1b5e566759ba	0.060755680129364234
26	0xbfd5d187404d8605	-0.3409135940511024
27	0xbfca2558ca08d7e5	-0.20426473488777144
28	0xbfc96353a9cbdfdf	-0.19834371367301082
29	0xbf7a12ee46f7d0af	-0.006365710039507074
30	0xbfd9a6dc70e8fe2a	-0.4008093931806537
31	0xbfe0652007037865	-0.5123443734153282
32	0xbfdd549706cc2687	-0.45828796066107497
33	0x3fd58031675e8301	0.33594927878043285
34	0x3fc424d33a0acac9	0.15737381300058065
35	0xbfd419279df25c4c	-0.31403532433018166
36	0xbfc31a3d650924f6	-0.14923827584633614
37	0x3fa4da643cdafee1	0.04072869532455826
38	0xbfa6776e17fef735	-0.043879928998178754
39	0xbfc221e774df9edc	-0.14165967184748396
40	0xbfc883764e212174	-0.19151190581238675
41	0xbfb27908d50934cd	-0.07215933991502084
42	0xbfe406da6ce74ca0	-0.6258365752240884
43	0xbfe8803a16c8175d	-0.7656526989892246
44	0xbfe06470a96c1777	-0.5122607525852193
45	0xbfe987f035aab07c	-0.7978440330675904
46	0xbfea7e61fd8e440b	-0.8279275848636883
47	0xbfe5a01d11a42265	-0.67579511113679
48	0x3fc59dec95cef07b	0.16888196291791133
49	0xbfd65619054e80b5	-0.3490049888441818
50	0xbfd667242432e875	-0.3500452378754127
51	0xbfb26e8bd5ff9202	-0.07199930166786575
52	0xbfe1085ff3fc128e	-0.5322723164868692
53	0xbfdcb6314500b63a	-0.4486201452117232
54	0xbfd9de8f7aa2db6a	-0.40420901275813625
55	0x3fc29d6cdc49ce15	0.14542923694863022
56	0xbfe6236ae7aa5112	-0.691823437186516
57	0x3fb2563937b1e1f5	0.07162816629159592
58	0xbfb1473aea50c26c	-0.06749313564865539
59	0xbfe094cdcc8bf0ae	-0.5181645388652407
60	0xbfb8ab31e8940088	-0.09636222770859793
61	0xbfd905cd0903d5b1	-0.39097905998581967
62	0xbfeaab8c16c2f764	-0.8334408230364088
63	0x3fd7b8b1bfa1aa1a	0.3706478473092446
64	0xbfe5ccb438dca5d9	-0.6812382803520293
65	0xbfeda2b62b206137	-0.926112255317128
66	0xbf97fe5c4bc6867d	-0.02343124592301259
67	0xbfc337de20c1e583	-0.1501424465130122
68	0xbfe07b0037da084b	-0.5150147524693777
69	0xbfd16a73e5c5d531	-0.2721223586916777
70	0xbfb083ba8d0d9e58	-0.06451002067262246
71	0xbfdb2cdf743d9f63	-0.42461382247574003
72	0xbfc949f40bf383e2	-0.19756937583500106
73	0x3fa3ad55118d44c8	0.03843179549461123
74	0xbfd8702f2b8b1c6a	-0.3818471837261713
75	0xbfb14beb136f11ac	-0.06756467079600864
76	0xbfe7bc8b61eee996	-0.7417656815298865
77	0xbfde68a37a6faa91	-0.4751366325059872
78	0x3fd04f785e0b7521	0.25485047515924647
79	0xbfc0053dc13aaa93	-0.12515994963662944
80	0xbfe1996dd2c8eebc	-0.5499791256802022
81	0x3fcec9e799041d9a	0.24053664180267448
82	0xbfd317ca07f34df4	-0.29832697655112317
83	0xbfe5aa6156cfe608	-0.6770483680294896
84	0xbfd3df919ae8e020	-0.3105205548085923
85	0xbfdcc3417795e07d	-0.449417464049027
86	0xbfc9bb07443cb316	-0.20102015334978124
87	0xbfbb3cdc91eccccb	-0.10639742434141224
88	0xbfe7e33172e3e747	-0.7464835399580146
89	0xbfdd2ddb1eacc501	-0.45592382426828243
90	0x3fd14077f21fecdd	0.2695598473071195
91	0xbfd7c27cf1bef9d2	-0.3712456093598152
92	0xbfe9bb88e9d1033a	-0.8041424338081022
93	0x3f90e0eefbcb460d	0.0164830533202061
94	0x3fc252ba3107f253	0.14314963716596427
95	0xbfd5167df3a3ac1b	-0.32949780266670964
96	0x3fbcecde43ec3370	0.11298932226436675
97	0x3fb4498e1b76af18	0.07924736185549042
98	0x3fdeccb0941d6443	0.4812432714875891
99	0x3fb5ea3bd1fba264	0.08560537220513137
100	0x3fc0daadd7dca151	0.13167355575684295
101	0x3fdfc87d98241d01	0.49661197526479844
102	0x3fa3411ddf780617	0.03760617592707776
103	0x3fc15ff4312997f0	0.13574077988158662
104	0x3fdf52bb1fb043d7	0.48942449659904014
105	0x3f9dac805d37cd73	0.028978353204320805
106	0x3fbfba6cbdb91526	0.12393836624058405
107	0x3fdbf382b19afed2	0.43673770279199886
108	0x3fb2b3e46100a132	0.0730574356863414
109	0x3fc01a24400bbd51	0.12579777838935027
110	0x3fdea0b045587c75	0.4785576512530903
111	0x3fb5852223015ae8	0.08406270365353985
112	0x3fbbd967a73404e5	0.10878608543500297
113	0x3fdfab7e556eec57	0.4948421320256719
114	0x3fb64d3bf45eadc2	0.08711600032864111
115	0x3fc2d8e72da11893	0.14724435546867606
116	0x3fdfdfd43c098f99	0.49803644049665646
117	0x3fb5bd8477041edb	0.08492305665651705
118	0x3fb988af62955dfa	0.09974189907858735
119	0x3fe02d2ccf4f9b1e	0.5055145310442162
120	0x3fb633d2344d72dd	0.08672822739522297
121	0x3fc3a22efaef1fc4	0.15338694813385534
122	0x3fe042d22c1e794b	0.5081568586063353
123	0x3fba29868b213e86	0.10219612976765732
124	0x3fbf111eb845f3ec	0.12135498045786591
125	0x3fe19b306a5d9732	0.5501939847424409
126	0x3fbda7e66b824c47	0.11584320187312001
127	0x3fbe41f9d5e42f93	0.11819421264607248
128	0x3fde0225ca92dd70	0.46888108046137855
129	0x3fb8b2c102f25a00	0.0964775688356454
130	0x3fbe6900eb1b59e8	0.11878972759163953
131	0x3fe00318678e309a	0.5003778479163146
132	0x3fb5c186a94f2167	0.08498422273180993
133	0x3fbdf0657b8ffd90	0.11694940821325006
134	0x3fe086a4e2816bff	0.516436045068417
135	0x3fba11973d344a91	0.10183091396565148
136	0x3fbe31e039be3e55	0.11794854554886432
137	0x3fe0fabb3efb2995	0.5306068639850304
138	0x3fa92fb8d1dcead2	0.04919221460155189
139	0x3fb26574346b4ecb	0.07186056403889578
140	0x3fd8c02d278026b5	0.3867295156238513
141	0x3fa3783071b6abe3	0.038026346093225326
142	0x3fc221307da7c122	0.14163786063682787
143	0x3fd96eb437f66efa	0.39738183465099974
144	0x3fafae3e9436cd77	0.0618762546468145
145	0x3f8a55af33c5d080	0.012858742492177777
146	0xbfc329bc97a15394	-0.14971120265786608
147	0x3fb0c8a6f2b392fc	0.06556170869187022
148	0x3fabc5c3cf1ed1f5	0.05424320128750885
149	0x3f8e84ce8f1caa31	0.014901746504240783
150	0x3f864444db02901c	0.010872400220542082
151	0x3fbbb96c8a347452	0.10829809545653404
152	0x3f6ba4747412a67f	0.003374316642823782
153	0xbf910869d60c6ed7	-0.01663365715931672
154	0x3fb39d493232523b	0.07661874270918016
155	0xbfc95cee2eed15c2	-0.1981485108500874
156	0x3fa80940945eb415	0.046945589171947834
157	0x3fa8b8000842fefa	0.04827880955553883
158	0xbfba84654c462229	-0.10358269798428722
159	0x3fa6624247439037	0.04371840591355219
160	0x3fae07662a0b5f9f	0.05865020049321789
161	0xbfbba5e88e9de060	-0.1080003116784396
162	0x3fa8b639c775231b	0.04826527175698044
163	0x3fb2d914ba88d3c6	0.07362489275040138
164	0x3fa764551a260a2d	0.0456873506946248
165	0x3fb1d958ce97153a	0.06972270053582444
166	0x3f9bb4772e06188c	0.027055608924933014
167	0xbfaec5c6204c1565	-0.060102645342378115
168	0x3fa82a7c3b788e01	0.047199136981614494
169	0x3fb0344e939651f6	0.06329814055636249
170	0xbf9c0bf79f5d1aed	-0.027389401532924507
171	0x3fa54401be0bae8f	0.041534475754670834
172	0x3fa802d6eebb493a	0.04689666427806789
173	0xbf9f736a3ceb4d0d	-0.030713710754594326
174	0x3fb3c3a4c6008552	0.07720403512987176
175	0x3fa2ff3e657be4e1	0.037103605163744786
176	0xbfd1a0881332f505	-0.2754230678072676
177	0x3fb01dc5e9760d8f	0.06295430135474177
178	0x3fa45aa126626112	0.03975394815023682
179	0xbf9023573cddf323	-0.015759814348245926
180	0x3fad86209a167aed	0.05766393547968627
181	0x3fabaf4b53db326d	0.05407176397929878
182	0x3fa1f7d611a8cc26	0.03509396520203038
183	0x3fb0ce6e2d889d28	0.06564987765942887
184	0x3fab00176fa20b63	0.05273507344920494
185	0xbf73593de453ac89	-0.004723779454461349
186	0x3fa5992fd7308fbe	0.042184348123810875
187	0x3fa6e03681bfa664	0.044679358805137764
188	0xbfd12d2ae04764b8	-0.2683818044875568
189	0xbf54fd2e8072600e	-0.0012810663336377845
190	0x3fb1f2a761daf82f	0.0701088537125265
191	0xbfb087ee7139ef62	-0.06457414879144843
192	0x3fbdaa19e3a3bba3	0.11587678725821475
193	0x3fad01dfc5966d69	0.05665492331464856
194	0x3fdd72e4727100ff	0.4601374738304144
195	0x3fb5918597096573	0.08425173699779069
196	0x3fc1a751fb069fbd	0.13791870839236067
197	0x3fde75ae13b67ecf	0.4759326164730568
198	0x3fa8e262d5dddcb0	0.04860218868901123
199	0x3fc2911241987f5a	0.14505222514071187
200	0x3fdeff815c2c3fa6	0.48434480668310653
201	0x3f91d48a3ac02384	0.017412338100288874
202	0x3fbbf2cbdf71b5f5	0.10917352872066728
203	0x3fdb6f6a823db759	0.4286752960095917
204	0x3fae35c48000abde	0.05900396406681073
205	0x3fbecfe5e9353d9a	0.12035977309755311
206	0x3fde67ad067af014	0.47507787354311515
207	0x3fb2eeccb2e01044	0.07395629279204835
208	0x3fb8811de0df11f1	0.09572016468070622
209	0x3fdde8afdcae367c	0.46732708502609177
210	0x3fb7d52a9b48c724	0.09309641162033394
211	0x3fc56a9be86dba44	0.16731594895414237
212	0x3fdf4fd0784ddf5b	0.4892464804502105
213	0x3fa5194494118b09	0.041208403658648925
214	0x3fc18be700265933	0.13708198077501663
215	0x3fdd513d3ee66641	0.45808344976976306
216	0x3faf4f4ed6cbc7a3	0.0611519467546622
217	0x3fbf984ea289925c	0.1234177729434775
218	0x3fddcc05a1815b76	0.465577514381429
219	0x3fba3c3a9c990512	0.10248152087389809
220	0x3fc1c5b72196d715	0.13884629383181193
221	0x3fe1545257d37e9b	0.541543170485926
222	0x3fb86493506625c3	0.09528465950838609
223	0x3fb5bb5cd34ea343	0.08489017638079326
224	0x3fdb2ad97036fb6f	0.42449031790231734
225	0x3fb9ad5553feb877	0.10030110645922884
226	0x3fc0fbc9d71427f7	0.13268397333041523
227	0x3fdda97a7bf7ffb4	0.4634691439277916
228	0x3fb8daa3776b1054	0.09708615937694393
229	0x3fc387911730a38d	0.15257466919254306
230	0x3fdfea521e736cb8	0.4986768052455761
231	0x3fba39f1b9735bb6	0.10244665887454016
232	0x3fc08678cc993006	0.1291037558570453
233	0x3fe16d659a63a970	0.544604112187967
234	0x3fa0c62ab2285d71	0.03276189255501095
235	0x3facdeb1cdfcb074	0.05638652457705087
236	0x3fd76157bcdf7647	0.36531632847422596
237	0x3f944ab000b386e1	0.01981616024284605
238	0x3fbfe9a733673d14	0.12465901379549776
239	0x3fd7ecbcfdbeaad1	0.3738243558861259
240	0x3fcd41f2c6116d29	0.22857508345882963
241	0x3fc891876229728e	0.19194118779241304
242	0x3fd22b0113713e3c	0.28387476824443403
243	0x3fcae4c55effa22f	0.2101065362796972
244	0x3fcb6db4fb193d64	0.2142854906146382
245	0x3fd5515b683ec323	0.33309064083282375
246	0x3fc90383a07fed88	0.19541974388981154
247	0x3fcb99576349ef7a	0.21561710689627117
248	0x3fd4a7479f682360	0.3227099472720081
249	0x3fca6cd5b083298f	0.20644637221114379
250	0x3fca37df75d4147f	0.20483010533658683
251	0x3fd22faa12865c2d	0.28415920075480267
252	0x3fc83e5555638432	0.1894022623955905
253	0x3fccda7f2bb39127	0.22541799196108878
254	0x3fd46afcb630d175	0.3190299777227417
255	0x3fca0add87782476	0.2034565841170523

bias f8 [112]
0	0xbfcc6c3a0243b74d	-0.22205281363079124
1	0xbfd541282ac04938	-0.33210186171449463
2	0xbfe06c334948a6ee	-0.5132080489467776
3	0xbfe847c489c780ea	-0.7587607089044728
4	0xbfdf36a2e8798beb	-0.48770973875633555
5	0xbfd9cde6b1feb963	-0.4031922090752202
6	0x3fe3919bdfb010f1	0.6115245217229398
7	0x3fb27de4034afd8d	0.07223343925851662
8	0xbfc8f263e0251d55	-0.1948971600015549
9	0xbfc876b23d2e95b4	-0.19112232196236578
10	0xbfe3f7e1f6544b07	-0.6240091143721153
11	0x3fc348edff3ce158	0.15066313708099233
12	0xbfaf1121fdc1d653	-0.06067758772489342
13	0xbfcb74e3d0ec8925	-0.21450469685903176
14	0xbfe78bd7efcca14c	-0.735820740087584
15	0xbfecebeac43f52bf	-0.9037984688717059
16	0xbfc6f189b4383564	-0.17924615192206794
17	0xbfe066911685b5cf	-0.5125203552140024
18	0xbfcfd9dcf93c74c3	-0.24883615655645572
19	0xbfa5f0d1475aecf0	-0.042852916679715025
20	0xbfd8b3130fcdd718	-0.38592983764043387
21	0xbfd4230e47e85be8	-0.31463963529807737
22	0xbfccd877731e19c7	-0.22535603638625742
23	0xbfd45363b5995dba	-0.31758969053540975
24	0xbfbe695de5a27567	-0.11879526954949925
25	0xbfe1f8c5a362a611	-0.5616176787490891
26	0x3f82f9337eeb65c3	0.009264375983024991
27	0xbfd128a1478ddb8e	-0.2681048582812132
28	0xbfe01c9ab048d576	-0.5034917300278454
29	0xbfe3c605231ba624	-0.6179223714545441
30	0xbfc2252faed7fd71	-0.1417598346451814
31	0x3fb0a48fdfd83204	0.06501101698831496
32	0x3fc0949e5680a2f4	0.12953547691110823
33	0x3fc266204d80d727	0.14374164375629414
34	0x3fc017516fbd70cc	0.12571161228232197
35	0x3fbb4175128a259f	0.10646754934909673
36	0x3fc047f99f7c7b9a	0.12719650542655075
37	0x3fbfd7d8d712b407	0.12438731432730786
38	0x3fc35a286b155f83	0.1511889002674672
39	0x3fc109bb9c5418c8	0.133109523136403
40	0x3fc28595ebec6b2c	0.14470170993521358
41	0x3fc56b5e393b0a79	0.16733911318268094
42	0x3fc2cae40eaf5b45	0.14681673733749726
43	0x3fc2417d61b20879	0.14262358923230403
44	0x3fc3c610e9bcefcc	0.15448199666013662
45	0x3fc34ead7266ba42	0.1508385475730894
46	0x3fba9ff37e0b74cc	0.10400316073669841
47	0x3fbb5f20c1a9ade8	0.10692028740020698
48	0x3fa6f917e62fc6cc	0.04486918148894645
49	0x3fb35ea714d5edb1	0.07566303499873218
50	0x3fa28f090576075d	0.036247522274620116
51	0x3f8143a7173f0fa7	0.008429818531915446
52	0x3fa216a89f88e82f	0.035329122042142884
53	0x3fa7087fef09b667	0.04498672287887189
54	0x3faf281c6727c01e	0.06085289725513142
55	0x3fab253b62c5b76d	0.05301843243328972
56	0x3facc328f3fa26f9	0.05617645242916853
57	0x3fb207a3edade03b	0.07042908241953764
58	0x3fa358950b0dd392	0.03778520355164185
59	0x3fb3310d965685df	0.07496724052773328
60	0x3fb2a1a69778d1f1	0.07277909467740763
61	0x3fab3e02f0c76dc4	0.05320748509594922
62	0x3f81c0b62872dd56	0.00866834937038045
63	0x3f9c88663671af0e	0.027864071915629167
64	0x3fbe3cc486ff13cf	0.11811474128542375
65	0x3fc1dc8d504dc7a9	0.1395432130917105
66	0x3fbdc25ee1fab6bd	0.1162471105296516
67	0x3fbb940a62a002f8	0.10772766979063053
68	0x3fc1cf89fbb64fe5	0.13914608755715033
69	0x3fc28a808390d4b8	0.14485174583538707
70	0x3fc2f35919ef15a8	0.14805139318756955
71	0x3fc27594632fb033	0.14421324580269043
72	0x3fc200cf0f853798	0.14064968355017693
73	0x3fc502c0692d3c58	0.1641464723165622
74	0x3fc1dcfbadaf23ca	0.1395563695971574
75	0x3fc3fe0c63861409	0.156190441699579
76	0x3fc2db819723b5df	0.14732379798753834
77	0x3fc48363cd9836ac	0.16025970019147928
78	0x3fb65cf0620012a4	0.0873556365259654
79	0x3fb6aee645a6024e	0.08860625458147206
80	0x3fcc14314529917e	0.21936622502392916
81	0x3fce85b4eb45f3af	0.2384554051203884
82	0x3fce53554def87de	0.2369181280656098
83	0x3fc8885f943f2859	0.19166178454026087
84	0x3fcf6a5ec1bcb6ec	0.24543365917036597
85	0x3fcf1332e423dfc6	0.24277340068488068
86	0x3fd04f13bd7fa978	0.25482648378115114
87	0x3fce1a05a58ed175	0.23516913017159494
88	0x3fcae410bb34a290	0.21008500233553606
89	0x3fcd898d1374da0f	0.2307602257730683
90	0x3fca727d81e4df45	0.20661896555406592
91	0x3fcb6f958654417a	0.21434277590789091
92	0x3fcdc324e00e323d	0.23251782360275
93	0x3fccbc36c656b902	0.22449383434781828
94	0x3fc95d3d9d6c2d5e	0.1981579798378829
95	0x3fcd2299a3dc3071	0.22761841298086297
96	0xbff0a410ff2a7954	-1.0400552718561658
97	0xbffa6cad6beb0a9a	-1.651532575183103
98	0xbff51bfe71751615	-1.3193344528130002
99	0xbff42aa606554e29	-1.260412239779621
100	0xbff6fc0c4d2e371f	-1.4365351691116712
101	0xbff724aabfe41d8c	-1.4464519019837523
102	0xbffd43d8e193cf7d	-1.8290642558685868
103	0xbffef631445fbd4a	-1.935105578504436
104	0xbff0cbff26656721	-1.0498038768623206
105	0xbff79a449c8a186f	-1.4751630892583554
106	0xbff0806f1e695c9f	-1.031355971141046
107	0xbffbea7b5df209d4	-1.7447465581650379
108	0xbff64a8fd1657db8	-1.3932035617398082
109	0xbff8dda8ae6820e6	-1.5541159451259374
110	0xbff3b9628c37ad5b	-1.232759998058859
111	0xbff0d4e8fbf4cfb4	-1.051980003551745

weight f8 [112, 16]
0	0xbfdc88d406acc4a8	-0.445851332205232
1	0xbfe4fd70126fdaa4	-0.6559372291656769
2	0xbfe6d19514bbf79e	-0.713083782669617
3	0x3fa70eff264c4c7a	0.04503629057412524
4	0xbfe595122b9d8a6f	-0.6744471408713489
5	0xbfe5c32f8fe77fc7	-0.6800763903265697
6	0xbfe79364ba7412a2	-0.7367423669498587
7	0xbfe5b2425ead1abd	-0.678010163225586
8	0xbfdd011a7b67ec59	-0.45319234897005384
9	0xbfebc10dca112328	-0.8673161455745673
10	0x3f94b8f6e5b8bf1b	0.020236833354089528
11	0xbfe5c3a01bd78773	-0.6801300567424121
12	0xbfefa66db6039cfa	-0.9890659861529507
13	0xbfe763fd2c1e46a2	-0.7309556829151982
14	0xbf9dbd7632f2b9f6	-0.02904305158579664
15	0x3fbfd73c3ec0eb5f	0.12437798053808312
16	0xbfef8f018f21327a	-0.9862067981244558
17	0xbfdbbd94b9384763	-0.4334461029803746
18	0x3fa866cd8ca814f6	0.04765932409285682
19	0x3fcbc59274a457b2	0.21696692176254612
20	0xbfcb94a827175215	-0.21547414692635472
21	0x3fc3c548e28c7448	0.15445815145440833
22	0xbff4042aec026599	-1.2510174960246785
23	0xbff18e837546bca8	-1.097293336973772
24	0xbff0329a166695bb	-1.0123539805439197
25	0xbfe06f7cebf470bc	-0.513609371995265
26	0xbfe01b941e2962e4	-0.5033665265173934
27	0xbff2d1dc87a99d4d	-1.1762357043570149
28	0xbfea30c481957fec	-0.8184530764519855
29	0xbfe32ee3c1478250	-0.5994738364207226
30	0x3fc9e79c9946475b	0.20238072857005815
31	0x3fbb6d03853594b5	0.10713216783695396
32	0xbfefa8d60860ba67	-0.9893598712568065
33	0xbfe5151c67465fe4	-0.6588270203674225
34	0xbfde35137b3e7b1b	-0.4719895080142337
35	0xbfefc9bc98ce3765	-0.9933760628207265
36	0xbfe3ad475ec2ee0c	-0.6149021960076779
37	0xbfdaf0a107d5a6ed	-0.420936830187755
38	0xbff49e704003d320	-1.2886812687476734
39	0xbff273e80d2e7433	-1.1532974734211734
40	0xbff0f1367afc8780	-1.0588898471982873
41	0xbfdacec536747e1a	-0.4188702613627996
42	0xbfe6dcae4a4677da	-0.7144385767639918
43	0xbff3944a2a364956	-1.2237035416515787
44	0xbfe06120b4753b69	-0.5118564152306649
45	0xbfddfc702b61eeae	-0.46853260265900587
46	0xbfee79d128b1ab99	-0.952370242577092
47	0xbff2533100d99724	-1.1453104050828609
48	0xbfee3796a0021fed	-0.9442856907999136
49	0xbfe6e9291c19acb9	-0.7159619854768585
50	0xbfdcadde3baf1e9a	-0.4481120665409236
51	0xbfe082b24036ecef	-0.5159541372480855
52	0xbfdb898612e8c95a	-0.4302687821065284
53	0xbfdc6a656263a4a4	-0.44399389847110116
54	0xbff43602e179e53e	-1.2631863410627626
55	0xbff1e420338c9dad	-1.1181947721141612
56	0xbfef91099d631305	-0.9864547800030726
57	0xbfddb942c0631e4e	-0.4644324187069956
58	0xbfe31e7651498b55	-0.59746852756903
59	0xbff2d7ea0e009dd7	-1.1777134463280754
60	0xbfe2675548c047f0	-0.5751139088554265
61	0xbfe152fbc00490f4	-0.5413798094128013
62	0xbfe7857d6cd8655b	-0.735045158947439
63	0xbfe11930ec75b01d	-0.5343250864366414
64	0xbfef1fbfd2959a41	-0.9726256478287
65	0xbfe3fa20059fe42c	-0.6242828473906505
66	0xbfdad0b38e987362	-0.41898812222807724
67	0xbfefa9a7982b4346	-0.9894597980547608
68	0xbfdcd4ed9a6ab8a8	-0.45049610214017344
69	0xbfd9550b7878298c	-0.39581572308147694
70	0xbff44e6681e86df9	-1.2691407274750175
71	0xbff1c7edf7ecf2a2	-1.111310928782736
72	0xbff010d1978f063e	-1.0041061325322427
73	0xbfd9fcf6270b725d	-0.40606454670868236
74	0xbfe5787a5df3a917	-0.6709567866321632
75	0xbff2d0631500909d	-1.1758757419966408
76	0xbfdfcf799c1a2548	-0.4970382713732602
77	0xbfde994b90ca0295	-0.4781063951450418
78	0xbfeedeac679c7cee	-0.9646818183572614
79	0xbff2f3ca865b0b4e	-1.184519314600681
80	0xbff10ac39ddadce4	-1.0651279607971498
81	0xbfe6969faf6689ed	-0.7058866906921232
82	0xbfe6b11fe0cddb2b	-0.7091216459947182
83	0xbff177ea2e864a5c	-1.0917760674825763
84	0xbfe9a2f2f64989ce	-0.8011412439630534
85	0xbfe19030202a89c7	-0.5488510730977446
86	0xbff6a7ee731b4a81	-1.4159988876678258
87	0xbff44388c57f385d	-1.2664878573155172
88	0xbff29db2d6c89f5c	-1.1635006322848858
89	0xbfde6d22d228a4b7	-0.47541113398854
90	0xbfe8ad3c1d2d7b98	-0.7711468286396324
91	0xbff51308d699b33a	-1.317147100718286
92	0xbfe243d0b5dd9827	-0.5707782318174893
93	0xbfe089e2144e5df9	-0.5168314358333524
94	0xbff0c28a79190ba2	-1.0474953394302493
95	0xbff49fd77d49e9c8	-1.2890238660898934
96	0xbfcdb532e99b4dc8	-0.2320922508866785
97	0xbfc68e8951d26da1	-0.17622486586774946
98	0xbfc3ca8470f11014	-0.15461783900002557
99	0x3fd0b7d7a19b44ce	0.26122084409605584
100	0xbfcde1451b1977c0	-0.23343719313828437
101	0xbfc9a9e29cd005bf	-0.20049698502411492
102	0xbfd7c65454d63d6e	-0.37148006710864123
103	0xbfd5d959f74705e3	-0.3413910784548461
104	0xbfc4cef587ef5c65	-0.1625658906693587
105	0xbfd407df5fc2054f	-0.31298050261837757
106	0x3fb825cda5df87d3	0.09432683276784752
107	0xbfd5961a74eb50cf	-0.3372865812100487
108	0xbfd4d4e678f4dd96	-0.32549440204771807
109	0xbfd5dfbf6e6d3007	-0.3417814806350638
110	0x3f95c5b6586f97c8	0.021262025020312852
111	0x3fd72fad7679f725	0.36228500909770595
112	0xbfd67099d0fe479a	-0.3506226101827622
113	0xbfd9da5ad500912b	-0.4039523201083905
114	0xbfe224891e5a6029	-0.5669599144775975
115	0x3fc10c633b28b5e1	0.13319054020523338
116	0xbfe49434a536266a	-0.6430915095126697
117	0xbfdc587d136a8a4b	-0.44290091415510763
118	0xbfe382c86d3e5ec5	-0.6097147115387648
119	0xbfe0e92ac1a6534c	-0.5284627706738347
120	0xbfd522b717c5070f	-0.33024384804967694
121	0xbfe9456869e4a496	-0.7897226398682899
122	0x3fb84b4be3a6ad65	0.0948989325321939
123	0xbfe12ab7e0b0b1ff	-0.5364646328430921
124	0xbfebe5cee1f81ac8	-0.8718027509174471
125	0xbfe6e30cd078da6f	-0.7152160712929126
126	0x3f80594f4919bce7	0.007982844751693153
127	0x3fc71fdea6804b64	0.1806600869172953
128	0xbfdba0a7ee0f24f3	-0.4316806626125775
129	0xbfe0dab10dce0ad3	-0.5266957540155438
130	0xbfdbdbe71e34adb9	-0.43529680204184334
131	0x3fc9447c5426e293	0.19740251645068393
132	0xbfdbc2bae35a3fad	-0.4337603779067603
133	0xbfdbb4074979db0e	-0.43286306548491005
134	0xbfe6a52fb68334e7	-0.7076643528650067
135	0xbfe3cb5f1a2ed70c	-0.6185756217371092
136	0xbfda224dbb510a06	-0.408343727995231
137	0xbfe3bcdbe918ab84	-0.616804080263464
138	0x3faf6133eecfac00	0.06128847398925785
139	0xbfe4e65697a47470	-0.6531174623265894
140	0xbfe732875b93ab0b	-0.7249180592164931
141	0xbfe1de13ebc0f85e	-0.5583591084066588
142	0x3fb88e2dd3c9da6d	0.09591947956674014
143	0x3fd05260e47228ab	0.2550279837529483
144	0xbff1d28e143816d4	-1.1139050283249405
145	0xbfe6315d02b79c91	-0.6935257962294533
146	0xbfeb5594c1d3c341	-0.8541969094932044
147	0xbff25eaf9a3d0468	-1.1481166863379944
148	0xbfeb18255afee450	-0.8466974999674992
149	0xbfe54f3f2689d499	-0.665923667211831
150	0xbff6727ab21e4256	-1.402949043058603
151	0xbff4322a36bc2869	-1.2622472894750223
152	0xbff2f6bac30c8952	-1.1852367037868885
153	0xbfe0b8c27c3831e3	-0.5225536752855614
154	0xbfeb27ba43797dc4	-0.8485995595801161
155	0xbff4f9a394e19710	-1.3109470191643062
156	0xbfe2775225e8f1fb	-0.5770655384472428
157	0xbfe0ff3523a7e59a	-0.5311532684710756
158	0xbff15e09479b1636	-1.0854580685712683
159	0xbff549c5ac58279a	-1.330510781498083
160	0xbfed69c6f57f8214	-0.9191622538456294
161	0xbfe7dd9acd29cac0	-0.7458013541311956
162	0xbfe9715675128a96	-0.795085171372494
163	0xbfda92167aa8c956	-0.41516649225663593
164	0xbfe669423953ff93	-0.7003489608468833
165	0xbfe7731a743a4c2a	-0.7328007001946208
166	0xbff39d028020e7e5	-1.225832462789634
167	0xbff223b2233bcc0f	-1.1337148071586431
168	0xbfef82cbe7021cc8	-0.9847163688545146
169	0xbfe9dd017164ae30	-0.8082282271111065
170	0xbfe1de00e69f4356	-0.5583500389421754
171	0xbff2c27143c85b7c	-1.1724712989577872
172	0xbfea01a212a18cb8	-0.8126993526351702
173	0xbfe45b2b818f51cc	-0.6361291437593137
174	0xbfddbf3626cda16b	-0.46479562558535886
175	0xbfdcbdd4f68d75a2	-0.44908641888999956
176	0xbfd384965c440998	-0.304967489341061
177	0xbfd3677a2d2d07f3	-0.30319075023373826
178	0xbfd9113d9a9c15eb	-0.39167728518108785
179	0x3fbed43711bb7c17	0.12042564566534995
180	0xbfd96ad1093bbaff	-0.3971445646447335
181	0xbfd3badff393e8cf	-0.3082809332551166
182	0xbfe02d30d9882109	-0.5055164574305603
183	0xbfdd2f7b77d16148	-0.4560230894180859
184	0xbfd2486eab528ea7	-0.2856709168502029
185	0xbfe171e92400aadd	-0.5451551154304429
186	0x3fbecfad6a6de45c	0.12035640571947809
187	0xbfdd882a4e401a31	-0.46143586770668593
188	0xbfe1fa9e07823cc4	-0.5618429323821137
189	0xbfdfe0d4b771c48a	-0.4980975905846853
190	0x3f7817bacb98022e	0.005882005375952333
191	0x3fca80406bbc5919	0.20703892956289208
192	0xbff2804091825ac1	-1.156311577220251
193	0xbfe6ab8995d2b9ee	-0.7084396291955366
194	0xbfdaf311ec2d5050	-0.4210858160415727
195	0xbfe340d95df74cfb	-0.6016661486886784
196	0xbfd5b83e6ec54c9e	-0.3393703538651581
197	0xbfdcb651afd66297	-0.4486278741037863
198	0xbff4292df0cf3741	-1.2600535780542972
199	0xbff2ac95ef5cebb9	-1.1671351766697013
200	0xbff341054d039014	-1.2033741958957807
201	0xbfe084dcc429eaf0	-0.5162185508082455
202	0xbff0cd37c2f33bf7	-1.0501020064582443
203	0xbff3d695fbbf6adf	-1.2398891290565002
204	0xbfe38a2dea225f9b	-0.6106175969061839
205	0xbfe2be90ca20c3d8	-0.5857624004184983
206	0xbfe316b836c8bfea	-0.5965233869555935
207	0xbfe707e850bf2d67	-0.7197152688108134
208	0xbff1b13bb04390df	-1.1057698140439738
209	0xbfe65679c9d0bf1d	-0.6980561200816485
210	0xbfe9e0e66c07f46b	-0.8087036237699413
211	0xbfeac9c5dee73082	-0.837130484922014
212	0xbfe743fc0d72bbd0	-0.7270488989505512
213	0xbfe883da3f7318b9	-0.7660952796220705
214	0xbff5afa60935b6d0	-1.3553829536207793
215	0xbff3f38ce498b03b	-1.2469605378673936
216	0xbff2d1b86001f0cb	-1.1762012243553268
217	0xbfe6acf27245ac01	-0.7086117011907619
218	0xbfed7fa14878d8b4	-0.9218298354596954
219	0xbff5117d7e8b1b0d	-1.3167700713253823
220	0xbfe60d91ffea564c	-0.6891565321299793
221	0xbfe2280bd41116fe	-0.5673884527138566
222	0xbfe971f4ae1e4f24	-0.7951606178998856
223	0xbfeee334c92808bf	-0.9652351311526884
224	0xbfec30f330954793	-0.8809753369225625
225	0xbfe533a003e00791	-0.6625518871007775
226	0xbfdcf9c6fc933912	-0.4527451960137948
227	0xbfda77015b2e625f	-0.41351350693142835
228	0xbfda70832e9c97d6	-0.41311721374438315
229	0xbfda21625e47d702	-0.4082876129826759
230	0xbff28b733d6040f1	-1.1590454480647703
231	0xbff0a3161de7b779	-1.0398160141153012
232	0xbfed6b286a0d6e21	-0.9193307944619314
233	0xbfdcc244d6c376c0	-0.4493572327900033
234	0xbfe2ccc6d122c947	-0.5874971470532636
235	0xbff18d47ee7dd43f	-1.09699242745161
236	0xbfe13652ce151527	-0.5378812813802697
237	0xbfe05ed2ea0eef99	-0.5115751811458608
238	0xbfde39e7e1cfb8ac	-0.4722842889012877
239	0xbfddc112129cee54	-0.4649090940253917
240	0xbfecd8c6c729c7a7	-0.9014619722276976
241	0xbfe62d9072951ee4	-0.6930620420398239
242	0xbfdb2e58b026574d	-0.4247037620747179
243	0xbfe0cba3f05a0267	-0.5248584455840274
244	0xbfd953706ba88625	-0.3957177211142116
245	0xbfdabc67647241e1	-0.4177492600365707
246	0xbff37ae495877e4b	-1.2175031510340826
247	0xbff19cf25f73ad90	-1.1008170822704848
248	0xbfee9b1472cb3a2f	-0.9564306490008841
249	0xbfdd79f7e1c752d9	-0.4605693535680025
250	0xbfe27946915008be	-0.5773041570794459
251	0xbff29b7d6638f368	-1.1629613869729045
252	0xbfe1cf34dc254bf5	-0.5565437602730287
253	0xbfe071d8ad040a97	-0.5138972644056875
254	0xbfe70377f5debf29	-0.7191734125280834
255	0xbfe0cd99532bd290	-0.5250975250661032

bias f8 [112]
0	0xbfcab0af6843b754	-0.20851700392762018
1	0xbfd616e271c0493c	-0.34514676197536054
2	0xbfe12e2b1a08a6e9	-0.5368857868645281
3	0xbfe8a85b98c780f1	-0.7705514892550395
4	0xbfe074bbf77cc5e2	-0.5142497857797788
5	0xbfd90f5609feb95f	-0.3915610406501368
6	0x3fe3c756073010f1	0.618083013571349
7	0x3fb24249e34afd8f	0.07132398413795314
8	0xbfc6f0f574251d51	-0.17922847911016018
9	0xbfca6790ce2e95a6	-0.20628557269553233
10	0xbfe3bb9b39244b07	-0.6166511646318619
11	0x3fc68e91863ce13e	0.17622584395008717
12	0xbfb045a830e0eb28	-0.06356288140606792
13	0xbfcbcd46c76c8923	-0.217202041029915
14	0xbfe831370a8ca149	-0.7560076910058707
15	0xbfed450ff4bf52c3	-0.9146804599973496
16	0xbfc65c1708d8355e	-0.17468536311973087
17	0xbfdffd81e80b6bac	-0.4998478666363393
18	0xbfcc1021273c74bf	-0.21924223342731428
19	0xbfa2b409755aecf4	-0.03652982289846732
20	0xbfd8ccc64ccdd71a	-0.3874984502830202
21	0xbfd4567d79f85be4	-0.3177789393534438
22	0xbfcaf2ccb31e19c9	-0.21053465600944168
23	0xbfd3271734995dbc	-0.299260903707786
24	0xbfc02578ba513ac1	-0.12614354226612615
25	0xbfe1672128e75614	-0.5438390540027194
26	0x3f97ede85375b2ea	0.02336848267934758
27	0xbfce095ebf1bb725	-0.23466095286806268
28	0xbfe0a5644948d575	-0.520189421781352
29	0xbfe3c0b9f61ba624	-0.6172761732861471
30	0xbfbf866fc1affb29	-0.12314508894631317
31	0x3fb0ab8eb3d83203	0.06511775866255935
32	0x3fc100333400a2f5	0.1328186038893119
33	0x3fc33d0ff480d725	0.1503009742606817
34	0x3fc13ef2637d70d3	0.13473348482046407
35	0x3fbdd196308a25a1	0.11647928891229366
36	0x3fbea570cdf8f72d	0.11971192387224212
37	0x3fc0134219895a03	0.12558771368885865
38	0x3fc38ed719155f82	0.152796637771413
39	0x3fc28ba6f19c18c5	0.14488684460974902
40	0x3fc17c360dec6b38	0.1366031234727758
41	0x3fc2d2aa293b0a7b	0.14705397618498126
42	0x3fc34e0aec2f5b46	0.15081917316885035
43	0x3fc3c86b58b2087f	0.1545538123210157
44	0x3fc19b9fffbcefca	0.13756179797371565
45	0x3fc2d78838e6ba3d	0.14720251825697686
46	0x3fb268b85a0b74da	0.07191040228231618
47	0x3fb69dab5829adfe	0.08834334280407316
48	0x3fa48706fc2fc6be	0.04009267643404034
49	0x3fb45e04b4d5edb2	0.0795596066945368
50	0x3f9f40cdaaec0ec0	0.030520642812020382
51	0xbf7b33f75981df3d	-0.006641355714343264
52	0x3fac78932388e827	0.05560741242193528
53	0x3fa4b3876549b661	0.04043219672608412
54	0x3fb24b9ca893e01b	0.0714662467543125
55	0x3fa4488224c5b751	0.03961569498902285
56	0x3fab3f6275fa26ed	0.05321796121741138
57	0x3fadbefda75bc056	0.058097769431584
58	0x3f9e4c78e01ba6f1	0.02958859317633417
59	0x3fa40ac94cad0bd5	0.039144793138369195
60	0x3fb14090af78d1f3	0.06739143642409555
61	0x3fabfd0d65476dd6	0.054665011037026964
62	0x3f81c4c06872dd56	0.00867605513336282
63	0x3f969fff5271af0c	0.0220947164602157
64	0x3fbeca9ebabf13cf	0.1202792364047831
65	0x3fc03cb1bdcdc7c2	0.12685224311604598
66	0x3fbd8a5d05fab6b9	0.11539250751476517
67	0x3fb5d17e3ca002f8	0.08522786121467252
68	0x3fc0b6e2fcb64fe1	0.13058125819645652
69	0x3fc07cccae90d4c6	0.12880857967107867
70	0x3fc6bbc0bbef15a1	0.17760476280652163
71	0x3fc16c36232fb044	0.13611485212402574
72	0x3fbe268dcd0a6f37	0.11777578597906034
73	0x3fc655d6a52d3c63	0.17449458184498487
74	0x3fc00edb3eaf23d7	0.12545338211773924
75	0x3fc1368712861427	0.1344765510986303
76	0x3fc250a45523b5d8	0.14308599621965246
77	0x3fc3f7ddc85836b3	0.1560017803425829
78	0x3fb46149bb0012a6	0.07960949721752772
79	0x3fb5edbc69a6024c	0.08565881327923214
80	0x3fc990b74329917c	0.19972887782490634
81	0x3fccda7ab8c5f3b3	0.22541746160632456
82	0x3fcc6ed3a8ef87dd	0.22213216542064532
83	0x3fcb67ac083f2853	0.21410131838485089
84	0x3fcb62d483bcb6ec	0.21395355637053315
85	0x3fcc5e162223dfc4	0.22162129084585847
86	0x3fcb98395cff52f2	0.2155830101097745
87	0x3fcb47b3ef8ed171	0.21312569806253692
88	0x3fca57bcea34a290	0.2058025497037943
89	0x3fcb2eec6174da11	0.21236948736778108
90	0x3fcbd97de0e4df45	0.21757482033876321
91	0x3fcda3989e54417c	0.23155505877413052
92	0x3fce2dd3d10e323c	0.23577354152475205
93	0x3fcdabb15296b900	0.23180214436201396
94	0x3fcc3086386c2d60	0.22023084406860516
95	0x3fcc8f50a69c3071	0.2231236279989193
96	0xbff10ba3208a7944	-1.0653411170129212
97	0xbffa432fcf630a9a	-1.6414030171442051
98	0xbff549f1a5b51617	-1.3305527184433055
99	0xbff4187248954e28	-1.2559683642656498
100	0xbff69e5ddcee371f	-1.4136637334917805
101	0xbff6bb6411e41d90	-1.4207497309560928
102	0xbffd1494bf03cf7b	-1.8175246678847248
103	0xbffed1549eafbd4e	-1.9261060904207912
104	0xbff0dfdc37ad6720	-1.054653375138919
105	0xbff781fb296a186f	-1.469233667159212
106	0xbff0aebe550d5ca2	-1.042661983714233
107	0xbffbab5b217209d0	-1.729334955831849
108	0xbff670b48f51ddb8	-1.4025159452847742
109	0xbff93d2f612820e9	-1.5774377627549774
110	0xbff3dfdf3cffad60	-1.2421562559855701
111	0xbff0ba7858e4cfb3	-1.045524928323158

weight f8 [3, 16]
0	0xbfd2e2438dd9d30a	-0.29506005146622327
1	0xbfd57396192b1bef	-0.33517982919550965
2	0xbfd753a9c2941a5d	-0.36448139192399315
3	0xbfd3a0715210ebee	-0.30666764272945
4	0xbfd6dd08c238a75b	-0.35724085776256737
5	0xbfd44bbd2b334b11	-0.3171227380636746
6	0xbfd3319828271564	-0.2999019996753616
7	0xbfd454fd20023af7	-0.317687302835949
8	0xbfd4246559d21153	-0.31472142955342014
9	0xbfd5a5997538d929	-0.3382323879954066
10	0xbfd305b6d1a04e25	-0.2972237631922517
11	0xbfd27d65dae9724d	-0.2889036786853339
12	0xbfd68b162cda9866	-0.3522391737009286
13	0xbfd56fb81c6681c9	-0.334943797812255
14	0xbfd2d0fb414d7084	-0.29400521638104515
15	0xbfd5f0d1a4553cca	-0.3428234200300265
16	0xbfd4d7bae9f4c4e9	-0.32566712233808787
17	0xbfd5c4beb4b81a04	-0.34013335846285053
18	0xbfd4e2470e5875c4	-0.32631088639194794
19	0xbfd5197c0a86c9bd	-0.3296804526136404
20	0xbfd5e7fa3a07c9df	-0.34228377978356933
21	0xbfd69676795b82f5	-0.3529335198527826
22	0xbfd2a3e0f9cc0b58	-0.2912523688720987
23	0xbfd2909a72ecab51	-0.2900758859929527
24	0xbfd288bd9d3a689c	-0.28959598879158377
25	0xbfd5a9b2b1d182a8	-0.3384825455196201
26	0xbfd49998da0c389a	-0.3218748216030548
27	0xbfd3579042d2b555	-0.302219453102983
28	0xbfd5234584897aa4	-0.3302778047854338
29	0xbfd55cb7d3d3e6f0	-0.3337840622549342
30	0xbfd6c43e341f9628	-0.35572772112058937
31	0xbfd4d8f45b8341f2	-0.32574185311116743
32	0xbfd65fd42ce2708d	-0.34959892638449547
33	0xbfd5c082624045e2	-0.33987483591871925
34	0xbfd52daf46b1b20c	-0.33091337112162544
35	0xbfd5d59bc63e8e4e	-0.3411626277904575
36	0xbfd3a69f26c1a5af	-0.3070447805863194
37	0xbfd4542ba2232be4	-0.31763735612611144
38	0xbfd7bdd9e33de212	-0.37096259299826884
39	0xbfd5fc9fc329b160	-0.343543949688657
40	0xbfd6fe962c2626eb	-0.35928873359135477
41	0xbfd2d935b02459d3	-0.29450742913595923
42	0xbfd5f63b88cf25b2	-0.34315384254713444
43	0xbfd7afa608a2d807	-0.37009573787088396
44	0xbfd4c4ce0ce07017	-0.32451201684466596
45	0xbfd334a7a4b83bd2	-0.3000887974348504
46	0xbfd5448e42538eb1	-0.33230930783450235
47	0xbfd86a6d8129cc8c	-0.3814958344802981
