Retweet/Comparison_ModelsV6/Progressive_Random_finalV6.pt (torch, 23673 bytes, 6 tensors)

scale f8 [3]
0.5328881852153281 0.5300991425757583 0.4860327926268089
00000000: 8796 fd85 6b0d e13f 4904 207a 92f6 e03f
00000010: 8867 4749 291b df3f

weight f8 [112, 3]
-0.14881424311021954 -0.12764792602539704 -0.08547091116886862 -0.6884190643795972 -0.724257288484763 -0.4322310114274942 -0.6270612876538427 -0.5392658767253136
-0.3494625253703035 -0.7083275263480746 -0.6980919311969257 -0.4706888205393241 -0.3809867874329836 -0.3128629865937472 -0.3147064502293277 0.05785352317186756
0.11028738693177689 -0.19960216468008432 -0.26157222934255914 0.3083134410011507 0.03956584711208543 -0.23538556362400923 -0.23176832230977967 -0.10463290550173907
0.2928681521625801 0.3014467690589627 0.11412107990707962 -0.44703118993155405 -0.287996861727475 -0.15364453760003213 0.23308312371756426 -0.01745304149804266
-0.032966707950015474 -0.2662156229465309 0.017662274248070334 -0.02220195082816053 -0.40501710524645934 -0.23599730633553268 -0.1519138816469805 -0.2702450645314313
-0.06246589551445506 -0.023053640449258898 -0.06089559588815076 -0.09384011191179673 0.08265931706867118 -0.6113508800462683 -0.5125000156924551 -0.3224234635553053
0.12256508979402045 -0.3556501503886463 -0.39141257295641635 0.13484038475270319 -0.12220976123055614 -0.40160573889909834 -0.08166366251691329 -0.032404689806973856
-0.7050919338781271 0.0014872181281780639 -0.1069999114380849 -0.41051011026141493 0.056266033814726286 -0.02997589778643684 -0.361709147821123 0.02795319990613823
-0.1713405208906652 -0.4024138104012151 -0.2472605648113093 0.06334043052758255 -0.20795800867920447 0.4163123004024001 -0.6743514641500472 -0.833392486443373
0.13490253120140214 -0.17591949884296312 -0.287251372946067 -0.008361306431306592 -0.303714629460969 -0.8443076684751537 0.38041391774674715 -0.35712796561735993
-0.3051429155167576 -0.19191914912430097 -0.3947936439343965 -0.27790545750329093 -0.03628083193458643 -0.33752764535365737 -0.8385728067221844 -0.15193958251378284
-0.3544435369282312 -0.5995102173811907 0.19443960501457475 -0.7858249692189724 -0.5649622442521849 0.053472466033064124 -0.20986371416307642 -0.8387713470775605
0.07512491299709051 0.11294260622081263 0.4162332184523148 0.05181715112450531 0.07342151793361612 0.40615277417250584 0.06510439536819203 0.09530680558544201
0.3804724710448736 0.05737336290440855 0.04905735688641863 0.39592607647494704 0.09050982950801016 0.11045710030641426 0.42552475719965394 0.0821471370409931
0.08989483363733573 0.4365558970365226 0.08743975837382607 0.12139614284213862 0.4003681443762611 0.055176586375432546 0.0970402240153312 0.4212923105274401
0.07773559836102731 0.12388012609497971 0.4260180045240397 0.05965471591752315 0.0859109125034365 0.45290259780434416 0.08984129924877714 0.08143673937704547
0.43347872072549004 0.07682456513007505 0.08987724294841302 0.4145267219310285 0.07301903328634894 0.08530194809369147 0.42687879986101646 0.08181445534589639
0.07894822788823638 0.4180192367977936 0.06311472685232462 0.09686856672807158 0.4359888354199662 0.09115564359439984 0.09527504741313095 0.42406609162416015
0.07709101362367661 0.06608337347831553 0.032913318024014905 0.05680970686041589 0.05207189524578498 0.042070065320307694 0.054437741553810384 0.05172770836161767
0.03367109765255505 0.05261403413687724 0.049745914418435504 0.03438288921725403 0.06753445314676428 0.06685284159868914 0.05952252833311936 0.06884390661909844
0.0605577472527019 0.04433094079303153 0.06286788318792515 0.06906115887831372 0.03566093860034058 0.05290556899284602 0.06083376552300187 0.027045933655283367
0.08291273062506818 0.06390133361178042 0.05991031703124377 0.051951882148785496 0.07089306221600729 0.04948674101544144 0.0723379461767764 0.03819125547729332
0.034932837901444094 0.06739331728131048 0.053911880918437426 0.06803796945070383 0.04776021686279297 0.051410225786048466 0.037619737077814436 0.05063801561839579
0.076651271806787 0.054016294572347356 0.06941121520822434 0.05970395888368073 0.05351398619813622 0.058653987279049385 0.05151912176630553 -0.007993633480903267
0.06061961058187401 0.10139492907073695 0.4249962095208542 0.056679971432230594 0.07427686485445256 0.4057455982003418 0.05062222318898393 0.07850886499734297
0.38881502040586224 0.047218167937225865 0.0684028423289811 0.3901597226494552 0.08002713765869911 0.09085747008727775 0.41636534331412883 0.08269211447898794
0.10140410932397016 0.412232611988557 0.0715302796345453 0.0911644958790061 0.39579609771541313 0.06044280150366637 0.08844543059985685 0.42843892015012486
0.09483740628232712 0.10821824975674424 0.44243292891290176 0.07361946326860379 0.1147168212080135 0.45377571964321894 0.098601508116133 0.0927244099874062
0.41788292840983887 0.07744169115993181 0.11376449302123376 0.4166994432565671 0.05584754486281544 0.08823877803258118 0.4321115230736697 0.08987629384645852
0.09116017745289963 0.42928385118398127 0.08717087299497146 0.10503828674784796 0.4440073913625083 0.06594137488403314 0.08604985173486299 0.43076670683591933
0.1845897055146406 0.19943944548759965 0.27754716300900106 0.20538716469717416 0.191252748604412 0.25165005633292403 0.20162532404177833 0.22598747826763146
0.2854348477424735 0.2002497510600271 0.20622531614993095 0.2630868154843176 0.20422601606346721 0.1913390300905734 0.2526166978914135 0.19027841169230064
00000000: 792f ab59 580c c3bf 1635 d769 c456 c0bf
00000010: d8c7 3af0 6be1 b5bf 5781 ee6a 8707 e6bf
00000020: 71d0 fd9e 1d2d e7bf 4e7a 9942 aca9 dbbf
00000030: ebf2 61d5 e210 e4bf a449 0c83 aa41 e1bf
00000040: 4d27 6911 985d d6bf 9cb0 107d 9eaa e6bf
00000050: f1f3 c2e3 c456 e6bf 19ca b300 c41f debf
00000060: ade5 0e68 1662 d8bf 5223 e379 f205 d4bf
00000070: 4fd0 e485 2624 d4bf a38d f61b fa9e ad3f
00000080: 0285 0850 cb3b bc3f a181 c150 908c c9bf
00000090: cd5b a472 99bd d0bf 4719 814c 68bb d33f
000000a0: 3f17 c586 f941 a43f 519a db38 1d21 cebf
000000b0: 86de 489a 95aa cdbf 4626 37db 38c9 babf
000000c0: c601 e50f 5abe d23f 82f5 a563 e74a d33f
000000d0: 2630 fc01 0a37 bd3f 4112 43b5 289c dcbf
000000e0: c316 9e63 8a6e d2bf 47c0 19cc 9faa c3bf
000000f0: 2de8 cef4 aad5 cd3f af9e ccc9 35df 91bf
00000100: 3513 0129 03e1 a0bf e455 8f40 ad09 d1bf
00000110: 44e3 1229 0f16 923f 767e dbb2 1bbc 96bf
00000120: 1daa 56dd cceb d9bf cedd 53e4 2835 cebf
00000130: 98b8 bd00 ea71 c3bf 9758 84f4 b14b d1bf
00000140: 052b b3a4 87fb afbf f11b 229f 5f9b 97bf
00000150: 82bd 9e21 b52d afbf 56d2 b6d3 e705 b8bf
00000160: f306 8537 2929 b53f cdbe 85b8 2f90 e3bf
00000170: 9427 d36e 6666 e0bf a7b7 db05 96a2 d4bf
00000180: 5eef 4bfc 6c60 bf3f 6126 2fd9 f8c2 d6bf
00000190: 4fd3 0552 e70c d9bf 83b1 5821 7342 c13f
000001a0: 9fb9 bc8f 2349 bfbf 6048 9d8e e8b3 d9bf
000001b0: 0a1f c8e7 e8e7 b4bf ff7b eaf5 5897 a0bf
000001c0: 27c2 95f5 1c90 e6bf 8025 3e4e d85d 583f
000001d0: 342d 4da0 5864 bbbf 2602 9032 cc45 dabf
000001e0: 2142 38ce e6ce ac3f 42d9 a472 00b2 9ebf
000001f0: 7591 2320 3e26 d7bf 4762 a97d c39f 9c3f
00000200: d43d da76 7cee c5bf 1772 c8da 25c1 d9bf
00000210: 783f baf3 3ba6 cfbf 396a a115 1437 b03f
00000220: bdf6 1b37 5e9e cabf 4ca7 c958 dca4 da3f
00000230: ea17 9185 4994 e5bf 8434 40b8 26ab eabf
00000240: 9b2d d473 7c44 c13f a92e 21b7 8784 c6bf
00000250: 8b34 2295 5362 d2bf 73f5 648d bb1f 81bf
00000260: f180 367c 0f70 d3bf 059c fb83 9104 ebbf
00000270: c497 ea9d b358 d83f 9611 3441 2fdb d6bf
00000280: 4109 b026 7687 d3bf c485 7b82 ce90 c8bf
00000290: 517b 578f 4c44 d9bf c1d1 d6f8 33c9 d1bf
000002a0: e1ed 42b5 6693 a2bf d18c 928d 0d9a d5bf
000002b0: 89f9 85a3 96d5 eabf e9aa ee98 c172 c3bf
000002c0: 1ba9 d8f1 33af d6bf 5fa4 280d 302f e3bf
000002d0: 4ad9 4aa0 65e3 c83f 479f e567 7a25 e9bf
000002e0: 7636 51b3 2b14 e2bf 236c b239 be60 ab3f
000002f0: da47 796e d0dc cabf bda3 1002 37d7 eabf
00000300: 1cf6 6fe4 623b b33f 071c 0b80 cee9 bc3f
00000310: adbc 30a7 90a3 da3f 593d e712 c787 aa3f
00000320: 9cf9 58aa c0cb b23f 9a09 9034 68fe d93f
00000330: 31a7 ee80 aeaa b03f 4f61 13dd 0666 b83f
00000340: 62a0 0a35 a959 d83f d304 ac9a 0a60 ad3f
00000350: 0c26 e9be 0b1e a93f c8fb 8553 da56 d93f
00000360: 9b14 b4f5 a62b b73f 8c52 6da1 ea46 bc3f
00000370: 09e5 f330 cc3b db3f 9a14 0d43 9807 b53f
00000380: 5f3d 8d0a 5903 b73f af75 2925 88f0 db3f
00000390: 15f2 95b6 7362 b63f 7016 5e4f d113 bf3f
000003a0: 2a33 9db5 a19f d93f c08c f903 1b40 ac3f
000003b0: 31d8 8acc a0d7 b83f 6a62 f105 74f6 da3f
000003c0: 1213 b2ec 7ae6 b33f 8bc9 33a2 9bb6 bf3f
000003d0: 0e07 3c05 e143 db3f 42fb d51b 108b ae3f
000003e0: ff5f 92ef 41fe b53f 58f5 752d 5bfc dc3f
000003f0: 9f88 1ae2 d6ff b63f a339 51c4 09d9 b43f
00000400: 11c9 4188 1dbe db3f 265a c352 c6aa b33f
00000410: 873a 1eeb 3102 b73f 35c2 8016 9b87 da3f
00000420: af4d f317 60b1 b23f 65f5 5835 59d6 b53f
00000430: 1990 3075 fb51 db3f 31f9 0cca caf1 b43f
00000440: e66c db78 f335 b43f 4a4e c9c1 d3c0 da3f
00000450: 7d09 ba67 4928 b03f 9382 1bde 60cc b83f
00000460: 4131 63b7 3de7 db3f 8e72 15ec f955 b73f
00000470: aea5 c30c f263 b83f 5992 b71a e623 db3f
00000480: 3d45 5496 3cbc b33f 7212 e607 d7ea b03f
00000490: 0530 08b1 03da a03f 8425 1f72 2916 ad3f
000004a0: 1826 3ede 2aa9 aa3f c5f2 6125 358a a53f
000004b0: fa8e 487f 43df ab3f e19b 6bdf 0d7c aa3f
000004c0: 50ee 798e 563d a13f 5d66 db07 3af0 aa3f
000004d0: d7d6 12e7 4b78 a93f 49cf 7551 a29a a13f
000004e0: 5d5c 9e1b f049 b13f 33a0 4f90 441d b13f
000004f0: 44c8 21a1 bc79 ae3f 4f39 7517 c19f b13f
00000500: 1f88 f0cf 6c01 af3f 0a60 d089 8bb2 a63f
00000510: 79c9 420e 1c18 b03f 4564 cefa fdad b13f
00000520: fff5 108a 2642 a23f ad7a 3351 7016 ab3f
00000530: ebe0 d372 9a25 af3f 552b 28e2 edb1 9b3f
00000540: f6eb 74ca c439 b53f c18b 087a d65b b03f
00000550: b732 afa8 90ac ae3f 49e0 96e5 6f99 aa3f
00000560: bd25 bb37 0c26 b23f 4a6f 7e7c 5356 a93f
00000570: d3cc 1659 bd84 b23f b44b 89e2 cd8d a33f
00000580: 32b4 af88 b7e2 a13f b832 b13d b040 b13f
00000590: ab31 d28a 569a ab3f 2f51 adb5 ef6a b13f
000005a0: 107d f3f2 0674 a83f 1eb3 dcec 7052 aa3f
000005b0: a4dd dde8 e442 a33f 94db 07da 39ed a93f
000005c0: 8961 9bf1 6a9f b33f d056 4715 06a8 ab3f
000005d0: 4781 4bf3 eec4 b13f febb b16d 8491 ae3f
000005e0: 85fd 3269 2f66 ab3f 147b 493a e507 ae3f
000005f0: 99b8 35de b660 aa3f 2376 0353 f75e 80bf
00000600: 0c0c e499 8809 af3f 4dcc 56a0 04f5 b93f
00000610: e139 344d 2333 db3f 827f 473f 2805 ad3f
00000620: 9437 6601 cf03 b33f 190d b162 bcf7 d93f
00000630: c351 18f2 27eb a93f 2613 9c2f 2819 b43f
00000640: 548d 3565 58e2 d83f fd84 22ce fa2c a83f
00000650: a1a4 c142 d982 b13f dabb 3f7c 60f8 d83f
00000660: cb5e 0993 a87c b43f a145 9f66 6f42 b73f
00000670: 2d35 2ed3 baa5 da3f 0808 5377 4f2b b53f
00000680: 51f9 39a5 9ef5 b93f fe78 b5e4 0462 da3f
00000690: 5940 b4f3 ce4f b23f f04d 5b70 8e56 b73f
000006a0: 9c9d e427 b954 d93f 9746 79df 5bf2 ae3f
000006b0: a632 e817 5ca4 b63f c036 9813 8b6b db3f
000006c0: 0c89 6ba6 4347 b83f 8a1b 89f3 30b4 bb3f
000006d0: 96ae 1634 d250 dc3f 3f75 16a3 b9d8 b23f
000006e0: 17b6 63e3 145e bd3f 0e89 e550 a90a dd3f
000006f0: 18f0 b1cc f23d b93f 7bd2 6f74 c9bc b73f
00000700: 08ed c409 98be da3f 9ffb e0fa 37d3 b33f
00000710: 5ce3 f878 ab1f bd3f 6318 4324 34ab da3f
00000720: 96d0 7ea5 0c98 ac3f 8891 e309 d196 b63f
00000730: d1df f416 b7a7 db3f fd97 c1fe 2102 b73f
00000740: 3196 dbfc 4556 b73f f64f 62f9 6279 db3f
00000750: 255b ad90 d450 b63f b6ed 6806 cae3 ba3f
00000760: 4964 45fa 9d6a dc3f dd87 94b0 88e1 b03f
00000770: f6e1 06f3 5c07 b63f 9837 8485 ae91 db3f
00000780: 288c 2eae a2a0 c73f 2168 f353 3b87 c93f
00000790: ce28 0e2d 55c3 d13f 623e b269 204a ca3f
000007a0: e855 4356 f87a c83f 4422 7fd6 081b d03f
000007b0: 0305 67ce dbce c93f b984 3b5e 28ed cc3f
000007c0: 9854 0c86 9044 d23f e5df eaa9 c8a1 c93f
000007d0: be50 3c56 9765 ca3f 3de4 2015 6ad6 d03f
000007e0: 3f13 fefd 1324 ca3f d4fb 571e cc7d c83f
000007f0: 1c7f f739 df2a d03f 7837 ad01 0b5b c83f

bias f8 [112]
-0.2503717750843005 -0.7987338463208979 -0.6705524959079151 -0.7662885921372724 -0.4826306066076411 0.05898580131794819 0.05990474863766097 -0.276504738980459
0.39623558587933383 -0.37372651701068643 0.0768269448134747 -0.19735029559129183 -0.3306923738742238 -0.13699263273605503 -0.073427830930188 -0.6078458894962967
-0.27754047773386475 -0.012358509836140901 -0.13010972482187652 -0.08102035039573781 -0.03674284996849438 -0.1753957694240836 -0.17239132912047475 -0.27819925686246627
-0.08583043550268331 -0.28031866607510375 -0.13608453400623302 -0.5009619418233139 -0.32361696738169415 -0.3703899092388871 -0.46339097232971277 -0.16769544651264714
0.12721740666634782 0.0907849920493335 0.09763770474235607 0.07020043733174225 0.13074803993192988 0.12369320823138195 0.11492975375371307 0.10674550191745968
0.1297348865450342 0.14041803994781035 0.1255731786431167 0.12087060446269943 0.11661036749921007 0.0934567236984547 0.12805955044707673 0.10989425710782928
0.085397137489967 0.055166953369677973 0.06869776438780975 0.05160102694642931 0.057607389795553444 0.06013261943340451 0.06190158707422864 0.0671285821044652
0.05438613773864473 0.060814181570901606 0.06654100675994962 0.058475402948167526 0.069321533893122 0.05643595247124566 0.06492531676455851 0.05911358530123749
0.10363310960774935 0.10995838524113412 0.09343660270401738 0.0804563740948412 0.1175638913552955 0.12238613212580596 0.11659907968485077 0.1090060527657016
0.1433635276597924 0.11626956059618598 0.120233161212767 0.12103437414191784 0.12520556462751492 0.12898064335539164 0.1192232110372257 0.11907944679922254
0.21389825753563205 0.21883999930995848 0.22418131708755606 0.22183737873237258 0.20994068697393475 0.21989379867820788 0.19556753458667797 0.22203387651224676
0.22027929760956047 0.2012079410999149 0.21718351748254916 0.21401619140176284 0.2115982658413178 0.216918594923751 0.20836172743696763 0.21399859545587496
-1.2884535340880305 -0.8420016513932187 -0.9943026480473328 -0.837606192344228 -0.8305065605674342 -1.2068155014401503 -0.9116827273444212 -1.2322423049884668
-0.970234975732727 -1.1979430598128606 -0.840730974291796 -1.2026017348070421 -1.241565472822715 -1.1964739589381026 -1.249059330079513 -0.9926211049956352
00000000: c506 7556 1706 d0bf 6e02 8548 3a8f e9bf
00000010: 159f 0582 2a75 e5bf 04e1 50a7 6f85 e8bf
00000020: e46b db7b 6be3 debf b389 2d0f 6333 ae3f
00000030: a636 8cd0 d5ab ae3f ae0b c7ee 40b2 d1bf
00000040: a83d b780 ec5b d93f 635e 0da0 22eb d7bf
00000050: a5eb 6c3f eeaa b33f f9d3 b544 c642 c9bf
00000060: ace3 b458 102a d5bf 4578 b27e f988 c1bf
00000070: a71c 7694 2acc b2bf c3a0 0c39 7973 e3bf
00000080: fbb8 cb22 39c3 d1bf 6391 961c 6b4f 89bf
00000090: c731 807a 6fa7 c0bf 7d99 42eb bfbd b4bf
000000a0: 2bfa f375 f5cf a2bf c33f c45a 5e73 c6bf
000000b0: 55dc 5748 eb10 c6bf 20bb 7f41 04ce d1bf
000000c0: 3f47 7cc1 fbf8 b5bf ff0e d0b3 bdf0 d1bf
000000d0: 752a 86cf 376b c1bf 497f 9556 e107 e0bf
000000e0: df71 d5f0 23b6 d4bf 6fc3 bce0 77b4 d7bf
000000f0: 89bc da9b 32a8 ddbf 35df 3a5d 0b77 c5bf
00000100: 2794 8ef4 a848 c03f 3dcb d16b af3d b73f
00000110: 9594 b9dc c8fe b83f 0436 81e6 a7f8 b13f
00000120: f109 c30d 5abc c03f 8f52 17ac 5baa bf3f
00000130: d1a3 b54d 096c bd3f 4008 bb57 ac53 bb3f
00000140: 8d3b 6e1b 279b c03f f110 ace4 37f9 c13f
00000150: 2973 c32b c812 c03f 3c0d 373d 60f1 be3f
00000160: 319d c852 2dda bd3f c04c e0a3 c7ec b73f
00000170: 002a 8e5e 4164 c03f 17dd 4bb0 0722 bc3f
00000180: 2601 b138 96dc b53f e8df 15c9 d73e ac3f
00000190: e29c 5a3b 2d96 b13f 3f90 5926 736b aa3f
000001a0: 2d12 5c3e b77e ad3f 8d50 c7e3 b3c9 ae3f
000001b0: 4dce 1b98 90b1 af3f b4f9 c3b8 562f b13f
000001c0: 1cef e2f5 7fd8 ab3f 45c6 f551 0923 af3f
000001d0: 6c7c e0d7 d408 b13f 5ccb 90ee 7cf0 ad3f
000001e0: 77c1 fa58 0ebf b13f 1f7f 5d54 2ce5 ac3f
000001f0: 12ac 2f10 f29e b03f 667a 3cc7 2244 ae3f
00000200: 1c4e 8c10 b387 ba3f 9119 8894 3b26 bc3f
00000210: 1cf4 dc10 76eb b73f 41f9 7df7 c998 b43f
00000220: e5bd 8fcc aa18 be3f 80da f692 b254 bf3f
00000230: 4b79 fdf1 6fd9 bd3f 66da b117 d2e7 bb3f
00000240: c776 5e6f bc59 c23f a8e9 4788 d7c3 bd3f
00000250: 24b4 4db7 99c7 be3f 26a1 a1d6 1bfc be3f
00000260: 261b ad66 bc06 c03f 25a4 830e 7082 c03f
00000270: bb38 5490 6985 be3f f7e0 a099 fd7b be3f
00000280: f7b9 64a2 0461 cb3f 45e5 0bf8 f202 cc3f
00000290: 04f4 a130 f9b1 cc3f c6cb 57cf 2a65 cc3f
000002a0: b48f 5320 56df ca3f 1f43 f5e0 7a25 cc3f
000002b0: ccc4 9a62 5b08 c93f aab2 1c27 9b6b cc3f
000002c0: 5905 9cad 1c32 cc3f cc1c 5c8b 2ec1 c93f
000002d0: 70ad 6864 abcc cb3f 3f49 71ef e164 cb3f
000002e0: 10e2 d6e7 a615 cb3f 85bf 8b0f fdc3 cb3f
000002f0: 4238 8ada 98ab ca3f c0bb 6f54 4e64 cb3f
00000300: ed2d f573 819d f4bf 042e 7d72 adf1 eabf
00000310: 5310 76c9 53d1 efbf 1a75 6180 abcd eabf
00000320: b204 987e 8293 eabf 4fdc 6fc5 1d4f f3bf
00000330: 4ab7 4841 812c edbf 1cc5 0ab5 43b7 f3bf
00000340: 27a3 4638 2a0c efbf cfdc 8557 c62a f3bf
00000350: cd28 eaa4 44e7 eabf ebbe 1151 db3d f3bf
00000360: 85dc d9c1 73dd f3bf 0d7a c2e0 c124 f3bf
00000370: 6848 d7a2 25fc f3bf 01d2 e855 8dc3 efbf

weight f8 [112, 16]
-0.45264186737814155 -0.03716767252213113 -0.18264181004787836 -0.1194773639851882 -0.2804805420393465 -0.5639736430552957 -0.5504469191020465 -0.22848257247034948
-0.6379909082321202 -0.4372202369838169 -0.5091593192687242 -0.6054449686748845 -0.5467418046904663 -0.767480906107351 -0.6510112731173926 -0.08371702030137197
-0.9347658777298521 -0.5508440863869117 -0.4582098483577968 -0.6473870409604705 -0.7149230904610832 -1.0562036930722067 -1.0391286092383278 -0.48337472753017047
-1.1124833306973323 -0.44835691131253824 -1.0581449585653093 -0.6558538125670522 -0.45472462878733017 -0.4486965515102968 -0.46868020475078015 -0.4279015249718361
-0.9104232550567033 -0.5845380926154803 -0.4938890650422718 -0.5638285492447664 -0.7085450930459819 -1.0400721148956515 -1.0108891742197925 -0.45753323196174767
-1.100473428208023 -0.41948513152134714 -1.0184436411025555 -0.6368001690300298 -0.42447541096765434 -0.39997617648432177 -0.4302514382646216 -0.470297931976061
-0.8956019057671751 -0.4386203153257379 -0.43225037287406337 -0.4687492103043805 -0.7017069550375429 -1.0028909011553535 -0.9769382989640087 -0.462256936829234
-1.0790434244082914 -0.42468860390631175 -0.9937100197343829 -0.6188620865941888 -0.44718066182851324 -0.420578348357524 -0.42774133614254145 -0.4135556889956492
-0.6845583501652305 0.10136399030443459 -0.12435673879334606 0.017928158293789454 -0.38038838073008685 -0.7316741529561805 -0.7348927680278826 -0.4882147359090688
-0.828128646998212 -0.3786738194158693 -0.7551715754758761 -0.6079698624905818 -0.4423090419405115 -0.48787634575052974 -0.5479314075958219 -0.10031987871239786
-0.28532730226599945 0.30916870716182715 0.025973389948759886 0.18222687012643415 0.01593244167771105 -0.3275387381179536 -0.3496330488357376 -0.20012991643008282
-0.4061268436272112 -0.26928504425769867 -0.31563906669379366 -0.41003169391700534 -0.30247874478656767 -0.42141324873535446 -0.3916346376975093 0.04042424046577665
-0.31909883399694156 0.15174900569978225 -0.16132923938388816 0.02248197551938466 0.0012256343883195 -0.3265422308454956 -0.2744693127053079 -0.3989151792875646
-0.3814353774355264 -0.45811720668965267 -0.2816362122615613 -0.4788778103761823 -0.4622261122593248 -0.5927143908652343 -0.5499382102589072 -0.07985871952853162
-1.0198833680783175 -0.7868311680200917 -0.715579831463644 -0.7401217679960341 -0.9628772975748738 -1.1997140166508673 -1.164449768130467 -0.535712051316973
-1.2730514710610847 -0.5713922671093055 -1.1913695257372392 -0.6875882887813533 -0.5520668731838059 -0.5101802354192277 -0.4779082075972883 -0.6410026967078593
-0.1455751588102438 0.18881682195382282 0.011408733432469478 0.09394456934148357 0.06911869144610633 -0.15278072362788073 -0.13636520227689292 -0.14771036540442023
-0.20287439611142064 -0.15786608808119654 -0.13756382132924866 -0.2442776686946946 -0.15322350896513673 -0.181231800554794 -0.1959536510843855 0.0003642295811290737
-0.9728896051935702 -0.9201404294705801 -0.811452095904707 -0.8883720575678813 -0.8238079050513564 -1.1444329852787318 -1.1235315833420287 -0.4577320611260295
-1.228528357559393 -0.49400812450382875 -1.097130839313789 -0.6331337230846384 -0.4650174298914634 -0.4114292744343472 -0.44481345497261066 -0.7816579267022654
-0.3063485642557209 0.052544268158507094 -0.2454702237323735 -0.04245419739947103 -0.05731805335342028 -0.28089658043794524 -0.2710472809812584 -0.42935423488988017
-0.3292103902424987 -0.5226106260427378 -0.2468979518200303 -0.4856670984051349 -0.516034109346459 -0.6401718971090412 -0.5541449870824221 -0.162856248576368
-0.7413672804560767 -0.5118807647027561 -0.5052030107339304 -0.4920123240041581 -0.7159996528358669 -0.8375171391089679 -0.8438120394161102 -0.5395381317844767
-0.9216945536778024 -0.5463125559555274 -0.8461551689846263 -0.5200188565156795 -0.522678609816406 -0.5520915601081633 -0.5388063369035281 -0.5053754343185576
-0.9436150593650469 -0.8412454770684918 -0.7468144664606049 -0.8079395141483219 -0.8242602398849384 -1.1277481311136501 -1.0996543519719915 -0.4424344398499799
-1.1997736248940822 -0.5529288804739085 -1.0995652652156278 -0.610167125857914 -0.4786989699245843 -0.4084883179364428 -0.4397736480865697 -0.6945439594816994
-1.0480442851050658 -1.0002315258575953 -0.8372323320504773 -0.9432229458079382 -0.9851479731434705 -1.2222377107704188 -1.1781139303110915 -0.5320173227233276
-1.291229147001502 -0.6144965284988438 -1.178063176010393 -0.6752466709722 -0.5953366585009349 -0.47619631471245155 -0.47124315946445283 -0.7972534451489114
-1.0642424559455914 -1.0405051897047806 -0.8320330456900981 -0.9117686123906595 -1.1174855814542934 -1.2436450274296214 -1.2115807950132544 -0.6031519203128491
-1.310396614523449 -0.6214992126292114 -1.2249092427980675 -0.7145378085955286 -0.6013018894793732 -0.5896107056840727 -0.5273767196455108 -0.7736922541144668
-0.9478543415567409 -0.7659583209435353 -0.4976066243492995 -0.7425585510549696 -0.7418711659879242 -1.048892210748585 -1.0415339448370897 -0.43179696848983246
-1.1419757316853358 -0.4226304700881738 -1.0371104865582543 -0.643594591854308 -0.43153881198678995 -0.42587369020934635 -0.45201852114669905 -0.49523298789298625
00000000: 8f20 4c98 15f8 dcbf 4ce8 e623 a407 a3bf
00000010: 4fd9 848c ce60 c7bf 6bbd ed8a 1196 bebf
00000020: 4f4b cea8 64f3 d1bf a64f 1774 120c e2bf
00000030: 9c45 77db 429d e1bf 32a9 3bbc ea3e cdbf
00000040: ca12 c0e8 6b6a e4bf d7ab bf96 6afb dbbf
00000050: 33cf 167c 084b e0bf 5f90 7f20 ce5f e3bf
00000060: e10c 50ab e87e e1bf f922 011e 348f e8bf
00000070: 93ba eb97 15d5 e4bf 311e 5088 7a6e b5bf
00000080: c186 4821 9ae9 edbf d241 07c7 83a0 e1bf
00000090: 05b8 5966 4f53 ddbf 1ef1 1807 65b7 e4bf
000000a0: 73f0 9563 a6e0 e6bf 848d fad7 35e6 f0bf
000000b0: eb43 1052 45a0 f0bf 9b1e 9d8d 9cef debf
000000c0: 0a0b 2b52 bbcc f1bf 9777 c12f e1b1 dcbf
000000d0: c871 7768 29ee f0bf 3fd6 7d22 c1fc e4bf
000000e0: ddf2 5454 351a ddbf 1d24 a4bd 71b7 dcbf
000000f0: d5fa eb41 dbfe ddbf 7067 ea13 bd62 dbbf
00000100: a690 3ff3 2f22 edbf 3397 e13a 89b4 e2bf
00000110: 4859 8de1 e09b dfbf 33d6 712b e20a e2bf
00000120: ebf5 4bc2 66ac e6bf 8455 6fa8 22a4 f0bf
00000130: a678 7220 9a2c f0bf 06f8 0677 3948 ddbf
00000140: d153 8406 8a9b f1bf 6ab7 422a d8d8 dabf
00000150: 98ac 358f 8b4b f0bf ae47 82bf aa60 e4bf
00000160: a9fb 03ea 9a2a dbbf 6d79 4bad 3599 d9bf
00000170: 27d3 1954 3d89 dbbf ddab 4d7f 5c19 debf
00000180: 582b f053 c5a8 ecbf 2bdb 6bf1 5a12 dcbf
00000190: d762 cb77 fda9 dbbf f91e 12b0 fcff ddbf
000001a0: 3762 e824 6274 e6bf ffb0 5e54 d70b f0bf
000001b0: 4854 881b 1443 efbf f5f6 811e 9e95 ddbf
000001c0: 65c2 ac09 c343 f1bf 87bc 301c 192e dbbf
000001d0: 1eef 8ef4 78cc efbf e900 d5dc b7cd e3bf
000001e0: 2041 7da3 9b9e dcbf 0f7b e672 c1ea dabf
000001f0: af4a 7832 1d60 dbbf 6ae8 d347 b277 dabf
00000200: 6b3a c5e9 e6e7 e5bf e37f 598f fdf2 b93f
00000210: 3796 27de d7d5 bfbf 5d85 3256 c25b 923f
00000220: 56e7 c081 4858 d8bf 3ccf c8e9 df69 e7bf
00000230: b9e4 97d6 3d84 e7bf 0de7 0905 e93e dfbf
00000240: 199e f7a5 0780 eabf 3e86 8f1d 313c d8bf
00000250: b434 7194 5d2a e8bf a838 8b36 7d74 e3bf
00000260: 8303 7795 ca4e dcbf 9464 5fb5 5d39 dfbf
00000270: de68 8272 a788 e1bf 065c 3546 90ae b9bf
00000280: 20db f871 cd42 d2bf bb39 8d8b 6bc9 d33f
00000290: e7af 95b1 c498 9a3f e59e d2c7 3553 c73f
000002a0: 6906 ce0f 9850 903f 29f1 180a 65f6 d4bf
000002b0: b96a 964b 6360 d6bf 8c5b 026b db9d c9bf
000002c0: 6005 da71 fbfd d9bf ede0 9856 f73b d1bf
000002d0: 318c 3233 6e33 d4bf fa9b ec92 f53d dabf
000002e0: e6fa 25cf cf5b d3bf 72d8 5a46 6ff8 dabf
000002f0: 2810 39ba 8a10 d9bf e144 886d 7cb2 a43f
00000300: a759 0d84 1d6c d4bf b52d 57ec 826c c33f
00000310: e26b 85bf 6fa6 c4bf 58c1 6bd6 8305 973f
00000320: aa00 57e7 ae14 543f 62a2 8f62 11e6 d4bf
00000330: 13cb 74bc e790 d1bf 9ac1 3a88 d387 d9bf
00000340: 45df e7ed 6f69 d8bf 31e2 1dd5 ca51 ddbf
00000350: 1618 42e4 5306 d2bf 7721 961d efa5 debf
00000360: a1b4 e0d4 1c95 ddbf cf4f 942b 84f7 e2bf
00000370: b83f 7c04 1899 e1bf 3fec acfc 9e71 b4bf
00000380: 5d17 fa38 7151 f0bf 32d5 c38e b82d e9bf
00000390: 8b08 baac 07e6 e6bf a838 93d8 13af e7bf
000003a0: 60a3 e40c e4cf eebf a717 2153 0732 f3bf
000003b0: 4048 7f14 96a1 f2bf d757 8f99 8d24 e1bf
000003c0: 1350 2538 6b5e f4bf 167f 8d6f d848 e2bf
000003d0: 2be1 e77d d90f f3bf 67b6 ad27 b900 e6bf
000003e0: 0ef1 b025 88aa e1bf 041e 4680 6553 e0bf
000003f0: 85b3 874e 0c96 debf 0c42 6016 1883 e4bf
00000400: b699 19f1 34a2 c2bf 2ef8 9c4d 262b c83f
00000410: 6e93 d947 765d 873f b25e f554 c00c b83f
00000420: cca7 4d37 c3b1 b13f 7371 b899 518e c3bf
00000430: 2abc 0b3a 6a74 c1bf d699 585a 2ce8 c2bf
00000440: 4345 3fc8 c9f7 c9bf 9564 baba f434 c4bf
00000450: 8e67 dcf8 b09b c1bf 41ea 179b 7d44 cfbf
00000460: 6de7 fdf3 d39c c3bf 7263 3088 9a32 c7bf
00000470: b638 785d 0215 c9bf 55a3 a123 c2de 373f
00000480: 6f97 9d61 e921 efbf 91b6 8957 ca71 edbf
00000490: cdcd c562 6af7 e9bf 9ee5 bd3c 8b6d ecbf
000004a0: 1b38 4c65 a25c eabf d9c5 43f6 984f f2bf
000004b0: 40a2 e740 fcf9 f1bf 6e7c 376a 7b4b ddbf
000004c0: aad1 de59 0da8 f3bf 83f1 ac40 d49d dfbf
000004d0: 7492 2411 d98d f1bf 7195 54a7 a142 e4bf
000004e0: 310b 5d77 d8c2 ddbf 7e00 9473 db54 dabf
000004f0: 8166 7bda d277 dcbf 7a0d fb7b 5703 e9bf
00000500: 7ce9 2902 379b d3bf 7f84 aa12 15e7 aa3f
00000510: ad42 897b 916b cfbf 673b d17a 8ebc a5bf
00000520: 3924 3fb9 ca58 adbf 6382 a2a6 35fa d1bf
00000530: 96fd deb1 d658 d1bf a312 502f 8a7a dbbf
00000540: 5313 e674 c811 d5bf 1fa9 6ceb 39b9 e0bf
00000550: d919 4222 5a9a cfbf 4e2b 1974 2b15 dfbf
00000560: d56e e8f6 5983 e0bf fbd9 3cc6 497c e4bf
00000570: f15c 9844 8ebb e1bf fed8 ca3a 79d8 c4bf
00000580: 1244 fcdf 47b9 e7bf a231 fbc4 5361 e0bf
00000590: cb2c 1e81 9f2a e0bf 89ea 3442 217d dfbf
000005a0: ad13 9c1a 78e9 e6bf ffff 49be f0cc eabf
000005b0: 986c 281b 8200 ebbf 4eb2 de78 e543 e1bf
000005c0: bd51 9e93 857e edbf 2124 2778 647b e1bf
000005d0: 9c2b 4401 b413 ebbf 9b38 c195 fea3 e0bf
000005e0: de5d ef7d c8b9 e0bf 60fd 61eb bbaa e1bf
000005f0: 4e1a 7cc9 e63d e1bf 3533 531a 092c e0bf
00000600: 1b8d 7f35 1832 eebf ce58 7da2 7beb eabf
00000610: 7818 b473 e7e5 e7bf b438 cdf7 a3da e9bf
00000620: 985d b602 5760 eabf c821 d49f 410b f2bf
00000630: fdfa 6929 2f98 f1bf 4ee7 718a d850 dcbf
00000640: 1260 18d4 4532 f3bf 50c7 54e8 97b1 e1bf
00000650: f2b2 5ebf d197 f1bf 08ee 5435 7d86 e3bf
00000660: 591e 1d01 01a3 debf d271 952f ac24 dabf
00000670: dc29 0b5f 4025 dcbf c576 f340 b439 e6bf
00000680: 4893 9415 cac4 f0bf e9c8 bfc5 f200 f0bf
00000690: 8af0 a975 9bca eabf b89e 22e3 e12e eebf
000006a0: 8ae6 cb0a 5586 efbf 5226 3b21 498e f3bf
000006b0: de5e 1afe 8dd9 f2bf c611 4031 4906 e1bf
000006c0: 0037 e0e4 dfa8 f4bf e10e ad9f f4a9 e3bf
000006d0: 6d62 d9c5 58d9 f2bf 00df 11e8 9e9b e5bf
000006e0: cde2 cb76 ff0c e3bf e19a 8a1b 007a debf
000006f0: 3444 9711 d928 debf 8336 31a8 1983 e9bf
00000700: 0bd1 f418 2307 f1bf dd9a 11c5 e8a5 f0bf
00000710: 91c4 0dc4 03a0 eabf 0197 775e 352d edbf
00000720: 5290 a18f 38e1 f1bf bd4a 0a54 f8e5 f3bf
00000730: 9eb2 308b a262 f3bf d56c 8841 054d e3bf
00000740: 64ad c270 62f7 f4bf 4a6e 1751 52e3 e3bf
00000750: 552c 266f 3a99 f3bf b38b f564 7edd e6bf
00000760: 01c8 ca75 dd3d e3bf 3a1b 4945 17de e2bf
00000770: 4a93 7124 45e0 e0bf 90e2 1242 16c2 e8bf
00000780: 3a73 cba0 d254 eebf 59a6 5106 bb82 e8bf
00000790: ce9a 7674 c9d8 dfbf 01ae 8426 0ac3 e7bf
000007a0: c66e 7899 68bd e7bf e71b e332 43c8 f0bf
000007b0: 98fc 6b7f 1faa f0bf dd3f 8bc0 8fa2 dbbf
000007c0: 84a0 4658 8845 f2bf 9498 d4ab 600c dbbf
000007d0: 9cb3 612a 0198 f0bf f0b1 7caf 5398 e4bf
000007e0: 7707 1cf7 549e dbbf 3943 ebb8 8341 dbbf
000007f0: 12ba 6017 dfed dcbf b9a5 b9b3 e5b1 dfbf

bias f8 [112]
-0.26474228951347495 -0.8107440950480631 -0.6624759070518587 -0.7668837789742898 -0.4885519572832767 0.049252138377386324 0.06837063941030116 -0.27319907818690126
0.4209677853768555 -0.35103240119267404 0.07514100275595446 -0.20195496336569344 -0.33021484381202526 -0.14745973956172698 -0.07835595832703983 -0.5972226971980705
-0.2784426536371852 -0.006445649097096058 -0.13027502561489093 -0.0723220499372471 -0.042327401455612416 -0.18312522548558094 -0.19110839486504247 -0.2879757215259118
-0.07480255188081936 -0.27391869534061186 -0.100606555828864 -0.49694464557612955 -0.32269340179280265 -0.380542180023489 -0.4429816233268374 -0.15576449168815448
0.1253522497401332 0.10966664175957151 0.09048935127209955 0.09959045576507507 0.11823213741270354 0.11956740638499685 0.10809105534794052 0.1150110791741393
0.13465589235098882 0.1253538390957449 0.11116493307681563 0.11648759886070531 0.12391423749123896 0.12247561055146391 0.12114266105011534 0.10473203945354152
0.07128126935368023 0.06639707124389795 0.04525261450418215 0.053936809574935914 0.06823332868046707 0.06359811171174183 0.06048265156087208 0.07629427564459129
0.08653977861237476 0.06035567004699918 0.06757716505716055 0.07179596875393768 0.05321447574056554 0.059818173801202905 0.07048847996308917 0.05944432262753167
0.11593429302984533 0.1082827589781117 0.09983987520986687 0.06772181473022457 0.10050816986744558 0.13439838028612316 0.10209291218550201 0.10581048617482616
0.14347862050356341 0.14094328700586015 0.12168928033288798 0.14010272271264493 0.12065761125469371 0.11284137913688248 0.13077447571069728 0.09828971530157891
0.2298940843115386 0.2248182578694387 0.21926262515253842 0.22072286081637865 0.21456689932449324 0.2160012738118207 0.2121959443225364 0.2179930094220215
0.2090875853828418 0.20759302347889844 0.2070011065382961 0.18506917215069923 0.1932909557779259 0.19992797195254416 0.20276127153596413 0.21304136214845748
-1.2811389390434405 -0.8167242202702598 -1.0017124255396175 -0.8618325719250237 -0.8077211499331922 -1.219662062821743 -0.9000359466642547 -1.228093223803007
-0.9825739549024545 -1.1927364194687475 -0.8300538969499712 -1.1768652850550387 -1.2081219269000787 -1.1999348688765419 -1.2553773411678097 -1.0065969492484896
00000000: c706 d5a4 89f1 d0bf 6e02 b599 9df1 e9bf
00000010: 149f 65ac 0033 e5bf 03e1 d0d9 4f8a e8bf
00000020: ee6b bb6d 6f44 dfbf a589 2d87 9337 a93f
00000030: 2e1b 46fc bc80 b13f ae0b 87fc 177c d1bf
00000040: b53d b7dd 22f1 da3f 655e bd9a 5077 d6bf
00000050: 9feb 6cd5 703c b33f f9d3 7505 a9d9 c9bf
00000060: aee3 b470 3d22 d5bf 4078 72f3 f5df c2bf
00000070: ab1c 76d6 220f b4bf c2a0 1cc6 721c e3bf
00000080: fdb8 cb22 01d2 d1bf c822 2dc1 c066 7abf
00000090: c531 401f daac c0bf 8799 42a7 b283 b2bf
000000a0: 2ffa f3e9 efab a5bf c33f 44bb a570 c7bf
000000b0: 57dc f768 3d76 c8bf 18bb 7fb8 316e d2bf
000000c0: 4447 fc91 4226 b3bf 000f 9047 e287 d1bf
000000d0: cf54 0ceb 59c1 b9bf 91fe 2aea f0cd dfbf
000000e0: df71 d539 02a7 d4bf 75c3 7c96 cd5a d8bf
000000f0: 89bc 3a98 cf59 dcbf 3adf d642 17f0 c3bf
00000100: 2a94 8ee2 8a0b c03f 3fcb d1ef 1c13 bc3f
00000110: 9794 5964 4f2a b73f 1f36 8196 c27e b93f
00000120: cf13 861b 7644 be3f 8852 1734 f89b be3f
00000130: c9a3 b5fb daab bb3f 4608 bbb7 5d71 bd3f
00000140: 973b ee7e 673c c13f 0f11 ac37 980b c03f
00000150: 50e6 0618 4e75 bc3f 440d 7f9b 21d2 bd3f
00000160: 2f9d 88ed d7b8 bf3f ae4c e0c5 8f5a bf3f
00000170: 1c54 5c97 3403 bf3f 1bdd 4b0c b8cf ba3f
00000180: 2401 b140 7d3f b23f f1ef 8a01 66ff b03f
00000190: ee39 b5c6 592b a73f 5990 5902 9b9d ab3f
000001a0: 0109 2e4b bd77 b13f 3ba8 e341 f747 b03f
000001b0: 62ce db04 95f7 ae3f b4f9 c38a 0588 b33f
000001c0: 8377 f18e 7827 b63f 44c6 f539 f0e6 ae3f
000001d0: 6c7c e0b1 bc4c b13f 9865 c879 3861 b23f
000001e0: e882 f581 ed3e ab3f 1f7f 5dd8 7ca0 ae3f
000001f0: 11ac 2f74 880b b23f 667a 3c7b 7c6f ae3f
00000200: 154e 0cad dead bd3f 9119 883c 6bb8 bb3f
00000210: 14f4 dc26 1b8f b93f 52f9 7d83 3756 b13f
00000220: e7bd 8f46 e7ba b93f 346d fb53 f733 c13f
00000230: 3a79 fdd6 c222 ba3f 62da b161 6516 bb3f
00000240: c876 5ee7 815d c23f e5f4 23fc 6d0a c23f
00000250: 22b4 4d57 0727 bf3f 9dd0 10d2 e2ee c13f
00000260: 4c36 5ace 6ae3 be3f 4d48 0731 2ce3 bc3f
00000270: 621c 2ad0 37bd c03f efe0 c0c8 8329 b93f
00000280: f5b9 d45a 2b6d cd3f 42e5 8b3c d8c6 cc3f
00000290: 06f4 2136 cc10 cc3f c6cb 578e a540 cc3f
000002a0: b48f b39b ed76 cb3f 2143 7503 eea5 cb3f
000002b0: ccc4 9a98 3c29 cb3f a8b2 1ce7 31e7 cb3f
000002c0: 5905 9cca 61c3 ca3f cd1c 5c7f 6892 ca3f
000002d0: 75ad 6823 037f ca3f 3a49 f1bc 58b0 c73f
000002e0: 11e2 d60e c2bd c83f 87bf 8b62 3d97 c93f
000002f0: 4038 12d3 14f4 c93f c0bb 8f79 f044 cb3f
00000300: ef2d 4d8b 8b7f f4bf 022e fdd4 9a22 eabf
00000310: 2908 bb9b 0307 f0bf 1a75 e1e6 2194 ebbf
00000320: b204 6806 dad8 e9bf 4cdc ff5d bc83 f3bf
00000330: 4ab7 842f 18cd ecbf 1dc5 8a14 45a6 f3bf
00000340: 31a3 46ef 3e71 efbf cfdc a5c8 7215 f3bf
00000350: cd28 aa30 cd8f eabf e9be 71b1 70d4 f2bf
00000360: 88dc 59a8 7754 f3bf 0b7a b2e7 ee32 f3bf
00000370: 6848 078d 0616 f4bf 0069 1467 051b f0bf

weight f8 [3, 16]
-0.3104244527604473 -0.2994728071229443 -0.32740310344699164 -0.3202600720115782 -0.2974691657405653 -0.2945964379681863 -0.3222324048244364 -0.3009494400926528
-0.28806530283550147 -0.3075959481177119 -0.2915596531185692 -0.32417953714634445 -0.3212982789310054 -0.3246549982344903 -0.3078507750469989 -0.2959062538981888
-0.31503713045939086 -0.31736436866014767 -0.3166795218060589 -0.32166415014800026 -0.2926006797456794 -0.3022165011688744 -0.3041445539001547 -0.32433804946828987
-0.30658321426100194 -0.30795594703523876 -0.31700165074592646 -0.3146141480845428 -0.31717292898950267 -0.31824866679020675 -0.3296736309495947 -0.30305887901738127
-0.31698647653851014 -0.35650512417174385 -0.34655015594255995 -0.3450965297560985 -0.3368262611379464 -0.3314194403464137 -0.3192671833168324 -0.3184821702379236
-0.32134220643735184 -0.3078533213161348 -0.3254332131388019 -0.3095240418607762 -0.3156061459257822 -0.30507502372697615 -0.2961626643410118 -0.3185795528373468
00000000: 4207 1f86 fedd d3bf 6199 28fe 8f2a d3bf
00000010: 9e7a 7a25 2cf4 d4bf ff46 e019 247f d4bf
00000020: f924 9b1c bc09 d3bf 5dda a504 abda d2bf
00000030: 3aac 1baa 749f d4bf 1aa3 bc70 c142 d3bf
00000040: b69c b273 a96f d2bf 470d 63ea a6af d3bf
00000050: 0d8d bed1 e9a8 d2bf a3dc 8487 5bbf d4bf
00000060: a643 11a8 2690 d4bf ce9a f9c1 25c7 d4bf
00000070: db01 b8bc d3b3 d3bf 8a2c cbc8 20f0 d2bf
00000080: 3c52 167f 9129 d4bf c7e7 13a4 b24f d4bf
00000090: 8713 5e2f 7a44 d4bf 559a 4b3b 2596 d4bf
000000a0: 4ee2 9233 f8b9 d2bf 373d 35e1 8357 d3bf
000000b0: ba7d 10b8 1a77 d3bf 9f24 d460 f4c1 d4bf
000000c0: 653a b033 0f9f d3bf f600 48dc 8cb5 d3bf
000000d0: 4ad5 ae4a c149 d4bf e472 3861 a322 d4bf
000000e0: b4ee 4baf 8f4c d4bf b102 f7a7 2f5e d4bf
000000f0: a40d d26d 5f19 d5bf ba17 8911 5165 d3bf
00000100: 8375 80a5 8149 d4bf c823 4bde fad0 d6bf
00000110: 919b 8cb4 e02d d6bf 82fe 50c1 0f16 d6bf
00000120: 335f 01bc 8f8e d5bf 5cf9 62e2 f935 d5bf
00000130: 8909 c29f df6e d4bf aefb 610a 0362 d4bf
00000140: 1b44 dee6 de90 d4bf 4923 c16a deb3 d3bf
00000150: 8ea7 ddd3 e5d3 d4bf 8689 47ed 3dcf d3bf
00000160: dcbd ca1e e432 d4bf 5cf6 6e64 5986 d3bf
00000170: 0804 693f 54f4 d2bf d915 277e 9b63 d4bf
