Retweet/Comparison_ModelsV6/Random_Buckets_finalV6.pt (torch, 23625 bytes, 6 tensors)

scale f8 [3]
000000 15 31 03 de 68 2a e1 3f 61 2a f3 37 8f e6 e0 3f
       0.5364269577198991 0.5281444638033684
000010 20 4c e7 4f 60 2f df 3f
       0.48726661494328205

weight f8 [112, 3]
000000 ea a1 18 e6 48 8c e6 bf e3 aa 9b 13 f3 d1 e6 bf
       -0.7046246046129998 -0.7131286032648315
000010 f9 f9 6e 24 87 a1 da bf 00 da d9 0f 2a f6 d5 bf
       -0.4161088805957714 -0.34314967678020025
000020 62 53 7f df 51 af d5 bf 8b d1 74 30 7d b5 ac bf
       -0.3388256723967996 -0.056072151341513075
000030 bc 67 65 6e 27 63 95 bf c9 13 08 46 f4 60 cb bf
       -0.02088605510048301 -0.213896307177633
000040 3f 9c 14 7a d0 2d a5 3f f3 db b8 61 a2 69 d1 3f
       0.04136516084900465 0.27207240622686796
000050 a1 7f ee bb 94 cb de 3f 70 6e 3d 70 80 87 b0 3f
       0.48117559769343116 0.06456759205087237
000060 8b 3a 10 8a 4c 0d 94 bf e4 6b c4 9a 94 6b c2 3f
       -0.01958198158905104 0.1439080959033553
000070 15 99 ad 99 6e 68 64 3f ca 78 5d 2e 3e f5 c5 bf
       0.0024912033235750066 -0.17154671920702064
000080 02 89 22 2b 1f 67 ba 3f bd e7 68 83 87 d2 c1 3f
       0.10313601306055278 0.1392373458527895
000090 35 06 f8 4f 52 dd db bf bf de d7 ab 5c d0 d4 bf
       -0.4353833943315267 -0.32521740705076846
0000a0 2e ff 64 4c a4 79 be bf aa 01 71 af 0f 76 e3 bf
       -0.11904360642529063 -0.6081617762175047
0000b0 58 00 4e 13 f0 25 e5 bf 64 62 f5 bd c8 fa d0 bf
       -0.660881078438261 -0.26530664969098994
0000c0 4e 35 16 41 b8 75 c3 bf c9 c8 c5 c6 22 3e b8 3f
       -0.15203002145828254 0.0946981177601486
0000d0 79 55 ee 9f 8a dd bb 3f 22 3d 4d cd eb b2 e2 bf
       0.10884920506062724 -0.5843409547614196
0000e0 e1 51 74 11 0f 22 e4 bf 16 e8 69 48 47 46 cd bf
       -0.6291575756936788 -0.22870722804856375
0000f0 98 62 14 db 70 67 e2 bf c8 64 41 74 b8 8a e1 bf
       -0.5751270560168278 -0.5481836577047483
000100 81 25 e4 82 6f 8e d3 bf 6a c2 2a a7 37 de e1 bf
       -0.3055685785517071 -0.5583761467915569
000110 66 82 5d 4f 55 bc df bf b3 69 cc 77 8a ab c6 bf
       -0.49586994886889213 -0.17711001252685107
000120 d3 80 48 2d f2 b1 d5 3f cc 59 df 8d 5e 69 e8 3f
       0.3389859621256736 0.7628624697634279
000130 6c 08 49 78 fc b5 c0 3f d8 22 2b f6 68 f5 b2 3f
       0.13055377839379234 0.07405715951893954
000140 3f 6b 4a 37 44 d0 b2 bf a2 ac 7f 24 3a c3 c3 bf
       -0.07349039411421375 -0.15439535886921357
000150 7a a9 ea 1f d6 ec c0 bf e4 a8 60 0b d3 c5 9e 3f
       -0.1322276740878115 0.030051515168602175
000160 af 81 af 3b 42 42 c6 bf 32 58 79 5b ad 83 da bf
       -0.1738970557626209 -0.4142869370747376
000170 b2 c5 cd b2 9c ab cd bf ff db 13 a0 ed ad 73 3f
       -0.2317996857705516 0.004804542754974327
000180 8c 28 32 9b a4 4d b9 3f 0e 4c 1e 63 c0 d1 b3 bf
       0.09884098805392422 -0.07741930408364814
000190 95 3d ae 00 39 2d d6 bf 3f 4f 60 e5 92 99 d0 3f
       -0.34651017252414223 0.25937340164204054
0001a0 16 4b be 38 c7 8c dd bf 19 34 68 a6 89 2d f0 bf
       -0.4617174200185884 -1.0111176014208978
0001b0 25 e6 2d 00 69 2a c5 3f 97 b5 f2 a0 0f 7a e5 bf
       0.16535675534014263 -0.6711500304715398
0001c0 7d 6b 94 1d d3 89 c4 bf ca ee d5 06 aa 73 8a bf
       -0.16045607513737173 -0.012915924390419237
0001d0 c3 55 34 3e 41 7a b8 bf 4b 3e c5 6f ea a5 d6 bf
       -0.09561546105063372 -0.3538766948231326
0001e0 86 3d 88 87 c6 c5 ae bf 69 a7 d1 42 db 4d c7 bf
       -0.06010265736051239 -0.1820634914650399
0001f0 e6 85 7d 61 1d 90 d0 bf 51 18 e4 7b 5c 23 d1 bf
       -0.25879606743373385 -0.26778328036050875
000200 85 fe 06 d1 cc f0 d2 bf 7c 21 ed 40 57 f9 cf bf
       -0.2959472695619996 -0.24979677839497672
000210 46 a3 a4 23 5d 0e d0 bf 51 90 4e 81 be 69 85 bf
       -0.25087669831059534 -0.01045559723008452
000220 81 26 48 8e 61 2d d7 bf ba 14 a6 43 86 75 c3 3f
       -0.3621448411437101 0.15202406218683057
000230 9f 40 93 54 fa fb d3 bf 3f fc 12 4f f9 24 e1 bf
       -0.31225450763032286 -0.5357634109894959
000240 e5 5e fc ed ef e8 b0 bf 22 b4 3f eb 92 b3 e3 bf
       -0.06605433998299366 -0.6156706423477127
000250 92 99 3e 4e f1 d3 d1 bf f6 47 e9 d8 42 5c c2 3f
       -0.27856094971721135 0.14344058600778425
000260 bb f3 78 e9 09 3d d4 bf 67 7d 51 ab e1 72 e3 bf
       -0.3162255077366429 -0.6077736230908329
000270 80 a9 05 10 fc cf a2 3f 96 06 95 7f ef 26 9b 3f
       0.03674304671843043 0.026515714799876543
000280 f1 75 b7 e2 7b 3c da bf 76 04 9c e7 f8 5f a5 bf
       -0.4099416460065575 -0.04174783541930875
000290 6a 63 a1 d1 7e 5a d2 bf da f8 ea ef 24 66 e9 bf
       -0.28677340003701224 -0.7937187848945328
0002a0 b0 c6 ab f9 2c a3 c3 bf 43 10 a3 fa ac 93 ba 3f
       -0.15341722670523472 0.10381585234705519
0002b0 5a ee d9 31 57 8d d9 bf da 56 0c 56 5a a9 c4 3f
       -0.3992517458752666 0.16141823960850027
0002c0 0b 60 5a bd 03 99 d2 bf c5 93 64 ef 16 7a d6 bf
       -0.29058927051073685 -0.3512017572232334
0002d0 81 81 36 84 53 72 b3 bf a6 ee 7e c4 c0 a0 c7 bf
       -0.07596322992185912 -0.18459329218409443
0002e0 b9 e7 02 00 cb 12 da bf d8 9a ed c3 44 c2 cb bf
       -0.40739703179462655 -0.2168661076240912
0002f0 20 89 75 ec c8 9c d3 bf d1 84 52 76 66 d7 e6 bf
       -0.3064443883105401 -0.7137939749701677
000300 2d 50 a0 4f 11 08 ad 3f f4 c7 70 84 e3 b3 b2 3f
       0.05670217606544301 0.07305738433277026
000310 39 b4 78 58 d9 44 d8 3f 6e 36 f9 63 d7 39 b1 3f
       0.3792022098521702 0.06728883925208048
000320 af 4e 81 47 28 1e b8 3f b7 2f cd 7e b8 55 da 3f
       0.09421016450624607 0.4114819753929128
000330 d1 9f 1f a0 5e 9e b2 3f f4 21 b6 f8 58 1a b7 3f
       0.07272902879014899 0.09024578163201352
000340 5c 7c 79 e7 53 e8 d8 3f 3b 80 07 ae fc fb b6 3f
       0.38918016056954285 0.08978251694452492
000350 56 f3 ce f3 f8 f6 c1 3f cc 29 b2 47 02 24 dd 3f
       0.14034950165469223 0.4553228092342152
000360 a5 a0 dd a9 75 f8 b1 3f 63 07 23 9b d8 6b b9 3f
       0.07019744298088655 0.09930185115356731
000370 ec be d5 ed 22 8b da 3f c4 2e 9f 4a f0 9d b4 3f
       0.4147422144514923 0.08053495237180203
000380 f1 8d 83 cb 0f cc bb 3f d0 2d c3 af f7 e7 da 3f
       0.10858248442269038 0.42040817417429555
000390 e7 07 ef ca 60 f8 b1 3f 30 53 3b 7c be 3d b9 3f
       0.07019619898258576 0.09859838994027537
0003a0 86 37 5e 35 1e 86 d9 3f 3b c7 bd 86 16 e0 aa 3f
       0.39881091319772854 0.05249090571204681
0003b0 f8 93 7a 36 e4 a2 b4 3f 09 91 e1 37 c1 4b d6 3f
       0.08061052637147259 0.3483737035478645
0003c0 aa e0 d3 ad 93 42 b1 3f 00 42 81 9a 0f cf ba 3f
       0.06742213243330988 0.10472199937908755
0003d0 67 18 9d 84 51 fb d9 3f 91 5d 15 63 26 7e a9 3f
       0.4059642596297465 0.049790572734020995
0003e0 ce 3e 4b 89 42 ba b1 3f cb 7b b3 9c 87 68 d7 3f
       0.06924835063841359 0.36575498869745776
0003f0 f6 89 df 31 bd 56 b3 3f ff 8d 17 c9 4c 35 b9 3f
       0.07554228274924654 0.09846954259369765
000400 72 2c 08 1e 88 5e d9 3f cc cd cc 64 08 80 a9 3f
       0.3963947575836705 0.04980493765324531
000410 18 00 44 f2 b0 2c b8 3f f1 30 45 48 0f 01 d8 3f
       0.0944319335430922 0.37506467874187793
000420 99 6a c2 90 b0 dc b4 3f 69 96 0a f4 5f cd b9 3f
       0.08149245771566384 0.10079002101937252
000430 6e dc e8 bc 1a 13 da 3f ba d9 84 2b d7 23 a9 3f
       0.40741604278759425 0.04910156637417935
000440 d7 05 7e 63 6c 2f b6 3f 27 aa b4 34 d7 a1 d9 3f
       0.08666112355242404 0.4005029692367849
000450 97 92 35 4c 8c b8 b1 3f d4 08 cb 99 0c 99 b9 3f
       0.06922222958162148 0.09999159579004707
000460 9e 89 3e 76 d5 18 da 3f 77 c7 3c c0 bb 5d b2 3f
       0.4077657370309228 0.0717427582101474
000470 14 5c a9 fd 8b a5 ba 3f b2 b5 f3 39 28 96 da 3f
       0.10408854430112086 0.4154148641526617
000480 a1 65 49 5f 34 e9 af 3f 72 4f c1 72 41 1d ab 3f
       0.06232608473937807 0.0529575779516155
000490 81 f6 9a 12 d3 ff a0 3f 5c eb 91 28 70 97 b3 3f
       0.03320178606143732 0.07652951231459099
0004a0 8e 5b 78 5e 66 bb af 3f 39 14 9c 40 e4 4b 87 3f
       0.06197662261199986 0.011375220510226313
0004b0 36 26 d8 44 8c 03 b2 3f b4 4b d9 6a 97 ce ae 3f
       0.07036663704652643 0.06016991786295681
0004c0 36 f8 ee 80 a0 7e a3 3f 04 78 93 77 b3 98 b3 3f
       0.038075462092351506 0.07654878300988349
0004d0 83 83 f6 08 2b fb b0 3f 19 fc 4b 55 15 19 a8 3f
       0.06633252114126091 0.047066370641907614
0004e0 1d 6e d4 50 45 af b1 3f af ff 79 89 be 86 ad 3f
       0.06908066962608257 0.05766864231281887
0004f0 2c 98 10 05 63 89 a2 3f 8b 5c a9 67 b0 07 b2 3f
       0.03620442807032051 0.07042982607650765
000500 d3 6f 7b d6 0c 23 b4 3f 60 fe 33 c0 08 b3 a9 3f
       0.07865982281094767 0.05019404741505862
000510 5c a0 46 c3 23 7e b2 3f 88 3d 9d d3 dd ec b3 3f
       0.07223723905065199 0.07783304611552044
000520 43 ba 18 67 63 3a b2 3f 96 d9 5a 1d 3e e5 b0 3f
       0.07120343462950367 0.06599796501800478
000530 49 bf 31 c8 e3 8b af 3f 0f 5c 94 51 08 93 8a bf
       0.06161414927271253 -0.012975754727945014
000540 25 fd 70 19 21 46 b5 3f 09 fe 66 fc 9a c6 b4 3f
       0.08310133811118144 0.08115547811666358
000550 b9 af ed fe 1b 1c a7 3f 9a 92 47 c9 8f d1 a8 3f
       0.04513633238715848 0.048473828621159856
000560 60 8e b1 59 2c 0a af 3f 39 1d 67 e9 04 24 9a bf
       0.06062449068920439 -0.02552802729203771
000570 5d 1e d6 f7 ca 05 b0 3f 40 b5 3a f7 eb bf b3 3f
       0.06258839178746585 0.07714724336502332
000580 88 d2 79 3e 57 82 ab 3f b5 a6 a9 4d d6 8d a2 3f
       0.05372879636425859 0.03623838136702543
000590 5a df 3c bf 81 7a b3 3f b0 0c ff 4d c5 c2 8f 3f
       0.07608805579081715 0.015508214419133942
0005a0 2b 88 ac df a5 d2 b2 3f f5 c9 0b 80 62 a0 b1 3f
       0.07352673254766333 0.06885352731823231
0005b0 52 7f 8e 7b 7c ca ad 3f 57 03 f9 2b 6c 9b b1 3f
       0.05818547256717345 0.06877780984451697
0005c0 9f 0e b8 b1 ba 22 b3 3f 29 51 c9 eb 63 57 a3 3f
       0.07474867667047612 0.03777611020328415
0005d0 ff 7e cb ca 2d a9 b2 3f ee 6a d9 bb b5 4d ae 3f
       0.07289396477744602 0.059186629467793725
0005e0 7f 8d ed d6 f2 b8 9c 3f b6 f5 af aa 5f 53 b1 3f
       0.02804927288833658 0.0676784316746851
0005f0 6e a8 c4 ed 19 bf b4 3f 41 05 06 03 72 c3 97 3f
       0.08104097418677877 0.023206502375164865
000600 00 47 ea c9 6f bc ae 3f b8 a4 23 6a bd 0f b3 3f
       0.06003140773567672 0.07445892182626579
000610 5b 75 02 de 80 27 d8 3f bd 03 e1 65 6b 1b b0 3f
       0.37741109543443024 0.06291838872222306
000620 31 c7 ef cd c8 6c b5 3f 5d 4f f3 49 46 e6 da 3f
       0.08369116809606393 0.4203048441097417
000630 8f 8f 6f 37 e8 32 ad 3f 70 2e d6 73 e6 4c b7 3f
       0.05702901531893111 0.0910171540073692
000640 a2 ab 8c 22 b6 17 d9 3f 04 93 11 e7 2c b1 b7 3f
       0.3920722329518701 0.09254723206829502
000650 a0 ee 3f f7 43 a8 bf 3f de da d8 1f 9f 25 dc 3f
       0.12366127764101487 0.4397962389952407
000660 12 7b 61 71 69 43 b2 3f 9d 05 34 d8 f2 a3 bb 3f
       0.07134112375340987 0.10797040727995584
000670 30 8e 05 89 ec 62 da 3f 1d f2 d6 62 f7 fb b0 3f
       0.4122878397085712 0.06634470141484212
000680 2f 14 cb 7b 3b ee b8 3f d7 d9 e2 e4 79 c6 db 3f
       0.09738513729378505 0.4339890227523972
000690 44 6e 6c 88 56 83 ad 3f df 26 6d c3 c1 07 b7 3f
       0.057642654565111445 0.08996211072112768
0006a0 c2 37 91 20 40 fa d9 3f bb a9 90 f1 93 d8 aa 3f
       0.4058990781821842 0.05243360828201867
0006b0 93 57 69 aa 53 14 b5 3f 2d e8 ef 29 b0 91 d6 3f
       0.08234141264378385 0.3526420983831738
0006c0 88 c4 0f bd 05 fa b1 3f 7f 12 b3 88 34 07 ba 3f
       0.07022128930818117 0.10167244279279862
0006d0 41 57 42 7d d0 48 d9 3f fb 3a 5c 7e 1e a0 a1 3f
       0.3950692389711215 0.03442473690494371
0006e0 bb 33 7b 10 53 ea b1 3f 7e 28 0f 6a 04 a1 d7 3f
       0.06998175766348329 0.3692027126059044
0006f0 b2 b7 5d 43 c8 43 af 3f af be 4e 45 19 b1 b7 3f
       0.061064012740515664 0.09254606191711433
000700 31 f0 11 8e 91 48 d9 3f da b3 43 80 cb 9f aa 3f
       0.3950542342570343 0.0520003885338622
000710 40 1f 61 e2 75 29 b5 3f 5b 3e ef d1 e8 f8 d8 3f
       0.0826638868030587 0.3901922273771327
000720 a1 39 ca 34 00 18 ae 3f 8f df 89 18 a9 02 be 3f
       0.05877686161430807 0.1172280964764225
000730 ab 67 6c 9c c1 2e db 3f 80 da 97 d9 03 e1 af 3f
       0.42472877765396316 0.062263603507678233
000740 cf 57 06 c7 dc e3 bb 3f 72 a6 cb 09 7e ee d7 3f
       0.1089456544781051 0.373931417051245
000750 41 4b 12 f9 8c cd ae 3f 05 e5 d6 58 d7 7e b8 3f
       0.06016197719977479 0.09568544310504386
000760 be 3b af 56 c8 6a d8 3f 32 82 f9 e9 48 13 b5 3f
       0.381517491009557 0.08232551300307803
000770 f9 f3 ad 29 9a 54 bb 3f c2 cb 68 bd ef c2 da 3f
       0.10675967710081115 0.41814797875411724
000780 a6 76 cc ea 27 02 ca 3f 03 0c 0d 03 e8 c3 c9 3f
       0.2031907936552006 0.20129108571026685
000790 90 b1 15 b7 53 3e d0 3f c9 a2 b8 e1 26 8a c9 3f
       0.25380413894051745 0.19952856084389328
0007a0 8f 70 2e 24 79 ac c9 3f 50 46 4e c5 03 68 ce 3f
       0.20057596460981528 0.23754927763052303
0007b0 d7 a1 43 0d 2d 0c c9 3f ee 1b e2 6e 3c 98 c9 3f
       0.19568408153214875 0.1999583760664047
0007c0 7e f6 fa 6c 6f c8 cd 3f 1c d4 d3 c2 a1 78 ca 3f
       0.23267929860405795 0.2068063927942213
0007d0 70 a8 70 2c f3 a2 c9 3f 75 78 11 3d 7c ca cf 3f
       0.20028533620763112 0.24836686117027154
0007e0 c8 20 03 d0 a6 54 c9 3f e6 72 f7 d9 02 af ca 3f
       0.19789586216780308 0.20846591608906023
0007f0 9d 65 f6 0b 03 7c ce 3f 32 64 d8 06 78 d4 c9 3f
       0.2381595428858362 0.20179653486482746

bias f8 [112]
000000 25 9f e4 32 be 69 e9 bf 64 f1 ff b6 44 b4 d6 bf
       -0.7941580766682576 -0.35475271102020245
000010 3f 73 93 4f 44 da d0 bf 39 51 0b e7 22 3d e1 3f
       -0.26332195063678293 0.5387129318792524
000020 0b 94 da 94 7d 19 b5 3f eb 8e 6d 8f f2 62 99 3f
       0.08242020496489048 0.02479151726164634
000030 03 5d 3d f3 4d d0 dc bf c7 3b 4d 44 33 41 e6 bf
       -0.45021389726521494 -0.6954590162293862
000040 ea cf 11 a2 80 2b 97 bf 69 23 ae 03 47 ce e5 bf
       -0.022626886264745773 -0.6814303466681909
000050 69 87 a4 bd bf 59 e6 bf 9a 2a a8 6f 18 d5 e2 bf
       -0.6984556869467556 -0.5885126286314801
000060 b7 ca 6c e6 ce 1a e9 3f 00 0d fb f8 8f 3b b4 bf
       0.7845224857795391 -0.07903384998921936
000070 98 3b d7 01 d8 61 c0 bf c4 1c 07 71 19 c1 d2 bf
       -0.12798595514183542 -0.2930358508860531
000080 bb 65 ef f6 47 f5 7f 3f b9 00 fd 84 3a bd ce bf
       0.007802277671510034 -0.24014979833191832
000090 cd 82 83 51 e5 d9 da bf 14 7a 15 d9 b7 01 be bf
       -0.4195493026764268 -0.11721371698283917
0000a0 95 b6 0a 8e 4a cb c9 bf 51 bf 30 df e6 ea d7 bf
       -0.20151645599019177 -0.37371227069796925
0000b0 93 5c 76 cc cc ce c4 bf 90 94 be c4 0c 91 bf bf
       -0.1625610349990195 -0.12330703547793775
0000c0 30 89 90 b9 a3 7f e1 bf e5 02 7e e4 a8 62 c2 bf
       -0.5468309997852767 -0.14363585621688127
0000d0 e3 a2 15 e4 09 1c a3 3f 22 59 8d e0 f6 ac d0 bf
       0.037323292820308905 -0.26055690697593736
0000e0 ef 20 56 7f c8 89 be bf 94 d4 7d 57 9f c0 c2 bf
       -0.11928990467834287 -0.1465033700184547
0000f0 00 94 84 c3 50 33 c9 bf 5d 5d 2c 1b 6c 4a d6 bf
       -0.1968785242726483 -0.3482923760761503
000100 c4 5d 85 75 a7 bc ba 3f 55 ab 5f 80 4e ea bb 3f
       0.10444113368190872 0.10904398569225056
000110 97 dc 06 94 1e 2b bb 3f ab 03 e5 e6 fc 8b c4 3f
       0.10612670053420668 0.1605220916190125
000120 30 9a e5 14 88 25 bf 3f 6a 41 98 9e 55 57 bf 3f
       0.1216664362924369 0.1224263679689607
000130 fe ac d1 36 2f 87 bf 3f 94 b6 c6 c0 1e 8c b7 3f
       0.12315650070529569 0.09198181349230544
000140 8f 62 f6 06 a0 ee be 3f ea a4 b4 92 ef 21 ba 3f
       0.12082863016110877 0.10208031970673273
000150 4a 70 ef af 9d 0c b6 3f 56 fe 49 d4 ba 0a b8 3f
       0.08613000436111054 0.09391372378194637
000160 fb ce a8 40 cf 6b c1 3f 06 1b 31 ac 3a b1 b9 3f
       0.1361025872916953 0.10036055282499143
000170 c9 a9 5f 8c a3 bf bc 3f d9 8f c7 5b df f3 be 3f
       0.1122991769513312 0.12090869894706148
000180 ee 5f a2 31 f7 53 b2 3f f1 6e dd dd e8 cc aa 3f
       0.07159371339582751 0.052344586451651305
000190 f0 8b 63 c2 0b ea b0 3f 4f 68 c5 d8 cb a8 af 3f
       0.06607125755139953 0.061834688388174734
0001a0 35 f7 97 28 c9 08 b2 3f 2d ce 16 9b 6a 73 b1 3f
       0.07044656029753756 0.06816736494402482
0001b0 1e 87 dd 03 32 a6 a9 3f 7a 02 b9 6d 4d d0 a3 3f
       0.05009609505829203 0.03869859661472659
0001c0 04 b3 d4 84 b3 45 b5 3f 51 47 00 d9 1a 53 a8 3f
       0.08309480660382113 0.04750903986872735
0001d0 66 d7 42 83 e6 ff a7 3f df 5f df bf c0 05 a7 3f
       0.04687424042042103 0.04496576635546012
0001e0 1e 92 80 36 cb c3 b0 3f f8 ea 1e 39 a1 8b ae 3f
       0.0654875762998661 0.05965904066348132
0001f0 e9 13 60 1e 94 a2 b4 3f 1a e0 dc 27 a6 f4 ac 3f
       0.0806057523878533 0.05655402409178141
000200 b2 dd d4 f2 1d a7 b7 3f a1 48 c5 e3 0b 63 bb 3f
       0.09239375284675225 0.10698007880026462
000210 ab 37 28 be 7b 7c be 3f 77 40 92 80 a0 72 c4 3f
       0.11908696548945723 0.1597481372632534
000220 88 24 31 ff f6 a3 be 3f 4f 50 41 07 55 a8 c0 3f
       0.1196894047763114 0.13013708929304577
000230 e0 92 df a6 be fc bb 3f 38 f0 1c ba 01 70 b4 3f
       0.1093253285794833 0.07983408731246378
000240 3d b4 d4 87 89 68 bf 3f b3 c2 43 95 97 c2 b7 3f
       0.12268886152442433 0.09281299013287984
000250 2a e1 e2 65 ad 20 c0 3f fb b5 50 31 e4 e4 b7 3f
       0.1259972331515738 0.09333635524736643
000260 b1 6c 75 20 29 b6 c0 3f dc e7 81 7b ce 0f bc 3f
       0.13055910191437683 0.10961618914907895
000270 9d b8 24 3a ee 45 be 3f 20 7b 4f f4 3e b4 b9 3f
       0.11825455588834406 0.10040658440219064
000280 41 2d 83 8e 99 2a cc 3f ba 67 c7 e8 47 0e cd 3f
       0.22005004366506323 0.22699831834944267
000290 46 c5 77 f0 28 c0 ca 3f 50 21 8e 56 91 a0 ce 3f
       0.20898925534815244 0.23927513815238877
0002a0 fd 82 ef d7 40 54 c9 3f 8c b8 75 0e 77 5b ca 3f
       0.19788370650987722 0.2059162922482226
0002b0 60 07 48 39 0f a9 ca 3f 28 1b 5b a4 51 eb cc 3f
       0.20828428551618128 0.22593136334600072
0002c0 18 37 94 df 42 ec c9 3f 6c a4 42 16 0d d8 ca 3f
       0.20252262036267932 0.20971835696153407
0002d0 92 50 38 76 c9 33 cd 3f 6f a1 1c 2d cb 0b cd 3f
       0.2281429126020425 0.2269224138519905
0002e0 ec d5 9c 28 97 51 cd 3f 67 c3 a1 64 7f d2 ca 3f
       0.229052443342581 0.2095488778463974
0002f0 63 f8 16 7b ad 71 c8 3f ac 3a 13 a7 16 51 cd 3f
       0.19096916685333828 0.22903712423290778
000300 d2 33 f5 e1 16 bc ea bf 8d 54 db 63 f9 6f f3 bf
       -0.8354601300467215 -1.2148374462752003
000310 d8 a7 b0 4a 91 6e f5 bf 65 58 b5 b9 d8 b2 f1 bf
       -1.3394940297680389 -1.1061637167199703
000320 6a c5 20 69 dd be e6 bf 07 ad ef 7c 5a 8b f3 bf
       -0.710798936203145 -1.2215218429872168
000330 49 7c 61 f1 ee 4d f2 bf ed 43 cc 03 99 a0 ed bf
       -1.1440267018258672 -0.9258542131593664
000340 7f 1a 71 ed 1a b0 f3 bf d7 e8 68 76 56 98 ef bf
       -1.2304944300718998 -0.9873459160510504
000350 24 06 8c ba b0 73 ec bf ab 6d c9 33 35 f7 f1 bf
       -0.8891223567481501 -1.1228534720347436
000360 d7 d1 74 bf 15 8d f7 bf ed ca e6 b6 ed c0 f0 bf
       -1.4719445685160417 -1.047101702174298
000370 fa 6b 38 fd 3a ad f5 bf 15 52 11 ea 21 f6 f2 bf
       -1.354792584554842 -1.1850909369724196

weight f8 [112, 16]
000000 84 03 24 49 cc 29 e0 bf 1d 02 90 5a 17 bb d7 bf
       -0.5051022938279037 -0.37079414218900003
000010 45 ef bf 6e 9c fb e3 bf dc dc f9 c8 89 af f0 bf
       -0.6244642413216545 -1.0428560114503886
000020 00 7a 25 a9 a9 a5 ee bf e9 93 1c 13 f8 9c da bf
       -0.9577225021019444 -0.41583062998171144
000030 2b 19 72 e1 b0 e8 d9 bf de 19 69 4d af 19 d9 bf
       -0.4048273278825884 -0.3921926742517864
000040 16 5a 01 ac c2 64 e0 bf 33 4f ff 69 a0 ec d8 bf
       -0.5122998580434934 -0.38944254256533667
000050 7f ef de a6 3c 5b de bf 23 e1 8d 33 f2 cf d8 bf
       -0.4743186597440782 -0.3876920226534983
000060 52 40 9c a9 81 57 f1 bf f1 7b 4e 11 37 70 ec bf
       -1.0838638902096318 -0.888698133279716
000070 14 b6 6d 1b 16 3f ec bf 37 ee 47 2f c2 03 d7 bf
       -0.8827009711946538 -0.35960440270693844
000080 de fd b2 a9 5d e8 ed bf 88 ac 61 c1 28 ab e1 bf
       -0.9346149744450789 -0.5521434571250134
000090 cd 68 a3 96 c2 30 e7 bf 1f b1 b5 0e 3f 0a f5 bf
       -0.7247021619944235 -1.3150015425299626
0000a0 72 89 9d 42 e4 20 f3 bf f9 b8 3e ad 53 41 e0 bf
       -1.1955301859057639 -0.5079744704906083
0000b0 13 45 b0 ef 10 48 e1 bf e1 0c 60 dd 1d 58 eb bf
       -0.5400471383492537 -0.8545064281210238
0000c0 af 2d b7 d4 43 4b e3 bf d6 dd f0 81 c1 80 ea bf
       -0.6029376177406699 -0.8282172716052922
0000d0 1b 15 ec fd fc c6 e6 bf 8c 27 73 62 86 01 e6 bf
       -0.7117905578058158 -0.687686149868783
0000e0 4a b0 2b 7b 52 22 f5 bf 74 0e 38 07 f2 d1 f1 bf
       -1.3208794413904053 -1.1137562067023312
0000f0 0c 19 4a c7 02 97 f1 bf 76 cf fc 3f 89 33 e3 bf
       -1.0993678841346677 -0.6000410318142559
000100 3c b8 f6 9f fc 86 d9 bf 12 33 c4 cf 0f bb df bf
       -0.39886394139728387 -0.49579234399497907
000110 a9 19 e7 b7 d9 e1 e0 bf f2 b8 70 64 09 d0 ed bf
       -0.5275696365213679 -0.9316451036191025
000120 3d 2a 1f 8b 77 8b eb bf de 7d 76 01 33 b2 ea bf
       -0.8607747761937571 -0.8342528370448539
000130 22 6f 0e ad d3 4c e1 bf 19 71 c2 97 c2 0f dd bf
       -0.5406282787330137 -0.4540869218851796
000140 cc 9d f1 24 ec a1 e5 bf 9b 89 3d 0e e1 54 de bf
       -0.676015922695052 -0.4739306105676861
000150 bf 4f c8 f8 20 00 dc bf 3d 89 2e 4b a0 9f e0 bf
       -0.4375078610912588 -0.5194856136697933
000160 cc ca c5 55 9b 6e ee bf ef 60 d6 1d 4a dc e8 bf
       -0.9510018038984867 -0.7768908102762263
000170 7a 8a 50 98 b4 a0 e7 bf 96 26 d5 df ff e5 e3 bf
       -0.7383673643965516 -0.6218261119585857
000180 8f 2f 37 e3 9e 65 c9 3f e7 ac a0 47 2f 57 bb bf
       0.19841371626386858 -0.10679908274385107
000190 c8 dc da a1 87 16 cc bf 0d 0b ff e0 e3 fc cd bf
       -0.21943755534241505 -0.2342800949682772
0001a0 ed 13 fd a6 bc a8 c9 bf a2 67 38 1c e5 73 c8 bf
       -0.20046194223155514 -0.19103683355279794
0001b0 14 71 cb 6c a0 15 bc bf 42 c6 79 75 8e 6d 81 3f
       -0.10970499664421524 0.00850974365241364
0001c0 eb 78 0c 8c 77 6c d1 bf 06 25 9f 52 8b e0 a0 bf
       -0.2722452991164476 -0.032963136516238875
0001d0 4d 65 1b fc 09 da c8 3f dd 64 83 ec fe 1d bf bf
       0.19415402231133286 -0.1215514495301195
0001e0 4e d4 69 a2 a8 29 cd bf 9d a6 a5 ed 7e dd c3 bf
       -0.22783382349340048 -0.1551970157991506
0001f0 00 ac 41 6c 4a 9f c3 bf 3f c7 40 b5 c3 ec c4 bf
       -0.15329866682017723 -0.16347547865148646
000200 f8 5d 59 55 87 49 be 3f 81 f3 a8 b7 40 54 d5 bf
       0.11830945810049076 -0.3332673829607345
000210 aa 8a 62 cf 3e d4 db bf 76 28 43 c9 00 d7 d8 bf
       -0.4348294282191697 -0.38812274603390706
000220 6a 3f f3 8b a5 1b d5 bf f8 89 03 5b 1f 06 e1 bf
       -0.32981241862306965 -0.5319973733533621
000230 e7 be a5 fa be a8 d5 bf b0 45 1c ce 42 72 ac bf
       -0.33842443921365234 -0.0555592419242531
000240 cb 87 1f 33 76 d6 e4 bf c2 1e b2 f6 98 be ba bf
       -0.6511794088839847 -0.10447078726621853
000250 94 99 6e f2 bf 84 b5 3f 58 dc e4 4d d1 fb d4 bf
       0.0840568510890079 -0.3278697262462109
000260 49 b3 6d af ed ef da bf d5 22 0e bc b0 78 d1 bf
       -0.4208940709275351 -0.2729913555599926
000270 40 ce 08 d9 4f d1 d3 bf b2 40 a4 57 8b 4b de bf
       -0.30965038485303253 -0.473360858523857
000280 d2 65 e9 42 07 27 ef bf a9 4c ac e8 1c 65 e5 bf
       -0.9735142046803793 -0.6685928863902478
000290 c3 5d e2 4a 4b 36 e8 bf 94 80 7d 4c 55 e3 f4 bf
       -0.7566276991446376 -1.3055012691402554
0002a0 5e 52 cb f1 83 b3 f3 bf d7 d5 c7 12 2b 26 e2 bf
       -1.231327003964132 -0.5671592108544087
0002b0 c8 26 d2 2a d1 fc e5 bf 31 4e 98 f9 4d e5 ed bf
       -0.687111457476214 -0.9342412829304917
0002c0 a3 aa 87 d2 e1 6b e3 bf bb f5 0a 11 35 be eb bf
       -0.6069192039406811 -0.866968663489096
0002d0 ad ae 54 9a aa 4c f0 bf 68 21 4f 57 81 31 e6 bf
       -1.018717387060785 -0.6935431199317863
0002e0 dc 85 aa 40 0b 1d f5 bf b5 ff 4a a6 91 a2 f2 bf
       -1.3195908094424942 -1.1646896835154454
0002f0 d9 09 39 2d 87 09 f2 bf 1d cf 06 36 45 f0 e2 bf
       -1.1273261801257972 -0.5918298773962963
000300 a0 d2 57 9e 28 4c e7 bf 16 7d fb c6 12 4c e2 bf
       -0.7280467121732563 -0.5717862974524077
000310 85 3c 89 54 2d e5 e7 bf 37 af 2b 1b 09 3f f4 bf
       -0.7467257166953379 -1.2653895436623779
000320 52 0f 4d 99 e1 c3 f2 bf d4 da 1d a0 ed 50 df bf
       -1.1728225696869754 -0.48931446682347013
000330 3e 3f 2f e8 08 42 e1 bf ac 47 57 5f 48 93 e6 bf
       -0.5393108877997077 -0.7054788457992252
000340 fd db a5 86 fc f1 e2 bf 89 c7 da 20 45 cd e5 bf
       -0.5920393590776026 -0.6813073770228907
000350 24 09 96 ea 35 8c e6 bf ee 75 03 cf 40 0c e3 bf
       -0.7046155530700031 -0.5952457469208505
000360 eb 02 98 f9 f0 63 f4 bf 8b 90 40 2c ca 93 f1 bf
       -1.2743997335202788 -1.098581478939226
000370 d5 43 4b d9 ff 2c f1 bf b9 0b 8c 94 75 24 e1 bf
       -1.0734861839339278 -0.5357005978879591
000380 63 fe 99 28 e7 1e e4 bf 6f c4 3b e0 56 a1 d8 bf
       -0.6287723343848025 -0.3848473729877417
000390 bf a4 9f 87 fe 65 e3 bf ba 88 d0 ec 88 25 f1 bf
       -0.6062004708193384 -1.071663785035112
0003a0 3d 1a 76 62 f3 44 ef bf 1c 4d 76 6d 1a 9e db bf
       -0.9771668360779767 -0.43152485551509456
0003b0 4e 98 90 b9 cc 45 db bf bf 4d 8d 60 6b 6f dd bf
       -0.42613523599209635 -0.4599255030527409
0003c0 dc c0 7d f7 62 2e e0 bf 43 0e 60 9b d4 da da bf
       -0.5056624254048319 -0.41960635350571723
0003d0 2d 26 3e a3 0e 1d de bf c5 89 f1 b7 53 46 d9 bf
       -0.4705235094230343 -0.3949174209903073
0003e0 45 d8 fc 3d 71 8f f1 bf b7 31 a2 1a ae eb ec bf
       -1.0975201054948382 -0.9037695427119193
0003f0 f7 0a e1 ef df 70 ec bf 03 73 3d e7 21 fd d5 bf
       -0.8887786564958721 -0.3435749777034262
000400 b3 d2 49 8a 8d bb e9 bf da 0f 3e 2f f8 77 e3 bf
       -0.8041446400589706 -0.6083947107986163
000410 90 1e f1 35 69 d4 e3 bf 6e db f7 22 97 64 f1 bf
       -0.6196790746261787 -1.0870581975884437
000420 a8 b4 46 16 02 4b f0 bf a9 1e 7c b9 37 5e e4 bf
       -1.0183125372089226 -0.6365011809111439
000430 21 c7 59 01 38 15 e4 bf 24 e1 df 41 99 d7 ea bf
       -0.6275901819592243 -0.8388181959735772
000440 4f 13 2b f1 e6 22 e2 bf 8d 4a f2 6c 02 27 ea bf
       -0.5667605123822826 -0.8172618987903931
000450 77 c5 b4 9e 5b 44 ec bf 82 f8 6b 4c ac 7f e3 bf
       -0.8833444690446147 -0.6093350880253328
000460 cb 1b 5f f9 cf 8b f1 bf 8f c8 28 91 8f 0a ef bf
       -1.0966338864397922 -0.9700391612189082
000470 b1 a3 c4 48 2b d0 ed bf 26 ec b2 23 13 86 e1 bf
       -0.9316612645389936 -0.5476165482754183
000480 50 5b 79 b2 9c 81 e4 bf 01 17 d1 49 e3 cb d7 bf
       -0.6408217893430024 -0.3718193264834185
000490 b2 ec 39 4e fb 77 e4 bf 15 d6 cb e4 5b 5a f1 bf
       -0.6396461990219875 -1.084560292945189
0004a0 84 f3 fb 7d 2e 4a ef bf d3 a1 91 9b 0c 1c dc bf
       -0.9778053722981075 -0.43921199028275487
0004b0 50 d7 3b c3 80 20 db bf 25 c7 97 70 35 a9 e0 bf
       -0.4238588244037276 -0.5206553649024711
0004c0 aa 03 a2 0a 65 15 e1 bf 72 a9 7c 83 a7 4c de bf
       -0.5338616569207393 -0.47342861023448457
0004d0 63 8a 74 23 1d 5f e0 bf 63 ba f8 10 d2 b6 d9 bf
       -0.5116105740056124 -0.40178348214514
0004e0 b9 93 88 95 ab 0f f2 bf c0 e5 f6 71 52 64 ed bf
       -1.1288257447388175 -0.91849634417229
0004f0 7f b3 f8 b6 15 37 ed bf 2e aa af b7 50 2e d7 bf
       -0.9129742215787785 -0.36220186174492397
000500 7f b9 d1 df 2f 98 db bf 8f 3f a6 1d ff eb df bf
       -0.43116375787112554 -0.49877908606958327
000510 65 d2 32 3a 00 fd e6 bf b8 44 09 d8 38 69 f2 bf
       -0.7183838974656963 -1.1506889761842967
000520 af 34 42 09 c1 da f0 bf 41 ab 51 a9 4c 71 e1 bf
       -1.0534067498841002 -0.5450805003177736
000530 ef e3 96 ec 68 5f e1 bf cc 0d 4a 4c fd 81 db bf
       -0.5428967114340802 -0.42980892610668486
000540 3a f3 22 04 c0 f8 e3 bf 15 e6 e6 a3 e1 1c dd bf
       -0.6241149979392511 -0.4548877812008823
000550 ab 34 89 e9 34 42 e0 bf 30 a7 9d 7a 55 a8 de bf
       -0.5080818711518494 -0.4790242860241163
000560 63 ac 47 38 87 d2 f2 bf 99 2c b9 0d 9a ba ef bf
       -1.1763984869419566 -0.9915285366090699
000570 6d bb 9e 63 9d f8 ef bf 48 60 d4 c9 63 4a e0 bf
       -0.9990984864906359 -0.5090807859405766
000580 03 56 b2 02 77 b8 e8 bf c7 58 1c 28 78 ed d6 bf
       -0.7725176861446815 -0.3582439796167702
000590 67 c0 7a ee e0 6d e4 bf 22 9b e9 55 2e 53 f2 bf
       -0.6384129197886182 -1.1453078609426446
0005a0 ad 2b 39 c2 5f 85 f0 bf 3b 26 b4 50 1b 48 db bf
       -1.0325620257233183 -0.4262760437128212
0005b0 b7 d3 12 70 1d 64 db bf 7d d9 fd 3d b7 be e4 bf
       -0.42798553414041457 -0.6482807360433039
0005c0 26 1a 08 27 c3 6d e0 bf 0f 4a 16 84 e7 de e2 bf
       -0.5133987200104613 -0.5897100047898806
0005d0 b6 f2 a4 d3 75 df e1 bf e0 38 77 c5 b8 f5 dc bf
       -0.5585278638532916 -0.4524976662040796
0005e0 97 39 94 b3 d3 37 f2 bf d9 7e 08 0e b7 f7 ed bf
       -1.1386296286396822 -0.9364886545262961
0005f0 98 d9 9c ef 88 1c ee bf b2 11 2e c9 59 bf d6 bf
       -0.9409832649169401 -0.355429121460726
000600 36 37 ce c1 be ec c4 3f f9 9f 1b cb 56 58 be bf
       0.1634748884502472 -0.11853544672669604
000610 8a 5a f8 0c 5c 44 c6 bf 29 c3 b0 f4 5c a6 c8 bf
       -0.1739611686068268 -0.1925769991662716
000620 27 4e 05 aa 15 cd c5 bf 9b fd a2 8f 76 e9 bf bf
       -0.17032118608277466 -0.12465611464266717
000630 34 d3 b6 29 67 d7 b4 bf 53 45 bf a8 0f 65 a1 bf
       -0.08141178863918413 -0.03397416052724602
000640 d1 23 07 a8 5e 96 c9 bf ba fa de 68 96 aa a9 bf
       -0.19990142063605146 -0.050129604627263416
000650 df 0d 3a 38 e7 94 c4 3f 04 5b 3d c7 f6 28 b8 bf
       0.16079416509101827 -0.09437506069421536
000660 af d0 91 33 3a 26 ca bf 00 ff f2 99 a9 3c c1 bf
       -0.20429160612150585 -0.13466377274561836
000670 8b d5 d0 f2 4d 26 bd bf 38 89 70 a2 19 5b ba bf
       -0.11386573007697202 -0.10295257774172206
000680 e4 19 86 f2 85 77 ca 3f c3 5b f0 49 98 a8 d8 bf
       0.20677255956634533 -0.3852902147349903
000690 52 74 21 1a f2 7f e0 bf 88 0a 5c 8e b7 0c e0 bf
       -0.5156183729519717 -0.5015523701152498
0006a0 cd 25 70 aa 5a 22 db bf 05 5c dd 9a 25 f0 e7 bf
       -0.42397181171744763 -0.7480648064328085
0006b0 e7 59 7c 36 84 0a e2 bf f1 1a 93 d5 cd fe c0 3f
       -0.5637837471174948 0.13277600220154498
0006c0 d6 af 9b 3d 5a e0 e6 bf 18 d2 4c a2 88 cc 9d 3f
       -0.7148867800983634 0.02910054674721793
0006d0 6c af 50 ed 92 2d c8 3f 55 a7 7b a9 98 6b d8 bf
       0.1888908060803901 -0.38156715918613787
0006e0 6b 2a db a4 45 20 e1 bf 4b 1c 2f 86 c0 ba d5 bf
       -0.5351894588323608 -0.33952344039829957
0006f0 69 35 ee c1 eb 7c d6 bf 85 8d f1 c9 b9 c1 e1 bf
       -0.35137456835294373 -0.5548981613359706
000700 43 f3 ca 47 05 f0 c2 3f cb 25 8f 4e e5 1a cb bf
       0.1479498482275635 -0.21175829254052156
000710 20 7f d8 a8 16 45 e1 bf 61 f9 ed 2e 3e 7a e2 bf
       -0.5396836564795855 -0.5774222294419752
000720 f9 76 b8 45 3c 17 e0 bf 40 8d 82 97 21 31 e8 bf
       -0.5028363572816651 -0.7559974631480273
000730 53 3c 56 be 74 7b e2 bf a9 88 38 9b 64 18 b0 3f
       -0.5775703160778768 0.06287220754214452
000740 ac f4 a6 c8 e6 35 e6 bf b4 3f 18 ff 53 d6 90 3f
       -0.6940797728526795 0.01644259685968992
000750 7b e4 9a 45 69 e8 c1 3f f9 76 10 3d 53 1b d3 bf
       0.13990512751277948 -0.29854279483139085
000760 89 14 6b 04 8e 8b e3 bf a0 47 70 7b 8a c0 da bf
       -0.6107854925436565 -0.41800176672506417
000770 7e 0d ce d2 da ae d8 bf f1 29 db 50 34 38 e1 bf
       -0.3856722887651002 -0.5381108836384653
000780 1c ea 3d a2 ea b3 ef bf 43 a4 08 79 bf a9 dc bf
       -0.9907124680315209 -0.44786059207632806
000790 71 fe 0a 6a 70 61 e6 bf 43 9f 9f e8 f7 06 f4 bf
       -0.6993944235945958 -1.251701267896309
0007a0 d5 6b 26 91 08 59 f2 bf 06 51 a6 57 47 b7 de bf
       -1.1467366857457268 -0.4799364429429861
0007b0 11 d4 a8 96 8a af de bf d2 a9 74 08 ed a1 eb bf
       -0.4794641944202463 -0.863516346468993
0007c0 93 59 73 73 45 29 e2 bf 1b cc a4 94 0c 4a ea bf
       -0.5675379996198892 -0.8215392020414386
0007d0 e8 66 7e a4 77 a4 e4 bf 67 a4 e6 66 98 86 e5 bf
       -0.6450765812653261 -0.6726800927909949
0007e0 f5 1c d2 11 4c 49 f4 bf e1 ec 51 d4 d2 14 f1 bf
       -1.2678948112605302 -1.0675838750601587
0007f0 76 b1 e9 00 fa b0 f0 bf 6a d2 92 50 bf 88 df bf
       -1.0432071719797853 -0.49272139423854944

bias f8 [112]
000000 27 9f 04 cc 73 64 e9 bf 62 f1 ff c0 18 d8 d5 bf
       -0.793512247536431 -0.3413144955409476
000010 3f 73 d3 b1 5b ad d0 bf 3c 51 4b 4c 9f 21 e1 3f
       -0.2605809437352952 0.5353542795296913
000020 0f 94 da 50 0d be b1 3f 46 8e 6d a7 ce e8 92 3f
       0.06930621360750443 0.0184662141504204
000030 03 5d 3d e6 07 b9 dc bf c7 3b cd 86 44 6d e6 bf
       -0.44879338726373436 -0.7008383400769781
000040 f0 cf 11 52 f9 dc 9a bf 69 23 ce 36 9e f8 e5 bf
       -0.026233573564653 -0.6865988798536878
000050 6f 87 24 ea 4b 08 e6 bf 9c 2a 18 e5 93 b4 e2 bf
       -0.6885127614116139 -0.584543178033829
000060 b7 ca cc df 50 07 e9 3f f4 0c 3b 17 9a fd b2 bf
       0.7821430560200814 -0.07418215815691892
000070 3d 77 ae e1 55 33 bb bf c2 1c 07 33 0f cc d3 bf
       -0.10625206718256393 -0.30932979567701235
000080 a3 4c 88 44 05 01 80 bf 5d 80 5e c8 05 08 d0 bf
       -0.007814446596091712 -0.2504896599512046
000090 cc 82 83 80 b3 87 dc bf 0c 7a 15 65 89 8c bb bf
       -0.4457825427071327 -0.10761316984051222
0000a0 95 b6 0a fa e5 ce c9 bf 51 bf 30 e8 ec d7 d7 bf
       -0.20162653645586617 -0.37255404162259703
0000b0 95 5c f6 c8 4d 64 c3 bf 6e 94 be 0a a0 a0 bb bf
       -0.1514985305081821 -0.10791969549480182
0000c0 3c 89 d0 0e ba fc e1 bf ed 02 fe 75 0d a3 c0 bf
       -0.5621004380557575 -0.12997596989955387
0000d0 e4 a2 15 10 a7 01 a9 3f 1c b2 1a 75 c8 52 cf bf
       0.04884073325485419 -0.24471383779509004
0000e0 ff 20 56 83 dc 62 bb bf 97 d4 f7 15 5e d0 c2 bf
       -0.10697725492912367 -0.14698387215290573
0000f0 00 94 84 c3 5b a9 cb bf 61 5d 2c 75 78 6c d7 bf
       -0.21610590979358335 -0.3659955162306315
000100 c4 5d 85 4c c5 44 b8 3f 47 ab 5f 27 17 7c bd 3f
       0.09479935758769559 0.11517471991798543
000110 a7 dc 06 31 57 59 bc 3f ac 03 e5 e1 4e 28 c2 3f
       0.11073822924560038 0.14185510663994927
000120 17 cd 72 3e 44 5d c0 3f 61 41 98 b4 67 9a bd 3f
       0.1278462700771363 0.11563728484202819
000130 f7 ac d1 da fb f3 bb 3f 9a b6 c6 9c 6d 20 b8 3f
       0.10919164745580533 0.09424481465858961
000140 93 62 16 91 d9 cc bf 3f de a4 b4 72 3f 6a b5 3f
       0.12421951095746868 0.083652463440234
000150 54 70 ef 6f 3e 5b bf 3f 4d fe 49 6a c7 92 be 3f
       0.12248602135463332 0.1194271692747801
000160 f8 ce a8 ab c0 ed c0 3f 05 1b 31 80 54 a7 ba 3f
       0.1322556341343597 0.10411575441058225
000170 c9 a9 3f ad 7d a0 bd 3f cd 8f c7 7b c6 28 be 3f
       0.11573014716819964 0.11780968210183503
000180 ee 5f a2 c3 f2 2f b2 3f 73 b7 ee 56 3b 3f b1 3f
       0.07104413295962761 0.06737109062552608
000190 e0 17 c7 3d 9c 7a ad 3f 2e b4 62 e6 7f 7e b5 3f
       0.057576067486976745 0.08396148085258012
0001a0 35 f7 97 20 17 97 b1 3f 79 9c 2d fa e9 c5 ad 3f
       0.06871170564405989 0.05815058878834462
0001b0 98 c3 ee 6d ed 23 b6 3f af 02 b9 dd 9e 36 ae 3f
       0.08648570951369405 0.05901047188354391
0001c0 05 b3 54 04 4e 08 b2 3f 6d 47 58 86 c4 5a ab 3f
       0.07043922048314862 0.05342687740279826
0001d0 a7 6b a1 d4 16 25 b1 3f e0 5f df 6b c1 7c aa 3f
       0.06697218600440512 0.05173305932811423
0001e0 1e 92 80 a5 a4 a6 b1 3f 66 75 8f c4 bf ad b4 3f
       0.0689490226801088 0.08077620076024558
0001f0 b2 27 c0 90 51 d1 ad 3f 08 70 ee bd 1d 42 b2 3f
       0.058237599296333 0.07132135283467289
000200 c3 dd d4 02 17 1b bd 3f a0 48 c5 7d 0f 02 bd 3f
       0.11369460887077935 0.11331269093105556
000210 af 37 28 a7 b7 73 bb 3f 71 40 12 fa 12 e5 c2 3f
       0.1072344573114765 0.14761578760635843
000220 8e 24 31 ca 31 8b bd 3f a7 a0 82 8d 55 cc bd 3f
       0.11540518938376662 0.11639914231148173
000230 e2 92 df a4 9e a0 b9 3f 3f f0 1c a6 d8 1a b2 3f
       0.10010711217143922 0.07072214179510271
000240 3b b4 d4 da cc 74 be 3f b4 c2 83 1b 15 21 b7 3f
       0.11896972982931768 0.09034854814286569
000250 53 c2 c5 37 71 51 bf 3f fe b5 50 82 56 d5 b5 3f
       0.12233646022446835 0.085286528411153
000260 b1 6c a1 73 05 f0 c0 3f e8 e7 81 8f 2b 22 b9 3f
       0.1323248686411254 0.0981776452407811
000270 9d b8 24 b8 71 f9 be 3f 23 7b 4f cc 05 4a bb 3f
       0.12099371667565824 0.10659824598358773
000280 41 2d 83 71 5c 15 c8 3f ba 67 c7 51 fd c2 ca 3f
       0.1881518892535983 0.20907560818778653
000290 47 c5 77 65 ac 97 cb 3f 51 21 8e c7 f0 6d cc 3f
       0.21556620554432923 0.22210511917024658
0002a0 fb 82 ef 5c a4 27 ca 3f 88 b8 75 48 59 59 cd 3f
       0.2043347791468689 0.22928920782164064
0002b0 60 07 48 ee b2 f0 cb 3f 28 1b 5b fc 6f 7f cc 3f
       0.21828304896194606 0.22263908216538053
0002c0 18 37 94 f0 e0 fd ca 3f 6a a4 42 d6 c8 8c cc 3f
       0.21087276217479523 0.22304640256814717
0002d0 92 50 38 bc 98 09 cd 3f 70 a1 1c ed 8c 81 cd 3f
       0.22685536566189463 0.230516067292466
0002e0 ed d5 9c c9 57 fb ca 3f 68 c3 21 6f 95 e3 ca 3f
       0.21079537720076705 0.21007030416833605
0002f0 5f f8 16 85 85 b2 cc 3f ae 3a 13 7c 2d 6a cb 3f
       0.22419804571649402 0.21417778547625715
000300 d2 33 85 5c ce 7e ea bf 89 54 8d a9 b9 02 f3 bf
       -0.8279792601621188 -1.188165342629221
000310 d7 a7 14 bf 25 63 f5 bf 72 58 f5 f9 a8 2f f2 bf
       -1.336705919655733 -1.1366357578276873
000320 6b c5 88 89 50 d7 e6 bf 07 ad 6f ad 7d 81 f3 bf
       -0.7137835203376829 -1.2191139960148705
000330 41 7c e1 07 2c d7 f2 bf ec 43 0c 6f 3e 2c ed bf
       -1.177532225403198 -0.9116508644966621
000340 7f 1a 04 ce 26 70 f3 bf d7 e8 c8 33 19 36 ef bf
       -1.2148807570935387 -0.9753538142606669
000350 24 06 0c d5 ed 83 ec bf aa 6d 49 a2 95 f2 f1 bf
       -0.891104618174897 -1.1217247332886964
000360 d7 d1 d4 7b 47 0c f7 bf ed ca a6 a5 d4 30 f1 bf
       -1.4404978596841056 -1.0744215460551303
000370 f3 6b 58 cb 58 eb f5 bf 18 52 79 9a fe 2b f3 bf
       -1.369957727735479 -1.1982408556115214

weight f8 [3, 16]
000000 67 8e 68 01 74 92 d3 bf 17 0d 08 45 12 0a d3 bf
       -0.3058137906793718 -0.2974897073874713
000010 15 f8 3e 86 f8 3c d4 bf 21 5c ae e5 66 5f d2 bf
       -0.31622136220892233 -0.2870728724460055
000020 67 9f 90 f1 c0 6c d3 bf 38 60 4e 76 49 f5 d4 bf
       -0.3035127982170622 -0.3274711280187179
000030 d6 8e ad da 36 73 d4 bf 7a 61 3e 5a d4 d3 d3 bf
       -0.3195321212317429 -0.30980404675349116
000040 8e 49 fb 81 c2 a2 d4 bf 71 1f 8d e5 cf 30 d4 bf
       -0.3224340695716358 -0.31547925393214543
000050 b2 03 1f ed f9 0f d4 bf b0 d8 55 0e f7 14 d5 bf
       -0.31347511440622633 -0.32940460586486164
000060 2c c5 3e 19 6c 7b d3 bf 86 d1 21 48 03 04 d3 bf
       -0.304408096936714 -0.2971199230589935
000070 ab 83 06 fe 59 67 d3 bf 7f bc 6c 57 83 1f d5 bf
       -0.303183076926923 -0.3300484040982567
000080 7b 9f 93 d1 d9 02 d4 bf 6c a0 ee 19 9e 87 d4 bf
       -0.31267400232763237 -0.3207774403804311
000090 5f d3 5b 40 71 ba d4 bf 43 6b f5 45 c0 96 d2 bf
       -0.3238795403006431 -0.29045111495877424
0000a0 3f 3e d6 46 30 7b d3 bf e8 55 c1 81 45 62 d3 bf
       -0.30439383428253913 -0.30287301703842084
0000b0 c6 01 71 6f 64 13 d4 bf ff ae 3f 50 fc d3 d5 bf
       -0.31368361361458275 -0.34106357418816907
0000c0 84 6b 67 4f 3f b5 d3 bf f0 38 7e 8c 62 19 d6 bf
       -0.3079374576024565 -0.34529937477135686
0000d0 5e 30 b8 b8 cf 13 d3 bf 14 36 eb af 56 1b d5 bf
       -0.2980841926480532 -0.3297936170536968
0000e0 96 fd f4 32 41 61 d2 bf a3 42 35 79 a3 b0 d3 bf
       -0.28718595482129083 -0.3076561626121849
0000f0 66 3b a3 f4 eb f4 d2 bf 43 ea 8b c7 28 b7 d3 bf
       -0.2961988343276317 -0.3080541561791145
000100 9b f9 66 d9 01 d0 d5 bf ae 1c 19 48 2f fe d3 bf
       -0.34082075339019874 -0.3123892025073002
000110 dd 2e cf 14 21 d2 d3 bf 8c 19 f7 02 04 0d d5 bf
       -0.3097002700057894 -0.32891941346715536
000120 99 70 7d 6b ed bd d4 bf f2 89 b3 f9 00 47 d3 bf
       -0.32409224984236 -0.3012087286462296
000130 db 11 8c 91 f0 e9 d4 bf f6 37 ff 8a 48 53 d5 bf
       -0.32677854741657847 -0.33320821355744046
000140 57 ab af 29 b3 ec d2 bf 19 a7 e5 00 33 55 d5 bf
       -0.2956970126239659 -0.3333251484642559
000150 42 3b da 3e 07 0f d6 bf 53 80 e5 ba 29 7d d4 bf
       -0.3446672548097248 -0.3201393437539128
000160 70 47 a3 06 38 fd d5 bf af f5 8d 6f 9a 92 d5 bf
       -0.34358025215362087 -0.3370729531669338
000170 0a dc 7b 73 a6 4c d5 bf 4a 69 8a 6e 7a d4 d2 bf
       -0.3328033569118253 -0.2942186431406709
